…
2020-01-08 14:41:32,984 [INFO] Reading complete. time_to_read=0.00 seconds
2020-01-08 14:41:32,984 [INFO] Reading HDF dataset ../Datasets/small_datasets/nsl_kdd_five_classes/y_test.h5
2020-01-08 14:41:32,987 [INFO] Reading complete. time_to_read=0.00 seconds
2020-01-08 14:41:33,176 [INFO] Initializing model
2020-01-08 14:41:33,850 [INFO] _________________________________________________________________
2020-01-08 14:41:33,853 [INFO] Layer (type)                 Output Shape              Param #   
2020-01-08 14:41:33,853 [INFO] =================================================================
2020-01-08 14:41:33,853 [INFO] dense_36 (Dense)             (None, 64)                7872      
2020-01-08 14:41:33,853 [INFO] _________________________________________________________________
2020-01-08 14:41:33,853 [INFO] batch_normalization_29 (Batc (None, 64)                256       
2020-01-08 14:41:33,853 [INFO] _________________________________________________________________
2020-01-08 14:41:33,853 [INFO] dropout_29 (Dropout)         (None, 64)                0         
2020-01-08 14:41:33,853 [INFO] _________________________________________________________________
2020-01-08 14:41:33,853 [INFO] dense_37 (Dense)             (None, 64)                4160      
2020-01-08 14:41:33,853 [INFO] _________________________________________________________________
2020-01-08 14:41:33,853 [INFO] batch_normalization_30 (Batc (None, 64)                256       
2020-01-08 14:41:33,853 [INFO] _________________________________________________________________
2020-01-08 14:41:33,853 [INFO] dropout_30 (Dropout)         (None, 64)                0         
2020-01-08 14:41:33,853 [INFO] _________________________________________________________________
2020-01-08 14:41:33,853 [INFO] dense_38 (Dense)             (None, 64)                4160      
2020-01-08 14:41:33,853 [INFO] _________________________________________________________________
2020-01-08 14:41:33,854 [INFO] batch_normalization_31 (Batc (None, 64)                256       
2020-01-08 14:41:33,854 [INFO] _________________________________________________________________
2020-01-08 14:41:33,854 [INFO] dropout_31 (Dropout)         (None, 64)                0         
2020-01-08 14:41:33,854 [INFO] _________________________________________________________________
2020-01-08 14:41:33,854 [INFO] dense_39 (Dense)             (None, 64)                4160      
2020-01-08 14:41:33,854 [INFO] _________________________________________________________________
2020-01-08 14:41:33,854 [INFO] batch_normalization_32 (Batc (None, 64)                256       
2020-01-08 14:41:33,854 [INFO] _________________________________________________________________
2020-01-08 14:41:33,854 [INFO] dropout_32 (Dropout)         (None, 64)                0         
2020-01-08 14:41:33,854 [INFO] _________________________________________________________________
2020-01-08 14:41:33,854 [INFO] dense_40 (Dense)             (None, 64)                4160      
2020-01-08 14:41:33,854 [INFO] _________________________________________________________________
2020-01-08 14:41:33,854 [INFO] batch_normalization_33 (Batc (None, 64)                256       
2020-01-08 14:41:33,854 [INFO] _________________________________________________________________
2020-01-08 14:41:33,854 [INFO] dropout_33 (Dropout)         (None, 64)                0         
2020-01-08 14:41:33,854 [INFO] _________________________________________________________________
2020-01-08 14:41:33,854 [INFO] dense_41 (Dense)             (None, 64)                4160      
2020-01-08 14:41:33,854 [INFO] _________________________________________________________________
2020-01-08 14:41:33,855 [INFO] batch_normalization_34 (Batc (None, 64)                256       
2020-01-08 14:41:33,855 [INFO] _________________________________________________________________
2020-01-08 14:41:33,855 [INFO] dropout_34 (Dropout)         (None, 64)                0         
2020-01-08 14:41:33,855 [INFO] _________________________________________________________________
2020-01-08 14:41:33,855 [INFO] dense_42 (Dense)             (None, 64)                4160      
2020-01-08 14:41:33,855 [INFO] _________________________________________________________________
2020-01-08 14:41:33,855 [INFO] batch_normalization_35 (Batc (None, 64)                256       
2020-01-08 14:41:33,855 [INFO] _________________________________________________________________
2020-01-08 14:41:33,855 [INFO] dropout_35 (Dropout)         (None, 64)                0         
2020-01-08 14:41:33,855 [INFO] _________________________________________________________________
2020-01-08 14:41:33,855 [INFO] dense_43 (Dense)             (None, 64)                4160      
2020-01-08 14:41:33,855 [INFO] _________________________________________________________________
2020-01-08 14:41:33,855 [INFO] batch_normalization_36 (Batc (None, 64)                256       
2020-01-08 14:41:33,855 [INFO] _________________________________________________________________
2020-01-08 14:41:33,855 [INFO] dropout_36 (Dropout)         (None, 64)                0         
2020-01-08 14:41:33,855 [INFO] _________________________________________________________________
2020-01-08 14:41:33,855 [INFO] dense_44 (Dense)             (None, 5)                 325       
2020-01-08 14:41:33,855 [INFO] =================================================================
2020-01-08 14:41:33,856 [INFO] Total params: 39,365
2020-01-08 14:41:33,856 [INFO] Trainable params: 38,341
2020-01-08 14:41:33,856 [INFO] Non-trainable params: 1,024
2020-01-08 14:41:33,856 [INFO] _________________________________________________________________
2020-01-08 14:41:33,856 [INFO] Training model
…
