…
2019-12-24 12:27:15,327 [INFO] Reading complete. time_to_read=0.08 seconds
2019-12-24 12:27:15,328 [INFO] Reading HDF dataset ../Datasets/full_datasets/ids2017/y_test.h5
2019-12-24 12:27:15,410 [INFO] Reading complete. time_to_read=0.08 seconds
2019-12-24 12:27:18,346 [INFO] Initializing model
2019-12-24 12:27:18,918 [INFO] _________________________________________________________________
2019-12-24 12:27:18,921 [INFO] Layer (type)                 Output Shape              Param #   
2019-12-24 12:27:18,921 [INFO] =================================================================
2019-12-24 12:27:18,921 [INFO] dense_85 (Dense)             (None, 128)               10112     
2019-12-24 12:27:18,921 [INFO] _________________________________________________________________
2019-12-24 12:27:18,921 [INFO] batch_normalization_59 (Batc (None, 128)               512       
2019-12-24 12:27:18,921 [INFO] _________________________________________________________________
2019-12-24 12:27:18,921 [INFO] dropout_59 (Dropout)         (None, 128)               0         
2019-12-24 12:27:18,921 [INFO] _________________________________________________________________
2019-12-24 12:27:18,921 [INFO] dense_86 (Dense)             (None, 64)                8256      
2019-12-24 12:27:18,922 [INFO] _________________________________________________________________
2019-12-24 12:27:18,922 [INFO] batch_normalization_60 (Batc (None, 64)                256       
2019-12-24 12:27:18,922 [INFO] _________________________________________________________________
2019-12-24 12:27:18,922 [INFO] dropout_60 (Dropout)         (None, 64)                0         
2019-12-24 12:27:18,922 [INFO] _________________________________________________________________
2019-12-24 12:27:18,922 [INFO] dense_87 (Dense)             (None, 32)                2080      
2019-12-24 12:27:18,922 [INFO] _________________________________________________________________
2019-12-24 12:27:18,922 [INFO] batch_normalization_61 (Batc (None, 32)                128       
2019-12-24 12:27:18,922 [INFO] _________________________________________________________________
2019-12-24 12:27:18,922 [INFO] dropout_61 (Dropout)         (None, 32)                0         
2019-12-24 12:27:18,922 [INFO] _________________________________________________________________
2019-12-24 12:27:18,922 [INFO] dense_88 (Dense)             (None, 64)                2112      
2019-12-24 12:27:18,923 [INFO] _________________________________________________________________
2019-12-24 12:27:18,923 [INFO] batch_normalization_62 (Batc (None, 64)                256       
2019-12-24 12:27:18,923 [INFO] _________________________________________________________________
2019-12-24 12:27:18,923 [INFO] dropout_62 (Dropout)         (None, 64)                0         
2019-12-24 12:27:18,923 [INFO] _________________________________________________________________
2019-12-24 12:27:18,923 [INFO] dense_89 (Dense)             (None, 128)               8320      
2019-12-24 12:27:18,923 [INFO] _________________________________________________________________
2019-12-24 12:27:18,923 [INFO] batch_normalization_63 (Batc (None, 128)               512       
2019-12-24 12:27:18,923 [INFO] _________________________________________________________________
2019-12-24 12:27:18,923 [INFO] dropout_63 (Dropout)         (None, 128)               0         
2019-12-24 12:27:18,923 [INFO] _________________________________________________________________
2019-12-24 12:27:18,923 [INFO] dense_90 (Dense)             (None, 78)                10062     
2019-12-24 12:27:18,924 [INFO] =================================================================
2019-12-24 12:27:18,924 [INFO] Total params: 42,606
2019-12-24 12:27:18,924 [INFO] Trainable params: 41,774
2019-12-24 12:27:18,924 [INFO] Non-trainable params: 832
2019-12-24 12:27:18,924 [INFO] _________________________________________________________________
2019-12-24 12:27:19,066 [INFO] _________________________________________________________________
2019-12-24 12:27:19,066 [INFO] Layer (type)                 Output Shape              Param #   
2019-12-24 12:27:19,066 [INFO] =================================================================
2019-12-24 12:27:19,066 [INFO] dense_91 (Dense)             (None, 64)                2112      
2019-12-24 12:27:19,066 [INFO] _________________________________________________________________
2019-12-24 12:27:19,067 [INFO] batch_normalization_64 (Batc (None, 64)                256       
2019-12-24 12:27:19,067 [INFO] _________________________________________________________________
2019-12-24 12:27:19,067 [INFO] dropout_64 (Dropout)         (None, 64)                0         
2019-12-24 12:27:19,067 [INFO] _________________________________________________________________
2019-12-24 12:27:19,067 [INFO] dense_92 (Dense)             (None, 12)                780       
2019-12-24 12:27:19,067 [INFO] =================================================================
2019-12-24 12:27:19,067 [INFO] Total params: 3,148
2019-12-24 12:27:19,067 [INFO] Trainable params: 3,020
2019-12-24 12:27:19,067 [INFO] Non-trainable params: 128
2019-12-24 12:27:19,067 [INFO] _________________________________________________________________
2019-12-24 12:27:19,067 [INFO] Training model
…
