…
2020-01-14 17:44:58,453 [INFO] Reading complete. time_to_read=0.12 seconds
2020-01-14 17:44:58,453 [INFO] Reading HDF dataset ../Datasets/full_datasets/kdd99_five_classes/y_test.h5
2020-01-14 17:44:58,499 [INFO] Reading complete. time_to_read=0.05 seconds
2020-01-14 17:45:49,962 [INFO] Initializing model
2020-01-14 17:45:53,687 [INFO] _________________________________________________________________
2020-01-14 17:45:53,689 [INFO] Layer (type)                 Output Shape              Param #   
2020-01-14 17:45:53,690 [INFO] =================================================================
2020-01-14 17:45:53,691 [INFO] dense_73 (Dense)             (None, 128)               15872     
2020-01-14 17:45:53,691 [INFO] _________________________________________________________________
2020-01-14 17:45:53,691 [INFO] batch_normalization_55 (Batc (None, 128)               512       
2020-01-14 17:45:53,691 [INFO] _________________________________________________________________
2020-01-14 17:45:53,691 [INFO] dropout_55 (Dropout)         (None, 128)               0         
2020-01-14 17:45:53,691 [INFO] _________________________________________________________________
2020-01-14 17:45:53,692 [INFO] dense_74 (Dense)             (None, 64)                8256      
2020-01-14 17:45:53,692 [INFO] _________________________________________________________________
2020-01-14 17:45:53,692 [INFO] batch_normalization_56 (Batc (None, 64)                256       
2020-01-14 17:45:53,692 [INFO] _________________________________________________________________
2020-01-14 17:45:53,692 [INFO] dropout_56 (Dropout)         (None, 64)                0         
2020-01-14 17:45:53,692 [INFO] _________________________________________________________________
2020-01-14 17:45:53,692 [INFO] dense_75 (Dense)             (None, 32)                2080      
2020-01-14 17:45:53,692 [INFO] _________________________________________________________________
2020-01-14 17:45:53,692 [INFO] batch_normalization_57 (Batc (None, 32)                128       
2020-01-14 17:45:53,693 [INFO] _________________________________________________________________
2020-01-14 17:45:53,693 [INFO] dropout_57 (Dropout)         (None, 32)                0         
2020-01-14 17:45:53,693 [INFO] _________________________________________________________________
2020-01-14 17:45:53,693 [INFO] dense_76 (Dense)             (None, 64)                2112      
2020-01-14 17:45:53,693 [INFO] _________________________________________________________________
2020-01-14 17:45:53,693 [INFO] batch_normalization_58 (Batc (None, 64)                256       
2020-01-14 17:45:53,693 [INFO] _________________________________________________________________
2020-01-14 17:45:53,693 [INFO] dropout_58 (Dropout)         (None, 64)                0         
2020-01-14 17:45:53,693 [INFO] _________________________________________________________________
2020-01-14 17:45:53,694 [INFO] dense_77 (Dense)             (None, 128)               8320      
2020-01-14 17:45:53,694 [INFO] _________________________________________________________________
2020-01-14 17:45:53,694 [INFO] batch_normalization_59 (Batc (None, 128)               512       
2020-01-14 17:45:53,694 [INFO] _________________________________________________________________
2020-01-14 17:45:53,694 [INFO] dropout_59 (Dropout)         (None, 128)               0         
2020-01-14 17:45:53,694 [INFO] _________________________________________________________________
2020-01-14 17:45:53,694 [INFO] dense_78 (Dense)             (None, 123)               15867     
2020-01-14 17:45:53,694 [INFO] =================================================================
2020-01-14 17:45:53,695 [INFO] Total params: 54,171
2020-01-14 17:45:53,695 [INFO] Trainable params: 53,339
2020-01-14 17:45:53,695 [INFO] Non-trainable params: 832
2020-01-14 17:45:53,695 [INFO] _________________________________________________________________
2020-01-14 17:45:54,105 [INFO] _________________________________________________________________
2020-01-14 17:45:54,106 [INFO] Layer (type)                 Output Shape              Param #   
2020-01-14 17:45:54,106 [INFO] =================================================================
2020-01-14 17:45:54,106 [INFO] dense_79 (Dense)             (None, 64)                2112      
2020-01-14 17:45:54,106 [INFO] _________________________________________________________________
2020-01-14 17:45:54,107 [INFO] batch_normalization_60 (Batc (None, 64)                256       
2020-01-14 17:45:54,107 [INFO] _________________________________________________________________
2020-01-14 17:45:54,108 [INFO] dropout_60 (Dropout)         (None, 64)                0         
2020-01-14 17:45:54,108 [INFO] _________________________________________________________________
2020-01-14 17:45:54,108 [INFO] dense_80 (Dense)             (None, 5)                 325       
2020-01-14 17:45:54,108 [INFO] =================================================================
2020-01-14 17:45:54,109 [INFO] Total params: 2,693
2020-01-14 17:45:54,109 [INFO] Trainable params: 2,565
2020-01-14 17:45:54,109 [INFO] Non-trainable params: 128
2020-01-14 17:45:54,109 [INFO] _________________________________________________________________
2020-01-14 17:45:54,109 [INFO] Training model
…
