…
2019-12-27 02:20:17,750 [INFO] Reading complete. time_to_read=0.00 seconds
2019-12-27 02:20:17,750 [INFO] Reading HDF dataset ../Datasets/small_datasets/nsl_kdd_five_classes/y_test.h5
2019-12-27 02:20:17,754 [INFO] Reading complete. time_to_read=0.00 seconds
2019-12-27 02:20:17,940 [INFO] Initializing model
2019-12-27 02:20:18,828 [INFO] _________________________________________________________________
2019-12-27 02:20:18,828 [INFO] Layer (type)                 Output Shape              Param #   
2019-12-27 02:20:18,828 [INFO] =================================================================
2019-12-27 02:20:18,828 [INFO] dense_55 (Dense)             (None, 800)               98400     
2019-12-27 02:20:18,828 [INFO] _________________________________________________________________
2019-12-27 02:20:18,829 [INFO] batch_normalization_46 (Batc (None, 800)               3200      
2019-12-27 02:20:18,829 [INFO] _________________________________________________________________
2019-12-27 02:20:18,829 [INFO] dropout_46 (Dropout)         (None, 800)               0         
2019-12-27 02:20:18,829 [INFO] _________________________________________________________________
2019-12-27 02:20:18,829 [INFO] dense_56 (Dense)             (None, 700)               560700    
2019-12-27 02:20:18,829 [INFO] _________________________________________________________________
2019-12-27 02:20:18,829 [INFO] batch_normalization_47 (Batc (None, 700)               2800      
2019-12-27 02:20:18,829 [INFO] _________________________________________________________________
2019-12-27 02:20:18,829 [INFO] dropout_47 (Dropout)         (None, 700)               0         
2019-12-27 02:20:18,829 [INFO] _________________________________________________________________
2019-12-27 02:20:18,829 [INFO] dense_57 (Dense)             (None, 600)               420600    
2019-12-27 02:20:18,829 [INFO] _________________________________________________________________
2019-12-27 02:20:18,829 [INFO] batch_normalization_48 (Batc (None, 600)               2400      
2019-12-27 02:20:18,829 [INFO] _________________________________________________________________
2019-12-27 02:20:18,829 [INFO] dropout_48 (Dropout)         (None, 600)               0         
2019-12-27 02:20:18,829 [INFO] _________________________________________________________________
2019-12-27 02:20:18,829 [INFO] dense_58 (Dense)             (None, 500)               300500    
2019-12-27 02:20:18,830 [INFO] _________________________________________________________________
2019-12-27 02:20:18,830 [INFO] batch_normalization_49 (Batc (None, 500)               2000      
2019-12-27 02:20:18,830 [INFO] _________________________________________________________________
2019-12-27 02:20:18,830 [INFO] dropout_49 (Dropout)         (None, 500)               0         
2019-12-27 02:20:18,830 [INFO] _________________________________________________________________
2019-12-27 02:20:18,830 [INFO] dense_59 (Dense)             (None, 400)               200400    
2019-12-27 02:20:18,830 [INFO] _________________________________________________________________
2019-12-27 02:20:18,830 [INFO] batch_normalization_50 (Batc (None, 400)               1600      
2019-12-27 02:20:18,830 [INFO] _________________________________________________________________
2019-12-27 02:20:18,830 [INFO] dropout_50 (Dropout)         (None, 400)               0         
2019-12-27 02:20:18,830 [INFO] _________________________________________________________________
2019-12-27 02:20:18,830 [INFO] dense_60 (Dense)             (None, 256)               102656    
2019-12-27 02:20:18,830 [INFO] _________________________________________________________________
2019-12-27 02:20:18,830 [INFO] batch_normalization_51 (Batc (None, 256)               1024      
2019-12-27 02:20:18,830 [INFO] _________________________________________________________________
2019-12-27 02:20:18,830 [INFO] dropout_51 (Dropout)         (None, 256)               0         
2019-12-27 02:20:18,830 [INFO] _________________________________________________________________
2019-12-27 02:20:18,830 [INFO] dense_61 (Dense)             (None, 128)               32896     
2019-12-27 02:20:18,831 [INFO] _________________________________________________________________
2019-12-27 02:20:18,831 [INFO] batch_normalization_52 (Batc (None, 128)               512       
2019-12-27 02:20:18,831 [INFO] _________________________________________________________________
2019-12-27 02:20:18,831 [INFO] dropout_52 (Dropout)         (None, 128)               0         
2019-12-27 02:20:18,831 [INFO] _________________________________________________________________
2019-12-27 02:20:18,831 [INFO] dense_62 (Dense)             (None, 64)                8256      
2019-12-27 02:20:18,831 [INFO] _________________________________________________________________
2019-12-27 02:20:18,831 [INFO] batch_normalization_53 (Batc (None, 64)                256       
2019-12-27 02:20:18,831 [INFO] _________________________________________________________________
2019-12-27 02:20:18,831 [INFO] dropout_53 (Dropout)         (None, 64)                0         
2019-12-27 02:20:18,831 [INFO] _________________________________________________________________
2019-12-27 02:20:18,831 [INFO] dense_63 (Dense)             (None, 32)                2080      
2019-12-27 02:20:18,831 [INFO] _________________________________________________________________
2019-12-27 02:20:18,831 [INFO] batch_normalization_54 (Batc (None, 32)                128       
2019-12-27 02:20:18,831 [INFO] _________________________________________________________________
2019-12-27 02:20:18,831 [INFO] dropout_54 (Dropout)         (None, 32)                0         
2019-12-27 02:20:18,831 [INFO] _________________________________________________________________
2019-12-27 02:20:18,831 [INFO] dense_64 (Dense)             (None, 16)                528       
2019-12-27 02:20:18,831 [INFO] _________________________________________________________________
2019-12-27 02:20:18,832 [INFO] batch_normalization_55 (Batc (None, 16)                64        
2019-12-27 02:20:18,832 [INFO] _________________________________________________________________
2019-12-27 02:20:18,832 [INFO] dropout_55 (Dropout)         (None, 16)                0         
2019-12-27 02:20:18,832 [INFO] _________________________________________________________________
2019-12-27 02:20:18,832 [INFO] dense_65 (Dense)             (None, 5)                 85        
2019-12-27 02:20:18,832 [INFO] =================================================================
2019-12-27 02:20:18,832 [INFO] Total params: 1,741,085
2019-12-27 02:20:18,832 [INFO] Trainable params: 1,734,093
2019-12-27 02:20:18,832 [INFO] Non-trainable params: 6,992
2019-12-27 02:20:18,832 [INFO] _________________________________________________________________
2019-12-27 02:20:18,832 [INFO] Training model
…
