…
2019-12-31 17:36:55,711 [INFO] Reading complete. time_to_read=0.09 seconds
2019-12-31 17:36:55,712 [INFO] Reading HDF dataset ../Datasets/small_datasets/ids2018/y_test.h5
2019-12-31 17:36:55,798 [INFO] Reading complete. time_to_read=0.09 seconds
2019-12-31 17:36:59,698 [INFO] Initializing model
2019-12-31 17:37:00,353 [INFO] _________________________________________________________________
2019-12-31 17:37:00,353 [INFO] Layer (type)                 Output Shape              Param #   
2019-12-31 17:37:00,353 [INFO] =================================================================
2019-12-31 17:37:00,353 [INFO] dense_36 (Dense)             (None, 600)               46800     
2019-12-31 17:37:00,354 [INFO] _________________________________________________________________
2019-12-31 17:37:00,354 [INFO] batch_normalization_29 (Batc (None, 600)               2400      
2019-12-31 17:37:00,354 [INFO] _________________________________________________________________
2019-12-31 17:37:00,354 [INFO] dropout_29 (Dropout)         (None, 600)               0         
2019-12-31 17:37:00,354 [INFO] _________________________________________________________________
2019-12-31 17:37:00,354 [INFO] dense_37 (Dense)             (None, 500)               300500    
2019-12-31 17:37:00,354 [INFO] _________________________________________________________________
2019-12-31 17:37:00,354 [INFO] batch_normalization_30 (Batc (None, 500)               2000      
2019-12-31 17:37:00,354 [INFO] _________________________________________________________________
2019-12-31 17:37:00,354 [INFO] dropout_30 (Dropout)         (None, 500)               0         
2019-12-31 17:37:00,354 [INFO] _________________________________________________________________
2019-12-31 17:37:00,354 [INFO] dense_38 (Dense)             (None, 400)               200400    
2019-12-31 17:37:00,354 [INFO] _________________________________________________________________
2019-12-31 17:37:00,354 [INFO] batch_normalization_31 (Batc (None, 400)               1600      
2019-12-31 17:37:00,354 [INFO] _________________________________________________________________
2019-12-31 17:37:00,354 [INFO] dropout_31 (Dropout)         (None, 400)               0         
2019-12-31 17:37:00,354 [INFO] _________________________________________________________________
2019-12-31 17:37:00,355 [INFO] dense_39 (Dense)             (None, 256)               102656    
2019-12-31 17:37:00,355 [INFO] _________________________________________________________________
2019-12-31 17:37:00,355 [INFO] batch_normalization_32 (Batc (None, 256)               1024      
2019-12-31 17:37:00,355 [INFO] _________________________________________________________________
2019-12-31 17:37:00,355 [INFO] dropout_32 (Dropout)         (None, 256)               0         
2019-12-31 17:37:00,355 [INFO] _________________________________________________________________
2019-12-31 17:37:00,355 [INFO] dense_40 (Dense)             (None, 128)               32896     
2019-12-31 17:37:00,355 [INFO] _________________________________________________________________
2019-12-31 17:37:00,355 [INFO] batch_normalization_33 (Batc (None, 128)               512       
2019-12-31 17:37:00,355 [INFO] _________________________________________________________________
2019-12-31 17:37:00,355 [INFO] dropout_33 (Dropout)         (None, 128)               0         
2019-12-31 17:37:00,355 [INFO] _________________________________________________________________
2019-12-31 17:37:00,355 [INFO] dense_41 (Dense)             (None, 64)                8256      
2019-12-31 17:37:00,355 [INFO] _________________________________________________________________
2019-12-31 17:37:00,355 [INFO] batch_normalization_34 (Batc (None, 64)                256       
2019-12-31 17:37:00,355 [INFO] _________________________________________________________________
2019-12-31 17:37:00,355 [INFO] dropout_34 (Dropout)         (None, 64)                0         
2019-12-31 17:37:00,356 [INFO] _________________________________________________________________
2019-12-31 17:37:00,356 [INFO] dense_42 (Dense)             (None, 32)                2080      
2019-12-31 17:37:00,356 [INFO] _________________________________________________________________
2019-12-31 17:37:00,356 [INFO] batch_normalization_35 (Batc (None, 32)                128       
2019-12-31 17:37:00,356 [INFO] _________________________________________________________________
2019-12-31 17:37:00,356 [INFO] dropout_35 (Dropout)         (None, 32)                0         
2019-12-31 17:37:00,356 [INFO] _________________________________________________________________
2019-12-31 17:37:00,356 [INFO] dense_43 (Dense)             (None, 16)                528       
2019-12-31 17:37:00,356 [INFO] _________________________________________________________________
2019-12-31 17:37:00,356 [INFO] batch_normalization_36 (Batc (None, 16)                64        
2019-12-31 17:37:00,356 [INFO] _________________________________________________________________
2019-12-31 17:37:00,356 [INFO] dropout_36 (Dropout)         (None, 16)                0         
2019-12-31 17:37:00,356 [INFO] _________________________________________________________________
2019-12-31 17:37:00,356 [INFO] dense_44 (Dense)             (None, 15)                255       
2019-12-31 17:37:00,356 [INFO] =================================================================
2019-12-31 17:37:00,357 [INFO] Total params: 702,355
2019-12-31 17:37:00,357 [INFO] Trainable params: 698,363
2019-12-31 17:37:00,357 [INFO] Non-trainable params: 3,992
2019-12-31 17:37:00,357 [INFO] _________________________________________________________________
2019-12-31 17:37:00,357 [INFO] Training model
…
