…
2019-12-27 01:32:31,727 [INFO] Reading complete. time_to_read=0.00 seconds
2019-12-27 01:32:31,728 [INFO] Reading HDF dataset ../Datasets/small_datasets/nsl_kdd_five_classes/y_test.h5
2019-12-27 01:32:31,731 [INFO] Reading complete. time_to_read=0.00 seconds
2019-12-27 01:32:31,916 [INFO] Initializing model
2019-12-27 01:32:32,687 [INFO] _________________________________________________________________
2019-12-27 01:32:32,687 [INFO] Layer (type)                 Output Shape              Param #   
2019-12-27 01:32:32,687 [INFO] =================================================================
2019-12-27 01:32:32,687 [INFO] dense_45 (Dense)             (None, 700)               86100     
2019-12-27 01:32:32,687 [INFO] _________________________________________________________________
2019-12-27 01:32:32,687 [INFO] batch_normalization_37 (Batc (None, 700)               2800      
2019-12-27 01:32:32,687 [INFO] _________________________________________________________________
2019-12-27 01:32:32,687 [INFO] dropout_37 (Dropout)         (None, 700)               0         
2019-12-27 01:32:32,687 [INFO] _________________________________________________________________
2019-12-27 01:32:32,687 [INFO] dense_46 (Dense)             (None, 600)               420600    
2019-12-27 01:32:32,688 [INFO] _________________________________________________________________
2019-12-27 01:32:32,688 [INFO] batch_normalization_38 (Batc (None, 600)               2400      
2019-12-27 01:32:32,688 [INFO] _________________________________________________________________
2019-12-27 01:32:32,688 [INFO] dropout_38 (Dropout)         (None, 600)               0         
2019-12-27 01:32:32,688 [INFO] _________________________________________________________________
2019-12-27 01:32:32,688 [INFO] dense_47 (Dense)             (None, 500)               300500    
2019-12-27 01:32:32,688 [INFO] _________________________________________________________________
2019-12-27 01:32:32,688 [INFO] batch_normalization_39 (Batc (None, 500)               2000      
2019-12-27 01:32:32,688 [INFO] _________________________________________________________________
2019-12-27 01:32:32,688 [INFO] dropout_39 (Dropout)         (None, 500)               0         
2019-12-27 01:32:32,688 [INFO] _________________________________________________________________
2019-12-27 01:32:32,688 [INFO] dense_48 (Dense)             (None, 400)               200400    
2019-12-27 01:32:32,688 [INFO] _________________________________________________________________
2019-12-27 01:32:32,688 [INFO] batch_normalization_40 (Batc (None, 400)               1600      
2019-12-27 01:32:32,688 [INFO] _________________________________________________________________
2019-12-27 01:32:32,688 [INFO] dropout_40 (Dropout)         (None, 400)               0         
2019-12-27 01:32:32,688 [INFO] _________________________________________________________________
2019-12-27 01:32:32,689 [INFO] dense_49 (Dense)             (None, 256)               102656    
2019-12-27 01:32:32,689 [INFO] _________________________________________________________________
2019-12-27 01:32:32,689 [INFO] batch_normalization_41 (Batc (None, 256)               1024      
2019-12-27 01:32:32,689 [INFO] _________________________________________________________________
2019-12-27 01:32:32,689 [INFO] dropout_41 (Dropout)         (None, 256)               0         
2019-12-27 01:32:32,689 [INFO] _________________________________________________________________
2019-12-27 01:32:32,689 [INFO] dense_50 (Dense)             (None, 128)               32896     
2019-12-27 01:32:32,689 [INFO] _________________________________________________________________
2019-12-27 01:32:32,689 [INFO] batch_normalization_42 (Batc (None, 128)               512       
2019-12-27 01:32:32,689 [INFO] _________________________________________________________________
2019-12-27 01:32:32,689 [INFO] dropout_42 (Dropout)         (None, 128)               0         
2019-12-27 01:32:32,689 [INFO] _________________________________________________________________
2019-12-27 01:32:32,689 [INFO] dense_51 (Dense)             (None, 64)                8256      
2019-12-27 01:32:32,689 [INFO] _________________________________________________________________
2019-12-27 01:32:32,689 [INFO] batch_normalization_43 (Batc (None, 64)                256       
2019-12-27 01:32:32,689 [INFO] _________________________________________________________________
2019-12-27 01:32:32,689 [INFO] dropout_43 (Dropout)         (None, 64)                0         
2019-12-27 01:32:32,689 [INFO] _________________________________________________________________
2019-12-27 01:32:32,689 [INFO] dense_52 (Dense)             (None, 32)                2080      
2019-12-27 01:32:32,690 [INFO] _________________________________________________________________
2019-12-27 01:32:32,690 [INFO] batch_normalization_44 (Batc (None, 32)                128       
2019-12-27 01:32:32,690 [INFO] _________________________________________________________________
2019-12-27 01:32:32,690 [INFO] dropout_44 (Dropout)         (None, 32)                0         
2019-12-27 01:32:32,690 [INFO] _________________________________________________________________
2019-12-27 01:32:32,690 [INFO] dense_53 (Dense)             (None, 16)                528       
2019-12-27 01:32:32,690 [INFO] _________________________________________________________________
2019-12-27 01:32:32,690 [INFO] batch_normalization_45 (Batc (None, 16)                64        
2019-12-27 01:32:32,690 [INFO] _________________________________________________________________
2019-12-27 01:32:32,690 [INFO] dropout_45 (Dropout)         (None, 16)                0         
2019-12-27 01:32:32,690 [INFO] _________________________________________________________________
2019-12-27 01:32:32,690 [INFO] dense_54 (Dense)             (None, 5)                 85        
2019-12-27 01:32:32,690 [INFO] =================================================================
2019-12-27 01:32:32,691 [INFO] Total params: 1,164,885
2019-12-27 01:32:32,691 [INFO] Trainable params: 1,159,493
2019-12-27 01:32:32,691 [INFO] Non-trainable params: 5,392
2019-12-27 01:32:32,691 [INFO] _________________________________________________________________
2019-12-27 01:32:32,691 [INFO] Training model
…
