…
2019-12-24 10:53:35,666 [INFO] Pretraining Deep Belief Network
2019-12-24 10:54:35,449 [INFO] Pretraining Complete
2019-12-24 10:54:35,450 [INFO] Getting pretrained weights
2019-12-24 10:54:35,450 [INFO] Creating and initializing feed forward neural network
2019-12-24 10:54:35,717 [INFO] _________________________________________________________________
2019-12-24 10:54:35,717 [INFO] Layer (type)                 Output Shape              Param #   
2019-12-24 10:54:35,717 [INFO] =================================================================
2019-12-24 10:54:35,717 [INFO] dense_5 (Dense)              (None, 128)               15744     
2019-12-24 10:54:35,717 [INFO] _________________________________________________________________
2019-12-24 10:54:35,718 [INFO] batch_normalization_4 (Batch (None, 128)               512       
2019-12-24 10:54:35,718 [INFO] _________________________________________________________________
2019-12-24 10:54:35,718 [INFO] dropout_4 (Dropout)          (None, 128)               0         
2019-12-24 10:54:35,718 [INFO] _________________________________________________________________
2019-12-24 10:54:35,718 [INFO] dense_6 (Dense)              (None, 64)                8256      
2019-12-24 10:54:35,718 [INFO] _________________________________________________________________
2019-12-24 10:54:35,718 [INFO] batch_normalization_5 (Batch (None, 64)                256       
2019-12-24 10:54:35,718 [INFO] _________________________________________________________________
2019-12-24 10:54:35,718 [INFO] dropout_5 (Dropout)          (None, 64)                0         
2019-12-24 10:54:35,718 [INFO] _________________________________________________________________
2019-12-24 10:54:35,718 [INFO] dense_7 (Dense)              (None, 32)                2080      
2019-12-24 10:54:35,718 [INFO] _________________________________________________________________
2019-12-24 10:54:35,718 [INFO] batch_normalization_6 (Batch (None, 32)                128       
2019-12-24 10:54:35,718 [INFO] _________________________________________________________________
2019-12-24 10:54:35,719 [INFO] dropout_6 (Dropout)          (None, 32)                0         
2019-12-24 10:54:35,719 [INFO] _________________________________________________________________
2019-12-24 10:54:35,719 [INFO] dense_8 (Dense)              (None, 5)                 165       
2019-12-24 10:54:35,719 [INFO] =================================================================
2019-12-24 10:54:35,719 [INFO] Total params: 27,141
2019-12-24 10:54:35,719 [INFO] Trainable params: 26,693
2019-12-24 10:54:35,719 [INFO] Non-trainable params: 448
2019-12-24 10:54:35,719 [INFO] _________________________________________________________________
2019-12-24 10:54:36,128 [INFO] Fine-tuning final neural network
…
