…
2019-12-20 18:34:09,443 [WARNING] From /home/hasitha/anaconda3/lib/python3.7/site-packages/tensorflow/python/ops/nn_impl.py:180: add_dispatch_support.<locals>.wrapper (from tensorflow.python.ops.array_ops) is deprecated and will be removed in a future version.
Instructions for updating:
Use tf.where in 2.0, which has the same broadcast rule as np.where
2019-12-20 18:34:09,452 [INFO] _________________________________________________________________
2019-12-20 18:34:09,452 [INFO] Layer (type)                 Output Shape              Param #   
2019-12-20 18:34:09,452 [INFO] =================================================================
2019-12-20 18:34:09,452 [INFO] dense_1 (Dense)              (None, 256)               20224     
2019-12-20 18:34:09,452 [INFO] _________________________________________________________________
2019-12-20 18:34:09,452 [INFO] batch_normalization_1 (Batch (None, 256)               1024      
2019-12-20 18:34:09,452 [INFO] _________________________________________________________________
2019-12-20 18:34:09,453 [INFO] dropout_1 (Dropout)          (None, 256)               0         
2019-12-20 18:34:09,453 [INFO] _________________________________________________________________
2019-12-20 18:34:09,453 [INFO] dense_2 (Dense)              (None, 128)               32896     
2019-12-20 18:34:09,453 [INFO] _________________________________________________________________
2019-12-20 18:34:09,453 [INFO] batch_normalization_2 (Batch (None, 128)               512       
2019-12-20 18:34:09,453 [INFO] _________________________________________________________________
2019-12-20 18:34:09,453 [INFO] dropout_2 (Dropout)          (None, 128)               0         
2019-12-20 18:34:09,453 [INFO] _________________________________________________________________
2019-12-20 18:34:09,453 [INFO] dense_3 (Dense)              (None, 64)                8256      
2019-12-20 18:34:09,453 [INFO] _________________________________________________________________
2019-12-20 18:34:09,454 [INFO] batch_normalization_3 (Batch (None, 64)                256       
2019-12-20 18:34:09,454 [INFO] _________________________________________________________________
2019-12-20 18:34:09,454 [INFO] dropout_3 (Dropout)          (None, 64)                0         
2019-12-20 18:34:09,454 [INFO] _________________________________________________________________
2019-12-20 18:34:09,454 [INFO] dense_4 (Dense)              (None, 32)                2080      
2019-12-20 18:34:09,454 [INFO] _________________________________________________________________
2019-12-20 18:34:09,454 [INFO] batch_normalization_4 (Batch (None, 32)                128       
2019-12-20 18:34:09,454 [INFO] _________________________________________________________________
2019-12-20 18:34:09,454 [INFO] dropout_4 (Dropout)          (None, 32)                0         
2019-12-20 18:34:09,454 [INFO] _________________________________________________________________
2019-12-20 18:34:09,454 [INFO] dense_5 (Dense)              (None, 12)                396       
2019-12-20 18:34:09,455 [INFO] =================================================================
2019-12-20 18:34:09,455 [INFO] Total params: 65,772
2019-12-20 18:34:09,455 [INFO] Trainable params: 64,812
2019-12-20 18:34:09,455 [INFO] Non-trainable params: 960
2019-12-20 18:34:09,455 [INFO] _________________________________________________________________
2019-12-20 18:34:09,455 [INFO] Training model
…
