…
2019-12-24 20:26:33,522 [INFO] Reading complete. time_to_read=0.05 seconds
2019-12-24 20:26:33,522 [INFO] Reading HDF dataset ../Datasets/full_datasets/kdd99_five_classes/y_test.h5
2019-12-24 20:26:33,542 [INFO] Reading complete. time_to_read=0.02 seconds
2019-12-24 20:26:40,680 [INFO] Initializing model
2019-12-24 20:26:41,270 [INFO] _________________________________________________________________
2019-12-24 20:26:41,270 [INFO] Layer (type)                 Output Shape              Param #   
2019-12-24 20:26:41,270 [INFO] =================================================================
2019-12-24 20:26:41,270 [INFO] dense_101 (Dense)            (None, 128)               15872     
2019-12-24 20:26:41,270 [INFO] _________________________________________________________________
2019-12-24 20:26:41,270 [INFO] batch_normalization_71 (Batc (None, 128)               512       
2019-12-24 20:26:41,270 [INFO] _________________________________________________________________
2019-12-24 20:26:41,270 [INFO] dropout_71 (Dropout)         (None, 128)               0         
2019-12-24 20:26:41,270 [INFO] _________________________________________________________________
2019-12-24 20:26:41,271 [INFO] dense_102 (Dense)            (None, 64)                8256      
2019-12-24 20:26:41,271 [INFO] _________________________________________________________________
2019-12-24 20:26:41,271 [INFO] batch_normalization_72 (Batc (None, 64)                256       
2019-12-24 20:26:41,271 [INFO] _________________________________________________________________
2019-12-24 20:26:41,271 [INFO] dropout_72 (Dropout)         (None, 64)                0         
2019-12-24 20:26:41,271 [INFO] _________________________________________________________________
2019-12-24 20:26:41,271 [INFO] dense_103 (Dense)            (None, 32)                2080      
2019-12-24 20:26:41,271 [INFO] _________________________________________________________________
2019-12-24 20:26:41,271 [INFO] batch_normalization_73 (Batc (None, 32)                128       
2019-12-24 20:26:41,271 [INFO] _________________________________________________________________
2019-12-24 20:26:41,271 [INFO] dropout_73 (Dropout)         (None, 32)                0         
2019-12-24 20:26:41,271 [INFO] _________________________________________________________________
2019-12-24 20:26:41,272 [INFO] dense_104 (Dense)            (None, 64)                2112      
2019-12-24 20:26:41,272 [INFO] _________________________________________________________________
2019-12-24 20:26:41,272 [INFO] batch_normalization_74 (Batc (None, 64)                256       
2019-12-24 20:26:41,272 [INFO] _________________________________________________________________
2019-12-24 20:26:41,272 [INFO] dropout_74 (Dropout)         (None, 64)                0         
2019-12-24 20:26:41,272 [INFO] _________________________________________________________________
2019-12-24 20:26:41,272 [INFO] dense_105 (Dense)            (None, 128)               8320      
2019-12-24 20:26:41,272 [INFO] _________________________________________________________________
2019-12-24 20:26:41,272 [INFO] batch_normalization_75 (Batc (None, 128)               512       
2019-12-24 20:26:41,272 [INFO] _________________________________________________________________
2019-12-24 20:26:41,272 [INFO] dropout_75 (Dropout)         (None, 128)               0         
2019-12-24 20:26:41,272 [INFO] _________________________________________________________________
2019-12-24 20:26:41,273 [INFO] dense_106 (Dense)            (None, 123)               15867     
2019-12-24 20:26:41,273 [INFO] =================================================================
2019-12-24 20:26:41,273 [INFO] Total params: 54,171
2019-12-24 20:26:41,273 [INFO] Trainable params: 53,339
2019-12-24 20:26:41,273 [INFO] Non-trainable params: 832
2019-12-24 20:26:41,273 [INFO] _________________________________________________________________
2019-12-24 20:26:41,419 [INFO] _________________________________________________________________
2019-12-24 20:26:41,419 [INFO] Layer (type)                 Output Shape              Param #   
2019-12-24 20:26:41,419 [INFO] =================================================================
2019-12-24 20:26:41,419 [INFO] dense_107 (Dense)            (None, 64)                2112      
2019-12-24 20:26:41,419 [INFO] _________________________________________________________________
2019-12-24 20:26:41,420 [INFO] batch_normalization_76 (Batc (None, 64)                256       
2019-12-24 20:26:41,420 [INFO] _________________________________________________________________
2019-12-24 20:26:41,420 [INFO] dropout_76 (Dropout)         (None, 64)                0         
2019-12-24 20:26:41,420 [INFO] _________________________________________________________________
2019-12-24 20:26:41,420 [INFO] dense_108 (Dense)            (None, 5)                 325       
2019-12-24 20:26:41,420 [INFO] =================================================================
2019-12-24 20:26:41,420 [INFO] Total params: 2,693
2019-12-24 20:26:41,420 [INFO] Trainable params: 2,565
2019-12-24 20:26:41,420 [INFO] Non-trainable params: 128
2019-12-24 20:26:41,420 [INFO] _________________________________________________________________
2019-12-24 20:26:41,420 [INFO] Training model
…
