…
2019-12-20 18:34:09,443 [WARNING] From /home/hasitha/anaconda3/lib/python3.7/site-packages/tensorflow/python/ops/nn_impl.py:180: add_dispatch_support.<locals>.wrapper (from tensorflow.python.ops.array_ops) is deprecated and will be removed in a future version.
Instructions for updating:
Use tf.where in 2.0, which has the same broadcast rule as np.where
2019-12-20 18:34:09,452 [INFO] _________________________________________________________________
2019-12-20 18:34:09,452 [INFO] Layer (type)                 Output Shape              Param #   
2019-12-20 18:34:09,452 [INFO] =================================================================
2019-12-20 18:34:09,452 [INFO] dense_1 (Dense)              (None, 256)               20224     
2019-12-20 18:34:09,452 [INFO] _________________________________________________________________
2019-12-20 18:34:09,452 [INFO] batch_normalization_1 (Batch (None, 256)               1024      
2019-12-20 18:34:09,452 [INFO] _________________________________________________________________
2019-12-20 18:34:09,453 [INFO] dropout_1 (Dropout)          (None, 256)               0         
2019-12-20 18:34:09,453 [INFO] _________________________________________________________________
2019-12-20 18:34:09,453 [INFO] dense_2 (Dense)              (None, 128)               32896     
2019-12-20 18:34:09,453 [INFO] _________________________________________________________________
2019-12-20 18:34:09,453 [INFO] batch_normalization_2 (Batch (None, 128)               512       
2019-12-20 18:34:09,453 [INFO] _________________________________________________________________
2019-12-20 18:34:09,453 [INFO] dropout_2 (Dropout)          (None, 128)               0         
2019-12-20 18:34:09,453 [INFO] _________________________________________________________________
2019-12-20 18:34:09,453 [INFO] dense_3 (Dense)              (None, 64)                8256      
2019-12-20 18:34:09,453 [INFO] _________________________________________________________________
2019-12-20 18:34:09,454 [INFO] batch_normalization_3 (Batch (None, 64)                256       
2019-12-20 18:34:09,454 [INFO] _________________________________________________________________
2019-12-20 18:34:09,454 [INFO] dropout_3 (Dropout)          (None, 64)                0         
2019-12-20 18:34:09,454 [INFO] _________________________________________________________________
2019-12-20 18:34:09,454 [INFO] dense_4 (Dense)              (None, 32)                2080      
2019-12-20 18:34:09,454 [INFO] _________________________________________________________________
2019-12-20 18:34:09,454 [INFO] batch_normalization_4 (Batch (None, 32)                128       
2019-12-20 18:34:09,454 [INFO] _________________________________________________________________
2019-12-20 18:34:09,454 [INFO] dropout_4 (Dropout)          (None, 32)                0         
2019-12-20 18:34:09,454 [INFO] _________________________________________________________________
2019-12-20 18:34:09,454 [INFO] dense_5 (Dense)              (None, 12)                396       
2019-12-20 18:34:09,455 [INFO] =================================================================
2019-12-20 18:34:09,455 [INFO] Total params: 65,772
2019-12-20 18:34:09,455 [INFO] Trainable params: 64,812
2019-12-20 18:34:09,455 [INFO] Non-trainable params: 960
2019-12-20 18:34:09,455 [INFO] _________________________________________________________________
2019-12-20 18:34:09,455 [INFO] Training model
…
2019-12-21 06:22:15,928 [INFO] Reading complete. time_to_read=0.12 seconds
2019-12-21 06:22:15,928 [INFO] Reading HDF dataset ../Datasets/full_datasets/kdd99_five_classes/y_test.h5
2019-12-21 06:22:15,974 [INFO] Reading complete. time_to_read=0.05 seconds
2019-12-21 06:23:10,567 [INFO] Initializing model
2019-12-21 06:23:14,479 [INFO] _________________________________________________________________
2019-12-21 06:23:14,482 [INFO] Layer (type)                 Output Shape              Param #   
2019-12-21 06:23:14,483 [INFO] =================================================================
2019-12-21 06:23:14,484 [INFO] dense_26 (Dense)             (None, 64)                7936      
2019-12-21 06:23:14,485 [INFO] _________________________________________________________________
2019-12-21 06:23:14,485 [INFO] batch_normalization_21 (Batc (None, 64)                256       
2019-12-21 06:23:14,486 [INFO] _________________________________________________________________
2019-12-21 06:23:14,486 [INFO] dropout_21 (Dropout)         (None, 64)                0         
2019-12-21 06:23:14,487 [INFO] _________________________________________________________________
2019-12-21 06:23:14,487 [INFO] dense_27 (Dense)             (None, 32)                2080      
2019-12-21 06:23:14,488 [INFO] _________________________________________________________________
2019-12-21 06:23:14,489 [INFO] batch_normalization_22 (Batc (None, 32)                128       
2019-12-21 06:23:14,490 [INFO] _________________________________________________________________
2019-12-21 06:23:14,490 [INFO] dropout_22 (Dropout)         (None, 32)                0         
2019-12-21 06:23:14,491 [INFO] _________________________________________________________________
2019-12-21 06:23:14,492 [INFO] dense_28 (Dense)             (None, 64)                2112      
2019-12-21 06:23:14,492 [INFO] _________________________________________________________________
2019-12-21 06:23:14,493 [INFO] batch_normalization_23 (Batc (None, 64)                256       
2019-12-21 06:23:14,493 [INFO] _________________________________________________________________
2019-12-21 06:23:14,494 [INFO] dropout_23 (Dropout)         (None, 64)                0         
2019-12-21 06:23:14,495 [INFO] _________________________________________________________________
2019-12-21 06:23:14,495 [INFO] dense_29 (Dense)             (None, 5)                 325       
2019-12-21 06:23:14,496 [INFO] =================================================================
2019-12-21 06:23:14,514 [INFO] Total params: 13,093
2019-12-21 06:23:14,514 [INFO] Trainable params: 12,773
2019-12-21 06:23:14,515 [INFO] Non-trainable params: 320
2019-12-21 06:23:14,515 [INFO] _________________________________________________________________
2019-12-21 06:23:14,516 [INFO] Training model
…
2019-12-21 09:30:23,830 [INFO] Reading complete. time_to_read=0.12 seconds
2019-12-21 09:30:23,830 [INFO] Reading HDF dataset ../Datasets/full_datasets/kdd99_five_classes/y_test.h5
2019-12-21 09:30:23,885 [INFO] Reading complete. time_to_read=0.05 seconds
2019-12-21 09:31:13,019 [INFO] Initializing model
2019-12-21 09:31:15,256 [INFO] _________________________________________________________________
2019-12-21 09:31:15,258 [INFO] Layer (type)                 Output Shape              Param #   
2019-12-21 09:31:15,259 [INFO] =================================================================
2019-12-21 09:31:15,261 [INFO] dense_30 (Dense)             (None, 64)                7936      
2019-12-21 09:31:15,262 [INFO] _________________________________________________________________
2019-12-21 09:31:15,263 [INFO] batch_normalization_24 (Batc (None, 64)                256       
2019-12-21 09:31:15,264 [INFO] _________________________________________________________________
2019-12-21 09:31:15,265 [INFO] dropout_24 (Dropout)         (None, 64)                0         
2019-12-21 09:31:15,266 [INFO] _________________________________________________________________
2019-12-21 09:31:15,267 [INFO] dense_31 (Dense)             (None, 32)                2080      
2019-12-21 09:31:15,268 [INFO] _________________________________________________________________
2019-12-21 09:31:15,269 [INFO] batch_normalization_25 (Batc (None, 32)                128       
2019-12-21 09:31:15,270 [INFO] _________________________________________________________________
2019-12-21 09:31:15,271 [INFO] dropout_25 (Dropout)         (None, 32)                0         
2019-12-21 09:31:15,272 [INFO] _________________________________________________________________
2019-12-21 09:31:15,273 [INFO] dense_32 (Dense)             (None, 65)                2145      
2019-12-21 09:31:15,274 [INFO] _________________________________________________________________
2019-12-21 09:31:15,275 [INFO] batch_normalization_26 (Batc (None, 65)                260       
2019-12-21 09:31:15,276 [INFO] _________________________________________________________________
2019-12-21 09:31:15,277 [INFO] dropout_26 (Dropout)         (None, 65)                0         
2019-12-21 09:31:15,277 [INFO] _________________________________________________________________
2019-12-21 09:31:15,278 [INFO] dense_33 (Dense)             (None, 5)                 330       
2019-12-21 09:31:15,280 [INFO] =================================================================
2019-12-21 09:31:15,281 [INFO] Total params: 13,135
2019-12-21 09:31:15,282 [INFO] Trainable params: 12,813
2019-12-21 09:31:15,283 [INFO] Non-trainable params: 322
2019-12-21 09:31:15,284 [INFO] _________________________________________________________________
2019-12-21 09:31:15,285 [INFO] Training model
…
2019-12-21 13:45:00,501 [INFO] Reading complete. time_to_read=0.12 seconds
2019-12-21 13:45:00,501 [INFO] Reading HDF dataset ../Datasets/full_datasets/kdd99_five_classes/y_test.h5
2019-12-21 13:45:00,548 [INFO] Reading complete. time_to_read=0.05 seconds
2019-12-21 13:45:47,891 [INFO] Initializing model
2019-12-21 13:45:50,270 [INFO] _________________________________________________________________
2019-12-21 13:45:50,272 [INFO] Layer (type)                 Output Shape              Param #   
2019-12-21 13:45:50,273 [INFO] =================================================================
2019-12-21 13:45:50,275 [INFO] dense_34 (Dense)             (None, 64)                7936      
2019-12-21 13:45:50,277 [INFO] _________________________________________________________________
2019-12-21 13:45:50,278 [INFO] batch_normalization_27 (Batc (None, 64)                256       
2019-12-21 13:45:50,279 [INFO] _________________________________________________________________
2019-12-21 13:45:50,280 [INFO] dropout_27 (Dropout)         (None, 64)                0         
2019-12-21 13:45:50,280 [INFO] _________________________________________________________________
2019-12-21 13:45:50,282 [INFO] dense_35 (Dense)             (None, 32)                2080      
2019-12-21 13:45:50,283 [INFO] _________________________________________________________________
2019-12-21 13:45:50,283 [INFO] batch_normalization_28 (Batc (None, 32)                128       
2019-12-21 13:45:50,285 [INFO] _________________________________________________________________
2019-12-21 13:45:50,286 [INFO] dropout_28 (Dropout)         (None, 32)                0         
2019-12-21 13:45:50,287 [INFO] _________________________________________________________________
2019-12-21 13:45:50,288 [INFO] dense_36 (Dense)             (None, 66)                2178      
2019-12-21 13:45:50,289 [INFO] _________________________________________________________________
2019-12-21 13:45:50,290 [INFO] batch_normalization_29 (Batc (None, 66)                264       
2019-12-21 13:45:50,291 [INFO] _________________________________________________________________
2019-12-21 13:45:50,292 [INFO] dropout_29 (Dropout)         (None, 66)                0         
2019-12-21 13:45:50,293 [INFO] _________________________________________________________________
2019-12-21 13:45:50,294 [INFO] dense_37 (Dense)             (None, 5)                 335       
2019-12-21 13:45:50,295 [INFO] =================================================================
2019-12-21 13:45:50,297 [INFO] Total params: 13,177
2019-12-21 13:45:50,298 [INFO] Trainable params: 12,853
2019-12-21 13:45:50,299 [INFO] Non-trainable params: 324
2019-12-21 13:45:50,300 [INFO] _________________________________________________________________
2019-12-21 13:45:50,301 [INFO] Training model
…
2019-12-21 17:07:16,633 [INFO] Reading complete. time_to_read=0.12 seconds
2019-12-21 17:07:16,633 [INFO] Reading HDF dataset ../Datasets/full_datasets/kdd99_five_classes/y_test.h5
2019-12-21 17:07:16,679 [INFO] Reading complete. time_to_read=0.05 seconds
2019-12-21 17:08:07,688 [INFO] Initializing model
2019-12-21 17:08:10,210 [INFO] _________________________________________________________________
2019-12-21 17:08:10,213 [INFO] Layer (type)                 Output Shape              Param #   
2019-12-21 17:08:10,214 [INFO] =================================================================
2019-12-21 17:08:10,216 [INFO] dense_38 (Dense)             (None, 64)                7936      
2019-12-21 17:08:10,218 [INFO] _________________________________________________________________
2019-12-21 17:08:10,219 [INFO] batch_normalization_30 (Batc (None, 64)                256       
2019-12-21 17:08:10,219 [INFO] _________________________________________________________________
2019-12-21 17:08:10,219 [INFO] dropout_30 (Dropout)         (None, 64)                0         
2019-12-21 17:08:10,219 [INFO] _________________________________________________________________
2019-12-21 17:08:10,219 [INFO] dense_39 (Dense)             (None, 32)                2080      
2019-12-21 17:08:10,219 [INFO] _________________________________________________________________
2019-12-21 17:08:10,220 [INFO] batch_normalization_31 (Batc (None, 32)                128       
2019-12-21 17:08:10,220 [INFO] _________________________________________________________________
2019-12-21 17:08:10,220 [INFO] dropout_31 (Dropout)         (None, 32)                0         
2019-12-21 17:08:10,220 [INFO] _________________________________________________________________
2019-12-21 17:08:10,220 [INFO] dense_40 (Dense)             (None, 67)                2211      
2019-12-21 17:08:10,220 [INFO] _________________________________________________________________
2019-12-21 17:08:10,220 [INFO] batch_normalization_32 (Batc (None, 67)                268       
2019-12-21 17:08:10,220 [INFO] _________________________________________________________________
2019-12-21 17:08:10,220 [INFO] dropout_32 (Dropout)         (None, 67)                0         
2019-12-21 17:08:10,221 [INFO] _________________________________________________________________
2019-12-21 17:08:10,221 [INFO] dense_41 (Dense)             (None, 5)                 340       
2019-12-21 17:08:10,221 [INFO] =================================================================
2019-12-21 17:08:10,221 [INFO] Total params: 13,219
2019-12-21 17:08:10,222 [INFO] Trainable params: 12,893
2019-12-21 17:08:10,222 [INFO] Non-trainable params: 326
2019-12-21 17:08:10,222 [INFO] _________________________________________________________________
2019-12-21 17:08:10,222 [INFO] Training model
…
2019-12-21 23:01:26,250 [INFO] Reading complete. time_to_read=0.12 seconds
2019-12-21 23:01:26,250 [INFO] Reading HDF dataset ../Datasets/full_datasets/kdd99_five_classes/y_test.h5
2019-12-21 23:01:26,302 [INFO] Reading complete. time_to_read=0.05 seconds
2019-12-21 23:02:07,881 [INFO] Initializing model
2019-12-21 23:02:10,607 [INFO] _________________________________________________________________
2019-12-21 23:02:10,609 [INFO] Layer (type)                 Output Shape              Param #   
2019-12-21 23:02:10,609 [INFO] =================================================================
2019-12-21 23:02:10,610 [INFO] dense_42 (Dense)             (None, 64)                7936      
2019-12-21 23:02:10,610 [INFO] _________________________________________________________________
2019-12-21 23:02:10,610 [INFO] batch_normalization_33 (Batc (None, 64)                256       
2019-12-21 23:02:10,610 [INFO] _________________________________________________________________
2019-12-21 23:02:10,610 [INFO] dropout_33 (Dropout)         (None, 64)                0         
2019-12-21 23:02:10,610 [INFO] _________________________________________________________________
2019-12-21 23:02:10,610 [INFO] dense_43 (Dense)             (None, 32)                2080      
2019-12-21 23:02:10,610 [INFO] _________________________________________________________________
2019-12-21 23:02:10,610 [INFO] batch_normalization_34 (Batc (None, 32)                128       
2019-12-21 23:02:10,610 [INFO] _________________________________________________________________
2019-12-21 23:02:10,610 [INFO] dropout_34 (Dropout)         (None, 32)                0         
2019-12-21 23:02:10,610 [INFO] _________________________________________________________________
2019-12-21 23:02:10,611 [INFO] dense_44 (Dense)             (None, 68)                2244      
2019-12-21 23:02:10,611 [INFO] _________________________________________________________________
2019-12-21 23:02:10,611 [INFO] batch_normalization_35 (Batc (None, 68)                272       
2019-12-21 23:02:10,611 [INFO] _________________________________________________________________
2019-12-21 23:02:10,611 [INFO] dropout_35 (Dropout)         (None, 68)                0         
2019-12-21 23:02:10,611 [INFO] _________________________________________________________________
2019-12-21 23:02:10,611 [INFO] dense_45 (Dense)             (None, 5)                 345       
2019-12-21 23:02:10,611 [INFO] =================================================================
2019-12-21 23:02:10,612 [INFO] Total params: 13,261
2019-12-21 23:02:10,612 [INFO] Trainable params: 12,933
2019-12-21 23:02:10,612 [INFO] Non-trainable params: 328
2019-12-21 23:02:10,612 [INFO] _________________________________________________________________
2019-12-21 23:02:10,612 [INFO] Training model
…
2019-12-22 07:06:28,712 [INFO] Reading complete. time_to_read=0.19 seconds
2019-12-22 07:06:28,712 [INFO] Reading HDF dataset ../Datasets/small_datasets/ids2018/y_test.h5
2019-12-22 07:06:28,890 [INFO] Reading complete. time_to_read=0.18 seconds
2019-12-22 07:06:32,776 [INFO] Initializing model
2019-12-22 07:06:33,151 [INFO] _________________________________________________________________
2019-12-22 07:06:33,151 [INFO] Layer (type)                 Output Shape              Param #   
2019-12-22 07:06:33,151 [INFO] =================================================================
2019-12-22 07:06:33,151 [INFO] dense_46 (Dense)             (None, 128)               9984      
2019-12-22 07:06:33,151 [INFO] _________________________________________________________________
2019-12-22 07:06:33,151 [INFO] batch_normalization_36 (Batc (None, 128)               512       
2019-12-22 07:06:33,151 [INFO] _________________________________________________________________
2019-12-22 07:06:33,151 [INFO] dropout_36 (Dropout)         (None, 128)               0         
2019-12-22 07:06:33,151 [INFO] _________________________________________________________________
2019-12-22 07:06:33,152 [INFO] dense_47 (Dense)             (None, 64)                8256      
2019-12-22 07:06:33,152 [INFO] _________________________________________________________________
2019-12-22 07:06:33,152 [INFO] batch_normalization_37 (Batc (None, 64)                256       
2019-12-22 07:06:33,152 [INFO] _________________________________________________________________
2019-12-22 07:06:33,152 [INFO] dropout_37 (Dropout)         (None, 64)                0         
2019-12-22 07:06:33,152 [INFO] _________________________________________________________________
2019-12-22 07:06:33,152 [INFO] dense_48 (Dense)             (None, 32)                2080      
2019-12-22 07:06:33,152 [INFO] _________________________________________________________________
2019-12-22 07:06:33,152 [INFO] batch_normalization_38 (Batc (None, 32)                128       
2019-12-22 07:06:33,152 [INFO] _________________________________________________________________
2019-12-22 07:06:33,152 [INFO] dropout_38 (Dropout)         (None, 32)                0         
2019-12-22 07:06:33,152 [INFO] _________________________________________________________________
2019-12-22 07:06:33,152 [INFO] dense_49 (Dense)             (None, 16)                528       
2019-12-22 07:06:33,152 [INFO] _________________________________________________________________
2019-12-22 07:06:33,152 [INFO] batch_normalization_39 (Batc (None, 16)                64        
2019-12-22 07:06:33,152 [INFO] _________________________________________________________________
2019-12-22 07:06:33,152 [INFO] dropout_39 (Dropout)         (None, 16)                0         
2019-12-22 07:06:33,152 [INFO] _________________________________________________________________
2019-12-22 07:06:33,153 [INFO] dense_50 (Dense)             (None, 15)                255       
2019-12-22 07:06:33,153 [INFO] =================================================================
2019-12-22 07:06:33,153 [INFO] Total params: 22,063
2019-12-22 07:06:33,153 [INFO] Trainable params: 21,583
2019-12-22 07:06:33,153 [INFO] Non-trainable params: 480
2019-12-22 07:06:33,153 [INFO] _________________________________________________________________
2019-12-22 07:06:33,153 [INFO] Training model
…
2019-12-20 17:23:55,239 [WARNING] From /home/hasitha/anaconda3/lib/python3.7/site-packages/tensorflow/python/ops/nn_impl.py:180: add_dispatch_support.<locals>.wrapper (from tensorflow.python.ops.array_ops) is deprecated and will be removed in a future version.
Instructions for updating:
Use tf.where in 2.0, which has the same broadcast rule as np.where
2019-12-20 17:23:55,248 [INFO] _________________________________________________________________
2019-12-20 17:23:55,248 [INFO] Layer (type)                 Output Shape              Param #   
2019-12-20 17:23:55,248 [INFO] =================================================================
2019-12-20 17:23:55,248 [INFO] dense_1 (Dense)              (None, 64)                7872      
2019-12-20 17:23:55,248 [INFO] _________________________________________________________________
2019-12-20 17:23:55,248 [INFO] batch_normalization_1 (Batch (None, 64)                256       
2019-12-20 17:23:55,248 [INFO] _________________________________________________________________
2019-12-20 17:23:55,249 [INFO] dropout_1 (Dropout)          (None, 64)                0         
2019-12-20 17:23:55,249 [INFO] _________________________________________________________________
2019-12-20 17:23:55,249 [INFO] dense_2 (Dense)              (None, 32)                2080      
2019-12-20 17:23:55,249 [INFO] _________________________________________________________________
2019-12-20 17:23:55,249 [INFO] batch_normalization_2 (Batch (None, 32)                128       
2019-12-20 17:23:55,249 [INFO] _________________________________________________________________
2019-12-20 17:23:55,249 [INFO] dropout_2 (Dropout)          (None, 32)                0         
2019-12-20 17:23:55,249 [INFO] _________________________________________________________________
2019-12-20 17:23:55,249 [INFO] dense_3 (Dense)              (None, 64)                2112      
2019-12-20 17:23:55,249 [INFO] _________________________________________________________________
2019-12-20 17:23:55,249 [INFO] batch_normalization_3 (Batch (None, 64)                256       
2019-12-20 17:23:55,249 [INFO] _________________________________________________________________
2019-12-20 17:23:55,249 [INFO] dropout_3 (Dropout)          (None, 64)                0         
2019-12-20 17:23:55,250 [INFO] _________________________________________________________________
2019-12-20 17:23:55,250 [INFO] dense_4 (Dense)              (None, 5)                 325       
2019-12-20 17:23:55,250 [INFO] =================================================================
2019-12-20 17:23:55,250 [INFO] Total params: 13,029
2019-12-20 17:23:55,250 [INFO] Trainable params: 12,709
2019-12-20 17:23:55,250 [INFO] Non-trainable params: 320
2019-12-20 17:23:55,250 [INFO] _________________________________________________________________
2019-12-20 17:23:55,250 [INFO] Training model
…
2019-12-20 17:28:33,591 [INFO] Reading complete. time_to_read=0.00 seconds
2019-12-20 17:28:33,591 [INFO] Reading HDF dataset ../Datasets/small_datasets/nsl_kdd_five_classes/y_test.h5
2019-12-20 17:28:33,594 [INFO] Reading complete. time_to_read=0.00 seconds
2019-12-20 17:28:33,792 [INFO] Initializing model
2019-12-20 17:28:34,039 [INFO] _________________________________________________________________
2019-12-20 17:28:34,039 [INFO] Layer (type)                 Output Shape              Param #   
2019-12-20 17:28:34,039 [INFO] =================================================================
2019-12-20 17:28:34,040 [INFO] dense_5 (Dense)              (None, 64)                7872      
2019-12-20 17:28:34,040 [INFO] _________________________________________________________________
2019-12-20 17:28:34,040 [INFO] batch_normalization_4 (Batch (None, 64)                256       
2019-12-20 17:28:34,040 [INFO] _________________________________________________________________
2019-12-20 17:28:34,040 [INFO] dropout_4 (Dropout)          (None, 64)                0         
2019-12-20 17:28:34,040 [INFO] _________________________________________________________________
2019-12-20 17:28:34,040 [INFO] dense_6 (Dense)              (None, 32)                2080      
2019-12-20 17:28:34,040 [INFO] _________________________________________________________________
2019-12-20 17:28:34,040 [INFO] batch_normalization_5 (Batch (None, 32)                128       
2019-12-20 17:28:34,040 [INFO] _________________________________________________________________
2019-12-20 17:28:34,040 [INFO] dropout_5 (Dropout)          (None, 32)                0         
2019-12-20 17:28:34,040 [INFO] _________________________________________________________________
2019-12-20 17:28:34,040 [INFO] dense_7 (Dense)              (None, 65)                2145      
2019-12-20 17:28:34,041 [INFO] _________________________________________________________________
2019-12-20 17:28:34,041 [INFO] batch_normalization_6 (Batch (None, 65)                260       
2019-12-20 17:28:34,041 [INFO] _________________________________________________________________
2019-12-20 17:28:34,041 [INFO] dropout_6 (Dropout)          (None, 65)                0         
2019-12-20 17:28:34,041 [INFO] _________________________________________________________________
2019-12-20 17:28:34,041 [INFO] dense_8 (Dense)              (None, 5)                 330       
2019-12-20 17:28:34,041 [INFO] =================================================================
2019-12-20 17:28:34,041 [INFO] Total params: 13,071
2019-12-20 17:28:34,041 [INFO] Trainable params: 12,749
2019-12-20 17:28:34,041 [INFO] Non-trainable params: 322
2019-12-20 17:28:34,041 [INFO] _________________________________________________________________
2019-12-20 17:28:34,041 [INFO] Training model
…
2019-12-20 17:37:54,678 [INFO] Reading complete. time_to_read=0.00 seconds
2019-12-20 17:37:54,678 [INFO] Reading HDF dataset ../Datasets/small_datasets/nsl_kdd_five_classes/y_test.h5
2019-12-20 17:37:54,682 [INFO] Reading complete. time_to_read=0.00 seconds
2019-12-20 17:37:54,880 [INFO] Initializing model
2019-12-20 17:37:55,128 [INFO] _________________________________________________________________
2019-12-20 17:37:55,128 [INFO] Layer (type)                 Output Shape              Param #   
2019-12-20 17:37:55,128 [INFO] =================================================================
2019-12-20 17:37:55,128 [INFO] dense_9 (Dense)              (None, 64)                7872      
2019-12-20 17:37:55,128 [INFO] _________________________________________________________________
2019-12-20 17:37:55,128 [INFO] batch_normalization_7 (Batch (None, 64)                256       
2019-12-20 17:37:55,129 [INFO] _________________________________________________________________
2019-12-20 17:37:55,129 [INFO] dropout_7 (Dropout)          (None, 64)                0         
2019-12-20 17:37:55,129 [INFO] _________________________________________________________________
2019-12-20 17:37:55,129 [INFO] dense_10 (Dense)             (None, 32)                2080      
2019-12-20 17:37:55,129 [INFO] _________________________________________________________________
2019-12-20 17:37:55,129 [INFO] batch_normalization_8 (Batch (None, 32)                128       
2019-12-20 17:37:55,129 [INFO] _________________________________________________________________
2019-12-20 17:37:55,129 [INFO] dropout_8 (Dropout)          (None, 32)                0         
2019-12-20 17:37:55,129 [INFO] _________________________________________________________________
2019-12-20 17:37:55,129 [INFO] dense_11 (Dense)             (None, 66)                2178      
2019-12-20 17:37:55,129 [INFO] _________________________________________________________________
2019-12-20 17:37:55,129 [INFO] batch_normalization_9 (Batch (None, 66)                264       
2019-12-20 17:37:55,129 [INFO] _________________________________________________________________
2019-12-20 17:37:55,130 [INFO] dropout_9 (Dropout)          (None, 66)                0         
2019-12-20 17:37:55,130 [INFO] _________________________________________________________________
2019-12-20 17:37:55,130 [INFO] dense_12 (Dense)             (None, 5)                 335       
2019-12-20 17:37:55,130 [INFO] =================================================================
2019-12-20 17:37:55,130 [INFO] Total params: 13,113
2019-12-20 17:37:55,130 [INFO] Trainable params: 12,789
2019-12-20 17:37:55,130 [INFO] Non-trainable params: 324
2019-12-20 17:37:55,130 [INFO] _________________________________________________________________
2019-12-20 17:37:55,130 [INFO] Training model
…
2019-12-20 17:46:32,737 [INFO] Reading complete. time_to_read=0.00 seconds
2019-12-20 17:46:32,737 [INFO] Reading HDF dataset ../Datasets/small_datasets/nsl_kdd_five_classes/y_test.h5
2019-12-20 17:46:32,741 [INFO] Reading complete. time_to_read=0.00 seconds
2019-12-20 17:46:32,937 [INFO] Initializing model
2019-12-20 17:46:33,188 [INFO] _________________________________________________________________
2019-12-20 17:46:33,188 [INFO] Layer (type)                 Output Shape              Param #   
2019-12-20 17:46:33,188 [INFO] =================================================================
2019-12-20 17:46:33,189 [INFO] dense_13 (Dense)             (None, 64)                7872      
2019-12-20 17:46:33,189 [INFO] _________________________________________________________________
2019-12-20 17:46:33,189 [INFO] batch_normalization_10 (Batc (None, 64)                256       
2019-12-20 17:46:33,189 [INFO] _________________________________________________________________
2019-12-20 17:46:33,189 [INFO] dropout_10 (Dropout)         (None, 64)                0         
2019-12-20 17:46:33,189 [INFO] _________________________________________________________________
2019-12-20 17:46:33,189 [INFO] dense_14 (Dense)             (None, 32)                2080      
2019-12-20 17:46:33,189 [INFO] _________________________________________________________________
2019-12-20 17:46:33,190 [INFO] batch_normalization_11 (Batc (None, 32)                128       
2019-12-20 17:46:33,190 [INFO] _________________________________________________________________
2019-12-20 17:46:33,190 [INFO] dropout_11 (Dropout)         (None, 32)                0         
2019-12-20 17:46:33,190 [INFO] _________________________________________________________________
2019-12-20 17:46:33,190 [INFO] dense_15 (Dense)             (None, 67)                2211      
2019-12-20 17:46:33,190 [INFO] _________________________________________________________________
2019-12-20 17:46:33,190 [INFO] batch_normalization_12 (Batc (None, 67)                268       
2019-12-20 17:46:33,190 [INFO] _________________________________________________________________
2019-12-20 17:46:33,190 [INFO] dropout_12 (Dropout)         (None, 67)                0         
2019-12-20 17:46:33,190 [INFO] _________________________________________________________________
2019-12-20 17:46:33,190 [INFO] dense_16 (Dense)             (None, 5)                 340       
2019-12-20 17:46:33,190 [INFO] =================================================================
2019-12-20 17:46:33,190 [INFO] Total params: 13,155
2019-12-20 17:46:33,191 [INFO] Trainable params: 12,829
2019-12-20 17:46:33,191 [INFO] Non-trainable params: 326
2019-12-20 17:46:33,191 [INFO] _________________________________________________________________
2019-12-20 17:46:33,191 [INFO] Training model
…
2019-12-20 17:54:25,724 [INFO] Reading complete. time_to_read=0.00 seconds
2019-12-20 17:54:25,724 [INFO] Reading HDF dataset ../Datasets/small_datasets/nsl_kdd_five_classes/y_test.h5
2019-12-20 17:54:25,728 [INFO] Reading complete. time_to_read=0.00 seconds
2019-12-20 17:54:25,928 [INFO] Initializing model
2019-12-20 17:54:26,287 [INFO] _________________________________________________________________
2019-12-20 17:54:26,287 [INFO] Layer (type)                 Output Shape              Param #   
2019-12-20 17:54:26,288 [INFO] =================================================================
2019-12-20 17:54:26,288 [INFO] dense_17 (Dense)             (None, 64)                7872      
2019-12-20 17:54:26,288 [INFO] _________________________________________________________________
2019-12-20 17:54:26,288 [INFO] batch_normalization_13 (Batc (None, 64)                256       
2019-12-20 17:54:26,288 [INFO] _________________________________________________________________
2019-12-20 17:54:26,288 [INFO] dropout_13 (Dropout)         (None, 64)                0         
2019-12-20 17:54:26,288 [INFO] _________________________________________________________________
2019-12-20 17:54:26,288 [INFO] dense_18 (Dense)             (None, 32)                2080      
2019-12-20 17:54:26,288 [INFO] _________________________________________________________________
2019-12-20 17:54:26,289 [INFO] batch_normalization_14 (Batc (None, 32)                128       
2019-12-20 17:54:26,289 [INFO] _________________________________________________________________
2019-12-20 17:54:26,289 [INFO] dropout_14 (Dropout)         (None, 32)                0         
2019-12-20 17:54:26,289 [INFO] _________________________________________________________________
2019-12-20 17:54:26,289 [INFO] dense_19 (Dense)             (None, 68)                2244      
2019-12-20 17:54:26,289 [INFO] _________________________________________________________________
2019-12-20 17:54:26,289 [INFO] batch_normalization_15 (Batc (None, 68)                272       
2019-12-20 17:54:26,289 [INFO] _________________________________________________________________
2019-12-20 17:54:26,289 [INFO] dropout_15 (Dropout)         (None, 68)                0         
2019-12-20 17:54:26,289 [INFO] _________________________________________________________________
2019-12-20 17:54:26,289 [INFO] dense_20 (Dense)             (None, 5)                 345       
2019-12-20 17:54:26,289 [INFO] =================================================================
2019-12-20 17:54:26,289 [INFO] Total params: 13,197
2019-12-20 17:54:26,290 [INFO] Trainable params: 12,869
2019-12-20 17:54:26,290 [INFO] Non-trainable params: 328
2019-12-20 17:54:26,290 [INFO] _________________________________________________________________
2019-12-20 17:54:26,290 [INFO] Training model
…
