…
2020-01-14 12:43:16,218 [WARNING] From /home/hasitha/anaconda3/lib/python3.7/site-packages/tensorflow/python/ops/nn_impl.py:180: add_dispatch_support.<locals>.wrapper (from tensorflow.python.ops.array_ops) is deprecated and will be removed in a future version.
Instructions for updating:
Use tf.where in 2.0, which has the same broadcast rule as np.where
2020-01-14 12:43:16,227 [INFO] _________________________________________________________________
2020-01-14 12:43:16,227 [INFO] Layer (type)                 Output Shape              Param #   
2020-01-14 12:43:16,227 [INFO] =================================================================
2020-01-14 12:43:16,227 [INFO] dense_1 (Dense)              (None, 128)               15744     
2020-01-14 12:43:16,227 [INFO] _________________________________________________________________
2020-01-14 12:43:16,227 [INFO] batch_normalization_1 (Batch (None, 128)               512       
2020-01-14 12:43:16,227 [INFO] _________________________________________________________________
2020-01-14 12:43:16,227 [INFO] dropout_1 (Dropout)          (None, 128)               0         
2020-01-14 12:43:16,227 [INFO] _________________________________________________________________
2020-01-14 12:43:16,227 [INFO] dense_2 (Dense)              (None, 64)                8256      
2020-01-14 12:43:16,227 [INFO] _________________________________________________________________
2020-01-14 12:43:16,227 [INFO] batch_normalization_2 (Batch (None, 64)                256       
2020-01-14 12:43:16,227 [INFO] _________________________________________________________________
2020-01-14 12:43:16,227 [INFO] dropout_2 (Dropout)          (None, 64)                0         
2020-01-14 12:43:16,228 [INFO] _________________________________________________________________
2020-01-14 12:43:16,228 [INFO] dense_3 (Dense)              (None, 32)                2080      
2020-01-14 12:43:16,228 [INFO] _________________________________________________________________
2020-01-14 12:43:16,228 [INFO] batch_normalization_3 (Batch (None, 32)                128       
2020-01-14 12:43:16,228 [INFO] _________________________________________________________________
2020-01-14 12:43:16,228 [INFO] dropout_3 (Dropout)          (None, 32)                0         
2020-01-14 12:43:16,228 [INFO] _________________________________________________________________
2020-01-14 12:43:16,228 [INFO] dense_4 (Dense)              (None, 64)                2112      
2020-01-14 12:43:16,228 [INFO] _________________________________________________________________
2020-01-14 12:43:16,228 [INFO] batch_normalization_4 (Batch (None, 64)                256       
2020-01-14 12:43:16,228 [INFO] _________________________________________________________________
2020-01-14 12:43:16,228 [INFO] dropout_4 (Dropout)          (None, 64)                0         
2020-01-14 12:43:16,228 [INFO] _________________________________________________________________
2020-01-14 12:43:16,228 [INFO] dense_5 (Dense)              (None, 128)               8320      
2020-01-14 12:43:16,228 [INFO] _________________________________________________________________
2020-01-14 12:43:16,228 [INFO] batch_normalization_5 (Batch (None, 128)               512       
2020-01-14 12:43:16,228 [INFO] _________________________________________________________________
2020-01-14 12:43:16,228 [INFO] dropout_5 (Dropout)          (None, 128)               0         
2020-01-14 12:43:16,228 [INFO] _________________________________________________________________
2020-01-14 12:43:16,229 [INFO] dense_6 (Dense)              (None, 122)               15738     
2020-01-14 12:43:16,229 [INFO] =================================================================
2020-01-14 12:43:16,229 [INFO] Total params: 53,914
2020-01-14 12:43:16,229 [INFO] Trainable params: 53,082
2020-01-14 12:43:16,229 [INFO] Non-trainable params: 832
2020-01-14 12:43:16,229 [INFO] _________________________________________________________________
2020-01-14 12:43:16,331 [INFO] _________________________________________________________________
2020-01-14 12:43:16,331 [INFO] Layer (type)                 Output Shape              Param #   
2020-01-14 12:43:16,331 [INFO] =================================================================
2020-01-14 12:43:16,331 [INFO] dense_7 (Dense)              (None, 64)                2112      
2020-01-14 12:43:16,331 [INFO] _________________________________________________________________
2020-01-14 12:43:16,331 [INFO] batch_normalization_6 (Batch (None, 64)                256       
2020-01-14 12:43:16,331 [INFO] _________________________________________________________________
2020-01-14 12:43:16,332 [INFO] dropout_6 (Dropout)          (None, 64)                0         
2020-01-14 12:43:16,332 [INFO] _________________________________________________________________
2020-01-14 12:43:16,332 [INFO] dense_8 (Dense)              (None, 5)                 325       
2020-01-14 12:43:16,332 [INFO] =================================================================
2020-01-14 12:43:16,332 [INFO] Total params: 2,693
2020-01-14 12:43:16,332 [INFO] Trainable params: 2,565
2020-01-14 12:43:16,332 [INFO] Non-trainable params: 128
2020-01-14 12:43:16,332 [INFO] _________________________________________________________________
2020-01-14 12:43:16,332 [INFO] Training model
…
2020-01-14 12:45:56,897 [INFO] Reading complete. time_to_read=0.17 seconds
2020-01-14 12:45:56,897 [INFO] Reading HDF dataset ../Datasets/full_datasets/ids2017/y_test.h5
2020-01-14 12:45:57,064 [INFO] Reading complete. time_to_read=0.17 seconds
2020-01-14 12:46:00,481 [INFO] Initializing model
2020-01-14 12:46:00,904 [INFO] _________________________________________________________________
2020-01-14 12:46:00,904 [INFO] Layer (type)                 Output Shape              Param #   
2020-01-14 12:46:00,904 [INFO] =================================================================
2020-01-14 12:46:00,904 [INFO] dense_25 (Dense)             (None, 128)               10112     
2020-01-14 12:46:00,904 [INFO] _________________________________________________________________
2020-01-14 12:46:00,904 [INFO] batch_normalization_19 (Batc (None, 128)               512       
2020-01-14 12:46:00,904 [INFO] _________________________________________________________________
2020-01-14 12:46:00,904 [INFO] dropout_19 (Dropout)         (None, 128)               0         
2020-01-14 12:46:00,904 [INFO] _________________________________________________________________
2020-01-14 12:46:00,904 [INFO] dense_26 (Dense)             (None, 64)                8256      
2020-01-14 12:46:00,904 [INFO] _________________________________________________________________
2020-01-14 12:46:00,905 [INFO] batch_normalization_20 (Batc (None, 64)                256       
2020-01-14 12:46:00,905 [INFO] _________________________________________________________________
2020-01-14 12:46:00,905 [INFO] dropout_20 (Dropout)         (None, 64)                0         
2020-01-14 12:46:00,905 [INFO] _________________________________________________________________
2020-01-14 12:46:00,905 [INFO] dense_27 (Dense)             (None, 32)                2080      
2020-01-14 12:46:00,905 [INFO] _________________________________________________________________
2020-01-14 12:46:00,905 [INFO] batch_normalization_21 (Batc (None, 32)                128       
2020-01-14 12:46:00,905 [INFO] _________________________________________________________________
2020-01-14 12:46:00,905 [INFO] dropout_21 (Dropout)         (None, 32)                0         
2020-01-14 12:46:00,905 [INFO] _________________________________________________________________
2020-01-14 12:46:00,905 [INFO] dense_28 (Dense)             (None, 64)                2112      
2020-01-14 12:46:00,905 [INFO] _________________________________________________________________
2020-01-14 12:46:00,905 [INFO] batch_normalization_22 (Batc (None, 64)                256       
2020-01-14 12:46:00,905 [INFO] _________________________________________________________________
2020-01-14 12:46:00,905 [INFO] dropout_22 (Dropout)         (None, 64)                0         
2020-01-14 12:46:00,905 [INFO] _________________________________________________________________
2020-01-14 12:46:00,905 [INFO] dense_29 (Dense)             (None, 128)               8320      
2020-01-14 12:46:00,905 [INFO] _________________________________________________________________
2020-01-14 12:46:00,906 [INFO] batch_normalization_23 (Batc (None, 128)               512       
2020-01-14 12:46:00,906 [INFO] _________________________________________________________________
2020-01-14 12:46:00,906 [INFO] dropout_23 (Dropout)         (None, 128)               0         
2020-01-14 12:46:00,906 [INFO] _________________________________________________________________
2020-01-14 12:46:00,906 [INFO] dense_30 (Dense)             (None, 78)                10062     
2020-01-14 12:46:00,906 [INFO] =================================================================
2020-01-14 12:46:00,906 [INFO] Total params: 42,606
2020-01-14 12:46:00,906 [INFO] Trainable params: 41,774
2020-01-14 12:46:00,906 [INFO] Non-trainable params: 832
2020-01-14 12:46:00,906 [INFO] _________________________________________________________________
2020-01-14 12:46:01,013 [INFO] _________________________________________________________________
2020-01-14 12:46:01,013 [INFO] Layer (type)                 Output Shape              Param #   
2020-01-14 12:46:01,013 [INFO] =================================================================
2020-01-14 12:46:01,014 [INFO] dense_31 (Dense)             (None, 64)                2112      
2020-01-14 12:46:01,014 [INFO] _________________________________________________________________
2020-01-14 12:46:01,014 [INFO] batch_normalization_24 (Batc (None, 64)                256       
2020-01-14 12:46:01,014 [INFO] _________________________________________________________________
2020-01-14 12:46:01,014 [INFO] dropout_24 (Dropout)         (None, 64)                0         
2020-01-14 12:46:01,014 [INFO] _________________________________________________________________
2020-01-14 12:46:01,014 [INFO] dense_32 (Dense)             (None, 12)                780       
2020-01-14 12:46:01,014 [INFO] =================================================================
2020-01-14 12:46:01,014 [INFO] Total params: 3,148
2020-01-14 12:46:01,014 [INFO] Trainable params: 3,020
2020-01-14 12:46:01,014 [INFO] Non-trainable params: 128
2020-01-14 12:46:01,014 [INFO] _________________________________________________________________
2020-01-14 12:46:01,014 [INFO] Training model
…
2020-01-14 17:01:19,554 [INFO] Reading complete. time_to_read=0.09 seconds
2020-01-14 17:01:19,554 [INFO] Reading HDF dataset ../Datasets/small_datasets/ids2018/y_test.h5
2020-01-14 17:01:19,640 [INFO] Reading complete. time_to_read=0.09 seconds
2020-01-14 17:01:23,604 [INFO] Initializing model
2020-01-14 17:01:24,071 [INFO] _________________________________________________________________
2020-01-14 17:01:24,072 [INFO] Layer (type)                 Output Shape              Param #   
2020-01-14 17:01:24,072 [INFO] =================================================================
2020-01-14 17:01:24,072 [INFO] dense_49 (Dense)             (None, 128)               9984      
2020-01-14 17:01:24,072 [INFO] _________________________________________________________________
2020-01-14 17:01:24,072 [INFO] batch_normalization_37 (Batc (None, 128)               512       
2020-01-14 17:01:24,072 [INFO] _________________________________________________________________
2020-01-14 17:01:24,072 [INFO] dropout_37 (Dropout)         (None, 128)               0         
2020-01-14 17:01:24,072 [INFO] _________________________________________________________________
2020-01-14 17:01:24,072 [INFO] dense_50 (Dense)             (None, 64)                8256      
2020-01-14 17:01:24,072 [INFO] _________________________________________________________________
2020-01-14 17:01:24,072 [INFO] batch_normalization_38 (Batc (None, 64)                256       
2020-01-14 17:01:24,072 [INFO] _________________________________________________________________
2020-01-14 17:01:24,072 [INFO] dropout_38 (Dropout)         (None, 64)                0         
2020-01-14 17:01:24,072 [INFO] _________________________________________________________________
2020-01-14 17:01:24,072 [INFO] dense_51 (Dense)             (None, 32)                2080      
2020-01-14 17:01:24,072 [INFO] _________________________________________________________________
2020-01-14 17:01:24,073 [INFO] batch_normalization_39 (Batc (None, 32)                128       
2020-01-14 17:01:24,073 [INFO] _________________________________________________________________
2020-01-14 17:01:24,073 [INFO] dropout_39 (Dropout)         (None, 32)                0         
2020-01-14 17:01:24,073 [INFO] _________________________________________________________________
2020-01-14 17:01:24,073 [INFO] dense_52 (Dense)             (None, 64)                2112      
2020-01-14 17:01:24,073 [INFO] _________________________________________________________________
2020-01-14 17:01:24,073 [INFO] batch_normalization_40 (Batc (None, 64)                256       
2020-01-14 17:01:24,073 [INFO] _________________________________________________________________
2020-01-14 17:01:24,073 [INFO] dropout_40 (Dropout)         (None, 64)                0         
2020-01-14 17:01:24,073 [INFO] _________________________________________________________________
2020-01-14 17:01:24,073 [INFO] dense_53 (Dense)             (None, 128)               8320      
2020-01-14 17:01:24,073 [INFO] _________________________________________________________________
2020-01-14 17:01:24,073 [INFO] batch_normalization_41 (Batc (None, 128)               512       
2020-01-14 17:01:24,073 [INFO] _________________________________________________________________
2020-01-14 17:01:24,073 [INFO] dropout_41 (Dropout)         (None, 128)               0         
2020-01-14 17:01:24,073 [INFO] _________________________________________________________________
2020-01-14 17:01:24,073 [INFO] dense_54 (Dense)             (None, 77)                9933      
2020-01-14 17:01:24,073 [INFO] =================================================================
2020-01-14 17:01:24,074 [INFO] Total params: 42,349
2020-01-14 17:01:24,074 [INFO] Trainable params: 41,517
2020-01-14 17:01:24,074 [INFO] Non-trainable params: 832
2020-01-14 17:01:24,074 [INFO] _________________________________________________________________
2020-01-14 17:01:24,182 [INFO] _________________________________________________________________
2020-01-14 17:01:24,182 [INFO] Layer (type)                 Output Shape              Param #   
2020-01-14 17:01:24,182 [INFO] =================================================================
2020-01-14 17:01:24,182 [INFO] dense_55 (Dense)             (None, 64)                2112      
2020-01-14 17:01:24,182 [INFO] _________________________________________________________________
2020-01-14 17:01:24,182 [INFO] batch_normalization_42 (Batc (None, 64)                256       
2020-01-14 17:01:24,182 [INFO] _________________________________________________________________
2020-01-14 17:01:24,182 [INFO] dropout_42 (Dropout)         (None, 64)                0         
2020-01-14 17:01:24,182 [INFO] _________________________________________________________________
2020-01-14 17:01:24,183 [INFO] dense_56 (Dense)             (None, 15)                975       
2020-01-14 17:01:24,183 [INFO] =================================================================
2020-01-14 17:01:24,183 [INFO] Total params: 3,343
2020-01-14 17:01:24,183 [INFO] Trainable params: 3,215
2020-01-14 17:01:24,183 [INFO] Non-trainable params: 128
2020-01-14 17:01:24,183 [INFO] _________________________________________________________________
2020-01-14 17:01:24,183 [INFO] Training model
…
2020-01-14 17:44:58,453 [INFO] Reading complete. time_to_read=0.12 seconds
2020-01-14 17:44:58,453 [INFO] Reading HDF dataset ../Datasets/full_datasets/kdd99_five_classes/y_test.h5
2020-01-14 17:44:58,499 [INFO] Reading complete. time_to_read=0.05 seconds
2020-01-14 17:45:49,962 [INFO] Initializing model
2020-01-14 17:45:53,687 [INFO] _________________________________________________________________
2020-01-14 17:45:53,689 [INFO] Layer (type)                 Output Shape              Param #   
2020-01-14 17:45:53,690 [INFO] =================================================================
2020-01-14 17:45:53,691 [INFO] dense_73 (Dense)             (None, 128)               15872     
2020-01-14 17:45:53,691 [INFO] _________________________________________________________________
2020-01-14 17:45:53,691 [INFO] batch_normalization_55 (Batc (None, 128)               512       
2020-01-14 17:45:53,691 [INFO] _________________________________________________________________
2020-01-14 17:45:53,691 [INFO] dropout_55 (Dropout)         (None, 128)               0         
2020-01-14 17:45:53,691 [INFO] _________________________________________________________________
2020-01-14 17:45:53,692 [INFO] dense_74 (Dense)             (None, 64)                8256      
2020-01-14 17:45:53,692 [INFO] _________________________________________________________________
2020-01-14 17:45:53,692 [INFO] batch_normalization_56 (Batc (None, 64)                256       
2020-01-14 17:45:53,692 [INFO] _________________________________________________________________
2020-01-14 17:45:53,692 [INFO] dropout_56 (Dropout)         (None, 64)                0         
2020-01-14 17:45:53,692 [INFO] _________________________________________________________________
2020-01-14 17:45:53,692 [INFO] dense_75 (Dense)             (None, 32)                2080      
2020-01-14 17:45:53,692 [INFO] _________________________________________________________________
2020-01-14 17:45:53,692 [INFO] batch_normalization_57 (Batc (None, 32)                128       
2020-01-14 17:45:53,693 [INFO] _________________________________________________________________
2020-01-14 17:45:53,693 [INFO] dropout_57 (Dropout)         (None, 32)                0         
2020-01-14 17:45:53,693 [INFO] _________________________________________________________________
2020-01-14 17:45:53,693 [INFO] dense_76 (Dense)             (None, 64)                2112      
2020-01-14 17:45:53,693 [INFO] _________________________________________________________________
2020-01-14 17:45:53,693 [INFO] batch_normalization_58 (Batc (None, 64)                256       
2020-01-14 17:45:53,693 [INFO] _________________________________________________________________
2020-01-14 17:45:53,693 [INFO] dropout_58 (Dropout)         (None, 64)                0         
2020-01-14 17:45:53,693 [INFO] _________________________________________________________________
2020-01-14 17:45:53,694 [INFO] dense_77 (Dense)             (None, 128)               8320      
2020-01-14 17:45:53,694 [INFO] _________________________________________________________________
2020-01-14 17:45:53,694 [INFO] batch_normalization_59 (Batc (None, 128)               512       
2020-01-14 17:45:53,694 [INFO] _________________________________________________________________
2020-01-14 17:45:53,694 [INFO] dropout_59 (Dropout)         (None, 128)               0         
2020-01-14 17:45:53,694 [INFO] _________________________________________________________________
2020-01-14 17:45:53,694 [INFO] dense_78 (Dense)             (None, 123)               15867     
2020-01-14 17:45:53,694 [INFO] =================================================================
2020-01-14 17:45:53,695 [INFO] Total params: 54,171
2020-01-14 17:45:53,695 [INFO] Trainable params: 53,339
2020-01-14 17:45:53,695 [INFO] Non-trainable params: 832
2020-01-14 17:45:53,695 [INFO] _________________________________________________________________
2020-01-14 17:45:54,105 [INFO] _________________________________________________________________
2020-01-14 17:45:54,106 [INFO] Layer (type)                 Output Shape              Param #   
2020-01-14 17:45:54,106 [INFO] =================================================================
2020-01-14 17:45:54,106 [INFO] dense_79 (Dense)             (None, 64)                2112      
2020-01-14 17:45:54,106 [INFO] _________________________________________________________________
2020-01-14 17:45:54,107 [INFO] batch_normalization_60 (Batc (None, 64)                256       
2020-01-14 17:45:54,107 [INFO] _________________________________________________________________
2020-01-14 17:45:54,108 [INFO] dropout_60 (Dropout)         (None, 64)                0         
2020-01-14 17:45:54,108 [INFO] _________________________________________________________________
2020-01-14 17:45:54,108 [INFO] dense_80 (Dense)             (None, 5)                 325       
2020-01-14 17:45:54,108 [INFO] =================================================================
2020-01-14 17:45:54,109 [INFO] Total params: 2,693
2020-01-14 17:45:54,109 [INFO] Trainable params: 2,565
2020-01-14 17:45:54,109 [INFO] Non-trainable params: 128
2020-01-14 17:45:54,109 [INFO] _________________________________________________________________
2020-01-14 17:45:54,109 [INFO] Training model
…
