…
2019-12-24 01:39:44,210 [INFO] Reading complete. time_to_read=0.00 seconds
2019-12-24 01:39:44,210 [INFO] Reading HDF dataset ../Datasets/small_datasets/nsl_kdd_five_classes/y_test.h5
2019-12-24 01:39:44,214 [INFO] Reading complete. time_to_read=0.00 seconds
2019-12-24 01:39:44,324 [INFO] Initializing model
2019-12-24 01:39:44,837 [INFO] _________________________________________________________________
2019-12-24 01:39:44,837 [INFO] Layer (type)                 Output Shape              Param #   
2019-12-24 01:39:44,838 [INFO] =================================================================
2019-12-24 01:39:44,838 [INFO] dense_45 (Dense)             (None, 128)               15744     
2019-12-24 01:39:44,838 [INFO] _________________________________________________________________
2019-12-24 01:39:44,838 [INFO] batch_normalization_29 (Batc (None, 128)               512       
2019-12-24 01:39:44,838 [INFO] _________________________________________________________________
2019-12-24 01:39:44,838 [INFO] dropout_29 (Dropout)         (None, 128)               0         
2019-12-24 01:39:44,838 [INFO] _________________________________________________________________
2019-12-24 01:39:44,838 [INFO] dense_46 (Dense)             (None, 64)                8256      
2019-12-24 01:39:44,838 [INFO] _________________________________________________________________
2019-12-24 01:39:44,838 [INFO] batch_normalization_30 (Batc (None, 64)                256       
2019-12-24 01:39:44,838 [INFO] _________________________________________________________________
2019-12-24 01:39:44,838 [INFO] dropout_30 (Dropout)         (None, 64)                0         
2019-12-24 01:39:44,839 [INFO] _________________________________________________________________
2019-12-24 01:39:44,839 [INFO] dense_47 (Dense)             (None, 32)                2080      
2019-12-24 01:39:44,839 [INFO] _________________________________________________________________
2019-12-24 01:39:44,839 [INFO] batch_normalization_31 (Batc (None, 32)                128       
2019-12-24 01:39:44,839 [INFO] _________________________________________________________________
2019-12-24 01:39:44,839 [INFO] dropout_31 (Dropout)         (None, 32)                0         
2019-12-24 01:39:44,839 [INFO] _________________________________________________________________
2019-12-24 01:39:44,839 [INFO] dense_48 (Dense)             (None, 64)                2112      
2019-12-24 01:39:44,839 [INFO] _________________________________________________________________
2019-12-24 01:39:44,839 [INFO] batch_normalization_32 (Batc (None, 64)                256       
2019-12-24 01:39:44,839 [INFO] _________________________________________________________________
2019-12-24 01:39:44,839 [INFO] dropout_32 (Dropout)         (None, 64)                0         
2019-12-24 01:39:44,840 [INFO] _________________________________________________________________
2019-12-24 01:39:44,840 [INFO] dense_49 (Dense)             (None, 128)               8320      
2019-12-24 01:39:44,840 [INFO] _________________________________________________________________
2019-12-24 01:39:44,840 [INFO] batch_normalization_33 (Batc (None, 128)               512       
2019-12-24 01:39:44,840 [INFO] _________________________________________________________________
2019-12-24 01:39:44,840 [INFO] dropout_33 (Dropout)         (None, 128)               0         
2019-12-24 01:39:44,840 [INFO] _________________________________________________________________
2019-12-24 01:39:44,840 [INFO] dense_50 (Dense)             (None, 122)               15738     
2019-12-24 01:39:44,840 [INFO] =================================================================
2019-12-24 01:39:44,841 [INFO] Total params: 53,914
2019-12-24 01:39:44,841 [INFO] Trainable params: 53,082
2019-12-24 01:39:44,841 [INFO] Non-trainable params: 832
2019-12-24 01:39:44,841 [INFO] _________________________________________________________________
2019-12-24 01:39:44,972 [INFO] _________________________________________________________________
2019-12-24 01:39:44,972 [INFO] Layer (type)                 Output Shape              Param #   
2019-12-24 01:39:44,972 [INFO] =================================================================
2019-12-24 01:39:44,972 [INFO] dense_51 (Dense)             (None, 64)                2112      
2019-12-24 01:39:44,972 [INFO] _________________________________________________________________
2019-12-24 01:39:44,972 [INFO] batch_normalization_34 (Batc (None, 64)                256       
2019-12-24 01:39:44,972 [INFO] _________________________________________________________________
2019-12-24 01:39:44,972 [INFO] dropout_34 (Dropout)         (None, 64)                0         
2019-12-24 01:39:44,972 [INFO] _________________________________________________________________
2019-12-24 01:39:44,972 [INFO] dense_52 (Dense)             (None, 5)                 325       
2019-12-24 01:39:44,973 [INFO] =================================================================
2019-12-24 01:39:44,973 [INFO] Total params: 2,693
2019-12-24 01:39:44,973 [INFO] Trainable params: 2,565
2019-12-24 01:39:44,973 [INFO] Non-trainable params: 128
2019-12-24 01:39:44,973 [INFO] _________________________________________________________________
2019-12-24 01:39:44,973 [INFO] Training model
…
