…
2019-12-31 00:02:23,437 [INFO] Reading complete. time_to_read=0.08 seconds
2019-12-31 00:02:23,437 [INFO] Reading HDF dataset ../Datasets/small_datasets/ids2018/y_test.h5
2019-12-31 00:02:23,523 [INFO] Reading complete. time_to_read=0.09 seconds
2019-12-31 00:02:27,411 [INFO] Initializing model
2019-12-31 00:02:27,938 [INFO] _________________________________________________________________
2019-12-31 00:02:27,938 [INFO] Layer (type)                 Output Shape              Param #   
2019-12-31 00:02:27,938 [INFO] =================================================================
2019-12-31 00:02:27,938 [INFO] dense_15 (Dense)             (None, 256)               19968     
2019-12-31 00:02:27,938 [INFO] _________________________________________________________________
2019-12-31 00:02:27,938 [INFO] batch_normalization_11 (Batc (None, 256)               1024      
2019-12-31 00:02:27,938 [INFO] _________________________________________________________________
2019-12-31 00:02:27,938 [INFO] dropout_11 (Dropout)         (None, 256)               0         
2019-12-31 00:02:27,938 [INFO] _________________________________________________________________
2019-12-31 00:02:27,939 [INFO] dense_16 (Dense)             (None, 128)               32896     
2019-12-31 00:02:27,939 [INFO] _________________________________________________________________
2019-12-31 00:02:27,939 [INFO] batch_normalization_12 (Batc (None, 128)               512       
2019-12-31 00:02:27,939 [INFO] _________________________________________________________________
2019-12-31 00:02:27,939 [INFO] dropout_12 (Dropout)         (None, 128)               0         
2019-12-31 00:02:27,939 [INFO] _________________________________________________________________
2019-12-31 00:02:27,939 [INFO] dense_17 (Dense)             (None, 64)                8256      
2019-12-31 00:02:27,939 [INFO] _________________________________________________________________
2019-12-31 00:02:27,939 [INFO] batch_normalization_13 (Batc (None, 64)                256       
2019-12-31 00:02:27,939 [INFO] _________________________________________________________________
2019-12-31 00:02:27,939 [INFO] dropout_13 (Dropout)         (None, 64)                0         
2019-12-31 00:02:27,939 [INFO] _________________________________________________________________
2019-12-31 00:02:27,939 [INFO] dense_18 (Dense)             (None, 32)                2080      
2019-12-31 00:02:27,939 [INFO] _________________________________________________________________
2019-12-31 00:02:27,939 [INFO] batch_normalization_14 (Batc (None, 32)                128       
2019-12-31 00:02:27,939 [INFO] _________________________________________________________________
2019-12-31 00:02:27,939 [INFO] dropout_14 (Dropout)         (None, 32)                0         
2019-12-31 00:02:27,940 [INFO] _________________________________________________________________
2019-12-31 00:02:27,940 [INFO] dense_19 (Dense)             (None, 16)                528       
2019-12-31 00:02:27,940 [INFO] _________________________________________________________________
2019-12-31 00:02:27,940 [INFO] batch_normalization_15 (Batc (None, 16)                64        
2019-12-31 00:02:27,940 [INFO] _________________________________________________________________
2019-12-31 00:02:27,940 [INFO] dropout_15 (Dropout)         (None, 16)                0         
2019-12-31 00:02:27,940 [INFO] _________________________________________________________________
2019-12-31 00:02:27,940 [INFO] dense_20 (Dense)             (None, 15)                255       
2019-12-31 00:02:27,940 [INFO] =================================================================
2019-12-31 00:02:27,940 [INFO] Total params: 65,967
2019-12-31 00:02:27,940 [INFO] Trainable params: 64,975
2019-12-31 00:02:27,940 [INFO] Non-trainable params: 992
2019-12-31 00:02:27,940 [INFO] _________________________________________________________________
2019-12-31 00:02:27,940 [INFO] Training model
…
