…
2020-01-14 17:15:00,357 [INFO] Reading complete. time_to_read=0.19 seconds
2020-01-14 17:15:00,357 [INFO] Reading HDF dataset ../Datasets/small_datasets/ids2018/y_test.h5
2020-01-14 17:15:00,531 [INFO] Reading complete. time_to_read=0.17 seconds
2020-01-14 17:15:04,492 [INFO] Initializing model
2020-01-14 17:15:05,176 [INFO] _________________________________________________________________
2020-01-14 17:15:05,176 [INFO] Layer (type)                 Output Shape              Param #   
2020-01-14 17:15:05,176 [INFO] =================================================================
2020-01-14 17:15:05,176 [INFO] dense_57 (Dense)             (None, 128)               9984      
2020-01-14 17:15:05,177 [INFO] _________________________________________________________________
2020-01-14 17:15:05,177 [INFO] batch_normalization_43 (Batc (None, 128)               512       
2020-01-14 17:15:05,177 [INFO] _________________________________________________________________
2020-01-14 17:15:05,177 [INFO] dropout_43 (Dropout)         (None, 128)               0         
2020-01-14 17:15:05,177 [INFO] _________________________________________________________________
2020-01-14 17:15:05,177 [INFO] dense_58 (Dense)             (None, 64)                8256      
2020-01-14 17:15:05,177 [INFO] _________________________________________________________________
2020-01-14 17:15:05,177 [INFO] batch_normalization_44 (Batc (None, 64)                256       
2020-01-14 17:15:05,177 [INFO] _________________________________________________________________
2020-01-14 17:15:05,177 [INFO] dropout_44 (Dropout)         (None, 64)                0         
2020-01-14 17:15:05,177 [INFO] _________________________________________________________________
2020-01-14 17:15:05,177 [INFO] dense_59 (Dense)             (None, 32)                2080      
2020-01-14 17:15:05,177 [INFO] _________________________________________________________________
2020-01-14 17:15:05,177 [INFO] batch_normalization_45 (Batc (None, 32)                128       
2020-01-14 17:15:05,177 [INFO] _________________________________________________________________
2020-01-14 17:15:05,177 [INFO] dropout_45 (Dropout)         (None, 32)                0         
2020-01-14 17:15:05,177 [INFO] _________________________________________________________________
2020-01-14 17:15:05,178 [INFO] dense_60 (Dense)             (None, 64)                2112      
2020-01-14 17:15:05,178 [INFO] _________________________________________________________________
2020-01-14 17:15:05,178 [INFO] batch_normalization_46 (Batc (None, 64)                256       
2020-01-14 17:15:05,178 [INFO] _________________________________________________________________
2020-01-14 17:15:05,178 [INFO] dropout_46 (Dropout)         (None, 64)                0         
2020-01-14 17:15:05,178 [INFO] _________________________________________________________________
2020-01-14 17:15:05,178 [INFO] dense_61 (Dense)             (None, 128)               8320      
2020-01-14 17:15:05,178 [INFO] _________________________________________________________________
2020-01-14 17:15:05,178 [INFO] batch_normalization_47 (Batc (None, 128)               512       
2020-01-14 17:15:05,178 [INFO] _________________________________________________________________
2020-01-14 17:15:05,178 [INFO] dropout_47 (Dropout)         (None, 128)               0         
2020-01-14 17:15:05,178 [INFO] _________________________________________________________________
2020-01-14 17:15:05,178 [INFO] dense_62 (Dense)             (None, 77)                9933      
2020-01-14 17:15:05,178 [INFO] =================================================================
2020-01-14 17:15:05,178 [INFO] Total params: 42,349
2020-01-14 17:15:05,179 [INFO] Trainable params: 41,517
2020-01-14 17:15:05,179 [INFO] Non-trainable params: 832
2020-01-14 17:15:05,179 [INFO] _________________________________________________________________
2020-01-14 17:15:05,288 [INFO] _________________________________________________________________
2020-01-14 17:15:05,288 [INFO] Layer (type)                 Output Shape              Param #   
2020-01-14 17:15:05,288 [INFO] =================================================================
2020-01-14 17:15:05,288 [INFO] dense_63 (Dense)             (None, 64)                2112      
2020-01-14 17:15:05,288 [INFO] _________________________________________________________________
2020-01-14 17:15:05,288 [INFO] batch_normalization_48 (Batc (None, 64)                256       
2020-01-14 17:15:05,288 [INFO] _________________________________________________________________
2020-01-14 17:15:05,288 [INFO] dropout_48 (Dropout)         (None, 64)                0         
2020-01-14 17:15:05,288 [INFO] _________________________________________________________________
2020-01-14 17:15:05,288 [INFO] dense_64 (Dense)             (None, 15)                975       
2020-01-14 17:15:05,288 [INFO] =================================================================
2020-01-14 17:15:05,288 [INFO] Total params: 3,343
2020-01-14 17:15:05,288 [INFO] Trainable params: 3,215
2020-01-14 17:15:05,288 [INFO] Non-trainable params: 128
2020-01-14 17:15:05,288 [INFO] _________________________________________________________________
2020-01-14 17:15:05,288 [INFO] Training model
…
