…
2020-01-08 16:16:54,328 [WARNING] From /home/sunanda/test/ml_env/lib/python3.6/site-packages/keras/backend/tensorflow_backend.py:3445: calling dropout (from tensorflow.python.ops.nn_ops) with keep_prob is deprecated and will be removed in a future version.
Instructions for updating:
Please use `rate` instead of `keep_prob`. Rate should be set to `rate = 1 - keep_prob`.
2020-01-08 16:16:54,726 [INFO] _________________________________________________________________
2020-01-08 16:16:54,726 [INFO] Layer (type)                 Output Shape              Param #   
2020-01-08 16:16:54,726 [INFO] =================================================================
2020-01-08 16:16:54,726 [INFO] dense_1 (Dense)              (None, 64)                5056      
2020-01-08 16:16:54,726 [INFO] _________________________________________________________________
2020-01-08 16:16:54,726 [INFO] batch_normalization_1 (Batch (None, 64)                256       
2020-01-08 16:16:54,726 [INFO] _________________________________________________________________
2020-01-08 16:16:54,726 [INFO] dropout_1 (Dropout)          (None, 64)                0         
2020-01-08 16:16:54,726 [INFO] _________________________________________________________________
2020-01-08 16:16:54,726 [INFO] dense_2 (Dense)              (None, 64)                4160      
2020-01-08 16:16:54,727 [INFO] _________________________________________________________________
2020-01-08 16:16:54,727 [INFO] batch_normalization_2 (Batch (None, 64)                256       
2020-01-08 16:16:54,727 [INFO] _________________________________________________________________
2020-01-08 16:16:54,727 [INFO] dropout_2 (Dropout)          (None, 64)                0         
2020-01-08 16:16:54,727 [INFO] _________________________________________________________________
2020-01-08 16:16:54,727 [INFO] dense_3 (Dense)              (None, 64)                4160      
2020-01-08 16:16:54,727 [INFO] _________________________________________________________________
2020-01-08 16:16:54,727 [INFO] batch_normalization_3 (Batch (None, 64)                256       
2020-01-08 16:16:54,727 [INFO] _________________________________________________________________
2020-01-08 16:16:54,727 [INFO] dropout_3 (Dropout)          (None, 64)                0         
2020-01-08 16:16:54,727 [INFO] _________________________________________________________________
2020-01-08 16:16:54,727 [INFO] dense_4 (Dense)              (None, 64)                4160      
2020-01-08 16:16:54,727 [INFO] _________________________________________________________________
2020-01-08 16:16:54,727 [INFO] batch_normalization_4 (Batch (None, 64)                256       
2020-01-08 16:16:54,727 [INFO] _________________________________________________________________
2020-01-08 16:16:54,727 [INFO] dropout_4 (Dropout)          (None, 64)                0         
2020-01-08 16:16:54,727 [INFO] _________________________________________________________________
2020-01-08 16:16:54,728 [INFO] dense_5 (Dense)              (None, 64)                4160      
2020-01-08 16:16:54,728 [INFO] _________________________________________________________________
2020-01-08 16:16:54,728 [INFO] batch_normalization_5 (Batch (None, 64)                256       
2020-01-08 16:16:54,728 [INFO] _________________________________________________________________
2020-01-08 16:16:54,728 [INFO] dropout_5 (Dropout)          (None, 64)                0         
2020-01-08 16:16:54,728 [INFO] _________________________________________________________________
2020-01-08 16:16:54,728 [INFO] dense_6 (Dense)              (None, 64)                4160      
2020-01-08 16:16:54,728 [INFO] _________________________________________________________________
2020-01-08 16:16:54,728 [INFO] batch_normalization_6 (Batch (None, 64)                256       
2020-01-08 16:16:54,728 [INFO] _________________________________________________________________
2020-01-08 16:16:54,728 [INFO] dropout_6 (Dropout)          (None, 64)                0         
2020-01-08 16:16:54,728 [INFO] _________________________________________________________________
2020-01-08 16:16:54,728 [INFO] dense_7 (Dense)              (None, 12)                780       
2020-01-08 16:16:54,728 [INFO] =================================================================
2020-01-08 16:16:54,729 [INFO] Total params: 28,172
2020-01-08 16:16:54,729 [INFO] Trainable params: 27,404
2020-01-08 16:16:54,729 [INFO] Non-trainable params: 768
2020-01-08 16:16:54,729 [INFO] _________________________________________________________________
2020-01-08 16:16:54,729 [INFO] Training model
…
