…
2020-01-14 00:09:32,823 [INFO] Reading complete. time_to_read=0.10 seconds
2020-01-14 00:09:32,823 [INFO] Reading HDF dataset ../Datasets/small_datasets/ids2018/y_test.h5
2020-01-14 00:09:32,921 [INFO] Reading complete. time_to_read=0.10 seconds
2020-01-14 00:09:36,336 [INFO] Initializing model
2020-01-14 00:09:36,755 [INFO] _________________________________________________________________
2020-01-14 00:09:36,755 [INFO] Layer (type)                 Output Shape              Param #   
2020-01-14 00:09:36,755 [INFO] =================================================================
2020-01-14 00:09:36,755 [INFO] dense_40 (Dense)             (None, 128)               9984      
2020-01-14 00:09:36,755 [INFO] _________________________________________________________________
2020-01-14 00:09:36,755 [INFO] batch_normalization_31 (Batc (None, 128)               512       
2020-01-14 00:09:36,755 [INFO] _________________________________________________________________
2020-01-14 00:09:36,755 [INFO] dropout_31 (Dropout)         (None, 128)               0         
2020-01-14 00:09:36,755 [INFO] _________________________________________________________________
2020-01-14 00:09:36,756 [INFO] dense_41 (Dense)             (None, 64)                8256      
2020-01-14 00:09:36,756 [INFO] _________________________________________________________________
2020-01-14 00:09:36,756 [INFO] batch_normalization_32 (Batc (None, 64)                256       
2020-01-14 00:09:36,756 [INFO] _________________________________________________________________
2020-01-14 00:09:36,756 [INFO] dropout_32 (Dropout)         (None, 64)                0         
2020-01-14 00:09:36,756 [INFO] _________________________________________________________________
2020-01-14 00:09:36,756 [INFO] dense_42 (Dense)             (None, 32)                2080      
2020-01-14 00:09:36,756 [INFO] _________________________________________________________________
2020-01-14 00:09:36,756 [INFO] batch_normalization_33 (Batc (None, 32)                128       
2020-01-14 00:09:36,756 [INFO] _________________________________________________________________
2020-01-14 00:09:36,756 [INFO] dropout_33 (Dropout)         (None, 32)                0         
2020-01-14 00:09:36,756 [INFO] _________________________________________________________________
2020-01-14 00:09:36,757 [INFO] dense_43 (Dense)             (None, 16)                528       
2020-01-14 00:09:36,757 [INFO] _________________________________________________________________
2020-01-14 00:09:36,757 [INFO] batch_normalization_34 (Batc (None, 16)                64        
2020-01-14 00:09:36,757 [INFO] _________________________________________________________________
2020-01-14 00:09:36,757 [INFO] dropout_34 (Dropout)         (None, 16)                0         
2020-01-14 00:09:36,757 [INFO] _________________________________________________________________
2020-01-14 00:09:36,757 [INFO] dense_44 (Dense)             (None, 15)                255       
2020-01-14 00:09:36,757 [INFO] =================================================================
2020-01-14 00:09:36,757 [INFO] Total params: 22,063
2020-01-14 00:09:36,758 [INFO] Trainable params: 21,583
2020-01-14 00:09:36,758 [INFO] Non-trainable params: 480
2020-01-14 00:09:36,758 [INFO] _________________________________________________________________
2020-01-14 00:09:36,758 [INFO] Training model
…
