…
2020-01-08 14:00:13,424 [INFO] Reading complete. time_to_read=0.00 seconds
2020-01-08 14:00:13,425 [INFO] Reading HDF dataset ../Datasets/small_datasets/nsl_kdd_five_classes/y_test.h5
2020-01-08 14:00:13,428 [INFO] Reading complete. time_to_read=0.00 seconds
2020-01-08 14:00:13,618 [INFO] Initializing model
2020-01-08 14:00:13,860 [INFO] _________________________________________________________________
2020-01-08 14:00:13,860 [INFO] Layer (type)                 Output Shape              Param #   
2020-01-08 14:00:13,860 [INFO] =================================================================
2020-01-08 14:00:13,861 [INFO] dense_3 (Dense)              (None, 64)                7872      
2020-01-08 14:00:13,861 [INFO] _________________________________________________________________
2020-01-08 14:00:13,861 [INFO] batch_normalization_2 (Batch (None, 64)                256       
2020-01-08 14:00:13,861 [INFO] _________________________________________________________________
2020-01-08 14:00:13,861 [INFO] dropout_2 (Dropout)          (None, 64)                0         
2020-01-08 14:00:13,861 [INFO] _________________________________________________________________
2020-01-08 14:00:13,861 [INFO] dense_4 (Dense)              (None, 64)                4160      
2020-01-08 14:00:13,861 [INFO] _________________________________________________________________
2020-01-08 14:00:13,861 [INFO] batch_normalization_3 (Batch (None, 64)                256       
2020-01-08 14:00:13,861 [INFO] _________________________________________________________________
2020-01-08 14:00:13,861 [INFO] dropout_3 (Dropout)          (None, 64)                0         
2020-01-08 14:00:13,861 [INFO] _________________________________________________________________
2020-01-08 14:00:13,861 [INFO] dense_5 (Dense)              (None, 5)                 325       
2020-01-08 14:00:13,861 [INFO] =================================================================
2020-01-08 14:00:13,861 [INFO] Total params: 12,869
2020-01-08 14:00:13,861 [INFO] Trainable params: 12,613
2020-01-08 14:00:13,861 [INFO] Non-trainable params: 256
2020-01-08 14:00:13,862 [INFO] _________________________________________________________________
2020-01-08 14:00:13,862 [INFO] Training model
…
2020-01-08 14:04:40,538 [INFO] Reading complete. time_to_read=0.00 seconds
2020-01-08 14:04:40,538 [INFO] Reading HDF dataset ../Datasets/small_datasets/nsl_kdd_five_classes/y_test.h5
2020-01-08 14:04:40,542 [INFO] Reading complete. time_to_read=0.00 seconds
2020-01-08 14:04:40,732 [INFO] Initializing model
2020-01-08 14:04:41,059 [INFO] _________________________________________________________________
2020-01-08 14:04:41,061 [INFO] Layer (type)                 Output Shape              Param #   
2020-01-08 14:04:41,061 [INFO] =================================================================
2020-01-08 14:04:41,061 [INFO] dense_6 (Dense)              (None, 64)                7872      
2020-01-08 14:04:41,062 [INFO] _________________________________________________________________
2020-01-08 14:04:41,062 [INFO] batch_normalization_4 (Batch (None, 64)                256       
2020-01-08 14:04:41,062 [INFO] _________________________________________________________________
2020-01-08 14:04:41,062 [INFO] dropout_4 (Dropout)          (None, 64)                0         
2020-01-08 14:04:41,062 [INFO] _________________________________________________________________
2020-01-08 14:04:41,062 [INFO] dense_7 (Dense)              (None, 64)                4160      
2020-01-08 14:04:41,062 [INFO] _________________________________________________________________
2020-01-08 14:04:41,062 [INFO] batch_normalization_5 (Batch (None, 64)                256       
2020-01-08 14:04:41,062 [INFO] _________________________________________________________________
2020-01-08 14:04:41,062 [INFO] dropout_5 (Dropout)          (None, 64)                0         
2020-01-08 14:04:41,062 [INFO] _________________________________________________________________
2020-01-08 14:04:41,062 [INFO] dense_8 (Dense)              (None, 64)                4160      
2020-01-08 14:04:41,062 [INFO] _________________________________________________________________
2020-01-08 14:04:41,062 [INFO] batch_normalization_6 (Batch (None, 64)                256       
2020-01-08 14:04:41,062 [INFO] _________________________________________________________________
2020-01-08 14:04:41,062 [INFO] dropout_6 (Dropout)          (None, 64)                0         
2020-01-08 14:04:41,062 [INFO] _________________________________________________________________
2020-01-08 14:04:41,063 [INFO] dense_9 (Dense)              (None, 5)                 325       
2020-01-08 14:04:41,063 [INFO] =================================================================
2020-01-08 14:04:41,063 [INFO] Total params: 17,285
2020-01-08 14:04:41,063 [INFO] Trainable params: 16,901
2020-01-08 14:04:41,063 [INFO] Non-trainable params: 384
2020-01-08 14:04:41,063 [INFO] _________________________________________________________________
2020-01-08 14:04:41,063 [INFO] Training model
…
2020-01-08 14:10:37,137 [INFO] Reading complete. time_to_read=0.00 seconds
2020-01-08 14:10:37,137 [INFO] Reading HDF dataset ../Datasets/small_datasets/nsl_kdd_five_classes/y_test.h5
2020-01-08 14:10:37,141 [INFO] Reading complete. time_to_read=0.00 seconds
2020-01-08 14:10:37,331 [INFO] Initializing model
2020-01-08 14:10:37,660 [INFO] _________________________________________________________________
2020-01-08 14:10:37,660 [INFO] Layer (type)                 Output Shape              Param #   
2020-01-08 14:10:37,660 [INFO] =================================================================
2020-01-08 14:10:37,660 [INFO] dense_10 (Dense)             (None, 64)                7872      
2020-01-08 14:10:37,660 [INFO] _________________________________________________________________
2020-01-08 14:10:37,660 [INFO] batch_normalization_7 (Batch (None, 64)                256       
2020-01-08 14:10:37,660 [INFO] _________________________________________________________________
2020-01-08 14:10:37,660 [INFO] dropout_7 (Dropout)          (None, 64)                0         
2020-01-08 14:10:37,660 [INFO] _________________________________________________________________
2020-01-08 14:10:37,660 [INFO] dense_11 (Dense)             (None, 64)                4160      
2020-01-08 14:10:37,660 [INFO] _________________________________________________________________
2020-01-08 14:10:37,661 [INFO] batch_normalization_8 (Batch (None, 64)                256       
2020-01-08 14:10:37,661 [INFO] _________________________________________________________________
2020-01-08 14:10:37,661 [INFO] dropout_8 (Dropout)          (None, 64)                0         
2020-01-08 14:10:37,661 [INFO] _________________________________________________________________
2020-01-08 14:10:37,661 [INFO] dense_12 (Dense)             (None, 64)                4160      
2020-01-08 14:10:37,661 [INFO] _________________________________________________________________
2020-01-08 14:10:37,661 [INFO] batch_normalization_9 (Batch (None, 64)                256       
2020-01-08 14:10:37,661 [INFO] _________________________________________________________________
2020-01-08 14:10:37,661 [INFO] dropout_9 (Dropout)          (None, 64)                0         
2020-01-08 14:10:37,661 [INFO] _________________________________________________________________
2020-01-08 14:10:37,661 [INFO] dense_13 (Dense)             (None, 64)                4160      
2020-01-08 14:10:37,661 [INFO] _________________________________________________________________
2020-01-08 14:10:37,661 [INFO] batch_normalization_10 (Batc (None, 64)                256       
2020-01-08 14:10:37,661 [INFO] _________________________________________________________________
2020-01-08 14:10:37,661 [INFO] dropout_10 (Dropout)         (None, 64)                0         
2020-01-08 14:10:37,661 [INFO] _________________________________________________________________
2020-01-08 14:10:37,661 [INFO] dense_14 (Dense)             (None, 5)                 325       
2020-01-08 14:10:37,661 [INFO] =================================================================
2020-01-08 14:10:37,662 [INFO] Total params: 21,701
2020-01-08 14:10:37,662 [INFO] Trainable params: 21,189
2020-01-08 14:10:37,662 [INFO] Non-trainable params: 512
2020-01-08 14:10:37,662 [INFO] _________________________________________________________________
2020-01-08 14:10:37,662 [INFO] Training model
…
2020-01-08 14:16:07,057 [INFO] Reading complete. time_to_read=0.00 seconds
2020-01-08 14:16:07,057 [INFO] Reading HDF dataset ../Datasets/small_datasets/nsl_kdd_five_classes/y_test.h5
2020-01-08 14:16:07,060 [INFO] Reading complete. time_to_read=0.00 seconds
2020-01-08 14:16:07,250 [INFO] Initializing model
2020-01-08 14:16:07,658 [INFO] _________________________________________________________________
2020-01-08 14:16:07,658 [INFO] Layer (type)                 Output Shape              Param #   
2020-01-08 14:16:07,658 [INFO] =================================================================
2020-01-08 14:16:07,658 [INFO] dense_15 (Dense)             (None, 64)                7872      
2020-01-08 14:16:07,658 [INFO] _________________________________________________________________
2020-01-08 14:16:07,658 [INFO] batch_normalization_11 (Batc (None, 64)                256       
2020-01-08 14:16:07,658 [INFO] _________________________________________________________________
2020-01-08 14:16:07,658 [INFO] dropout_11 (Dropout)         (None, 64)                0         
2020-01-08 14:16:07,658 [INFO] _________________________________________________________________
2020-01-08 14:16:07,658 [INFO] dense_16 (Dense)             (None, 64)                4160      
2020-01-08 14:16:07,658 [INFO] _________________________________________________________________
2020-01-08 14:16:07,658 [INFO] batch_normalization_12 (Batc (None, 64)                256       
2020-01-08 14:16:07,658 [INFO] _________________________________________________________________
2020-01-08 14:16:07,658 [INFO] dropout_12 (Dropout)         (None, 64)                0         
2020-01-08 14:16:07,658 [INFO] _________________________________________________________________
2020-01-08 14:16:07,658 [INFO] dense_17 (Dense)             (None, 64)                4160      
2020-01-08 14:16:07,659 [INFO] _________________________________________________________________
2020-01-08 14:16:07,659 [INFO] batch_normalization_13 (Batc (None, 64)                256       
2020-01-08 14:16:07,659 [INFO] _________________________________________________________________
2020-01-08 14:16:07,659 [INFO] dropout_13 (Dropout)         (None, 64)                0         
2020-01-08 14:16:07,659 [INFO] _________________________________________________________________
2020-01-08 14:16:07,659 [INFO] dense_18 (Dense)             (None, 64)                4160      
2020-01-08 14:16:07,659 [INFO] _________________________________________________________________
2020-01-08 14:16:07,659 [INFO] batch_normalization_14 (Batc (None, 64)                256       
2020-01-08 14:16:07,659 [INFO] _________________________________________________________________
2020-01-08 14:16:07,659 [INFO] dropout_14 (Dropout)         (None, 64)                0         
2020-01-08 14:16:07,659 [INFO] _________________________________________________________________
2020-01-08 14:16:07,659 [INFO] dense_19 (Dense)             (None, 64)                4160      
2020-01-08 14:16:07,659 [INFO] _________________________________________________________________
2020-01-08 14:16:07,659 [INFO] batch_normalization_15 (Batc (None, 64)                256       
2020-01-08 14:16:07,659 [INFO] _________________________________________________________________
2020-01-08 14:16:07,659 [INFO] dropout_15 (Dropout)         (None, 64)                0         
2020-01-08 14:16:07,659 [INFO] _________________________________________________________________
2020-01-08 14:16:07,659 [INFO] dense_20 (Dense)             (None, 5)                 325       
2020-01-08 14:16:07,659 [INFO] =================================================================
2020-01-08 14:16:07,660 [INFO] Total params: 26,117
2020-01-08 14:16:07,660 [INFO] Trainable params: 25,477
2020-01-08 14:16:07,660 [INFO] Non-trainable params: 640
2020-01-08 14:16:07,660 [INFO] _________________________________________________________________
2020-01-08 14:16:07,660 [INFO] Training model
…
2020-01-08 14:22:18,061 [INFO] Reading complete. time_to_read=0.00 seconds
2020-01-08 14:22:18,061 [INFO] Reading HDF dataset ../Datasets/small_datasets/nsl_kdd_five_classes/y_test.h5
2020-01-08 14:22:18,065 [INFO] Reading complete. time_to_read=0.00 seconds
2020-01-08 14:22:18,251 [INFO] Initializing model
2020-01-08 14:22:18,742 [INFO] _________________________________________________________________
2020-01-08 14:22:18,742 [INFO] Layer (type)                 Output Shape              Param #   
2020-01-08 14:22:18,742 [INFO] =================================================================
2020-01-08 14:22:18,742 [INFO] dense_21 (Dense)             (None, 64)                7872      
2020-01-08 14:22:18,742 [INFO] _________________________________________________________________
2020-01-08 14:22:18,742 [INFO] batch_normalization_16 (Batc (None, 64)                256       
2020-01-08 14:22:18,742 [INFO] _________________________________________________________________
2020-01-08 14:22:18,742 [INFO] dropout_16 (Dropout)         (None, 64)                0         
2020-01-08 14:22:18,742 [INFO] _________________________________________________________________
2020-01-08 14:22:18,742 [INFO] dense_22 (Dense)             (None, 64)                4160      
2020-01-08 14:22:18,742 [INFO] _________________________________________________________________
2020-01-08 14:22:18,742 [INFO] batch_normalization_17 (Batc (None, 64)                256       
2020-01-08 14:22:18,742 [INFO] _________________________________________________________________
2020-01-08 14:22:18,742 [INFO] dropout_17 (Dropout)         (None, 64)                0         
2020-01-08 14:22:18,742 [INFO] _________________________________________________________________
2020-01-08 14:22:18,742 [INFO] dense_23 (Dense)             (None, 64)                4160      
2020-01-08 14:22:18,743 [INFO] _________________________________________________________________
2020-01-08 14:22:18,743 [INFO] batch_normalization_18 (Batc (None, 64)                256       
2020-01-08 14:22:18,743 [INFO] _________________________________________________________________
2020-01-08 14:22:18,743 [INFO] dropout_18 (Dropout)         (None, 64)                0         
2020-01-08 14:22:18,743 [INFO] _________________________________________________________________
2020-01-08 14:22:18,743 [INFO] dense_24 (Dense)             (None, 64)                4160      
2020-01-08 14:22:18,743 [INFO] _________________________________________________________________
2020-01-08 14:22:18,743 [INFO] batch_normalization_19 (Batc (None, 64)                256       
2020-01-08 14:22:18,743 [INFO] _________________________________________________________________
2020-01-08 14:22:18,743 [INFO] dropout_19 (Dropout)         (None, 64)                0         
2020-01-08 14:22:18,743 [INFO] _________________________________________________________________
2020-01-08 14:22:18,743 [INFO] dense_25 (Dense)             (None, 64)                4160      
2020-01-08 14:22:18,743 [INFO] _________________________________________________________________
2020-01-08 14:22:18,743 [INFO] batch_normalization_20 (Batc (None, 64)                256       
2020-01-08 14:22:18,743 [INFO] _________________________________________________________________
2020-01-08 14:22:18,743 [INFO] dropout_20 (Dropout)         (None, 64)                0         
2020-01-08 14:22:18,743 [INFO] _________________________________________________________________
2020-01-08 14:22:18,743 [INFO] dense_26 (Dense)             (None, 64)                4160      
2020-01-08 14:22:18,744 [INFO] _________________________________________________________________
2020-01-08 14:22:18,744 [INFO] batch_normalization_21 (Batc (None, 64)                256       
2020-01-08 14:22:18,744 [INFO] _________________________________________________________________
2020-01-08 14:22:18,744 [INFO] dropout_21 (Dropout)         (None, 64)                0         
2020-01-08 14:22:18,744 [INFO] _________________________________________________________________
2020-01-08 14:22:18,744 [INFO] dense_27 (Dense)             (None, 5)                 325       
2020-01-08 14:22:18,744 [INFO] =================================================================
2020-01-08 14:22:18,744 [INFO] Total params: 30,533
2020-01-08 14:22:18,744 [INFO] Trainable params: 29,765
2020-01-08 14:22:18,744 [INFO] Non-trainable params: 768
2020-01-08 14:22:18,744 [INFO] _________________________________________________________________
2020-01-08 14:22:18,744 [INFO] Training model
…
2020-01-08 14:31:59,075 [INFO] Reading complete. time_to_read=0.00 seconds
2020-01-08 14:31:59,075 [INFO] Reading HDF dataset ../Datasets/small_datasets/nsl_kdd_five_classes/y_test.h5
2020-01-08 14:31:59,078 [INFO] Reading complete. time_to_read=0.00 seconds
2020-01-08 14:31:59,268 [INFO] Initializing model
2020-01-08 14:31:59,847 [INFO] _________________________________________________________________
2020-01-08 14:31:59,847 [INFO] Layer (type)                 Output Shape              Param #   
2020-01-08 14:31:59,847 [INFO] =================================================================
2020-01-08 14:31:59,847 [INFO] dense_28 (Dense)             (None, 64)                7872      
2020-01-08 14:31:59,847 [INFO] _________________________________________________________________
2020-01-08 14:31:59,848 [INFO] batch_normalization_22 (Batc (None, 64)                256       
2020-01-08 14:31:59,848 [INFO] _________________________________________________________________
2020-01-08 14:31:59,848 [INFO] dropout_22 (Dropout)         (None, 64)                0         
2020-01-08 14:31:59,848 [INFO] _________________________________________________________________
2020-01-08 14:31:59,848 [INFO] dense_29 (Dense)             (None, 64)                4160      
2020-01-08 14:31:59,848 [INFO] _________________________________________________________________
2020-01-08 14:31:59,848 [INFO] batch_normalization_23 (Batc (None, 64)                256       
2020-01-08 14:31:59,848 [INFO] _________________________________________________________________
2020-01-08 14:31:59,848 [INFO] dropout_23 (Dropout)         (None, 64)                0         
2020-01-08 14:31:59,848 [INFO] _________________________________________________________________
2020-01-08 14:31:59,848 [INFO] dense_30 (Dense)             (None, 64)                4160      
2020-01-08 14:31:59,848 [INFO] _________________________________________________________________
2020-01-08 14:31:59,848 [INFO] batch_normalization_24 (Batc (None, 64)                256       
2020-01-08 14:31:59,848 [INFO] _________________________________________________________________
2020-01-08 14:31:59,848 [INFO] dropout_24 (Dropout)         (None, 64)                0         
2020-01-08 14:31:59,848 [INFO] _________________________________________________________________
2020-01-08 14:31:59,848 [INFO] dense_31 (Dense)             (None, 64)                4160      
2020-01-08 14:31:59,848 [INFO] _________________________________________________________________
2020-01-08 14:31:59,849 [INFO] batch_normalization_25 (Batc (None, 64)                256       
2020-01-08 14:31:59,849 [INFO] _________________________________________________________________
2020-01-08 14:31:59,849 [INFO] dropout_25 (Dropout)         (None, 64)                0         
2020-01-08 14:31:59,849 [INFO] _________________________________________________________________
2020-01-08 14:31:59,849 [INFO] dense_32 (Dense)             (None, 64)                4160      
2020-01-08 14:31:59,849 [INFO] _________________________________________________________________
2020-01-08 14:31:59,849 [INFO] batch_normalization_26 (Batc (None, 64)                256       
2020-01-08 14:31:59,849 [INFO] _________________________________________________________________
2020-01-08 14:31:59,849 [INFO] dropout_26 (Dropout)         (None, 64)                0         
2020-01-08 14:31:59,849 [INFO] _________________________________________________________________
2020-01-08 14:31:59,849 [INFO] dense_33 (Dense)             (None, 64)                4160      
2020-01-08 14:31:59,849 [INFO] _________________________________________________________________
2020-01-08 14:31:59,849 [INFO] batch_normalization_27 (Batc (None, 64)                256       
2020-01-08 14:31:59,849 [INFO] _________________________________________________________________
2020-01-08 14:31:59,849 [INFO] dropout_27 (Dropout)         (None, 64)                0         
2020-01-08 14:31:59,849 [INFO] _________________________________________________________________
2020-01-08 14:31:59,849 [INFO] dense_34 (Dense)             (None, 64)                4160      
2020-01-08 14:31:59,849 [INFO] _________________________________________________________________
2020-01-08 14:31:59,850 [INFO] batch_normalization_28 (Batc (None, 64)                256       
2020-01-08 14:31:59,850 [INFO] _________________________________________________________________
2020-01-08 14:31:59,850 [INFO] dropout_28 (Dropout)         (None, 64)                0         
2020-01-08 14:31:59,850 [INFO] _________________________________________________________________
2020-01-08 14:31:59,850 [INFO] dense_35 (Dense)             (None, 5)                 325       
2020-01-08 14:31:59,850 [INFO] =================================================================
2020-01-08 14:31:59,850 [INFO] Total params: 34,949
2020-01-08 14:31:59,850 [INFO] Trainable params: 34,053
2020-01-08 14:31:59,850 [INFO] Non-trainable params: 896
2020-01-08 14:31:59,850 [INFO] _________________________________________________________________
2020-01-08 14:31:59,850 [INFO] Training model
…
2020-01-08 14:41:32,984 [INFO] Reading complete. time_to_read=0.00 seconds
2020-01-08 14:41:32,984 [INFO] Reading HDF dataset ../Datasets/small_datasets/nsl_kdd_five_classes/y_test.h5
2020-01-08 14:41:32,987 [INFO] Reading complete. time_to_read=0.00 seconds
2020-01-08 14:41:33,176 [INFO] Initializing model
2020-01-08 14:41:33,850 [INFO] _________________________________________________________________
2020-01-08 14:41:33,853 [INFO] Layer (type)                 Output Shape              Param #   
2020-01-08 14:41:33,853 [INFO] =================================================================
2020-01-08 14:41:33,853 [INFO] dense_36 (Dense)             (None, 64)                7872      
2020-01-08 14:41:33,853 [INFO] _________________________________________________________________
2020-01-08 14:41:33,853 [INFO] batch_normalization_29 (Batc (None, 64)                256       
2020-01-08 14:41:33,853 [INFO] _________________________________________________________________
2020-01-08 14:41:33,853 [INFO] dropout_29 (Dropout)         (None, 64)                0         
2020-01-08 14:41:33,853 [INFO] _________________________________________________________________
2020-01-08 14:41:33,853 [INFO] dense_37 (Dense)             (None, 64)                4160      
2020-01-08 14:41:33,853 [INFO] _________________________________________________________________
2020-01-08 14:41:33,853 [INFO] batch_normalization_30 (Batc (None, 64)                256       
2020-01-08 14:41:33,853 [INFO] _________________________________________________________________
2020-01-08 14:41:33,853 [INFO] dropout_30 (Dropout)         (None, 64)                0         
2020-01-08 14:41:33,853 [INFO] _________________________________________________________________
2020-01-08 14:41:33,853 [INFO] dense_38 (Dense)             (None, 64)                4160      
2020-01-08 14:41:33,853 [INFO] _________________________________________________________________
2020-01-08 14:41:33,854 [INFO] batch_normalization_31 (Batc (None, 64)                256       
2020-01-08 14:41:33,854 [INFO] _________________________________________________________________
2020-01-08 14:41:33,854 [INFO] dropout_31 (Dropout)         (None, 64)                0         
2020-01-08 14:41:33,854 [INFO] _________________________________________________________________
2020-01-08 14:41:33,854 [INFO] dense_39 (Dense)             (None, 64)                4160      
2020-01-08 14:41:33,854 [INFO] _________________________________________________________________
2020-01-08 14:41:33,854 [INFO] batch_normalization_32 (Batc (None, 64)                256       
2020-01-08 14:41:33,854 [INFO] _________________________________________________________________
2020-01-08 14:41:33,854 [INFO] dropout_32 (Dropout)         (None, 64)                0         
2020-01-08 14:41:33,854 [INFO] _________________________________________________________________
2020-01-08 14:41:33,854 [INFO] dense_40 (Dense)             (None, 64)                4160      
2020-01-08 14:41:33,854 [INFO] _________________________________________________________________
2020-01-08 14:41:33,854 [INFO] batch_normalization_33 (Batc (None, 64)                256       
2020-01-08 14:41:33,854 [INFO] _________________________________________________________________
2020-01-08 14:41:33,854 [INFO] dropout_33 (Dropout)         (None, 64)                0         
2020-01-08 14:41:33,854 [INFO] _________________________________________________________________
2020-01-08 14:41:33,854 [INFO] dense_41 (Dense)             (None, 64)                4160      
2020-01-08 14:41:33,854 [INFO] _________________________________________________________________
2020-01-08 14:41:33,855 [INFO] batch_normalization_34 (Batc (None, 64)                256       
2020-01-08 14:41:33,855 [INFO] _________________________________________________________________
2020-01-08 14:41:33,855 [INFO] dropout_34 (Dropout)         (None, 64)                0         
2020-01-08 14:41:33,855 [INFO] _________________________________________________________________
2020-01-08 14:41:33,855 [INFO] dense_42 (Dense)             (None, 64)                4160      
2020-01-08 14:41:33,855 [INFO] _________________________________________________________________
2020-01-08 14:41:33,855 [INFO] batch_normalization_35 (Batc (None, 64)                256       
2020-01-08 14:41:33,855 [INFO] _________________________________________________________________
2020-01-08 14:41:33,855 [INFO] dropout_35 (Dropout)         (None, 64)                0         
2020-01-08 14:41:33,855 [INFO] _________________________________________________________________
2020-01-08 14:41:33,855 [INFO] dense_43 (Dense)             (None, 64)                4160      
2020-01-08 14:41:33,855 [INFO] _________________________________________________________________
2020-01-08 14:41:33,855 [INFO] batch_normalization_36 (Batc (None, 64)                256       
2020-01-08 14:41:33,855 [INFO] _________________________________________________________________
2020-01-08 14:41:33,855 [INFO] dropout_36 (Dropout)         (None, 64)                0         
2020-01-08 14:41:33,855 [INFO] _________________________________________________________________
2020-01-08 14:41:33,855 [INFO] dense_44 (Dense)             (None, 5)                 325       
2020-01-08 14:41:33,855 [INFO] =================================================================
2020-01-08 14:41:33,856 [INFO] Total params: 39,365
2020-01-08 14:41:33,856 [INFO] Trainable params: 38,341
2020-01-08 14:41:33,856 [INFO] Non-trainable params: 1,024
2020-01-08 14:41:33,856 [INFO] _________________________________________________________________
2020-01-08 14:41:33,856 [INFO] Training model
…
2020-01-08 14:54:18,837 [INFO] Reading complete. time_to_read=0.00 seconds
2020-01-08 14:54:18,837 [INFO] Reading HDF dataset ../Datasets/small_datasets/nsl_kdd_five_classes/y_test.h5
2020-01-08 14:54:18,840 [INFO] Reading complete. time_to_read=0.00 seconds
2020-01-08 14:54:19,029 [INFO] Initializing model
2020-01-08 14:54:19,810 [INFO] _________________________________________________________________
2020-01-08 14:54:19,810 [INFO] Layer (type)                 Output Shape              Param #   
2020-01-08 14:54:19,810 [INFO] =================================================================
2020-01-08 14:54:19,810 [INFO] dense_45 (Dense)             (None, 64)                7872      
2020-01-08 14:54:19,810 [INFO] _________________________________________________________________
2020-01-08 14:54:19,810 [INFO] batch_normalization_37 (Batc (None, 64)                256       
2020-01-08 14:54:19,810 [INFO] _________________________________________________________________
2020-01-08 14:54:19,810 [INFO] dropout_37 (Dropout)         (None, 64)                0         
2020-01-08 14:54:19,810 [INFO] _________________________________________________________________
2020-01-08 14:54:19,810 [INFO] dense_46 (Dense)             (None, 64)                4160      
2020-01-08 14:54:19,811 [INFO] _________________________________________________________________
2020-01-08 14:54:19,811 [INFO] batch_normalization_38 (Batc (None, 64)                256       
2020-01-08 14:54:19,811 [INFO] _________________________________________________________________
2020-01-08 14:54:19,811 [INFO] dropout_38 (Dropout)         (None, 64)                0         
2020-01-08 14:54:19,811 [INFO] _________________________________________________________________
2020-01-08 14:54:19,811 [INFO] dense_47 (Dense)             (None, 64)                4160      
2020-01-08 14:54:19,811 [INFO] _________________________________________________________________
2020-01-08 14:54:19,811 [INFO] batch_normalization_39 (Batc (None, 64)                256       
2020-01-08 14:54:19,811 [INFO] _________________________________________________________________
2020-01-08 14:54:19,811 [INFO] dropout_39 (Dropout)         (None, 64)                0         
2020-01-08 14:54:19,811 [INFO] _________________________________________________________________
2020-01-08 14:54:19,811 [INFO] dense_48 (Dense)             (None, 64)                4160      
2020-01-08 14:54:19,811 [INFO] _________________________________________________________________
2020-01-08 14:54:19,811 [INFO] batch_normalization_40 (Batc (None, 64)                256       
2020-01-08 14:54:19,811 [INFO] _________________________________________________________________
2020-01-08 14:54:19,811 [INFO] dropout_40 (Dropout)         (None, 64)                0         
2020-01-08 14:54:19,811 [INFO] _________________________________________________________________
2020-01-08 14:54:19,811 [INFO] dense_49 (Dense)             (None, 64)                4160      
2020-01-08 14:54:19,812 [INFO] _________________________________________________________________
2020-01-08 14:54:19,812 [INFO] batch_normalization_41 (Batc (None, 64)                256       
2020-01-08 14:54:19,812 [INFO] _________________________________________________________________
2020-01-08 14:54:19,812 [INFO] dropout_41 (Dropout)         (None, 64)                0         
2020-01-08 14:54:19,812 [INFO] _________________________________________________________________
2020-01-08 14:54:19,812 [INFO] dense_50 (Dense)             (None, 64)                4160      
2020-01-08 14:54:19,812 [INFO] _________________________________________________________________
2020-01-08 14:54:19,812 [INFO] batch_normalization_42 (Batc (None, 64)                256       
2020-01-08 14:54:19,812 [INFO] _________________________________________________________________
2020-01-08 14:54:19,812 [INFO] dropout_42 (Dropout)         (None, 64)                0         
2020-01-08 14:54:19,812 [INFO] _________________________________________________________________
2020-01-08 14:54:19,812 [INFO] dense_51 (Dense)             (None, 64)                4160      
2020-01-08 14:54:19,812 [INFO] _________________________________________________________________
2020-01-08 14:54:19,812 [INFO] batch_normalization_43 (Batc (None, 64)                256       
2020-01-08 14:54:19,812 [INFO] _________________________________________________________________
2020-01-08 14:54:19,812 [INFO] dropout_43 (Dropout)         (None, 64)                0         
2020-01-08 14:54:19,812 [INFO] _________________________________________________________________
2020-01-08 14:54:19,812 [INFO] dense_52 (Dense)             (None, 64)                4160      
2020-01-08 14:54:19,813 [INFO] _________________________________________________________________
2020-01-08 14:54:19,813 [INFO] batch_normalization_44 (Batc (None, 64)                256       
2020-01-08 14:54:19,813 [INFO] _________________________________________________________________
2020-01-08 14:54:19,813 [INFO] dropout_44 (Dropout)         (None, 64)                0         
2020-01-08 14:54:19,813 [INFO] _________________________________________________________________
2020-01-08 14:54:19,813 [INFO] dense_53 (Dense)             (None, 64)                4160      
2020-01-08 14:54:19,813 [INFO] _________________________________________________________________
2020-01-08 14:54:19,813 [INFO] batch_normalization_45 (Batc (None, 64)                256       
2020-01-08 14:54:19,813 [INFO] _________________________________________________________________
2020-01-08 14:54:19,813 [INFO] dropout_45 (Dropout)         (None, 64)                0         
2020-01-08 14:54:19,813 [INFO] _________________________________________________________________
2020-01-08 14:54:19,813 [INFO] dense_54 (Dense)             (None, 5)                 325       
2020-01-08 14:54:19,813 [INFO] =================================================================
2020-01-08 14:54:19,814 [INFO] Total params: 43,781
2020-01-08 14:54:19,814 [INFO] Trainable params: 42,629
2020-01-08 14:54:19,814 [INFO] Non-trainable params: 1,152
2020-01-08 14:54:19,814 [INFO] _________________________________________________________________
2020-01-08 14:54:19,814 [INFO] Training model
…
2020-01-08 15:06:15,347 [INFO] Reading complete. time_to_read=0.00 seconds
2020-01-08 15:06:15,348 [INFO] Reading HDF dataset ../Datasets/small_datasets/nsl_kdd_five_classes/y_test.h5
2020-01-08 15:06:15,351 [INFO] Reading complete. time_to_read=0.00 seconds
2020-01-08 15:06:15,539 [INFO] Initializing model
2020-01-08 15:06:16,427 [INFO] _________________________________________________________________
2020-01-08 15:06:16,427 [INFO] Layer (type)                 Output Shape              Param #   
2020-01-08 15:06:16,427 [INFO] =================================================================
2020-01-08 15:06:16,427 [INFO] dense_55 (Dense)             (None, 64)                7872      
2020-01-08 15:06:16,427 [INFO] _________________________________________________________________
2020-01-08 15:06:16,428 [INFO] batch_normalization_46 (Batc (None, 64)                256       
2020-01-08 15:06:16,428 [INFO] _________________________________________________________________
2020-01-08 15:06:16,428 [INFO] dropout_46 (Dropout)         (None, 64)                0         
2020-01-08 15:06:16,428 [INFO] _________________________________________________________________
2020-01-08 15:06:16,428 [INFO] dense_56 (Dense)             (None, 64)                4160      
2020-01-08 15:06:16,428 [INFO] _________________________________________________________________
2020-01-08 15:06:16,428 [INFO] batch_normalization_47 (Batc (None, 64)                256       
2020-01-08 15:06:16,428 [INFO] _________________________________________________________________
2020-01-08 15:06:16,428 [INFO] dropout_47 (Dropout)         (None, 64)                0         
2020-01-08 15:06:16,428 [INFO] _________________________________________________________________
2020-01-08 15:06:16,428 [INFO] dense_57 (Dense)             (None, 64)                4160      
2020-01-08 15:06:16,428 [INFO] _________________________________________________________________
2020-01-08 15:06:16,428 [INFO] batch_normalization_48 (Batc (None, 64)                256       
2020-01-08 15:06:16,428 [INFO] _________________________________________________________________
2020-01-08 15:06:16,428 [INFO] dropout_48 (Dropout)         (None, 64)                0         
2020-01-08 15:06:16,428 [INFO] _________________________________________________________________
2020-01-08 15:06:16,428 [INFO] dense_58 (Dense)             (None, 64)                4160      
2020-01-08 15:06:16,428 [INFO] _________________________________________________________________
2020-01-08 15:06:16,429 [INFO] batch_normalization_49 (Batc (None, 64)                256       
2020-01-08 15:06:16,429 [INFO] _________________________________________________________________
2020-01-08 15:06:16,429 [INFO] dropout_49 (Dropout)         (None, 64)                0         
2020-01-08 15:06:16,429 [INFO] _________________________________________________________________
2020-01-08 15:06:16,429 [INFO] dense_59 (Dense)             (None, 64)                4160      
2020-01-08 15:06:16,429 [INFO] _________________________________________________________________
2020-01-08 15:06:16,429 [INFO] batch_normalization_50 (Batc (None, 64)                256       
2020-01-08 15:06:16,429 [INFO] _________________________________________________________________
2020-01-08 15:06:16,429 [INFO] dropout_50 (Dropout)         (None, 64)                0         
2020-01-08 15:06:16,429 [INFO] _________________________________________________________________
2020-01-08 15:06:16,429 [INFO] dense_60 (Dense)             (None, 64)                4160      
2020-01-08 15:06:16,429 [INFO] _________________________________________________________________
2020-01-08 15:06:16,429 [INFO] batch_normalization_51 (Batc (None, 64)                256       
2020-01-08 15:06:16,429 [INFO] _________________________________________________________________
2020-01-08 15:06:16,429 [INFO] dropout_51 (Dropout)         (None, 64)                0         
2020-01-08 15:06:16,429 [INFO] _________________________________________________________________
2020-01-08 15:06:16,429 [INFO] dense_61 (Dense)             (None, 64)                4160      
2020-01-08 15:06:16,429 [INFO] _________________________________________________________________
2020-01-08 15:06:16,430 [INFO] batch_normalization_52 (Batc (None, 64)                256       
2020-01-08 15:06:16,430 [INFO] _________________________________________________________________
2020-01-08 15:06:16,430 [INFO] dropout_52 (Dropout)         (None, 64)                0         
2020-01-08 15:06:16,430 [INFO] _________________________________________________________________
2020-01-08 15:06:16,430 [INFO] dense_62 (Dense)             (None, 64)                4160      
2020-01-08 15:06:16,430 [INFO] _________________________________________________________________
2020-01-08 15:06:16,430 [INFO] batch_normalization_53 (Batc (None, 64)                256       
2020-01-08 15:06:16,430 [INFO] _________________________________________________________________
2020-01-08 15:06:16,430 [INFO] dropout_53 (Dropout)         (None, 64)                0         
2020-01-08 15:06:16,430 [INFO] _________________________________________________________________
2020-01-08 15:06:16,430 [INFO] dense_63 (Dense)             (None, 64)                4160      
2020-01-08 15:06:16,430 [INFO] _________________________________________________________________
2020-01-08 15:06:16,430 [INFO] batch_normalization_54 (Batc (None, 64)                256       
2020-01-08 15:06:16,430 [INFO] _________________________________________________________________
2020-01-08 15:06:16,430 [INFO] dropout_54 (Dropout)         (None, 64)                0         
2020-01-08 15:06:16,430 [INFO] _________________________________________________________________
2020-01-08 15:06:16,430 [INFO] dense_64 (Dense)             (None, 64)                4160      
2020-01-08 15:06:16,430 [INFO] _________________________________________________________________
2020-01-08 15:06:16,431 [INFO] batch_normalization_55 (Batc (None, 64)                256       
2020-01-08 15:06:16,431 [INFO] _________________________________________________________________
2020-01-08 15:06:16,431 [INFO] dropout_55 (Dropout)         (None, 64)                0         
2020-01-08 15:06:16,431 [INFO] _________________________________________________________________
2020-01-08 15:06:16,431 [INFO] dense_65 (Dense)             (None, 5)                 325       
2020-01-08 15:06:16,431 [INFO] =================================================================
2020-01-08 15:06:16,431 [INFO] Total params: 48,197
2020-01-08 15:06:16,431 [INFO] Trainable params: 46,917
2020-01-08 15:06:16,431 [INFO] Non-trainable params: 1,280
2020-01-08 15:06:16,431 [INFO] _________________________________________________________________
2020-01-08 15:06:16,431 [INFO] Training model
…
