…
2020-01-08 17:53:32,505 [INFO] Reading complete. time_to_read=0.10 seconds
2020-01-08 17:53:32,505 [INFO] Reading HDF dataset ../Datasets/small_datasets/ids2018/y_test.h5
2020-01-08 17:53:32,604 [INFO] Reading complete. time_to_read=0.10 seconds
2020-01-08 17:53:36,005 [INFO] Initializing model
2020-01-08 17:53:36,212 [INFO] _________________________________________________________________
2020-01-08 17:53:36,212 [INFO] Layer (type)                 Output Shape              Param #   
2020-01-08 17:53:36,212 [INFO] =================================================================
2020-01-08 17:53:36,212 [INFO] dense_3 (Dense)              (None, 64)                4992      
2020-01-08 17:53:36,212 [INFO] _________________________________________________________________
2020-01-08 17:53:36,212 [INFO] batch_normalization_2 (Batch (None, 64)                256       
2020-01-08 17:53:36,212 [INFO] _________________________________________________________________
2020-01-08 17:53:36,212 [INFO] dropout_2 (Dropout)          (None, 64)                0         
2020-01-08 17:53:36,212 [INFO] _________________________________________________________________
2020-01-08 17:53:36,212 [INFO] dense_4 (Dense)              (None, 64)                4160      
2020-01-08 17:53:36,212 [INFO] _________________________________________________________________
2020-01-08 17:53:36,213 [INFO] batch_normalization_3 (Batch (None, 64)                256       
2020-01-08 17:53:36,213 [INFO] _________________________________________________________________
2020-01-08 17:53:36,213 [INFO] dropout_3 (Dropout)          (None, 64)                0         
2020-01-08 17:53:36,213 [INFO] _________________________________________________________________
2020-01-08 17:53:36,213 [INFO] dense_5 (Dense)              (None, 15)                975       
2020-01-08 17:53:36,213 [INFO] =================================================================
2020-01-08 17:53:36,213 [INFO] Total params: 10,639
2020-01-08 17:53:36,213 [INFO] Trainable params: 10,383
2020-01-08 17:53:36,213 [INFO] Non-trainable params: 256
2020-01-08 17:53:36,213 [INFO] _________________________________________________________________
2020-01-08 17:53:36,213 [INFO] Training model
…
2020-01-08 20:19:16,534 [INFO] Reading complete. time_to_read=0.10 seconds
2020-01-08 20:19:16,535 [INFO] Reading HDF dataset ../Datasets/small_datasets/ids2018/y_test.h5
2020-01-08 20:19:16,633 [INFO] Reading complete. time_to_read=0.10 seconds
2020-01-08 20:19:20,028 [INFO] Initializing model
2020-01-08 20:19:20,319 [INFO] _________________________________________________________________
2020-01-08 20:19:20,319 [INFO] Layer (type)                 Output Shape              Param #   
2020-01-08 20:19:20,319 [INFO] =================================================================
2020-01-08 20:19:20,319 [INFO] dense_6 (Dense)              (None, 64)                4992      
2020-01-08 20:19:20,319 [INFO] _________________________________________________________________
2020-01-08 20:19:20,319 [INFO] batch_normalization_4 (Batch (None, 64)                256       
2020-01-08 20:19:20,319 [INFO] _________________________________________________________________
2020-01-08 20:19:20,319 [INFO] dropout_4 (Dropout)          (None, 64)                0         
2020-01-08 20:19:20,319 [INFO] _________________________________________________________________
2020-01-08 20:19:20,320 [INFO] dense_7 (Dense)              (None, 64)                4160      
2020-01-08 20:19:20,320 [INFO] _________________________________________________________________
2020-01-08 20:19:20,320 [INFO] batch_normalization_5 (Batch (None, 64)                256       
2020-01-08 20:19:20,320 [INFO] _________________________________________________________________
2020-01-08 20:19:20,320 [INFO] dropout_5 (Dropout)          (None, 64)                0         
2020-01-08 20:19:20,320 [INFO] _________________________________________________________________
2020-01-08 20:19:20,320 [INFO] dense_8 (Dense)              (None, 64)                4160      
2020-01-08 20:19:20,320 [INFO] _________________________________________________________________
2020-01-08 20:19:20,320 [INFO] batch_normalization_6 (Batch (None, 64)                256       
2020-01-08 20:19:20,320 [INFO] _________________________________________________________________
2020-01-08 20:19:20,320 [INFO] dropout_6 (Dropout)          (None, 64)                0         
2020-01-08 20:19:20,320 [INFO] _________________________________________________________________
2020-01-08 20:19:20,321 [INFO] dense_9 (Dense)              (None, 15)                975       
2020-01-08 20:19:20,321 [INFO] =================================================================
2020-01-08 20:19:20,321 [INFO] Total params: 15,055
2020-01-08 20:19:20,321 [INFO] Trainable params: 14,671
2020-01-08 20:19:20,321 [INFO] Non-trainable params: 384
2020-01-08 20:19:20,321 [INFO] _________________________________________________________________
2020-01-08 20:19:20,321 [INFO] Training model
…
2020-01-08 23:13:50,272 [INFO] Reading complete. time_to_read=0.10 seconds
2020-01-08 23:13:50,272 [INFO] Reading HDF dataset ../Datasets/small_datasets/ids2018/y_test.h5
2020-01-08 23:13:50,368 [INFO] Reading complete. time_to_read=0.10 seconds
2020-01-08 23:13:53,760 [INFO] Initializing model
2020-01-08 23:13:54,141 [INFO] _________________________________________________________________
2020-01-08 23:13:54,141 [INFO] Layer (type)                 Output Shape              Param #   
2020-01-08 23:13:54,141 [INFO] =================================================================
2020-01-08 23:13:54,141 [INFO] dense_10 (Dense)             (None, 64)                4992      
2020-01-08 23:13:54,141 [INFO] _________________________________________________________________
2020-01-08 23:13:54,142 [INFO] batch_normalization_7 (Batch (None, 64)                256       
2020-01-08 23:13:54,142 [INFO] _________________________________________________________________
2020-01-08 23:13:54,142 [INFO] dropout_7 (Dropout)          (None, 64)                0         
2020-01-08 23:13:54,142 [INFO] _________________________________________________________________
2020-01-08 23:13:54,142 [INFO] dense_11 (Dense)             (None, 64)                4160      
2020-01-08 23:13:54,142 [INFO] _________________________________________________________________
2020-01-08 23:13:54,142 [INFO] batch_normalization_8 (Batch (None, 64)                256       
2020-01-08 23:13:54,142 [INFO] _________________________________________________________________
2020-01-08 23:13:54,142 [INFO] dropout_8 (Dropout)          (None, 64)                0         
2020-01-08 23:13:54,142 [INFO] _________________________________________________________________
2020-01-08 23:13:54,142 [INFO] dense_12 (Dense)             (None, 64)                4160      
2020-01-08 23:13:54,142 [INFO] _________________________________________________________________
2020-01-08 23:13:54,143 [INFO] batch_normalization_9 (Batch (None, 64)                256       
2020-01-08 23:13:54,143 [INFO] _________________________________________________________________
2020-01-08 23:13:54,143 [INFO] dropout_9 (Dropout)          (None, 64)                0         
2020-01-08 23:13:54,143 [INFO] _________________________________________________________________
2020-01-08 23:13:54,143 [INFO] dense_13 (Dense)             (None, 64)                4160      
2020-01-08 23:13:54,143 [INFO] _________________________________________________________________
2020-01-08 23:13:54,143 [INFO] batch_normalization_10 (Batc (None, 64)                256       
2020-01-08 23:13:54,143 [INFO] _________________________________________________________________
2020-01-08 23:13:54,143 [INFO] dropout_10 (Dropout)         (None, 64)                0         
2020-01-08 23:13:54,143 [INFO] _________________________________________________________________
2020-01-08 23:13:54,143 [INFO] dense_14 (Dense)             (None, 15)                975       
2020-01-08 23:13:54,143 [INFO] =================================================================
2020-01-08 23:13:54,144 [INFO] Total params: 19,471
2020-01-08 23:13:54,144 [INFO] Trainable params: 18,959
2020-01-08 23:13:54,144 [INFO] Non-trainable params: 512
2020-01-08 23:13:54,144 [INFO] _________________________________________________________________
2020-01-08 23:13:54,144 [INFO] Training model
…
2020-01-09 02:46:11,315 [INFO] Reading complete. time_to_read=0.10 seconds
2020-01-09 02:46:11,316 [INFO] Reading HDF dataset ../Datasets/small_datasets/ids2018/y_test.h5
2020-01-09 02:46:11,419 [INFO] Reading complete. time_to_read=0.10 seconds
2020-01-09 02:46:14,794 [INFO] Initializing model
2020-01-09 02:46:15,269 [INFO] _________________________________________________________________
2020-01-09 02:46:15,270 [INFO] Layer (type)                 Output Shape              Param #   
2020-01-09 02:46:15,270 [INFO] =================================================================
2020-01-09 02:46:15,270 [INFO] dense_15 (Dense)             (None, 64)                4992      
2020-01-09 02:46:15,270 [INFO] _________________________________________________________________
2020-01-09 02:46:15,270 [INFO] batch_normalization_11 (Batc (None, 64)                256       
2020-01-09 02:46:15,270 [INFO] _________________________________________________________________
2020-01-09 02:46:15,270 [INFO] dropout_11 (Dropout)         (None, 64)                0         
2020-01-09 02:46:15,270 [INFO] _________________________________________________________________
2020-01-09 02:46:15,270 [INFO] dense_16 (Dense)             (None, 64)                4160      
2020-01-09 02:46:15,270 [INFO] _________________________________________________________________
2020-01-09 02:46:15,271 [INFO] batch_normalization_12 (Batc (None, 64)                256       
2020-01-09 02:46:15,271 [INFO] _________________________________________________________________
2020-01-09 02:46:15,271 [INFO] dropout_12 (Dropout)         (None, 64)                0         
2020-01-09 02:46:15,271 [INFO] _________________________________________________________________
2020-01-09 02:46:15,271 [INFO] dense_17 (Dense)             (None, 64)                4160      
2020-01-09 02:46:15,271 [INFO] _________________________________________________________________
2020-01-09 02:46:15,271 [INFO] batch_normalization_13 (Batc (None, 64)                256       
2020-01-09 02:46:15,271 [INFO] _________________________________________________________________
2020-01-09 02:46:15,271 [INFO] dropout_13 (Dropout)         (None, 64)                0         
2020-01-09 02:46:15,271 [INFO] _________________________________________________________________
2020-01-09 02:46:15,271 [INFO] dense_18 (Dense)             (None, 64)                4160      
2020-01-09 02:46:15,271 [INFO] _________________________________________________________________
2020-01-09 02:46:15,272 [INFO] batch_normalization_14 (Batc (None, 64)                256       
2020-01-09 02:46:15,272 [INFO] _________________________________________________________________
2020-01-09 02:46:15,272 [INFO] dropout_14 (Dropout)         (None, 64)                0         
2020-01-09 02:46:15,272 [INFO] _________________________________________________________________
2020-01-09 02:46:15,272 [INFO] dense_19 (Dense)             (None, 64)                4160      
2020-01-09 02:46:15,272 [INFO] _________________________________________________________________
2020-01-09 02:46:15,272 [INFO] batch_normalization_15 (Batc (None, 64)                256       
2020-01-09 02:46:15,272 [INFO] _________________________________________________________________
2020-01-09 02:46:15,272 [INFO] dropout_15 (Dropout)         (None, 64)                0         
2020-01-09 02:46:15,272 [INFO] _________________________________________________________________
2020-01-09 02:46:15,272 [INFO] dense_20 (Dense)             (None, 15)                975       
2020-01-09 02:46:15,272 [INFO] =================================================================
2020-01-09 02:46:15,273 [INFO] Total params: 23,887
2020-01-09 02:46:15,273 [INFO] Trainable params: 23,247
2020-01-09 02:46:15,273 [INFO] Non-trainable params: 640
2020-01-09 02:46:15,273 [INFO] _________________________________________________________________
2020-01-09 02:46:15,273 [INFO] Training model
…
2020-01-08 16:19:05,071 [WARNING] From /home/hasitha/anaconda3/lib/python3.7/site-packages/tensorflow/python/ops/nn_impl.py:180: add_dispatch_support.<locals>.wrapper (from tensorflow.python.ops.array_ops) is deprecated and will be removed in a future version.
Instructions for updating:
Use tf.where in 2.0, which has the same broadcast rule as np.where
2020-01-08 16:19:05,080 [INFO] _________________________________________________________________
2020-01-08 16:19:05,081 [INFO] Layer (type)                 Output Shape              Param #   
2020-01-08 16:19:05,081 [INFO] =================================================================
2020-01-08 16:19:05,081 [INFO] dense_1 (Dense)              (None, 64)                4992      
2020-01-08 16:19:05,081 [INFO] _________________________________________________________________
2020-01-08 16:19:05,081 [INFO] batch_normalization_1 (Batch (None, 64)                256       
2020-01-08 16:19:05,081 [INFO] _________________________________________________________________
2020-01-08 16:19:05,081 [INFO] dropout_1 (Dropout)          (None, 64)                0         
2020-01-08 16:19:05,081 [INFO] _________________________________________________________________
2020-01-08 16:19:05,081 [INFO] dense_2 (Dense)              (None, 64)                4160      
2020-01-08 16:19:05,081 [INFO] _________________________________________________________________
2020-01-08 16:19:05,081 [INFO] batch_normalization_2 (Batch (None, 64)                256       
2020-01-08 16:19:05,081 [INFO] _________________________________________________________________
2020-01-08 16:19:05,081 [INFO] dropout_2 (Dropout)          (None, 64)                0         
2020-01-08 16:19:05,081 [INFO] _________________________________________________________________
2020-01-08 16:19:05,081 [INFO] dense_3 (Dense)              (None, 64)                4160      
2020-01-08 16:19:05,081 [INFO] _________________________________________________________________
2020-01-08 16:19:05,082 [INFO] batch_normalization_3 (Batch (None, 64)                256       
2020-01-08 16:19:05,082 [INFO] _________________________________________________________________
2020-01-08 16:19:05,082 [INFO] dropout_3 (Dropout)          (None, 64)                0         
2020-01-08 16:19:05,082 [INFO] _________________________________________________________________
2020-01-08 16:19:05,082 [INFO] dense_4 (Dense)              (None, 64)                4160      
2020-01-08 16:19:05,082 [INFO] _________________________________________________________________
2020-01-08 16:19:05,082 [INFO] batch_normalization_4 (Batch (None, 64)                256       
2020-01-08 16:19:05,082 [INFO] _________________________________________________________________
2020-01-08 16:19:05,082 [INFO] dropout_4 (Dropout)          (None, 64)                0         
2020-01-08 16:19:05,082 [INFO] _________________________________________________________________
2020-01-08 16:19:05,082 [INFO] dense_5 (Dense)              (None, 64)                4160      
2020-01-08 16:19:05,082 [INFO] _________________________________________________________________
2020-01-08 16:19:05,082 [INFO] batch_normalization_5 (Batch (None, 64)                256       
2020-01-08 16:19:05,082 [INFO] _________________________________________________________________
2020-01-08 16:19:05,082 [INFO] dropout_5 (Dropout)          (None, 64)                0         
2020-01-08 16:19:05,082 [INFO] _________________________________________________________________
2020-01-08 16:19:05,082 [INFO] dense_6 (Dense)              (None, 64)                4160      
2020-01-08 16:19:05,082 [INFO] _________________________________________________________________
2020-01-08 16:19:05,083 [INFO] batch_normalization_6 (Batch (None, 64)                256       
2020-01-08 16:19:05,083 [INFO] _________________________________________________________________
2020-01-08 16:19:05,083 [INFO] dropout_6 (Dropout)          (None, 64)                0         
2020-01-08 16:19:05,083 [INFO] _________________________________________________________________
2020-01-08 16:19:05,083 [INFO] dense_7 (Dense)              (None, 15)                975       
2020-01-08 16:19:05,083 [INFO] =================================================================
2020-01-08 16:19:05,083 [INFO] Total params: 28,303
2020-01-08 16:19:05,083 [INFO] Trainable params: 27,535
2020-01-08 16:19:05,083 [INFO] Non-trainable params: 768
2020-01-08 16:19:05,083 [INFO] _________________________________________________________________
2020-01-08 16:19:05,083 [INFO] Training model
…
2020-01-08 19:39:55,596 [INFO] Reading complete. time_to_read=0.08 seconds
2020-01-08 19:39:55,596 [INFO] Reading HDF dataset ../Datasets/small_datasets/ids2018/y_test.h5
2020-01-08 19:39:55,680 [INFO] Reading complete. time_to_read=0.08 seconds
2020-01-08 19:39:59,577 [INFO] Initializing model
2020-01-08 19:40:00,134 [INFO] _________________________________________________________________
2020-01-08 19:40:00,134 [INFO] Layer (type)                 Output Shape              Param #   
2020-01-08 19:40:00,134 [INFO] =================================================================
2020-01-08 19:40:00,134 [INFO] dense_8 (Dense)              (None, 64)                4992      
2020-01-08 19:40:00,134 [INFO] _________________________________________________________________
2020-01-08 19:40:00,134 [INFO] batch_normalization_7 (Batch (None, 64)                256       
2020-01-08 19:40:00,134 [INFO] _________________________________________________________________
2020-01-08 19:40:00,134 [INFO] dropout_7 (Dropout)          (None, 64)                0         
2020-01-08 19:40:00,134 [INFO] _________________________________________________________________
2020-01-08 19:40:00,134 [INFO] dense_9 (Dense)              (None, 64)                4160      
2020-01-08 19:40:00,134 [INFO] _________________________________________________________________
2020-01-08 19:40:00,134 [INFO] batch_normalization_8 (Batch (None, 64)                256       
2020-01-08 19:40:00,134 [INFO] _________________________________________________________________
2020-01-08 19:40:00,134 [INFO] dropout_8 (Dropout)          (None, 64)                0         
2020-01-08 19:40:00,134 [INFO] _________________________________________________________________
2020-01-08 19:40:00,135 [INFO] dense_10 (Dense)             (None, 64)                4160      
2020-01-08 19:40:00,135 [INFO] _________________________________________________________________
2020-01-08 19:40:00,135 [INFO] batch_normalization_9 (Batch (None, 64)                256       
2020-01-08 19:40:00,135 [INFO] _________________________________________________________________
2020-01-08 19:40:00,135 [INFO] dropout_9 (Dropout)          (None, 64)                0         
2020-01-08 19:40:00,135 [INFO] _________________________________________________________________
2020-01-08 19:40:00,135 [INFO] dense_11 (Dense)             (None, 64)                4160      
2020-01-08 19:40:00,135 [INFO] _________________________________________________________________
2020-01-08 19:40:00,135 [INFO] batch_normalization_10 (Batc (None, 64)                256       
2020-01-08 19:40:00,135 [INFO] _________________________________________________________________
2020-01-08 19:40:00,135 [INFO] dropout_10 (Dropout)         (None, 64)                0         
2020-01-08 19:40:00,135 [INFO] _________________________________________________________________
2020-01-08 19:40:00,135 [INFO] dense_12 (Dense)             (None, 64)                4160      
2020-01-08 19:40:00,135 [INFO] _________________________________________________________________
2020-01-08 19:40:00,135 [INFO] batch_normalization_11 (Batc (None, 64)                256       
2020-01-08 19:40:00,135 [INFO] _________________________________________________________________
2020-01-08 19:40:00,135 [INFO] dropout_11 (Dropout)         (None, 64)                0         
2020-01-08 19:40:00,135 [INFO] _________________________________________________________________
2020-01-08 19:40:00,136 [INFO] dense_13 (Dense)             (None, 64)                4160      
2020-01-08 19:40:00,136 [INFO] _________________________________________________________________
2020-01-08 19:40:00,136 [INFO] batch_normalization_12 (Batc (None, 64)                256       
2020-01-08 19:40:00,136 [INFO] _________________________________________________________________
2020-01-08 19:40:00,136 [INFO] dropout_12 (Dropout)         (None, 64)                0         
2020-01-08 19:40:00,136 [INFO] _________________________________________________________________
2020-01-08 19:40:00,136 [INFO] dense_14 (Dense)             (None, 64)                4160      
2020-01-08 19:40:00,136 [INFO] _________________________________________________________________
2020-01-08 19:40:00,136 [INFO] batch_normalization_13 (Batc (None, 64)                256       
2020-01-08 19:40:00,136 [INFO] _________________________________________________________________
2020-01-08 19:40:00,136 [INFO] dropout_13 (Dropout)         (None, 64)                0         
2020-01-08 19:40:00,136 [INFO] _________________________________________________________________
2020-01-08 19:40:00,136 [INFO] dense_15 (Dense)             (None, 15)                975       
2020-01-08 19:40:00,136 [INFO] =================================================================
2020-01-08 19:40:00,137 [INFO] Total params: 32,719
2020-01-08 19:40:00,137 [INFO] Trainable params: 31,823
2020-01-08 19:40:00,137 [INFO] Non-trainable params: 896
2020-01-08 19:40:00,137 [INFO] _________________________________________________________________
2020-01-08 19:40:00,137 [INFO] Training model
…
2020-01-08 23:31:07,486 [INFO] Reading complete. time_to_read=0.09 seconds
2020-01-08 23:31:07,486 [INFO] Reading HDF dataset ../Datasets/small_datasets/ids2018/y_test.h5
2020-01-08 23:31:07,572 [INFO] Reading complete. time_to_read=0.09 seconds
2020-01-08 23:31:11,448 [INFO] Initializing model
2020-01-08 23:31:12,198 [INFO] _________________________________________________________________
2020-01-08 23:31:12,198 [INFO] Layer (type)                 Output Shape              Param #   
2020-01-08 23:31:12,198 [INFO] =================================================================
2020-01-08 23:31:12,198 [INFO] dense_16 (Dense)             (None, 64)                4992      
2020-01-08 23:31:12,198 [INFO] _________________________________________________________________
2020-01-08 23:31:12,198 [INFO] batch_normalization_14 (Batc (None, 64)                256       
2020-01-08 23:31:12,198 [INFO] _________________________________________________________________
2020-01-08 23:31:12,198 [INFO] dropout_14 (Dropout)         (None, 64)                0         
2020-01-08 23:31:12,198 [INFO] _________________________________________________________________
2020-01-08 23:31:12,198 [INFO] dense_17 (Dense)             (None, 64)                4160      
2020-01-08 23:31:12,198 [INFO] _________________________________________________________________
2020-01-08 23:31:12,199 [INFO] batch_normalization_15 (Batc (None, 64)                256       
2020-01-08 23:31:12,199 [INFO] _________________________________________________________________
2020-01-08 23:31:12,199 [INFO] dropout_15 (Dropout)         (None, 64)                0         
2020-01-08 23:31:12,199 [INFO] _________________________________________________________________
2020-01-08 23:31:12,199 [INFO] dense_18 (Dense)             (None, 64)                4160      
2020-01-08 23:31:12,199 [INFO] _________________________________________________________________
2020-01-08 23:31:12,199 [INFO] batch_normalization_16 (Batc (None, 64)                256       
2020-01-08 23:31:12,199 [INFO] _________________________________________________________________
2020-01-08 23:31:12,199 [INFO] dropout_16 (Dropout)         (None, 64)                0         
2020-01-08 23:31:12,199 [INFO] _________________________________________________________________
2020-01-08 23:31:12,199 [INFO] dense_19 (Dense)             (None, 64)                4160      
2020-01-08 23:31:12,199 [INFO] _________________________________________________________________
2020-01-08 23:31:12,199 [INFO] batch_normalization_17 (Batc (None, 64)                256       
2020-01-08 23:31:12,199 [INFO] _________________________________________________________________
2020-01-08 23:31:12,199 [INFO] dropout_17 (Dropout)         (None, 64)                0         
2020-01-08 23:31:12,199 [INFO] _________________________________________________________________
2020-01-08 23:31:12,199 [INFO] dense_20 (Dense)             (None, 64)                4160      
2020-01-08 23:31:12,199 [INFO] _________________________________________________________________
2020-01-08 23:31:12,200 [INFO] batch_normalization_18 (Batc (None, 64)                256       
2020-01-08 23:31:12,200 [INFO] _________________________________________________________________
2020-01-08 23:31:12,200 [INFO] dropout_18 (Dropout)         (None, 64)                0         
2020-01-08 23:31:12,200 [INFO] _________________________________________________________________
2020-01-08 23:31:12,200 [INFO] dense_21 (Dense)             (None, 64)                4160      
2020-01-08 23:31:12,200 [INFO] _________________________________________________________________
2020-01-08 23:31:12,200 [INFO] batch_normalization_19 (Batc (None, 64)                256       
2020-01-08 23:31:12,200 [INFO] _________________________________________________________________
2020-01-08 23:31:12,200 [INFO] dropout_19 (Dropout)         (None, 64)                0         
2020-01-08 23:31:12,200 [INFO] _________________________________________________________________
2020-01-08 23:31:12,200 [INFO] dense_22 (Dense)             (None, 64)                4160      
2020-01-08 23:31:12,200 [INFO] _________________________________________________________________
2020-01-08 23:31:12,200 [INFO] batch_normalization_20 (Batc (None, 64)                256       
2020-01-08 23:31:12,200 [INFO] _________________________________________________________________
2020-01-08 23:31:12,200 [INFO] dropout_20 (Dropout)         (None, 64)                0         
2020-01-08 23:31:12,200 [INFO] _________________________________________________________________
2020-01-08 23:31:12,200 [INFO] dense_23 (Dense)             (None, 64)                4160      
2020-01-08 23:31:12,200 [INFO] _________________________________________________________________
2020-01-08 23:31:12,201 [INFO] batch_normalization_21 (Batc (None, 64)                256       
2020-01-08 23:31:12,201 [INFO] _________________________________________________________________
2020-01-08 23:31:12,201 [INFO] dropout_21 (Dropout)         (None, 64)                0         
2020-01-08 23:31:12,201 [INFO] _________________________________________________________________
2020-01-08 23:31:12,201 [INFO] dense_24 (Dense)             (None, 15)                975       
2020-01-08 23:31:12,201 [INFO] =================================================================
2020-01-08 23:31:12,201 [INFO] Total params: 37,135
2020-01-08 23:31:12,201 [INFO] Trainable params: 36,111
2020-01-08 23:31:12,201 [INFO] Non-trainable params: 1,024
2020-01-08 23:31:12,201 [INFO] _________________________________________________________________
2020-01-08 23:31:12,201 [INFO] Training model
…
2020-01-09 03:47:26,552 [INFO] Reading complete. time_to_read=0.09 seconds
2020-01-09 03:47:26,552 [INFO] Reading HDF dataset ../Datasets/small_datasets/ids2018/y_test.h5
2020-01-09 03:47:26,638 [INFO] Reading complete. time_to_read=0.09 seconds
2020-01-09 03:47:30,531 [INFO] Initializing model
2020-01-09 03:47:31,247 [INFO] _________________________________________________________________
2020-01-09 03:47:31,247 [INFO] Layer (type)                 Output Shape              Param #   
2020-01-09 03:47:31,247 [INFO] =================================================================
2020-01-09 03:47:31,247 [INFO] dense_25 (Dense)             (None, 64)                4992      
2020-01-09 03:47:31,247 [INFO] _________________________________________________________________
2020-01-09 03:47:31,247 [INFO] batch_normalization_22 (Batc (None, 64)                256       
2020-01-09 03:47:31,247 [INFO] _________________________________________________________________
2020-01-09 03:47:31,247 [INFO] dropout_22 (Dropout)         (None, 64)                0         
2020-01-09 03:47:31,247 [INFO] _________________________________________________________________
2020-01-09 03:47:31,248 [INFO] dense_26 (Dense)             (None, 64)                4160      
2020-01-09 03:47:31,248 [INFO] _________________________________________________________________
2020-01-09 03:47:31,248 [INFO] batch_normalization_23 (Batc (None, 64)                256       
2020-01-09 03:47:31,248 [INFO] _________________________________________________________________
2020-01-09 03:47:31,248 [INFO] dropout_23 (Dropout)         (None, 64)                0         
2020-01-09 03:47:31,248 [INFO] _________________________________________________________________
2020-01-09 03:47:31,248 [INFO] dense_27 (Dense)             (None, 64)                4160      
2020-01-09 03:47:31,248 [INFO] _________________________________________________________________
2020-01-09 03:47:31,248 [INFO] batch_normalization_24 (Batc (None, 64)                256       
2020-01-09 03:47:31,248 [INFO] _________________________________________________________________
2020-01-09 03:47:31,248 [INFO] dropout_24 (Dropout)         (None, 64)                0         
2020-01-09 03:47:31,248 [INFO] _________________________________________________________________
2020-01-09 03:47:31,248 [INFO] dense_28 (Dense)             (None, 64)                4160      
2020-01-09 03:47:31,248 [INFO] _________________________________________________________________
2020-01-09 03:47:31,248 [INFO] batch_normalization_25 (Batc (None, 64)                256       
2020-01-09 03:47:31,248 [INFO] _________________________________________________________________
2020-01-09 03:47:31,248 [INFO] dropout_25 (Dropout)         (None, 64)                0         
2020-01-09 03:47:31,248 [INFO] _________________________________________________________________
2020-01-09 03:47:31,249 [INFO] dense_29 (Dense)             (None, 64)                4160      
2020-01-09 03:47:31,249 [INFO] _________________________________________________________________
2020-01-09 03:47:31,249 [INFO] batch_normalization_26 (Batc (None, 64)                256       
2020-01-09 03:47:31,249 [INFO] _________________________________________________________________
2020-01-09 03:47:31,249 [INFO] dropout_26 (Dropout)         (None, 64)                0         
2020-01-09 03:47:31,249 [INFO] _________________________________________________________________
2020-01-09 03:47:31,249 [INFO] dense_30 (Dense)             (None, 64)                4160      
2020-01-09 03:47:31,249 [INFO] _________________________________________________________________
2020-01-09 03:47:31,249 [INFO] batch_normalization_27 (Batc (None, 64)                256       
2020-01-09 03:47:31,249 [INFO] _________________________________________________________________
2020-01-09 03:47:31,249 [INFO] dropout_27 (Dropout)         (None, 64)                0         
2020-01-09 03:47:31,249 [INFO] _________________________________________________________________
2020-01-09 03:47:31,249 [INFO] dense_31 (Dense)             (None, 64)                4160      
2020-01-09 03:47:31,249 [INFO] _________________________________________________________________
2020-01-09 03:47:31,249 [INFO] batch_normalization_28 (Batc (None, 64)                256       
2020-01-09 03:47:31,249 [INFO] _________________________________________________________________
2020-01-09 03:47:31,249 [INFO] dropout_28 (Dropout)         (None, 64)                0         
2020-01-09 03:47:31,249 [INFO] _________________________________________________________________
2020-01-09 03:47:31,250 [INFO] dense_32 (Dense)             (None, 64)                4160      
2020-01-09 03:47:31,250 [INFO] _________________________________________________________________
2020-01-09 03:47:31,250 [INFO] batch_normalization_29 (Batc (None, 64)                256       
2020-01-09 03:47:31,250 [INFO] _________________________________________________________________
2020-01-09 03:47:31,250 [INFO] dropout_29 (Dropout)         (None, 64)                0         
2020-01-09 03:47:31,250 [INFO] _________________________________________________________________
2020-01-09 03:47:31,250 [INFO] dense_33 (Dense)             (None, 64)                4160      
2020-01-09 03:47:31,250 [INFO] _________________________________________________________________
2020-01-09 03:47:31,250 [INFO] batch_normalization_30 (Batc (None, 64)                256       
2020-01-09 03:47:31,250 [INFO] _________________________________________________________________
2020-01-09 03:47:31,250 [INFO] dropout_30 (Dropout)         (None, 64)                0         
2020-01-09 03:47:31,250 [INFO] _________________________________________________________________
2020-01-09 03:47:31,250 [INFO] dense_34 (Dense)             (None, 15)                975       
2020-01-09 03:47:31,250 [INFO] =================================================================
2020-01-09 03:47:31,251 [INFO] Total params: 41,551
2020-01-09 03:47:31,251 [INFO] Trainable params: 40,399
2020-01-09 03:47:31,251 [INFO] Non-trainable params: 1,152
2020-01-09 03:47:31,251 [INFO] _________________________________________________________________
2020-01-09 03:47:31,251 [INFO] Training model
…
2020-01-09 08:34:55,684 [INFO] Reading complete. time_to_read=0.09 seconds
2020-01-09 08:34:55,684 [INFO] Reading HDF dataset ../Datasets/small_datasets/ids2018/y_test.h5
2020-01-09 08:34:55,770 [INFO] Reading complete. time_to_read=0.09 seconds
2020-01-09 08:34:59,641 [INFO] Initializing model
2020-01-09 08:35:00,439 [INFO] _________________________________________________________________
2020-01-09 08:35:00,439 [INFO] Layer (type)                 Output Shape              Param #   
2020-01-09 08:35:00,439 [INFO] =================================================================
2020-01-09 08:35:00,440 [INFO] dense_35 (Dense)             (None, 64)                4992      
2020-01-09 08:35:00,440 [INFO] _________________________________________________________________
2020-01-09 08:35:00,440 [INFO] batch_normalization_31 (Batc (None, 64)                256       
2020-01-09 08:35:00,440 [INFO] _________________________________________________________________
2020-01-09 08:35:00,440 [INFO] dropout_31 (Dropout)         (None, 64)                0         
2020-01-09 08:35:00,440 [INFO] _________________________________________________________________
2020-01-09 08:35:00,440 [INFO] dense_36 (Dense)             (None, 64)                4160      
2020-01-09 08:35:00,440 [INFO] _________________________________________________________________
2020-01-09 08:35:00,440 [INFO] batch_normalization_32 (Batc (None, 64)                256       
2020-01-09 08:35:00,440 [INFO] _________________________________________________________________
2020-01-09 08:35:00,440 [INFO] dropout_32 (Dropout)         (None, 64)                0         
2020-01-09 08:35:00,440 [INFO] _________________________________________________________________
2020-01-09 08:35:00,440 [INFO] dense_37 (Dense)             (None, 64)                4160      
2020-01-09 08:35:00,440 [INFO] _________________________________________________________________
2020-01-09 08:35:00,440 [INFO] batch_normalization_33 (Batc (None, 64)                256       
2020-01-09 08:35:00,440 [INFO] _________________________________________________________________
2020-01-09 08:35:00,440 [INFO] dropout_33 (Dropout)         (None, 64)                0         
2020-01-09 08:35:00,440 [INFO] _________________________________________________________________
2020-01-09 08:35:00,441 [INFO] dense_38 (Dense)             (None, 64)                4160      
2020-01-09 08:35:00,441 [INFO] _________________________________________________________________
2020-01-09 08:35:00,441 [INFO] batch_normalization_34 (Batc (None, 64)                256       
2020-01-09 08:35:00,441 [INFO] _________________________________________________________________
2020-01-09 08:35:00,441 [INFO] dropout_34 (Dropout)         (None, 64)                0         
2020-01-09 08:35:00,441 [INFO] _________________________________________________________________
2020-01-09 08:35:00,441 [INFO] dense_39 (Dense)             (None, 64)                4160      
2020-01-09 08:35:00,441 [INFO] _________________________________________________________________
2020-01-09 08:35:00,441 [INFO] batch_normalization_35 (Batc (None, 64)                256       
2020-01-09 08:35:00,441 [INFO] _________________________________________________________________
2020-01-09 08:35:00,441 [INFO] dropout_35 (Dropout)         (None, 64)                0         
2020-01-09 08:35:00,441 [INFO] _________________________________________________________________
2020-01-09 08:35:00,441 [INFO] dense_40 (Dense)             (None, 64)                4160      
2020-01-09 08:35:00,441 [INFO] _________________________________________________________________
2020-01-09 08:35:00,441 [INFO] batch_normalization_36 (Batc (None, 64)                256       
2020-01-09 08:35:00,441 [INFO] _________________________________________________________________
2020-01-09 08:35:00,441 [INFO] dropout_36 (Dropout)         (None, 64)                0         
2020-01-09 08:35:00,442 [INFO] _________________________________________________________________
2020-01-09 08:35:00,442 [INFO] dense_41 (Dense)             (None, 64)                4160      
2020-01-09 08:35:00,442 [INFO] _________________________________________________________________
2020-01-09 08:35:00,442 [INFO] batch_normalization_37 (Batc (None, 64)                256       
2020-01-09 08:35:00,442 [INFO] _________________________________________________________________
2020-01-09 08:35:00,442 [INFO] dropout_37 (Dropout)         (None, 64)                0         
2020-01-09 08:35:00,442 [INFO] _________________________________________________________________
2020-01-09 08:35:00,442 [INFO] dense_42 (Dense)             (None, 64)                4160      
2020-01-09 08:35:00,442 [INFO] _________________________________________________________________
2020-01-09 08:35:00,442 [INFO] batch_normalization_38 (Batc (None, 64)                256       
2020-01-09 08:35:00,442 [INFO] _________________________________________________________________
2020-01-09 08:35:00,442 [INFO] dropout_38 (Dropout)         (None, 64)                0         
2020-01-09 08:35:00,442 [INFO] _________________________________________________________________
2020-01-09 08:35:00,442 [INFO] dense_43 (Dense)             (None, 64)                4160      
2020-01-09 08:35:00,442 [INFO] _________________________________________________________________
2020-01-09 08:35:00,442 [INFO] batch_normalization_39 (Batc (None, 64)                256       
2020-01-09 08:35:00,442 [INFO] _________________________________________________________________
2020-01-09 08:35:00,442 [INFO] dropout_39 (Dropout)         (None, 64)                0         
2020-01-09 08:35:00,443 [INFO] _________________________________________________________________
2020-01-09 08:35:00,443 [INFO] dense_44 (Dense)             (None, 64)                4160      
2020-01-09 08:35:00,443 [INFO] _________________________________________________________________
2020-01-09 08:35:00,443 [INFO] batch_normalization_40 (Batc (None, 64)                256       
2020-01-09 08:35:00,443 [INFO] _________________________________________________________________
2020-01-09 08:35:00,443 [INFO] dropout_40 (Dropout)         (None, 64)                0         
2020-01-09 08:35:00,443 [INFO] _________________________________________________________________
2020-01-09 08:35:00,443 [INFO] dense_45 (Dense)             (None, 15)                975       
2020-01-09 08:35:00,443 [INFO] =================================================================
2020-01-09 08:35:00,443 [INFO] Total params: 45,967
2020-01-09 08:35:00,443 [INFO] Trainable params: 44,687
2020-01-09 08:35:00,443 [INFO] Non-trainable params: 1,280
2020-01-09 08:35:00,443 [INFO] _________________________________________________________________
2020-01-09 08:35:00,444 [INFO] Training model
…
