…
2019-12-24 01:12:03,727 [INFO] Reading complete. time_to_read=0.00 seconds
2019-12-24 01:12:03,727 [INFO] Reading HDF dataset ../Datasets/small_datasets/nsl_kdd_five_classes/y_test.h5
2019-12-24 01:12:03,731 [INFO] Reading complete. time_to_read=0.00 seconds
2019-12-24 01:12:03,847 [INFO] Initializing model
2019-12-24 01:12:04,324 [INFO] _________________________________________________________________
2019-12-24 01:12:04,324 [INFO] Layer (type)                 Output Shape              Param #   
2019-12-24 01:12:04,324 [INFO] =================================================================
2019-12-24 01:12:04,324 [INFO] dense_21 (Dense)             (None, 128)               15744     
2019-12-24 01:12:04,324 [INFO] _________________________________________________________________
2019-12-24 01:12:04,324 [INFO] batch_normalization_11 (Batc (None, 128)               512       
2019-12-24 01:12:04,324 [INFO] _________________________________________________________________
2019-12-24 01:12:04,324 [INFO] dropout_11 (Dropout)         (None, 128)               0         
2019-12-24 01:12:04,324 [INFO] _________________________________________________________________
2019-12-24 01:12:04,325 [INFO] dense_22 (Dense)             (None, 64)                8256      
2019-12-24 01:12:04,325 [INFO] _________________________________________________________________
2019-12-24 01:12:04,325 [INFO] batch_normalization_12 (Batc (None, 64)                256       
2019-12-24 01:12:04,325 [INFO] _________________________________________________________________
2019-12-24 01:12:04,325 [INFO] dropout_12 (Dropout)         (None, 64)                0         
2019-12-24 01:12:04,325 [INFO] _________________________________________________________________
2019-12-24 01:12:04,325 [INFO] dense_23 (Dense)             (None, 32)                2080      
2019-12-24 01:12:04,325 [INFO] _________________________________________________________________
2019-12-24 01:12:04,325 [INFO] batch_normalization_13 (Batc (None, 32)                128       
2019-12-24 01:12:04,325 [INFO] _________________________________________________________________
2019-12-24 01:12:04,325 [INFO] dropout_13 (Dropout)         (None, 32)                0         
2019-12-24 01:12:04,325 [INFO] _________________________________________________________________
2019-12-24 01:12:04,326 [INFO] dense_24 (Dense)             (None, 64)                2112      
2019-12-24 01:12:04,326 [INFO] _________________________________________________________________
2019-12-24 01:12:04,326 [INFO] batch_normalization_14 (Batc (None, 64)                256       
2019-12-24 01:12:04,326 [INFO] _________________________________________________________________
2019-12-24 01:12:04,326 [INFO] dropout_14 (Dropout)         (None, 64)                0         
2019-12-24 01:12:04,326 [INFO] _________________________________________________________________
2019-12-24 01:12:04,326 [INFO] dense_25 (Dense)             (None, 128)               8320      
2019-12-24 01:12:04,326 [INFO] _________________________________________________________________
2019-12-24 01:12:04,326 [INFO] batch_normalization_15 (Batc (None, 128)               512       
2019-12-24 01:12:04,326 [INFO] _________________________________________________________________
2019-12-24 01:12:04,326 [INFO] dropout_15 (Dropout)         (None, 128)               0         
2019-12-24 01:12:04,326 [INFO] _________________________________________________________________
2019-12-24 01:12:04,326 [INFO] dense_26 (Dense)             (None, 122)               15738     
2019-12-24 01:12:04,327 [INFO] =================================================================
2019-12-24 01:12:04,327 [INFO] Total params: 53,914
2019-12-24 01:12:04,327 [INFO] Trainable params: 53,082
2019-12-24 01:12:04,327 [INFO] Non-trainable params: 832
2019-12-24 01:12:04,327 [INFO] _________________________________________________________________
2019-12-24 01:12:04,451 [INFO] _________________________________________________________________
2019-12-24 01:12:04,451 [INFO] Layer (type)                 Output Shape              Param #   
2019-12-24 01:12:04,451 [INFO] =================================================================
2019-12-24 01:12:04,451 [INFO] dense_27 (Dense)             (None, 64)                2112      
2019-12-24 01:12:04,451 [INFO] _________________________________________________________________
2019-12-24 01:12:04,451 [INFO] batch_normalization_16 (Batc (None, 64)                256       
2019-12-24 01:12:04,451 [INFO] _________________________________________________________________
2019-12-24 01:12:04,451 [INFO] dropout_16 (Dropout)         (None, 64)                0         
2019-12-24 01:12:04,451 [INFO] _________________________________________________________________
2019-12-24 01:12:04,451 [INFO] dense_28 (Dense)             (None, 5)                 325       
2019-12-24 01:12:04,451 [INFO] =================================================================
2019-12-24 01:12:04,452 [INFO] Total params: 2,693
2019-12-24 01:12:04,452 [INFO] Trainable params: 2,565
2019-12-24 01:12:04,452 [INFO] Non-trainable params: 128
2019-12-24 01:12:04,452 [INFO] _________________________________________________________________
2019-12-24 01:12:04,452 [INFO] Training model
…
