…
2019-12-27 00:36:46,512 [INFO] Reading complete. time_to_read=0.00 seconds
2019-12-27 00:36:46,512 [INFO] Reading HDF dataset ../Datasets/small_datasets/nsl_kdd_five_classes/y_test.h5
2019-12-27 00:36:46,516 [INFO] Reading complete. time_to_read=0.00 seconds
2019-12-27 00:36:46,704 [INFO] Initializing model
2019-12-27 00:36:47,279 [INFO] _________________________________________________________________
2019-12-27 00:36:47,279 [INFO] Layer (type)                 Output Shape              Param #   
2019-12-27 00:36:47,279 [INFO] =================================================================
2019-12-27 00:36:47,279 [INFO] dense_28 (Dense)             (None, 500)               61500     
2019-12-27 00:36:47,279 [INFO] _________________________________________________________________
2019-12-27 00:36:47,279 [INFO] batch_normalization_22 (Batc (None, 500)               2000      
2019-12-27 00:36:47,279 [INFO] _________________________________________________________________
2019-12-27 00:36:47,279 [INFO] dropout_22 (Dropout)         (None, 500)               0         
2019-12-27 00:36:47,279 [INFO] _________________________________________________________________
2019-12-27 00:36:47,279 [INFO] dense_29 (Dense)             (None, 400)               200400    
2019-12-27 00:36:47,279 [INFO] _________________________________________________________________
2019-12-27 00:36:47,280 [INFO] batch_normalization_23 (Batc (None, 400)               1600      
2019-12-27 00:36:47,280 [INFO] _________________________________________________________________
2019-12-27 00:36:47,280 [INFO] dropout_23 (Dropout)         (None, 400)               0         
2019-12-27 00:36:47,280 [INFO] _________________________________________________________________
2019-12-27 00:36:47,280 [INFO] dense_30 (Dense)             (None, 256)               102656    
2019-12-27 00:36:47,280 [INFO] _________________________________________________________________
2019-12-27 00:36:47,280 [INFO] batch_normalization_24 (Batc (None, 256)               1024      
2019-12-27 00:36:47,280 [INFO] _________________________________________________________________
2019-12-27 00:36:47,280 [INFO] dropout_24 (Dropout)         (None, 256)               0         
2019-12-27 00:36:47,280 [INFO] _________________________________________________________________
2019-12-27 00:36:47,280 [INFO] dense_31 (Dense)             (None, 128)               32896     
2019-12-27 00:36:47,280 [INFO] _________________________________________________________________
2019-12-27 00:36:47,280 [INFO] batch_normalization_25 (Batc (None, 128)               512       
2019-12-27 00:36:47,281 [INFO] _________________________________________________________________
2019-12-27 00:36:47,281 [INFO] dropout_25 (Dropout)         (None, 128)               0         
2019-12-27 00:36:47,281 [INFO] _________________________________________________________________
2019-12-27 00:36:47,281 [INFO] dense_32 (Dense)             (None, 64)                8256      
2019-12-27 00:36:47,281 [INFO] _________________________________________________________________
2019-12-27 00:36:47,281 [INFO] batch_normalization_26 (Batc (None, 64)                256       
2019-12-27 00:36:47,281 [INFO] _________________________________________________________________
2019-12-27 00:36:47,281 [INFO] dropout_26 (Dropout)         (None, 64)                0         
2019-12-27 00:36:47,281 [INFO] _________________________________________________________________
2019-12-27 00:36:47,281 [INFO] dense_33 (Dense)             (None, 32)                2080      
2019-12-27 00:36:47,281 [INFO] _________________________________________________________________
2019-12-27 00:36:47,281 [INFO] batch_normalization_27 (Batc (None, 32)                128       
2019-12-27 00:36:47,281 [INFO] _________________________________________________________________
2019-12-27 00:36:47,281 [INFO] dropout_27 (Dropout)         (None, 32)                0         
2019-12-27 00:36:47,281 [INFO] _________________________________________________________________
2019-12-27 00:36:47,282 [INFO] dense_34 (Dense)             (None, 16)                528       
2019-12-27 00:36:47,282 [INFO] _________________________________________________________________
2019-12-27 00:36:47,282 [INFO] batch_normalization_28 (Batc (None, 16)                64        
2019-12-27 00:36:47,282 [INFO] _________________________________________________________________
2019-12-27 00:36:47,282 [INFO] dropout_28 (Dropout)         (None, 16)                0         
2019-12-27 00:36:47,282 [INFO] _________________________________________________________________
2019-12-27 00:36:47,282 [INFO] dense_35 (Dense)             (None, 5)                 85        
2019-12-27 00:36:47,282 [INFO] =================================================================
2019-12-27 00:36:47,282 [INFO] Total params: 413,985
2019-12-27 00:36:47,282 [INFO] Trainable params: 411,193
2019-12-27 00:36:47,282 [INFO] Non-trainable params: 2,792
2019-12-27 00:36:47,282 [INFO] _________________________________________________________________
2019-12-27 00:36:47,282 [INFO] Training model
…
