…
2019-12-27 09:17:51,908 [INFO] Reading complete. time_to_read=0.07 seconds
2019-12-27 09:17:51,909 [INFO] Reading HDF dataset ../Datasets/full_datasets/ids2017/y_test.h5
2019-12-27 09:17:51,977 [INFO] Reading complete. time_to_read=0.07 seconds
2019-12-27 09:17:55,128 [INFO] Initializing model
2019-12-27 09:17:55,521 [INFO] _________________________________________________________________
2019-12-27 09:17:55,521 [INFO] Layer (type)                 Output Shape              Param #   
2019-12-27 09:17:55,521 [INFO] =================================================================
2019-12-27 09:17:55,522 [INFO] dense_75 (Dense)             (None, 128)               10112     
2019-12-27 09:17:55,522 [INFO] _________________________________________________________________
2019-12-27 09:17:55,522 [INFO] batch_normalization_62 (Batc (None, 128)               512       
2019-12-27 09:17:55,522 [INFO] _________________________________________________________________
2019-12-27 09:17:55,522 [INFO] dropout_62 (Dropout)         (None, 128)               0         
2019-12-27 09:17:55,522 [INFO] _________________________________________________________________
2019-12-27 09:17:55,522 [INFO] dense_76 (Dense)             (None, 64)                8256      
2019-12-27 09:17:55,522 [INFO] _________________________________________________________________
2019-12-27 09:17:55,522 [INFO] batch_normalization_63 (Batc (None, 64)                256       
2019-12-27 09:17:55,522 [INFO] _________________________________________________________________
2019-12-27 09:17:55,522 [INFO] dropout_63 (Dropout)         (None, 64)                0         
2019-12-27 09:17:55,522 [INFO] _________________________________________________________________
2019-12-27 09:17:55,523 [INFO] dense_77 (Dense)             (None, 32)                2080      
2019-12-27 09:17:55,523 [INFO] _________________________________________________________________
2019-12-27 09:17:55,523 [INFO] batch_normalization_64 (Batc (None, 32)                128       
2019-12-27 09:17:55,523 [INFO] _________________________________________________________________
2019-12-27 09:17:55,523 [INFO] dropout_64 (Dropout)         (None, 32)                0         
2019-12-27 09:17:55,523 [INFO] _________________________________________________________________
2019-12-27 09:17:55,523 [INFO] dense_78 (Dense)             (None, 16)                528       
2019-12-27 09:17:55,523 [INFO] _________________________________________________________________
2019-12-27 09:17:55,523 [INFO] batch_normalization_65 (Batc (None, 16)                64        
2019-12-27 09:17:55,523 [INFO] _________________________________________________________________
2019-12-27 09:17:55,523 [INFO] dropout_65 (Dropout)         (None, 16)                0         
2019-12-27 09:17:55,523 [INFO] _________________________________________________________________
2019-12-27 09:17:55,523 [INFO] dense_79 (Dense)             (None, 12)                204       
2019-12-27 09:17:55,523 [INFO] =================================================================
2019-12-27 09:17:55,524 [INFO] Total params: 22,140
2019-12-27 09:17:55,524 [INFO] Trainable params: 21,660
2019-12-27 09:17:55,524 [INFO] Non-trainable params: 480
2019-12-27 09:17:55,524 [INFO] _________________________________________________________________
2019-12-27 09:17:55,524 [INFO] Training model
…
