…
2019-12-24 09:04:01,834 [INFO] Reading complete. time_to_read=0.08 seconds
2019-12-24 09:04:01,834 [INFO] Reading HDF dataset ../Datasets/full_datasets/ids2017/y_test.h5
2019-12-24 09:04:01,917 [INFO] Reading complete. time_to_read=0.08 seconds
2019-12-24 09:04:04,843 [INFO] Initializing model
2019-12-24 09:04:05,403 [INFO] _________________________________________________________________
2019-12-24 09:04:05,405 [INFO] Layer (type)                 Output Shape              Param #   
2019-12-24 09:04:05,405 [INFO] =================================================================
2019-12-24 09:04:05,405 [INFO] dense_77 (Dense)             (None, 128)               10112     
2019-12-24 09:04:05,405 [INFO] _________________________________________________________________
2019-12-24 09:04:05,405 [INFO] batch_normalization_53 (Batc (None, 128)               512       
2019-12-24 09:04:05,406 [INFO] _________________________________________________________________
2019-12-24 09:04:05,406 [INFO] dropout_53 (Dropout)         (None, 128)               0         
2019-12-24 09:04:05,406 [INFO] _________________________________________________________________
2019-12-24 09:04:05,406 [INFO] dense_78 (Dense)             (None, 64)                8256      
2019-12-24 09:04:05,406 [INFO] _________________________________________________________________
2019-12-24 09:04:05,406 [INFO] batch_normalization_54 (Batc (None, 64)                256       
2019-12-24 09:04:05,406 [INFO] _________________________________________________________________
2019-12-24 09:04:05,406 [INFO] dropout_54 (Dropout)         (None, 64)                0         
2019-12-24 09:04:05,406 [INFO] _________________________________________________________________
2019-12-24 09:04:05,406 [INFO] dense_79 (Dense)             (None, 32)                2080      
2019-12-24 09:04:05,406 [INFO] _________________________________________________________________
2019-12-24 09:04:05,406 [INFO] batch_normalization_55 (Batc (None, 32)                128       
2019-12-24 09:04:05,407 [INFO] _________________________________________________________________
2019-12-24 09:04:05,407 [INFO] dropout_55 (Dropout)         (None, 32)                0         
2019-12-24 09:04:05,407 [INFO] _________________________________________________________________
2019-12-24 09:04:05,407 [INFO] dense_80 (Dense)             (None, 64)                2112      
2019-12-24 09:04:05,407 [INFO] _________________________________________________________________
2019-12-24 09:04:05,407 [INFO] batch_normalization_56 (Batc (None, 64)                256       
2019-12-24 09:04:05,407 [INFO] _________________________________________________________________
2019-12-24 09:04:05,407 [INFO] dropout_56 (Dropout)         (None, 64)                0         
2019-12-24 09:04:05,407 [INFO] _________________________________________________________________
2019-12-24 09:04:05,407 [INFO] dense_81 (Dense)             (None, 128)               8320      
2019-12-24 09:04:05,407 [INFO] _________________________________________________________________
2019-12-24 09:04:05,407 [INFO] batch_normalization_57 (Batc (None, 128)               512       
2019-12-24 09:04:05,408 [INFO] _________________________________________________________________
2019-12-24 09:04:05,408 [INFO] dropout_57 (Dropout)         (None, 128)               0         
2019-12-24 09:04:05,408 [INFO] _________________________________________________________________
2019-12-24 09:04:05,408 [INFO] dense_82 (Dense)             (None, 78)                10062     
2019-12-24 09:04:05,408 [INFO] =================================================================
2019-12-24 09:04:05,408 [INFO] Total params: 42,606
2019-12-24 09:04:05,408 [INFO] Trainable params: 41,774
2019-12-24 09:04:05,408 [INFO] Non-trainable params: 832
2019-12-24 09:04:05,408 [INFO] _________________________________________________________________
2019-12-24 09:04:05,548 [INFO] _________________________________________________________________
2019-12-24 09:04:05,548 [INFO] Layer (type)                 Output Shape              Param #   
2019-12-24 09:04:05,548 [INFO] =================================================================
2019-12-24 09:04:05,548 [INFO] dense_83 (Dense)             (None, 64)                2112      
2019-12-24 09:04:05,548 [INFO] _________________________________________________________________
2019-12-24 09:04:05,549 [INFO] batch_normalization_58 (Batc (None, 64)                256       
2019-12-24 09:04:05,549 [INFO] _________________________________________________________________
2019-12-24 09:04:05,549 [INFO] dropout_58 (Dropout)         (None, 64)                0         
2019-12-24 09:04:05,549 [INFO] _________________________________________________________________
2019-12-24 09:04:05,549 [INFO] dense_84 (Dense)             (None, 12)                780       
2019-12-24 09:04:05,549 [INFO] =================================================================
2019-12-24 09:04:05,549 [INFO] Total params: 3,148
2019-12-24 09:04:05,549 [INFO] Trainable params: 3,020
2019-12-24 09:04:05,549 [INFO] Non-trainable params: 128
2019-12-24 09:04:05,549 [INFO] _________________________________________________________________
2019-12-24 09:04:05,549 [INFO] Training model
…
