…
2020-01-08 23:13:50,272 [INFO] Reading complete. time_to_read=0.10 seconds
2020-01-08 23:13:50,272 [INFO] Reading HDF dataset ../Datasets/small_datasets/ids2018/y_test.h5
2020-01-08 23:13:50,368 [INFO] Reading complete. time_to_read=0.10 seconds
2020-01-08 23:13:53,760 [INFO] Initializing model
2020-01-08 23:13:54,141 [INFO] _________________________________________________________________
2020-01-08 23:13:54,141 [INFO] Layer (type)                 Output Shape              Param #   
2020-01-08 23:13:54,141 [INFO] =================================================================
2020-01-08 23:13:54,141 [INFO] dense_10 (Dense)             (None, 64)                4992      
2020-01-08 23:13:54,141 [INFO] _________________________________________________________________
2020-01-08 23:13:54,142 [INFO] batch_normalization_7 (Batch (None, 64)                256       
2020-01-08 23:13:54,142 [INFO] _________________________________________________________________
2020-01-08 23:13:54,142 [INFO] dropout_7 (Dropout)          (None, 64)                0         
2020-01-08 23:13:54,142 [INFO] _________________________________________________________________
2020-01-08 23:13:54,142 [INFO] dense_11 (Dense)             (None, 64)                4160      
2020-01-08 23:13:54,142 [INFO] _________________________________________________________________
2020-01-08 23:13:54,142 [INFO] batch_normalization_8 (Batch (None, 64)                256       
2020-01-08 23:13:54,142 [INFO] _________________________________________________________________
2020-01-08 23:13:54,142 [INFO] dropout_8 (Dropout)          (None, 64)                0         
2020-01-08 23:13:54,142 [INFO] _________________________________________________________________
2020-01-08 23:13:54,142 [INFO] dense_12 (Dense)             (None, 64)                4160      
2020-01-08 23:13:54,142 [INFO] _________________________________________________________________
2020-01-08 23:13:54,143 [INFO] batch_normalization_9 (Batch (None, 64)                256       
2020-01-08 23:13:54,143 [INFO] _________________________________________________________________
2020-01-08 23:13:54,143 [INFO] dropout_9 (Dropout)          (None, 64)                0         
2020-01-08 23:13:54,143 [INFO] _________________________________________________________________
2020-01-08 23:13:54,143 [INFO] dense_13 (Dense)             (None, 64)                4160      
2020-01-08 23:13:54,143 [INFO] _________________________________________________________________
2020-01-08 23:13:54,143 [INFO] batch_normalization_10 (Batc (None, 64)                256       
2020-01-08 23:13:54,143 [INFO] _________________________________________________________________
2020-01-08 23:13:54,143 [INFO] dropout_10 (Dropout)         (None, 64)                0         
2020-01-08 23:13:54,143 [INFO] _________________________________________________________________
2020-01-08 23:13:54,143 [INFO] dense_14 (Dense)             (None, 15)                975       
2020-01-08 23:13:54,143 [INFO] =================================================================
2020-01-08 23:13:54,144 [INFO] Total params: 19,471
2020-01-08 23:13:54,144 [INFO] Trainable params: 18,959
2020-01-08 23:13:54,144 [INFO] Non-trainable params: 512
2020-01-08 23:13:54,144 [INFO] _________________________________________________________________
2020-01-08 23:13:54,144 [INFO] Training model
…
