…
2020-01-14 12:45:56,897 [INFO] Reading complete. time_to_read=0.17 seconds
2020-01-14 12:45:56,897 [INFO] Reading HDF dataset ../Datasets/full_datasets/ids2017/y_test.h5
2020-01-14 12:45:57,064 [INFO] Reading complete. time_to_read=0.17 seconds
2020-01-14 12:46:00,481 [INFO] Initializing model
2020-01-14 12:46:00,904 [INFO] _________________________________________________________________
2020-01-14 12:46:00,904 [INFO] Layer (type)                 Output Shape              Param #   
2020-01-14 12:46:00,904 [INFO] =================================================================
2020-01-14 12:46:00,904 [INFO] dense_25 (Dense)             (None, 128)               10112     
2020-01-14 12:46:00,904 [INFO] _________________________________________________________________
2020-01-14 12:46:00,904 [INFO] batch_normalization_19 (Batc (None, 128)               512       
2020-01-14 12:46:00,904 [INFO] _________________________________________________________________
2020-01-14 12:46:00,904 [INFO] dropout_19 (Dropout)         (None, 128)               0         
2020-01-14 12:46:00,904 [INFO] _________________________________________________________________
2020-01-14 12:46:00,904 [INFO] dense_26 (Dense)             (None, 64)                8256      
2020-01-14 12:46:00,904 [INFO] _________________________________________________________________
2020-01-14 12:46:00,905 [INFO] batch_normalization_20 (Batc (None, 64)                256       
2020-01-14 12:46:00,905 [INFO] _________________________________________________________________
2020-01-14 12:46:00,905 [INFO] dropout_20 (Dropout)         (None, 64)                0         
2020-01-14 12:46:00,905 [INFO] _________________________________________________________________
2020-01-14 12:46:00,905 [INFO] dense_27 (Dense)             (None, 32)                2080      
2020-01-14 12:46:00,905 [INFO] _________________________________________________________________
2020-01-14 12:46:00,905 [INFO] batch_normalization_21 (Batc (None, 32)                128       
2020-01-14 12:46:00,905 [INFO] _________________________________________________________________
2020-01-14 12:46:00,905 [INFO] dropout_21 (Dropout)         (None, 32)                0         
2020-01-14 12:46:00,905 [INFO] _________________________________________________________________
2020-01-14 12:46:00,905 [INFO] dense_28 (Dense)             (None, 64)                2112      
2020-01-14 12:46:00,905 [INFO] _________________________________________________________________
2020-01-14 12:46:00,905 [INFO] batch_normalization_22 (Batc (None, 64)                256       
2020-01-14 12:46:00,905 [INFO] _________________________________________________________________
2020-01-14 12:46:00,905 [INFO] dropout_22 (Dropout)         (None, 64)                0         
2020-01-14 12:46:00,905 [INFO] _________________________________________________________________
2020-01-14 12:46:00,905 [INFO] dense_29 (Dense)             (None, 128)               8320      
2020-01-14 12:46:00,905 [INFO] _________________________________________________________________
2020-01-14 12:46:00,906 [INFO] batch_normalization_23 (Batc (None, 128)               512       
2020-01-14 12:46:00,906 [INFO] _________________________________________________________________
2020-01-14 12:46:00,906 [INFO] dropout_23 (Dropout)         (None, 128)               0         
2020-01-14 12:46:00,906 [INFO] _________________________________________________________________
2020-01-14 12:46:00,906 [INFO] dense_30 (Dense)             (None, 78)                10062     
2020-01-14 12:46:00,906 [INFO] =================================================================
2020-01-14 12:46:00,906 [INFO] Total params: 42,606
2020-01-14 12:46:00,906 [INFO] Trainable params: 41,774
2020-01-14 12:46:00,906 [INFO] Non-trainable params: 832
2020-01-14 12:46:00,906 [INFO] _________________________________________________________________
2020-01-14 12:46:01,013 [INFO] _________________________________________________________________
2020-01-14 12:46:01,013 [INFO] Layer (type)                 Output Shape              Param #   
2020-01-14 12:46:01,013 [INFO] =================================================================
2020-01-14 12:46:01,014 [INFO] dense_31 (Dense)             (None, 64)                2112      
2020-01-14 12:46:01,014 [INFO] _________________________________________________________________
2020-01-14 12:46:01,014 [INFO] batch_normalization_24 (Batc (None, 64)                256       
2020-01-14 12:46:01,014 [INFO] _________________________________________________________________
2020-01-14 12:46:01,014 [INFO] dropout_24 (Dropout)         (None, 64)                0         
2020-01-14 12:46:01,014 [INFO] _________________________________________________________________
2020-01-14 12:46:01,014 [INFO] dense_32 (Dense)             (None, 12)                780       
2020-01-14 12:46:01,014 [INFO] =================================================================
2020-01-14 12:46:01,014 [INFO] Total params: 3,148
2020-01-14 12:46:01,014 [INFO] Trainable params: 3,020
2020-01-14 12:46:01,014 [INFO] Non-trainable params: 128
2020-01-14 12:46:01,014 [INFO] _________________________________________________________________
2020-01-14 12:46:01,014 [INFO] Training model
…
