…
2019-12-24 01:12:03,727 [INFO] Reading complete. time_to_read=0.00 seconds
2019-12-24 01:12:03,727 [INFO] Reading HDF dataset ../Datasets/small_datasets/nsl_kdd_five_classes/y_test.h5
2019-12-24 01:12:03,731 [INFO] Reading complete. time_to_read=0.00 seconds
2019-12-24 01:12:03,847 [INFO] Initializing model
2019-12-24 01:12:04,324 [INFO] _________________________________________________________________
2019-12-24 01:12:04,324 [INFO] Layer (type)                 Output Shape              Param #   
2019-12-24 01:12:04,324 [INFO] =================================================================
2019-12-24 01:12:04,324 [INFO] dense_21 (Dense)             (None, 128)               15744     
2019-12-24 01:12:04,324 [INFO] _________________________________________________________________
2019-12-24 01:12:04,324 [INFO] batch_normalization_11 (Batc (None, 128)               512       
2019-12-24 01:12:04,324 [INFO] _________________________________________________________________
2019-12-24 01:12:04,324 [INFO] dropout_11 (Dropout)         (None, 128)               0         
2019-12-24 01:12:04,324 [INFO] _________________________________________________________________
2019-12-24 01:12:04,325 [INFO] dense_22 (Dense)             (None, 64)                8256      
2019-12-24 01:12:04,325 [INFO] _________________________________________________________________
2019-12-24 01:12:04,325 [INFO] batch_normalization_12 (Batc (None, 64)                256       
2019-12-24 01:12:04,325 [INFO] _________________________________________________________________
2019-12-24 01:12:04,325 [INFO] dropout_12 (Dropout)         (None, 64)                0         
2019-12-24 01:12:04,325 [INFO] _________________________________________________________________
2019-12-24 01:12:04,325 [INFO] dense_23 (Dense)             (None, 32)                2080      
2019-12-24 01:12:04,325 [INFO] _________________________________________________________________
2019-12-24 01:12:04,325 [INFO] batch_normalization_13 (Batc (None, 32)                128       
2019-12-24 01:12:04,325 [INFO] _________________________________________________________________
2019-12-24 01:12:04,325 [INFO] dropout_13 (Dropout)         (None, 32)                0         
2019-12-24 01:12:04,325 [INFO] _________________________________________________________________
2019-12-24 01:12:04,326 [INFO] dense_24 (Dense)             (None, 64)                2112      
2019-12-24 01:12:04,326 [INFO] _________________________________________________________________
2019-12-24 01:12:04,326 [INFO] batch_normalization_14 (Batc (None, 64)                256       
2019-12-24 01:12:04,326 [INFO] _________________________________________________________________
2019-12-24 01:12:04,326 [INFO] dropout_14 (Dropout)         (None, 64)                0         
2019-12-24 01:12:04,326 [INFO] _________________________________________________________________
2019-12-24 01:12:04,326 [INFO] dense_25 (Dense)             (None, 128)               8320      
2019-12-24 01:12:04,326 [INFO] _________________________________________________________________
2019-12-24 01:12:04,326 [INFO] batch_normalization_15 (Batc (None, 128)               512       
2019-12-24 01:12:04,326 [INFO] _________________________________________________________________
2019-12-24 01:12:04,326 [INFO] dropout_15 (Dropout)         (None, 128)               0         
2019-12-24 01:12:04,326 [INFO] _________________________________________________________________
2019-12-24 01:12:04,326 [INFO] dense_26 (Dense)             (None, 122)               15738     
2019-12-24 01:12:04,327 [INFO] =================================================================
2019-12-24 01:12:04,327 [INFO] Total params: 53,914
2019-12-24 01:12:04,327 [INFO] Trainable params: 53,082
2019-12-24 01:12:04,327 [INFO] Non-trainable params: 832
2019-12-24 01:12:04,327 [INFO] _________________________________________________________________
2019-12-24 01:12:04,451 [INFO] _________________________________________________________________
2019-12-24 01:12:04,451 [INFO] Layer (type)                 Output Shape              Param #   
2019-12-24 01:12:04,451 [INFO] =================================================================
2019-12-24 01:12:04,451 [INFO] dense_27 (Dense)             (None, 64)                2112      
2019-12-24 01:12:04,451 [INFO] _________________________________________________________________
2019-12-24 01:12:04,451 [INFO] batch_normalization_16 (Batc (None, 64)                256       
2019-12-24 01:12:04,451 [INFO] _________________________________________________________________
2019-12-24 01:12:04,451 [INFO] dropout_16 (Dropout)         (None, 64)                0         
2019-12-24 01:12:04,451 [INFO] _________________________________________________________________
2019-12-24 01:12:04,451 [INFO] dense_28 (Dense)             (None, 5)                 325       
2019-12-24 01:12:04,451 [INFO] =================================================================
2019-12-24 01:12:04,452 [INFO] Total params: 2,693
2019-12-24 01:12:04,452 [INFO] Trainable params: 2,565
2019-12-24 01:12:04,452 [INFO] Non-trainable params: 128
2019-12-24 01:12:04,452 [INFO] _________________________________________________________________
2019-12-24 01:12:04,452 [INFO] Training model
…
2019-12-24 02:01:10,295 [INFO] Reading complete. time_to_read=0.08 seconds
2019-12-24 02:01:10,295 [INFO] Reading HDF dataset ../Datasets/full_datasets/ids2017/y_test.h5
2019-12-24 02:01:10,376 [INFO] Reading complete. time_to_read=0.08 seconds
2019-12-24 02:01:13,311 [INFO] Initializing model
2019-12-24 02:01:13,847 [INFO] _________________________________________________________________
2019-12-24 02:01:13,847 [INFO] Layer (type)                 Output Shape              Param #   
2019-12-24 02:01:13,847 [INFO] =================================================================
2019-12-24 02:01:13,847 [INFO] dense_61 (Dense)             (None, 128)               10112     
2019-12-24 02:01:13,847 [INFO] _________________________________________________________________
2019-12-24 02:01:13,847 [INFO] batch_normalization_41 (Batc (None, 128)               512       
2019-12-24 02:01:13,847 [INFO] _________________________________________________________________
2019-12-24 02:01:13,847 [INFO] dropout_41 (Dropout)         (None, 128)               0         
2019-12-24 02:01:13,847 [INFO] _________________________________________________________________
2019-12-24 02:01:13,848 [INFO] dense_62 (Dense)             (None, 64)                8256      
2019-12-24 02:01:13,848 [INFO] _________________________________________________________________
2019-12-24 02:01:13,848 [INFO] batch_normalization_42 (Batc (None, 64)                256       
2019-12-24 02:01:13,848 [INFO] _________________________________________________________________
2019-12-24 02:01:13,848 [INFO] dropout_42 (Dropout)         (None, 64)                0         
2019-12-24 02:01:13,848 [INFO] _________________________________________________________________
2019-12-24 02:01:13,848 [INFO] dense_63 (Dense)             (None, 32)                2080      
2019-12-24 02:01:13,848 [INFO] _________________________________________________________________
2019-12-24 02:01:13,848 [INFO] batch_normalization_43 (Batc (None, 32)                128       
2019-12-24 02:01:13,848 [INFO] _________________________________________________________________
2019-12-24 02:01:13,848 [INFO] dropout_43 (Dropout)         (None, 32)                0         
2019-12-24 02:01:13,848 [INFO] _________________________________________________________________
2019-12-24 02:01:13,849 [INFO] dense_64 (Dense)             (None, 64)                2112      
2019-12-24 02:01:13,849 [INFO] _________________________________________________________________
2019-12-24 02:01:13,849 [INFO] batch_normalization_44 (Batc (None, 64)                256       
2019-12-24 02:01:13,849 [INFO] _________________________________________________________________
2019-12-24 02:01:13,849 [INFO] dropout_44 (Dropout)         (None, 64)                0         
2019-12-24 02:01:13,849 [INFO] _________________________________________________________________
2019-12-24 02:01:13,849 [INFO] dense_65 (Dense)             (None, 128)               8320      
2019-12-24 02:01:13,849 [INFO] _________________________________________________________________
2019-12-24 02:01:13,849 [INFO] batch_normalization_45 (Batc (None, 128)               512       
2019-12-24 02:01:13,849 [INFO] _________________________________________________________________
2019-12-24 02:01:13,849 [INFO] dropout_45 (Dropout)         (None, 128)               0         
2019-12-24 02:01:13,849 [INFO] _________________________________________________________________
2019-12-24 02:01:13,850 [INFO] dense_66 (Dense)             (None, 78)                10062     
2019-12-24 02:01:13,850 [INFO] =================================================================
2019-12-24 02:01:13,850 [INFO] Total params: 42,606
2019-12-24 02:01:13,850 [INFO] Trainable params: 41,774
2019-12-24 02:01:13,850 [INFO] Non-trainable params: 832
2019-12-24 02:01:13,850 [INFO] _________________________________________________________________
2019-12-24 02:01:13,984 [INFO] _________________________________________________________________
2019-12-24 02:01:13,985 [INFO] Layer (type)                 Output Shape              Param #   
2019-12-24 02:01:13,985 [INFO] =================================================================
2019-12-24 02:01:13,985 [INFO] dense_67 (Dense)             (None, 64)                2112      
2019-12-24 02:01:13,985 [INFO] _________________________________________________________________
2019-12-24 02:01:13,985 [INFO] batch_normalization_46 (Batc (None, 64)                256       
2019-12-24 02:01:13,985 [INFO] _________________________________________________________________
2019-12-24 02:01:13,985 [INFO] dropout_46 (Dropout)         (None, 64)                0         
2019-12-24 02:01:13,985 [INFO] _________________________________________________________________
2019-12-24 02:01:13,985 [INFO] dense_68 (Dense)             (None, 12)                780       
2019-12-24 02:01:13,985 [INFO] =================================================================
2019-12-24 02:01:13,986 [INFO] Total params: 3,148
2019-12-24 02:01:13,986 [INFO] Trainable params: 3,020
2019-12-24 02:01:13,986 [INFO] Non-trainable params: 128
2019-12-24 02:01:13,986 [INFO] _________________________________________________________________
2019-12-24 02:01:13,986 [INFO] Training model
…
2019-12-24 20:26:33,522 [INFO] Reading complete. time_to_read=0.05 seconds
2019-12-24 20:26:33,522 [INFO] Reading HDF dataset ../Datasets/full_datasets/kdd99_five_classes/y_test.h5
2019-12-24 20:26:33,542 [INFO] Reading complete. time_to_read=0.02 seconds
2019-12-24 20:26:40,680 [INFO] Initializing model
2019-12-24 20:26:41,270 [INFO] _________________________________________________________________
2019-12-24 20:26:41,270 [INFO] Layer (type)                 Output Shape              Param #   
2019-12-24 20:26:41,270 [INFO] =================================================================
2019-12-24 20:26:41,270 [INFO] dense_101 (Dense)            (None, 128)               15872     
2019-12-24 20:26:41,270 [INFO] _________________________________________________________________
2019-12-24 20:26:41,270 [INFO] batch_normalization_71 (Batc (None, 128)               512       
2019-12-24 20:26:41,270 [INFO] _________________________________________________________________
2019-12-24 20:26:41,270 [INFO] dropout_71 (Dropout)         (None, 128)               0         
2019-12-24 20:26:41,270 [INFO] _________________________________________________________________
2019-12-24 20:26:41,271 [INFO] dense_102 (Dense)            (None, 64)                8256      
2019-12-24 20:26:41,271 [INFO] _________________________________________________________________
2019-12-24 20:26:41,271 [INFO] batch_normalization_72 (Batc (None, 64)                256       
2019-12-24 20:26:41,271 [INFO] _________________________________________________________________
2019-12-24 20:26:41,271 [INFO] dropout_72 (Dropout)         (None, 64)                0         
2019-12-24 20:26:41,271 [INFO] _________________________________________________________________
2019-12-24 20:26:41,271 [INFO] dense_103 (Dense)            (None, 32)                2080      
2019-12-24 20:26:41,271 [INFO] _________________________________________________________________
2019-12-24 20:26:41,271 [INFO] batch_normalization_73 (Batc (None, 32)                128       
2019-12-24 20:26:41,271 [INFO] _________________________________________________________________
2019-12-24 20:26:41,271 [INFO] dropout_73 (Dropout)         (None, 32)                0         
2019-12-24 20:26:41,271 [INFO] _________________________________________________________________
2019-12-24 20:26:41,272 [INFO] dense_104 (Dense)            (None, 64)                2112      
2019-12-24 20:26:41,272 [INFO] _________________________________________________________________
2019-12-24 20:26:41,272 [INFO] batch_normalization_74 (Batc (None, 64)                256       
2019-12-24 20:26:41,272 [INFO] _________________________________________________________________
2019-12-24 20:26:41,272 [INFO] dropout_74 (Dropout)         (None, 64)                0         
2019-12-24 20:26:41,272 [INFO] _________________________________________________________________
2019-12-24 20:26:41,272 [INFO] dense_105 (Dense)            (None, 128)               8320      
2019-12-24 20:26:41,272 [INFO] _________________________________________________________________
2019-12-24 20:26:41,272 [INFO] batch_normalization_75 (Batc (None, 128)               512       
2019-12-24 20:26:41,272 [INFO] _________________________________________________________________
2019-12-24 20:26:41,272 [INFO] dropout_75 (Dropout)         (None, 128)               0         
2019-12-24 20:26:41,272 [INFO] _________________________________________________________________
2019-12-24 20:26:41,273 [INFO] dense_106 (Dense)            (None, 123)               15867     
2019-12-24 20:26:41,273 [INFO] =================================================================
2019-12-24 20:26:41,273 [INFO] Total params: 54,171
2019-12-24 20:26:41,273 [INFO] Trainable params: 53,339
2019-12-24 20:26:41,273 [INFO] Non-trainable params: 832
2019-12-24 20:26:41,273 [INFO] _________________________________________________________________
2019-12-24 20:26:41,419 [INFO] _________________________________________________________________
2019-12-24 20:26:41,419 [INFO] Layer (type)                 Output Shape              Param #   
2019-12-24 20:26:41,419 [INFO] =================================================================
2019-12-24 20:26:41,419 [INFO] dense_107 (Dense)            (None, 64)                2112      
2019-12-24 20:26:41,419 [INFO] _________________________________________________________________
2019-12-24 20:26:41,420 [INFO] batch_normalization_76 (Batc (None, 64)                256       
2019-12-24 20:26:41,420 [INFO] _________________________________________________________________
2019-12-24 20:26:41,420 [INFO] dropout_76 (Dropout)         (None, 64)                0         
2019-12-24 20:26:41,420 [INFO] _________________________________________________________________
2019-12-24 20:26:41,420 [INFO] dense_108 (Dense)            (None, 5)                 325       
2019-12-24 20:26:41,420 [INFO] =================================================================
2019-12-24 20:26:41,420 [INFO] Total params: 2,693
2019-12-24 20:26:41,420 [INFO] Trainable params: 2,565
2019-12-24 20:26:41,420 [INFO] Non-trainable params: 128
2019-12-24 20:26:41,420 [INFO] _________________________________________________________________
2019-12-24 20:26:41,420 [INFO] Training model
…
2019-12-26 13:42:25,880 [INFO] Reading complete. time_to_read=0.10 seconds
2019-12-26 13:42:25,880 [INFO] Reading HDF dataset ../Datasets/small_datasets/ids2018/y_test.h5
2019-12-26 13:42:25,977 [INFO] Reading complete. time_to_read=0.10 seconds
2019-12-26 13:42:29,289 [INFO] Initializing model
2019-12-26 13:42:29,957 [INFO] _________________________________________________________________
2019-12-26 13:42:29,957 [INFO] Layer (type)                 Output Shape              Param #   
2019-12-26 13:42:29,957 [INFO] =================================================================
2019-12-26 13:42:29,957 [INFO] dense_141 (Dense)            (None, 128)               9984      
2019-12-26 13:42:29,957 [INFO] _________________________________________________________________
2019-12-26 13:42:29,958 [INFO] batch_normalization_101 (Bat (None, 128)               512       
2019-12-26 13:42:29,958 [INFO] _________________________________________________________________
2019-12-26 13:42:29,958 [INFO] dropout_101 (Dropout)        (None, 128)               0         
2019-12-26 13:42:29,958 [INFO] _________________________________________________________________
2019-12-26 13:42:29,958 [INFO] dense_142 (Dense)            (None, 64)                8256      
2019-12-26 13:42:29,958 [INFO] _________________________________________________________________
2019-12-26 13:42:29,958 [INFO] batch_normalization_102 (Bat (None, 64)                256       
2019-12-26 13:42:29,958 [INFO] _________________________________________________________________
2019-12-26 13:42:29,958 [INFO] dropout_102 (Dropout)        (None, 64)                0         
2019-12-26 13:42:29,958 [INFO] _________________________________________________________________
2019-12-26 13:42:29,958 [INFO] dense_143 (Dense)            (None, 32)                2080      
2019-12-26 13:42:29,959 [INFO] _________________________________________________________________
2019-12-26 13:42:29,959 [INFO] batch_normalization_103 (Bat (None, 32)                128       
2019-12-26 13:42:29,959 [INFO] _________________________________________________________________
2019-12-26 13:42:29,959 [INFO] dropout_103 (Dropout)        (None, 32)                0         
2019-12-26 13:42:29,959 [INFO] _________________________________________________________________
2019-12-26 13:42:29,959 [INFO] dense_144 (Dense)            (None, 64)                2112      
2019-12-26 13:42:29,959 [INFO] _________________________________________________________________
2019-12-26 13:42:29,959 [INFO] batch_normalization_104 (Bat (None, 64)                256       
2019-12-26 13:42:29,959 [INFO] _________________________________________________________________
2019-12-26 13:42:29,959 [INFO] dropout_104 (Dropout)        (None, 64)                0         
2019-12-26 13:42:29,959 [INFO] _________________________________________________________________
2019-12-26 13:42:29,959 [INFO] dense_145 (Dense)            (None, 128)               8320      
2019-12-26 13:42:29,959 [INFO] _________________________________________________________________
2019-12-26 13:42:29,960 [INFO] batch_normalization_105 (Bat (None, 128)               512       
2019-12-26 13:42:29,960 [INFO] _________________________________________________________________
2019-12-26 13:42:29,960 [INFO] dropout_105 (Dropout)        (None, 128)               0         
2019-12-26 13:42:29,960 [INFO] _________________________________________________________________
2019-12-26 13:42:29,960 [INFO] dense_146 (Dense)            (None, 77)                9933      
2019-12-26 13:42:29,960 [INFO] =================================================================
2019-12-26 13:42:29,960 [INFO] Total params: 42,349
2019-12-26 13:42:29,960 [INFO] Trainable params: 41,517
2019-12-26 13:42:29,961 [INFO] Non-trainable params: 832
2019-12-26 13:42:29,961 [INFO] _________________________________________________________________
2019-12-26 13:42:30,120 [INFO] _________________________________________________________________
2019-12-26 13:42:30,121 [INFO] Layer (type)                 Output Shape              Param #   
2019-12-26 13:42:30,121 [INFO] =================================================================
2019-12-26 13:42:30,121 [INFO] dense_147 (Dense)            (None, 64)                2112      
2019-12-26 13:42:30,121 [INFO] _________________________________________________________________
2019-12-26 13:42:30,121 [INFO] batch_normalization_106 (Bat (None, 64)                256       
2019-12-26 13:42:30,121 [INFO] _________________________________________________________________
2019-12-26 13:42:30,121 [INFO] dropout_106 (Dropout)        (None, 64)                0         
2019-12-26 13:42:30,121 [INFO] _________________________________________________________________
2019-12-26 13:42:30,121 [INFO] dense_148 (Dense)            (None, 15)                975       
2019-12-26 13:42:30,121 [INFO] =================================================================
2019-12-26 13:42:30,122 [INFO] Total params: 3,343
2019-12-26 13:42:30,122 [INFO] Trainable params: 3,215
2019-12-26 13:42:30,122 [INFO] Non-trainable params: 128
2019-12-26 13:42:30,122 [INFO] _________________________________________________________________
2019-12-26 13:42:30,122 [INFO] Training model
…
