…
2020-01-05 19:20:57,035 [INFO] Reading complete. time_to_read=0.07 seconds
2020-01-05 19:20:57,035 [INFO] Reading HDF dataset ../Datasets/full_datasets/ids2017/y_test.h5
2020-01-05 19:20:57,103 [INFO] Reading complete. time_to_read=0.07 seconds
2020-01-05 19:21:00,256 [INFO] Initializing model
2020-01-05 19:21:00,511 [INFO] _________________________________________________________________
2020-01-05 19:21:00,511 [INFO] Layer (type)                 Output Shape              Param #   
2020-01-05 19:21:00,511 [INFO] =================================================================
2020-01-05 19:21:00,511 [INFO] dense_9 (Dense)              (None, 3000)              237000    
2020-01-05 19:21:00,511 [INFO] _________________________________________________________________
2020-01-05 19:21:00,511 [INFO] batch_normalization_7 (Batch (None, 3000)              12000     
2020-01-05 19:21:00,511 [INFO] _________________________________________________________________
2020-01-05 19:21:00,512 [INFO] dropout_7 (Dropout)          (None, 3000)              0         
2020-01-05 19:21:00,512 [INFO] _________________________________________________________________
2020-01-05 19:21:00,512 [INFO] dense_10 (Dense)             (None, 1500)              4501500   
2020-01-05 19:21:00,512 [INFO] _________________________________________________________________
2020-01-05 19:21:00,512 [INFO] batch_normalization_8 (Batch (None, 1500)              6000      
2020-01-05 19:21:00,512 [INFO] _________________________________________________________________
2020-01-05 19:21:00,512 [INFO] dropout_8 (Dropout)          (None, 1500)              0         
2020-01-05 19:21:00,512 [INFO] _________________________________________________________________
2020-01-05 19:21:00,512 [INFO] dense_11 (Dense)             (None, 500)               750500    
2020-01-05 19:21:00,512 [INFO] _________________________________________________________________
2020-01-05 19:21:00,512 [INFO] batch_normalization_9 (Batch (None, 500)               2000      
2020-01-05 19:21:00,512 [INFO] _________________________________________________________________
2020-01-05 19:21:00,512 [INFO] dropout_9 (Dropout)          (None, 500)               0         
2020-01-05 19:21:00,512 [INFO] _________________________________________________________________
2020-01-05 19:21:00,512 [INFO] dense_12 (Dense)             (None, 12)                6012      
2020-01-05 19:21:00,512 [INFO] =================================================================
2020-01-05 19:21:00,513 [INFO] Total params: 5,515,012
2020-01-05 19:21:00,513 [INFO] Trainable params: 5,505,012
2020-01-05 19:21:00,513 [INFO] Non-trainable params: 10,000
2020-01-05 19:21:00,513 [INFO] _________________________________________________________________
2020-01-05 19:21:00,513 [INFO] Training model
…
