…
2019-12-21 23:01:26,250 [INFO] Reading complete. time_to_read=0.12 seconds
2019-12-21 23:01:26,250 [INFO] Reading HDF dataset ../Datasets/full_datasets/kdd99_five_classes/y_test.h5
2019-12-21 23:01:26,302 [INFO] Reading complete. time_to_read=0.05 seconds
2019-12-21 23:02:07,881 [INFO] Initializing model
2019-12-21 23:02:10,607 [INFO] _________________________________________________________________
2019-12-21 23:02:10,609 [INFO] Layer (type)                 Output Shape              Param #   
2019-12-21 23:02:10,609 [INFO] =================================================================
2019-12-21 23:02:10,610 [INFO] dense_42 (Dense)             (None, 64)                7936      
2019-12-21 23:02:10,610 [INFO] _________________________________________________________________
2019-12-21 23:02:10,610 [INFO] batch_normalization_33 (Batc (None, 64)                256       
2019-12-21 23:02:10,610 [INFO] _________________________________________________________________
2019-12-21 23:02:10,610 [INFO] dropout_33 (Dropout)         (None, 64)                0         
2019-12-21 23:02:10,610 [INFO] _________________________________________________________________
2019-12-21 23:02:10,610 [INFO] dense_43 (Dense)             (None, 32)                2080      
2019-12-21 23:02:10,610 [INFO] _________________________________________________________________
2019-12-21 23:02:10,610 [INFO] batch_normalization_34 (Batc (None, 32)                128       
2019-12-21 23:02:10,610 [INFO] _________________________________________________________________
2019-12-21 23:02:10,610 [INFO] dropout_34 (Dropout)         (None, 32)                0         
2019-12-21 23:02:10,610 [INFO] _________________________________________________________________
2019-12-21 23:02:10,611 [INFO] dense_44 (Dense)             (None, 68)                2244      
2019-12-21 23:02:10,611 [INFO] _________________________________________________________________
2019-12-21 23:02:10,611 [INFO] batch_normalization_35 (Batc (None, 68)                272       
2019-12-21 23:02:10,611 [INFO] _________________________________________________________________
2019-12-21 23:02:10,611 [INFO] dropout_35 (Dropout)         (None, 68)                0         
2019-12-21 23:02:10,611 [INFO] _________________________________________________________________
2019-12-21 23:02:10,611 [INFO] dense_45 (Dense)             (None, 5)                 345       
2019-12-21 23:02:10,611 [INFO] =================================================================
2019-12-21 23:02:10,612 [INFO] Total params: 13,261
2019-12-21 23:02:10,612 [INFO] Trainable params: 12,933
2019-12-21 23:02:10,612 [INFO] Non-trainable params: 328
2019-12-21 23:02:10,612 [INFO] _________________________________________________________________
2019-12-21 23:02:10,612 [INFO] Training model
…
