…
2020-01-14 12:22:30,445 [INFO] Pretraining Deep Belief Network
2020-01-14 12:22:44,943 [INFO] Pretraining Complete
2020-01-14 12:22:44,943 [INFO] Getting pretrained weights
2020-01-14 12:22:44,943 [INFO] Creating and initializing feed forward neural network
2020-01-14 12:22:45,232 [INFO] _________________________________________________________________
2020-01-14 12:22:45,232 [INFO] Layer (type)                 Output Shape              Param #   
2020-01-14 12:22:45,233 [INFO] =================================================================
2020-01-14 12:22:45,233 [INFO] dense_5 (Dense)              (None, 128)               15744     
2020-01-14 12:22:45,233 [INFO] _________________________________________________________________
2020-01-14 12:22:45,233 [INFO] batch_normalization_4 (Batch (None, 128)               512       
2020-01-14 12:22:45,233 [INFO] _________________________________________________________________
2020-01-14 12:22:45,233 [INFO] dropout_4 (Dropout)          (None, 128)               0         
2020-01-14 12:22:45,233 [INFO] _________________________________________________________________
2020-01-14 12:22:45,233 [INFO] dense_6 (Dense)              (None, 64)                8256      
2020-01-14 12:22:45,233 [INFO] _________________________________________________________________
2020-01-14 12:22:45,233 [INFO] batch_normalization_5 (Batch (None, 64)                256       
2020-01-14 12:22:45,233 [INFO] _________________________________________________________________
2020-01-14 12:22:45,234 [INFO] dropout_5 (Dropout)          (None, 64)                0         
2020-01-14 12:22:45,234 [INFO] _________________________________________________________________
2020-01-14 12:22:45,234 [INFO] dense_7 (Dense)              (None, 32)                2080      
2020-01-14 12:22:45,234 [INFO] _________________________________________________________________
2020-01-14 12:22:45,234 [INFO] batch_normalization_6 (Batch (None, 32)                128       
2020-01-14 12:22:45,234 [INFO] _________________________________________________________________
2020-01-14 12:22:45,234 [INFO] dropout_6 (Dropout)          (None, 32)                0         
2020-01-14 12:22:45,234 [INFO] _________________________________________________________________
2020-01-14 12:22:45,234 [INFO] dense_8 (Dense)              (None, 5)                 165       
2020-01-14 12:22:45,234 [INFO] =================================================================
2020-01-14 12:22:45,235 [INFO] Total params: 27,141
2020-01-14 12:22:45,235 [INFO] Trainable params: 26,693
2020-01-14 12:22:45,235 [INFO] Non-trainable params: 448
2020-01-14 12:22:45,235 [INFO] _________________________________________________________________
2020-01-14 12:22:45,647 [INFO] Fine-tuning final neural network
…
