…
2020-05-09 03:32:00,624 [INFO] Reading HDF dataset ../Datasets/full_datasets/ids2018/y_test_9.h5
2020-05-09 03:32:00,736 [INFO] Reading complete. time_to_read=0.11 seconds
2020-05-09 03:32:07,655 [INFO] Initializing model
2020-05-09 03:32:07,790 [INFO] Model: "sequential_4"
2020-05-09 03:32:07,790 [INFO] _________________________________________________________________
2020-05-09 03:32:07,790 [INFO] Layer (type)                 Output Shape              Param #   
2020-05-09 03:32:07,790 [INFO] =================================================================
2020-05-09 03:32:07,790 [INFO] dense_16 (Dense)             (None, 128)               9984      
2020-05-09 03:32:07,790 [INFO] _________________________________________________________________
2020-05-09 03:32:07,790 [INFO] batch_normalization_13 (Batc (None, 128)               512       
2020-05-09 03:32:07,790 [INFO] _________________________________________________________________
2020-05-09 03:32:07,790 [INFO] dropout_13 (Dropout)         (None, 128)               0         
2020-05-09 03:32:07,790 [INFO] _________________________________________________________________
2020-05-09 03:32:07,790 [INFO] dense_17 (Dense)             (None, 64)                8256      
2020-05-09 03:32:07,790 [INFO] _________________________________________________________________
2020-05-09 03:32:07,790 [INFO] batch_normalization_14 (Batc (None, 64)                256       
2020-05-09 03:32:07,790 [INFO] _________________________________________________________________
2020-05-09 03:32:07,790 [INFO] dropout_14 (Dropout)         (None, 64)                0         
2020-05-09 03:32:07,790 [INFO] _________________________________________________________________
2020-05-09 03:32:07,790 [INFO] dense_18 (Dense)             (None, 32)                2080      
2020-05-09 03:32:07,790 [INFO] _________________________________________________________________
2020-05-09 03:32:07,790 [INFO] batch_normalization_15 (Batc (None, 32)                128       
2020-05-09 03:32:07,790 [INFO] _________________________________________________________________
2020-05-09 03:32:07,790 [INFO] dropout_15 (Dropout)         (None, 32)                0         
2020-05-09 03:32:07,790 [INFO] _________________________________________________________________
2020-05-09 03:32:07,791 [INFO] dense_19 (Dense)             (None, 16)                528       
2020-05-09 03:32:07,791 [INFO] _________________________________________________________________
2020-05-09 03:32:07,791 [INFO] batch_normalization_16 (Batc (None, 16)                64        
2020-05-09 03:32:07,791 [INFO] _________________________________________________________________
2020-05-09 03:32:07,791 [INFO] dropout_16 (Dropout)         (None, 16)                0         
2020-05-09 03:32:07,791 [INFO] _________________________________________________________________
2020-05-09 03:32:07,791 [INFO] dense_20 (Dense)             (None, 15)                255       
2020-05-09 03:32:07,791 [INFO] =================================================================
2020-05-09 03:32:07,791 [INFO] Total params: 22,063
2020-05-09 03:32:07,791 [INFO] Trainable params: 21,583
2020-05-09 03:32:07,791 [INFO] Non-trainable params: 480
2020-05-09 03:32:07,791 [INFO] _________________________________________________________________
2020-05-09 03:32:07,791 [INFO] Training model
…
