…
2019-12-27 12:35:56,072 [INFO] Reading complete. time_to_read=0.07 seconds
2019-12-27 12:35:56,072 [INFO] Reading HDF dataset ../Datasets/full_datasets/ids2017/y_test.h5
2019-12-27 12:35:56,139 [INFO] Reading complete. time_to_read=0.07 seconds
2019-12-27 12:35:59,285 [INFO] Initializing model
2019-12-27 12:35:59,776 [INFO] _________________________________________________________________
2019-12-27 12:35:59,778 [INFO] Layer (type)                 Output Shape              Param #   
2019-12-27 12:35:59,778 [INFO] =================================================================
2019-12-27 12:35:59,779 [INFO] dense_80 (Dense)             (None, 256)               20224     
2019-12-27 12:35:59,779 [INFO] _________________________________________________________________
2019-12-27 12:35:59,779 [INFO] batch_normalization_66 (Batc (None, 256)               1024      
2019-12-27 12:35:59,779 [INFO] _________________________________________________________________
2019-12-27 12:35:59,779 [INFO] dropout_66 (Dropout)         (None, 256)               0         
2019-12-27 12:35:59,779 [INFO] _________________________________________________________________
2019-12-27 12:35:59,779 [INFO] dense_81 (Dense)             (None, 128)               32896     
2019-12-27 12:35:59,779 [INFO] _________________________________________________________________
2019-12-27 12:35:59,779 [INFO] batch_normalization_67 (Batc (None, 128)               512       
2019-12-27 12:35:59,779 [INFO] _________________________________________________________________
2019-12-27 12:35:59,779 [INFO] dropout_67 (Dropout)         (None, 128)               0         
2019-12-27 12:35:59,779 [INFO] _________________________________________________________________
2019-12-27 12:35:59,780 [INFO] dense_82 (Dense)             (None, 64)                8256      
2019-12-27 12:35:59,780 [INFO] _________________________________________________________________
2019-12-27 12:35:59,780 [INFO] batch_normalization_68 (Batc (None, 64)                256       
2019-12-27 12:35:59,780 [INFO] _________________________________________________________________
2019-12-27 12:35:59,780 [INFO] dropout_68 (Dropout)         (None, 64)                0         
2019-12-27 12:35:59,780 [INFO] _________________________________________________________________
2019-12-27 12:35:59,780 [INFO] dense_83 (Dense)             (None, 32)                2080      
2019-12-27 12:35:59,780 [INFO] _________________________________________________________________
2019-12-27 12:35:59,780 [INFO] batch_normalization_69 (Batc (None, 32)                128       
2019-12-27 12:35:59,780 [INFO] _________________________________________________________________
2019-12-27 12:35:59,780 [INFO] dropout_69 (Dropout)         (None, 32)                0         
2019-12-27 12:35:59,780 [INFO] _________________________________________________________________
2019-12-27 12:35:59,780 [INFO] dense_84 (Dense)             (None, 16)                528       
2019-12-27 12:35:59,780 [INFO] _________________________________________________________________
2019-12-27 12:35:59,780 [INFO] batch_normalization_70 (Batc (None, 16)                64        
2019-12-27 12:35:59,781 [INFO] _________________________________________________________________
2019-12-27 12:35:59,781 [INFO] dropout_70 (Dropout)         (None, 16)                0         
2019-12-27 12:35:59,781 [INFO] _________________________________________________________________
2019-12-27 12:35:59,781 [INFO] dense_85 (Dense)             (None, 12)                204       
2019-12-27 12:35:59,781 [INFO] =================================================================
2019-12-27 12:35:59,781 [INFO] Total params: 66,172
2019-12-27 12:35:59,781 [INFO] Trainable params: 65,180
2019-12-27 12:35:59,781 [INFO] Non-trainable params: 992
2019-12-27 12:35:59,781 [INFO] _________________________________________________________________
2019-12-27 12:35:59,781 [INFO] Training model
…
