…
2019-12-20 22:42:51,270 [INFO] Reading complete. time_to_read=0.07 seconds
2019-12-20 22:42:51,271 [INFO] Reading HDF dataset ../Datasets/full_datasets/ids2017/y_test.h5
2019-12-20 22:42:51,343 [INFO] Reading complete. time_to_read=0.07 seconds
2019-12-20 22:42:54,776 [INFO] Initializing model
2019-12-20 22:42:55,205 [INFO] _________________________________________________________________
2019-12-20 22:42:55,205 [INFO] Layer (type)                 Output Shape              Param #   
2019-12-20 22:42:55,205 [INFO] =================================================================
2019-12-20 22:42:55,205 [INFO] dense_6 (Dense)              (None, 256)               20224     
2019-12-20 22:42:55,205 [INFO] _________________________________________________________________
2019-12-20 22:42:55,205 [INFO] batch_normalization_5 (Batch (None, 256)               1024      
2019-12-20 22:42:55,205 [INFO] _________________________________________________________________
2019-12-20 22:42:55,205 [INFO] dropout_5 (Dropout)          (None, 256)               0         
2019-12-20 22:42:55,205 [INFO] _________________________________________________________________
2019-12-20 22:42:55,205 [INFO] dense_7 (Dense)              (None, 128)               32896     
2019-12-20 22:42:55,205 [INFO] _________________________________________________________________
2019-12-20 22:42:55,205 [INFO] batch_normalization_6 (Batch (None, 128)               512       
2019-12-20 22:42:55,205 [INFO] _________________________________________________________________
2019-12-20 22:42:55,206 [INFO] dropout_6 (Dropout)          (None, 128)               0         
2019-12-20 22:42:55,206 [INFO] _________________________________________________________________
2019-12-20 22:42:55,206 [INFO] dense_8 (Dense)              (None, 64)                8256      
2019-12-20 22:42:55,206 [INFO] _________________________________________________________________
2019-12-20 22:42:55,206 [INFO] batch_normalization_7 (Batch (None, 64)                256       
2019-12-20 22:42:55,206 [INFO] _________________________________________________________________
2019-12-20 22:42:55,206 [INFO] dropout_7 (Dropout)          (None, 64)                0         
2019-12-20 22:42:55,206 [INFO] _________________________________________________________________
2019-12-20 22:42:55,206 [INFO] dense_9 (Dense)              (None, 32)                2080      
2019-12-20 22:42:55,206 [INFO] _________________________________________________________________
2019-12-20 22:42:55,206 [INFO] batch_normalization_8 (Batch (None, 32)                128       
2019-12-20 22:42:55,206 [INFO] _________________________________________________________________
2019-12-20 22:42:55,206 [INFO] dropout_8 (Dropout)          (None, 32)                0         
2019-12-20 22:42:55,206 [INFO] _________________________________________________________________
2019-12-20 22:42:55,206 [INFO] dense_10 (Dense)             (None, 12)                396       
2019-12-20 22:42:55,206 [INFO] =================================================================
2019-12-20 22:42:55,207 [INFO] Total params: 65,772
2019-12-20 22:42:55,207 [INFO] Trainable params: 64,812
2019-12-20 22:42:55,207 [INFO] Non-trainable params: 960
2019-12-20 22:42:55,207 [INFO] _________________________________________________________________
2019-12-20 22:42:55,207 [INFO] Training model
…
