…
2019-12-25 03:20:16,733 [INFO] Reading complete. time_to_read=0.05 seconds
2019-12-25 03:20:16,733 [INFO] Reading HDF dataset ../Datasets/full_datasets/kdd99_five_classes/y_test.h5
2019-12-25 03:20:16,753 [INFO] Reading complete. time_to_read=0.02 seconds
2019-12-25 03:20:23,917 [INFO] Initializing model
2019-12-25 03:20:24,522 [INFO] _________________________________________________________________
2019-12-25 03:20:24,523 [INFO] Layer (type)                 Output Shape              Param #   
2019-12-25 03:20:24,523 [INFO] =================================================================
2019-12-25 03:20:24,523 [INFO] dense_109 (Dense)            (None, 128)               15872     
2019-12-25 03:20:24,523 [INFO] _________________________________________________________________
2019-12-25 03:20:24,523 [INFO] batch_normalization_77 (Batc (None, 128)               512       
2019-12-25 03:20:24,523 [INFO] _________________________________________________________________
2019-12-25 03:20:24,523 [INFO] dropout_77 (Dropout)         (None, 128)               0         
2019-12-25 03:20:24,523 [INFO] _________________________________________________________________
2019-12-25 03:20:24,523 [INFO] dense_110 (Dense)            (None, 64)                8256      
2019-12-25 03:20:24,523 [INFO] _________________________________________________________________
2019-12-25 03:20:24,523 [INFO] batch_normalization_78 (Batc (None, 64)                256       
2019-12-25 03:20:24,524 [INFO] _________________________________________________________________
2019-12-25 03:20:24,524 [INFO] dropout_78 (Dropout)         (None, 64)                0         
2019-12-25 03:20:24,524 [INFO] _________________________________________________________________
2019-12-25 03:20:24,524 [INFO] dense_111 (Dense)            (None, 32)                2080      
2019-12-25 03:20:24,524 [INFO] _________________________________________________________________
2019-12-25 03:20:24,524 [INFO] batch_normalization_79 (Batc (None, 32)                128       
2019-12-25 03:20:24,524 [INFO] _________________________________________________________________
2019-12-25 03:20:24,524 [INFO] dropout_79 (Dropout)         (None, 32)                0         
2019-12-25 03:20:24,524 [INFO] _________________________________________________________________
2019-12-25 03:20:24,524 [INFO] dense_112 (Dense)            (None, 64)                2112      
2019-12-25 03:20:24,524 [INFO] _________________________________________________________________
2019-12-25 03:20:24,524 [INFO] batch_normalization_80 (Batc (None, 64)                256       
2019-12-25 03:20:24,525 [INFO] _________________________________________________________________
2019-12-25 03:20:24,525 [INFO] dropout_80 (Dropout)         (None, 64)                0         
2019-12-25 03:20:24,525 [INFO] _________________________________________________________________
2019-12-25 03:20:24,525 [INFO] dense_113 (Dense)            (None, 128)               8320      
2019-12-25 03:20:24,525 [INFO] _________________________________________________________________
2019-12-25 03:20:24,525 [INFO] batch_normalization_81 (Batc (None, 128)               512       
2019-12-25 03:20:24,525 [INFO] _________________________________________________________________
2019-12-25 03:20:24,525 [INFO] dropout_81 (Dropout)         (None, 128)               0         
2019-12-25 03:20:24,525 [INFO] _________________________________________________________________
2019-12-25 03:20:24,525 [INFO] dense_114 (Dense)            (None, 123)               15867     
2019-12-25 03:20:24,525 [INFO] =================================================================
2019-12-25 03:20:24,526 [INFO] Total params: 54,171
2019-12-25 03:20:24,526 [INFO] Trainable params: 53,339
2019-12-25 03:20:24,526 [INFO] Non-trainable params: 832
2019-12-25 03:20:24,526 [INFO] _________________________________________________________________
2019-12-25 03:20:24,676 [INFO] _________________________________________________________________
2019-12-25 03:20:24,676 [INFO] Layer (type)                 Output Shape              Param #   
2019-12-25 03:20:24,676 [INFO] =================================================================
2019-12-25 03:20:24,676 [INFO] dense_115 (Dense)            (None, 64)                2112      
2019-12-25 03:20:24,676 [INFO] _________________________________________________________________
2019-12-25 03:20:24,676 [INFO] batch_normalization_82 (Batc (None, 64)                256       
2019-12-25 03:20:24,676 [INFO] _________________________________________________________________
2019-12-25 03:20:24,676 [INFO] dropout_82 (Dropout)         (None, 64)                0         
2019-12-25 03:20:24,676 [INFO] _________________________________________________________________
2019-12-25 03:20:24,677 [INFO] dense_116 (Dense)            (None, 5)                 325       
2019-12-25 03:20:24,677 [INFO] =================================================================
2019-12-25 03:20:24,677 [INFO] Total params: 2,693
2019-12-25 03:20:24,677 [INFO] Trainable params: 2,565
2019-12-25 03:20:24,677 [INFO] Non-trainable params: 128
2019-12-25 03:20:24,677 [INFO] _________________________________________________________________
2019-12-25 03:20:24,677 [INFO] Training model
…
