…
2019-12-27 00:43:32,165 [INFO] Reading complete. time_to_read=0.10 seconds
2019-12-27 00:43:32,165 [INFO] Reading HDF dataset ../Datasets/small_datasets/ids2018/y_test.h5
2019-12-27 00:43:32,262 [INFO] Reading complete. time_to_read=0.10 seconds
2019-12-27 00:43:35,626 [INFO] Initializing model
2019-12-27 00:43:36,313 [INFO] _________________________________________________________________
2019-12-27 00:43:36,313 [INFO] Layer (type)                 Output Shape              Param #   
2019-12-27 00:43:36,313 [INFO] =================================================================
2019-12-27 00:43:36,314 [INFO] dense_157 (Dense)            (None, 128)               9984      
2019-12-27 00:43:36,314 [INFO] _________________________________________________________________
2019-12-27 00:43:36,314 [INFO] batch_normalization_113 (Bat (None, 128)               512       
2019-12-27 00:43:36,314 [INFO] _________________________________________________________________
2019-12-27 00:43:36,314 [INFO] dropout_113 (Dropout)        (None, 128)               0         
2019-12-27 00:43:36,314 [INFO] _________________________________________________________________
2019-12-27 00:43:36,314 [INFO] dense_158 (Dense)            (None, 64)                8256      
2019-12-27 00:43:36,314 [INFO] _________________________________________________________________
2019-12-27 00:43:36,314 [INFO] batch_normalization_114 (Bat (None, 64)                256       
2019-12-27 00:43:36,314 [INFO] _________________________________________________________________
2019-12-27 00:43:36,314 [INFO] dropout_114 (Dropout)        (None, 64)                0         
2019-12-27 00:43:36,315 [INFO] _________________________________________________________________
2019-12-27 00:43:36,315 [INFO] dense_159 (Dense)            (None, 32)                2080      
2019-12-27 00:43:36,315 [INFO] _________________________________________________________________
2019-12-27 00:43:36,315 [INFO] batch_normalization_115 (Bat (None, 32)                128       
2019-12-27 00:43:36,315 [INFO] _________________________________________________________________
2019-12-27 00:43:36,315 [INFO] dropout_115 (Dropout)        (None, 32)                0         
2019-12-27 00:43:36,315 [INFO] _________________________________________________________________
2019-12-27 00:43:36,315 [INFO] dense_160 (Dense)            (None, 64)                2112      
2019-12-27 00:43:36,315 [INFO] _________________________________________________________________
2019-12-27 00:43:36,315 [INFO] batch_normalization_116 (Bat (None, 64)                256       
2019-12-27 00:43:36,315 [INFO] _________________________________________________________________
2019-12-27 00:43:36,315 [INFO] dropout_116 (Dropout)        (None, 64)                0         
2019-12-27 00:43:36,315 [INFO] _________________________________________________________________
2019-12-27 00:43:36,316 [INFO] dense_161 (Dense)            (None, 128)               8320      
2019-12-27 00:43:36,316 [INFO] _________________________________________________________________
2019-12-27 00:43:36,316 [INFO] batch_normalization_117 (Bat (None, 128)               512       
2019-12-27 00:43:36,316 [INFO] _________________________________________________________________
2019-12-27 00:43:36,316 [INFO] dropout_117 (Dropout)        (None, 128)               0         
2019-12-27 00:43:36,316 [INFO] _________________________________________________________________
2019-12-27 00:43:36,316 [INFO] dense_162 (Dense)            (None, 77)                9933      
2019-12-27 00:43:36,316 [INFO] =================================================================
2019-12-27 00:43:36,317 [INFO] Total params: 42,349
2019-12-27 00:43:36,317 [INFO] Trainable params: 41,517
2019-12-27 00:43:36,317 [INFO] Non-trainable params: 832
2019-12-27 00:43:36,317 [INFO] _________________________________________________________________
2019-12-27 00:43:36,482 [INFO] _________________________________________________________________
2019-12-27 00:43:36,482 [INFO] Layer (type)                 Output Shape              Param #   
2019-12-27 00:43:36,482 [INFO] =================================================================
2019-12-27 00:43:36,482 [INFO] dense_163 (Dense)            (None, 64)                2112      
2019-12-27 00:43:36,482 [INFO] _________________________________________________________________
2019-12-27 00:43:36,482 [INFO] batch_normalization_118 (Bat (None, 64)                256       
2019-12-27 00:43:36,482 [INFO] _________________________________________________________________
2019-12-27 00:43:36,482 [INFO] dropout_118 (Dropout)        (None, 64)                0         
2019-12-27 00:43:36,482 [INFO] _________________________________________________________________
2019-12-27 00:43:36,483 [INFO] dense_164 (Dense)            (None, 15)                975       
2019-12-27 00:43:36,483 [INFO] =================================================================
2019-12-27 00:43:36,483 [INFO] Total params: 3,343
2019-12-27 00:43:36,483 [INFO] Trainable params: 3,215
2019-12-27 00:43:36,483 [INFO] Non-trainable params: 128
2019-12-27 00:43:36,483 [INFO] _________________________________________________________________
2019-12-27 00:43:36,483 [INFO] Training model
…
