…
2020-01-13 22:25:22,002 [INFO] Reading complete. time_to_read=0.09 seconds
2020-01-13 22:25:22,002 [INFO] Reading HDF dataset ../Datasets/full_datasets/ids2017/y_test.h5
2020-01-13 22:25:22,087 [INFO] Reading complete. time_to_read=0.09 seconds
2020-01-13 22:25:25,119 [INFO] Initializing model
2020-01-13 22:25:25,513 [INFO] _________________________________________________________________
2020-01-13 22:25:25,513 [INFO] Layer (type)                 Output Shape              Param #   
2020-01-13 22:25:25,513 [INFO] =================================================================
2020-01-13 22:25:25,513 [INFO] dense_23 (Dense)             (None, 256)               20224     
2020-01-13 22:25:25,513 [INFO] _________________________________________________________________
2020-01-13 22:25:25,513 [INFO] batch_normalization_18 (Batc (None, 256)               1024      
2020-01-13 22:25:25,513 [INFO] _________________________________________________________________
2020-01-13 22:25:25,513 [INFO] dropout_18 (Dropout)         (None, 256)               0         
2020-01-13 22:25:25,514 [INFO] _________________________________________________________________
2020-01-13 22:25:25,514 [INFO] dense_24 (Dense)             (None, 128)               32896     
2020-01-13 22:25:25,514 [INFO] _________________________________________________________________
2020-01-13 22:25:25,514 [INFO] batch_normalization_19 (Batc (None, 128)               512       
2020-01-13 22:25:25,514 [INFO] _________________________________________________________________
2020-01-13 22:25:25,514 [INFO] dropout_19 (Dropout)         (None, 128)               0         
2020-01-13 22:25:25,514 [INFO] _________________________________________________________________
2020-01-13 22:25:25,514 [INFO] dense_25 (Dense)             (None, 64)                8256      
2020-01-13 22:25:25,514 [INFO] _________________________________________________________________
2020-01-13 22:25:25,514 [INFO] batch_normalization_20 (Batc (None, 64)                256       
2020-01-13 22:25:25,514 [INFO] _________________________________________________________________
2020-01-13 22:25:25,514 [INFO] dropout_20 (Dropout)         (None, 64)                0         
2020-01-13 22:25:25,515 [INFO] _________________________________________________________________
2020-01-13 22:25:25,515 [INFO] dense_26 (Dense)             (None, 32)                2080      
2020-01-13 22:25:25,515 [INFO] _________________________________________________________________
2020-01-13 22:25:25,515 [INFO] batch_normalization_21 (Batc (None, 32)                128       
2020-01-13 22:25:25,515 [INFO] _________________________________________________________________
2020-01-13 22:25:25,515 [INFO] dropout_21 (Dropout)         (None, 32)                0         
2020-01-13 22:25:25,515 [INFO] _________________________________________________________________
2020-01-13 22:25:25,515 [INFO] dense_27 (Dense)             (None, 12)                396       
2020-01-13 22:25:25,515 [INFO] =================================================================
2020-01-13 22:25:25,516 [INFO] Total params: 65,772
2020-01-13 22:25:25,516 [INFO] Trainable params: 64,812
2020-01-13 22:25:25,516 [INFO] Non-trainable params: 960
2020-01-13 22:25:25,516 [INFO] _________________________________________________________________
2020-01-13 22:25:25,516 [INFO] Training model
…
