…
2019-12-27 12:16:39,291 [INFO] Reading complete. time_to_read=0.10 seconds
2019-12-27 12:16:39,292 [INFO] Reading HDF dataset ../Datasets/small_datasets/ids2018/y_test.h5
2019-12-27 12:16:39,389 [INFO] Reading complete. time_to_read=0.10 seconds
2019-12-27 12:16:42,720 [INFO] Initializing model
2019-12-27 12:16:43,440 [INFO] _________________________________________________________________
2019-12-27 12:16:43,440 [INFO] Layer (type)                 Output Shape              Param #   
2019-12-27 12:16:43,440 [INFO] =================================================================
2019-12-27 12:16:43,440 [INFO] dense_173 (Dense)            (None, 128)               9984      
2019-12-27 12:16:43,440 [INFO] _________________________________________________________________
2019-12-27 12:16:43,440 [INFO] batch_normalization_125 (Bat (None, 128)               512       
2019-12-27 12:16:43,440 [INFO] _________________________________________________________________
2019-12-27 12:16:43,441 [INFO] dropout_125 (Dropout)        (None, 128)               0         
2019-12-27 12:16:43,441 [INFO] _________________________________________________________________
2019-12-27 12:16:43,441 [INFO] dense_174 (Dense)            (None, 64)                8256      
2019-12-27 12:16:43,441 [INFO] _________________________________________________________________
2019-12-27 12:16:43,441 [INFO] batch_normalization_126 (Bat (None, 64)                256       
2019-12-27 12:16:43,441 [INFO] _________________________________________________________________
2019-12-27 12:16:43,441 [INFO] dropout_126 (Dropout)        (None, 64)                0         
2019-12-27 12:16:43,441 [INFO] _________________________________________________________________
2019-12-27 12:16:43,441 [INFO] dense_175 (Dense)            (None, 32)                2080      
2019-12-27 12:16:43,441 [INFO] _________________________________________________________________
2019-12-27 12:16:43,441 [INFO] batch_normalization_127 (Bat (None, 32)                128       
2019-12-27 12:16:43,442 [INFO] _________________________________________________________________
2019-12-27 12:16:43,442 [INFO] dropout_127 (Dropout)        (None, 32)                0         
2019-12-27 12:16:43,442 [INFO] _________________________________________________________________
2019-12-27 12:16:43,442 [INFO] dense_176 (Dense)            (None, 64)                2112      
2019-12-27 12:16:43,442 [INFO] _________________________________________________________________
2019-12-27 12:16:43,442 [INFO] batch_normalization_128 (Bat (None, 64)                256       
2019-12-27 12:16:43,442 [INFO] _________________________________________________________________
2019-12-27 12:16:43,442 [INFO] dropout_128 (Dropout)        (None, 64)                0         
2019-12-27 12:16:43,442 [INFO] _________________________________________________________________
2019-12-27 12:16:43,442 [INFO] dense_177 (Dense)            (None, 128)               8320      
2019-12-27 12:16:43,442 [INFO] _________________________________________________________________
2019-12-27 12:16:43,443 [INFO] batch_normalization_129 (Bat (None, 128)               512       
2019-12-27 12:16:43,443 [INFO] _________________________________________________________________
2019-12-27 12:16:43,443 [INFO] dropout_129 (Dropout)        (None, 128)               0         
2019-12-27 12:16:43,443 [INFO] _________________________________________________________________
2019-12-27 12:16:43,443 [INFO] dense_178 (Dense)            (None, 77)                9933      
2019-12-27 12:16:43,443 [INFO] =================================================================
2019-12-27 12:16:43,443 [INFO] Total params: 42,349
2019-12-27 12:16:43,443 [INFO] Trainable params: 41,517
2019-12-27 12:16:43,444 [INFO] Non-trainable params: 832
2019-12-27 12:16:43,444 [INFO] _________________________________________________________________
2019-12-27 12:16:43,616 [INFO] _________________________________________________________________
2019-12-27 12:16:43,616 [INFO] Layer (type)                 Output Shape              Param #   
2019-12-27 12:16:43,616 [INFO] =================================================================
2019-12-27 12:16:43,616 [INFO] dense_179 (Dense)            (None, 64)                2112      
2019-12-27 12:16:43,617 [INFO] _________________________________________________________________
2019-12-27 12:16:43,617 [INFO] batch_normalization_130 (Bat (None, 64)                256       
2019-12-27 12:16:43,617 [INFO] _________________________________________________________________
2019-12-27 12:16:43,617 [INFO] dropout_130 (Dropout)        (None, 64)                0         
2019-12-27 12:16:43,617 [INFO] _________________________________________________________________
2019-12-27 12:16:43,617 [INFO] dense_180 (Dense)            (None, 15)                975       
2019-12-27 12:16:43,617 [INFO] =================================================================
2019-12-27 12:16:43,617 [INFO] Total params: 3,343
2019-12-27 12:16:43,617 [INFO] Trainable params: 3,215
2019-12-27 12:16:43,617 [INFO] Non-trainable params: 128
2019-12-27 12:16:43,617 [INFO] _________________________________________________________________
2019-12-27 12:16:43,618 [INFO] Training model
…
