…
2020-01-08 14:22:18,061 [INFO] Reading complete. time_to_read=0.00 seconds
2020-01-08 14:22:18,061 [INFO] Reading HDF dataset ../Datasets/small_datasets/nsl_kdd_five_classes/y_test.h5
2020-01-08 14:22:18,065 [INFO] Reading complete. time_to_read=0.00 seconds
2020-01-08 14:22:18,251 [INFO] Initializing model
2020-01-08 14:22:18,742 [INFO] _________________________________________________________________
2020-01-08 14:22:18,742 [INFO] Layer (type)                 Output Shape              Param #   
2020-01-08 14:22:18,742 [INFO] =================================================================
2020-01-08 14:22:18,742 [INFO] dense_21 (Dense)             (None, 64)                7872      
2020-01-08 14:22:18,742 [INFO] _________________________________________________________________
2020-01-08 14:22:18,742 [INFO] batch_normalization_16 (Batc (None, 64)                256       
2020-01-08 14:22:18,742 [INFO] _________________________________________________________________
2020-01-08 14:22:18,742 [INFO] dropout_16 (Dropout)         (None, 64)                0         
2020-01-08 14:22:18,742 [INFO] _________________________________________________________________
2020-01-08 14:22:18,742 [INFO] dense_22 (Dense)             (None, 64)                4160      
2020-01-08 14:22:18,742 [INFO] _________________________________________________________________
2020-01-08 14:22:18,742 [INFO] batch_normalization_17 (Batc (None, 64)                256       
2020-01-08 14:22:18,742 [INFO] _________________________________________________________________
2020-01-08 14:22:18,742 [INFO] dropout_17 (Dropout)         (None, 64)                0         
2020-01-08 14:22:18,742 [INFO] _________________________________________________________________
2020-01-08 14:22:18,742 [INFO] dense_23 (Dense)             (None, 64)                4160      
2020-01-08 14:22:18,743 [INFO] _________________________________________________________________
2020-01-08 14:22:18,743 [INFO] batch_normalization_18 (Batc (None, 64)                256       
2020-01-08 14:22:18,743 [INFO] _________________________________________________________________
2020-01-08 14:22:18,743 [INFO] dropout_18 (Dropout)         (None, 64)                0         
2020-01-08 14:22:18,743 [INFO] _________________________________________________________________
2020-01-08 14:22:18,743 [INFO] dense_24 (Dense)             (None, 64)                4160      
2020-01-08 14:22:18,743 [INFO] _________________________________________________________________
2020-01-08 14:22:18,743 [INFO] batch_normalization_19 (Batc (None, 64)                256       
2020-01-08 14:22:18,743 [INFO] _________________________________________________________________
2020-01-08 14:22:18,743 [INFO] dropout_19 (Dropout)         (None, 64)                0         
2020-01-08 14:22:18,743 [INFO] _________________________________________________________________
2020-01-08 14:22:18,743 [INFO] dense_25 (Dense)             (None, 64)                4160      
2020-01-08 14:22:18,743 [INFO] _________________________________________________________________
2020-01-08 14:22:18,743 [INFO] batch_normalization_20 (Batc (None, 64)                256       
2020-01-08 14:22:18,743 [INFO] _________________________________________________________________
2020-01-08 14:22:18,743 [INFO] dropout_20 (Dropout)         (None, 64)                0         
2020-01-08 14:22:18,743 [INFO] _________________________________________________________________
2020-01-08 14:22:18,743 [INFO] dense_26 (Dense)             (None, 64)                4160      
2020-01-08 14:22:18,744 [INFO] _________________________________________________________________
2020-01-08 14:22:18,744 [INFO] batch_normalization_21 (Batc (None, 64)                256       
2020-01-08 14:22:18,744 [INFO] _________________________________________________________________
2020-01-08 14:22:18,744 [INFO] dropout_21 (Dropout)         (None, 64)                0         
2020-01-08 14:22:18,744 [INFO] _________________________________________________________________
2020-01-08 14:22:18,744 [INFO] dense_27 (Dense)             (None, 5)                 325       
2020-01-08 14:22:18,744 [INFO] =================================================================
2020-01-08 14:22:18,744 [INFO] Total params: 30,533
2020-01-08 14:22:18,744 [INFO] Trainable params: 29,765
2020-01-08 14:22:18,744 [INFO] Non-trainable params: 768
2020-01-08 14:22:18,744 [INFO] _________________________________________________________________
2020-01-08 14:22:18,744 [INFO] Training model
…
