…
2020-01-13 20:29:15,038 [INFO] Reading complete. time_to_read=0.00 seconds
2020-01-13 20:29:15,038 [INFO] Reading HDF dataset ../Datasets/small_datasets/nsl_kdd_five_classes/y_test.h5
2020-01-13 20:29:15,042 [INFO] Reading complete. time_to_read=0.00 seconds
2020-01-13 20:29:15,166 [INFO] Initializing model
2020-01-13 20:29:15,459 [INFO] _________________________________________________________________
2020-01-13 20:29:15,460 [INFO] Layer (type)                 Output Shape              Param #   
2020-01-13 20:29:15,460 [INFO] =================================================================
2020-01-13 20:29:15,460 [INFO] dense_9 (Dense)              (None, 64)                7872      
2020-01-13 20:29:15,460 [INFO] _________________________________________________________________
2020-01-13 20:29:15,460 [INFO] batch_normalization_7 (Batch (None, 64)                256       
2020-01-13 20:29:15,460 [INFO] _________________________________________________________________
2020-01-13 20:29:15,460 [INFO] dropout_7 (Dropout)          (None, 64)                0         
2020-01-13 20:29:15,460 [INFO] _________________________________________________________________
2020-01-13 20:29:15,460 [INFO] dense_10 (Dense)             (None, 32)                2080      
2020-01-13 20:29:15,460 [INFO] _________________________________________________________________
2020-01-13 20:29:15,461 [INFO] batch_normalization_8 (Batch (None, 32)                128       
2020-01-13 20:29:15,461 [INFO] _________________________________________________________________
2020-01-13 20:29:15,461 [INFO] dropout_8 (Dropout)          (None, 32)                0         
2020-01-13 20:29:15,461 [INFO] _________________________________________________________________
2020-01-13 20:29:15,461 [INFO] dense_11 (Dense)             (None, 66)                2178      
2020-01-13 20:29:15,461 [INFO] _________________________________________________________________
2020-01-13 20:29:15,461 [INFO] batch_normalization_9 (Batch (None, 66)                264       
2020-01-13 20:29:15,461 [INFO] _________________________________________________________________
2020-01-13 20:29:15,461 [INFO] dropout_9 (Dropout)          (None, 66)                0         
2020-01-13 20:29:15,461 [INFO] _________________________________________________________________
2020-01-13 20:29:15,461 [INFO] dense_12 (Dense)             (None, 5)                 335       
2020-01-13 20:29:15,461 [INFO] =================================================================
2020-01-13 20:29:15,462 [INFO] Total params: 13,113
2020-01-13 20:29:15,462 [INFO] Trainable params: 12,789
2020-01-13 20:29:15,462 [INFO] Non-trainable params: 324
2020-01-13 20:29:15,462 [INFO] _________________________________________________________________
2020-01-13 20:29:15,462 [INFO] Training model
…
