…
2019-12-21 04:20:24,204 [INFO] Reading complete. time_to_read=0.07 seconds
2019-12-21 04:20:24,204 [INFO] Reading HDF dataset ../Datasets/full_datasets/ids2017/y_test.h5
2019-12-21 04:20:24,278 [INFO] Reading complete. time_to_read=0.07 seconds
2019-12-21 04:20:27,748 [INFO] Initializing model
2019-12-21 04:20:28,093 [INFO] _________________________________________________________________
2019-12-21 04:20:28,093 [INFO] Layer (type)                 Output Shape              Param #   
2019-12-21 04:20:28,093 [INFO] =================================================================
2019-12-21 04:20:28,094 [INFO] dense_21 (Dense)             (None, 256)               20224     
2019-12-21 04:20:28,094 [INFO] _________________________________________________________________
2019-12-21 04:20:28,094 [INFO] batch_normalization_17 (Batc (None, 256)               1024      
2019-12-21 04:20:28,094 [INFO] _________________________________________________________________
2019-12-21 04:20:28,094 [INFO] dropout_17 (Dropout)         (None, 256)               0         
2019-12-21 04:20:28,094 [INFO] _________________________________________________________________
2019-12-21 04:20:28,094 [INFO] dense_22 (Dense)             (None, 128)               32896     
2019-12-21 04:20:28,094 [INFO] _________________________________________________________________
2019-12-21 04:20:28,094 [INFO] batch_normalization_18 (Batc (None, 128)               512       
2019-12-21 04:20:28,094 [INFO] _________________________________________________________________
2019-12-21 04:20:28,094 [INFO] dropout_18 (Dropout)         (None, 128)               0         
2019-12-21 04:20:28,094 [INFO] _________________________________________________________________
2019-12-21 04:20:28,094 [INFO] dense_23 (Dense)             (None, 64)                8256      
2019-12-21 04:20:28,094 [INFO] _________________________________________________________________
2019-12-21 04:20:28,094 [INFO] batch_normalization_19 (Batc (None, 64)                256       
2019-12-21 04:20:28,094 [INFO] _________________________________________________________________
2019-12-21 04:20:28,094 [INFO] dropout_19 (Dropout)         (None, 64)                0         
2019-12-21 04:20:28,094 [INFO] _________________________________________________________________
2019-12-21 04:20:28,095 [INFO] dense_24 (Dense)             (None, 32)                2080      
2019-12-21 04:20:28,095 [INFO] _________________________________________________________________
2019-12-21 04:20:28,095 [INFO] batch_normalization_20 (Batc (None, 32)                128       
2019-12-21 04:20:28,095 [INFO] _________________________________________________________________
2019-12-21 04:20:28,095 [INFO] dropout_20 (Dropout)         (None, 32)                0         
2019-12-21 04:20:28,095 [INFO] _________________________________________________________________
2019-12-21 04:20:28,095 [INFO] dense_25 (Dense)             (None, 12)                396       
2019-12-21 04:20:28,095 [INFO] =================================================================
2019-12-21 04:20:28,095 [INFO] Total params: 65,772
2019-12-21 04:20:28,095 [INFO] Trainable params: 64,812
2019-12-21 04:20:28,095 [INFO] Non-trainable params: 960
2019-12-21 04:20:28,095 [INFO] _________________________________________________________________
2019-12-21 04:20:28,095 [INFO] Training model
…
