…
2020-01-14 18:40:23,935 [INFO] Pretraining Deep Belief Network
2020-01-14 18:49:33,021 [INFO] Pretraining Complete
2020-01-14 18:49:33,021 [INFO] Getting pretrained weights
2020-01-14 18:49:33,021 [INFO] Creating and initializing feed forward neural network
2020-01-14 18:49:33,338 [INFO] _________________________________________________________________
2020-01-14 18:49:33,339 [INFO] Layer (type)                 Output Shape              Param #   
2020-01-14 18:49:33,339 [INFO] =================================================================
2020-01-14 18:49:33,339 [INFO] dense_41 (Dense)             (None, 128)               15872     
2020-01-14 18:49:33,339 [INFO] _________________________________________________________________
2020-01-14 18:49:33,339 [INFO] batch_normalization_31 (Batc (None, 128)               512       
2020-01-14 18:49:33,339 [INFO] _________________________________________________________________
2020-01-14 18:49:33,339 [INFO] dropout_31 (Dropout)         (None, 128)               0         
2020-01-14 18:49:33,339 [INFO] _________________________________________________________________
2020-01-14 18:49:33,339 [INFO] dense_42 (Dense)             (None, 64)                8256      
2020-01-14 18:49:33,339 [INFO] _________________________________________________________________
2020-01-14 18:49:33,339 [INFO] batch_normalization_32 (Batc (None, 64)                256       
2020-01-14 18:49:33,340 [INFO] _________________________________________________________________
2020-01-14 18:49:33,340 [INFO] dropout_32 (Dropout)         (None, 64)                0         
2020-01-14 18:49:33,340 [INFO] _________________________________________________________________
2020-01-14 18:49:33,340 [INFO] dense_43 (Dense)             (None, 33)                2145      
2020-01-14 18:49:33,340 [INFO] _________________________________________________________________
2020-01-14 18:49:33,340 [INFO] batch_normalization_33 (Batc (None, 33)                132       
2020-01-14 18:49:33,340 [INFO] _________________________________________________________________
2020-01-14 18:49:33,340 [INFO] dropout_33 (Dropout)         (None, 33)                0         
2020-01-14 18:49:33,340 [INFO] _________________________________________________________________
2020-01-14 18:49:33,340 [INFO] dense_44 (Dense)             (None, 5)                 170       
2020-01-14 18:49:33,340 [INFO] =================================================================
2020-01-14 18:49:33,341 [INFO] Total params: 27,343
2020-01-14 18:49:33,341 [INFO] Trainable params: 26,893
2020-01-14 18:49:33,341 [INFO] Non-trainable params: 450
2020-01-14 18:49:33,341 [INFO] _________________________________________________________________
2020-01-14 18:49:36,767 [INFO] Fine-tuning final neural network
…
