…
2020-05-09 16:10:53,738 [INFO] Reading HDF dataset ../Datasets/full_datasets/ids2018/y_test_9.h5
2020-05-09 16:10:53,852 [INFO] Reading complete. time_to_read=0.11 seconds
2020-05-09 16:11:02,625 [INFO] Initializing model
2020-05-09 16:11:03,251 [INFO] Model: "sequential_1"
2020-05-09 16:11:03,251 [INFO] _________________________________________________________________
2020-05-09 16:11:03,251 [INFO] Layer (type)                 Output Shape              Param #   
2020-05-09 16:11:03,251 [INFO] =================================================================
2020-05-09 16:11:03,251 [INFO] dense_1 (Dense)              (None, 128)               9984      
2020-05-09 16:11:03,251 [INFO] _________________________________________________________________
2020-05-09 16:11:03,251 [INFO] batch_normalization_1 (Batch (None, 128)               512       
2020-05-09 16:11:03,251 [INFO] _________________________________________________________________
2020-05-09 16:11:03,251 [INFO] dropout_1 (Dropout)          (None, 128)               0         
2020-05-09 16:11:03,251 [INFO] _________________________________________________________________
2020-05-09 16:11:03,251 [INFO] dense_2 (Dense)              (None, 64)                8256      
2020-05-09 16:11:03,251 [INFO] _________________________________________________________________
2020-05-09 16:11:03,251 [INFO] batch_normalization_2 (Batch (None, 64)                256       
2020-05-09 16:11:03,251 [INFO] _________________________________________________________________
2020-05-09 16:11:03,251 [INFO] dropout_2 (Dropout)          (None, 64)                0         
2020-05-09 16:11:03,251 [INFO] _________________________________________________________________
2020-05-09 16:11:03,252 [INFO] dense_3 (Dense)              (None, 32)                2080      
2020-05-09 16:11:03,252 [INFO] _________________________________________________________________
2020-05-09 16:11:03,252 [INFO] batch_normalization_3 (Batch (None, 32)                128       
2020-05-09 16:11:03,252 [INFO] _________________________________________________________________
2020-05-09 16:11:03,252 [INFO] dropout_3 (Dropout)          (None, 32)                0         
2020-05-09 16:11:03,252 [INFO] _________________________________________________________________
2020-05-09 16:11:03,252 [INFO] dense_4 (Dense)              (None, 64)                2112      
2020-05-09 16:11:03,252 [INFO] _________________________________________________________________
2020-05-09 16:11:03,252 [INFO] batch_normalization_4 (Batch (None, 64)                256       
2020-05-09 16:11:03,252 [INFO] _________________________________________________________________
2020-05-09 16:11:03,252 [INFO] dropout_4 (Dropout)          (None, 64)                0         
2020-05-09 16:11:03,252 [INFO] _________________________________________________________________
2020-05-09 16:11:03,252 [INFO] dense_5 (Dense)              (None, 128)               8320      
2020-05-09 16:11:03,252 [INFO] _________________________________________________________________
2020-05-09 16:11:03,252 [INFO] batch_normalization_5 (Batch (None, 128)               512       
2020-05-09 16:11:03,252 [INFO] _________________________________________________________________
2020-05-09 16:11:03,252 [INFO] dropout_5 (Dropout)          (None, 128)               0         
2020-05-09 16:11:03,252 [INFO] _________________________________________________________________
2020-05-09 16:11:03,252 [INFO] dense_6 (Dense)              (None, 77)                9933      
2020-05-09 16:11:03,252 [INFO] =================================================================
2020-05-09 16:11:03,252 [INFO] Total params: 42,349
2020-05-09 16:11:03,253 [INFO] Trainable params: 41,517
2020-05-09 16:11:03,253 [INFO] Non-trainable params: 832
2020-05-09 16:11:03,253 [INFO] _________________________________________________________________
2020-05-09 16:11:03,287 [INFO] Model: "sequential_2"
2020-05-09 16:11:03,287 [INFO] _________________________________________________________________
2020-05-09 16:11:03,287 [INFO] Layer (type)                 Output Shape              Param #   
2020-05-09 16:11:03,287 [INFO] =================================================================
2020-05-09 16:11:03,287 [INFO] dense_7 (Dense)              (None, 64)                2112      
2020-05-09 16:11:03,287 [INFO] _________________________________________________________________
2020-05-09 16:11:03,287 [INFO] batch_normalization_6 (Batch (None, 64)                256       
2020-05-09 16:11:03,287 [INFO] _________________________________________________________________
2020-05-09 16:11:03,287 [INFO] dropout_6 (Dropout)          (None, 64)                0         
2020-05-09 16:11:03,287 [INFO] _________________________________________________________________
2020-05-09 16:11:03,287 [INFO] dense_8 (Dense)              (None, 15)                975       
2020-05-09 16:11:03,287 [INFO] =================================================================
2020-05-09 16:11:03,287 [INFO] Total params: 3,343
2020-05-09 16:11:03,287 [INFO] Trainable params: 3,215
2020-05-09 16:11:03,287 [INFO] Non-trainable params: 128
2020-05-09 16:11:03,287 [INFO] _________________________________________________________________
2020-05-09 16:11:03,287 [INFO] Training model
…
