…
2020-01-14 12:44:45,634 [INFO] Reading complete. time_to_read=0.00 seconds
2020-01-14 12:44:45,635 [INFO] Reading HDF dataset ../Datasets/small_datasets/nsl_kdd_five_classes/y_test.h5
2020-01-14 12:44:45,638 [INFO] Reading complete. time_to_read=0.00 seconds
2020-01-14 12:44:45,834 [INFO] Initializing model
2020-01-14 12:44:46,345 [INFO] _________________________________________________________________
2020-01-14 12:44:46,345 [INFO] Layer (type)                 Output Shape              Param #   
2020-01-14 12:44:46,345 [INFO] =================================================================
2020-01-14 12:44:46,345 [INFO] dense_17 (Dense)             (None, 128)               15744     
2020-01-14 12:44:46,345 [INFO] _________________________________________________________________
2020-01-14 12:44:46,345 [INFO] batch_normalization_13 (Batc (None, 128)               512       
2020-01-14 12:44:46,345 [INFO] _________________________________________________________________
2020-01-14 12:44:46,345 [INFO] dropout_13 (Dropout)         (None, 128)               0         
2020-01-14 12:44:46,345 [INFO] _________________________________________________________________
2020-01-14 12:44:46,345 [INFO] dense_18 (Dense)             (None, 64)                8256      
2020-01-14 12:44:46,345 [INFO] _________________________________________________________________
2020-01-14 12:44:46,345 [INFO] batch_normalization_14 (Batc (None, 64)                256       
2020-01-14 12:44:46,346 [INFO] _________________________________________________________________
2020-01-14 12:44:46,346 [INFO] dropout_14 (Dropout)         (None, 64)                0         
2020-01-14 12:44:46,346 [INFO] _________________________________________________________________
2020-01-14 12:44:46,346 [INFO] dense_19 (Dense)             (None, 32)                2080      
2020-01-14 12:44:46,346 [INFO] _________________________________________________________________
2020-01-14 12:44:46,346 [INFO] batch_normalization_15 (Batc (None, 32)                128       
2020-01-14 12:44:46,346 [INFO] _________________________________________________________________
2020-01-14 12:44:46,346 [INFO] dropout_15 (Dropout)         (None, 32)                0         
2020-01-14 12:44:46,346 [INFO] _________________________________________________________________
2020-01-14 12:44:46,346 [INFO] dense_20 (Dense)             (None, 64)                2112      
2020-01-14 12:44:46,346 [INFO] _________________________________________________________________
2020-01-14 12:44:46,346 [INFO] batch_normalization_16 (Batc (None, 64)                256       
2020-01-14 12:44:46,346 [INFO] _________________________________________________________________
2020-01-14 12:44:46,346 [INFO] dropout_16 (Dropout)         (None, 64)                0         
2020-01-14 12:44:46,346 [INFO] _________________________________________________________________
2020-01-14 12:44:46,346 [INFO] dense_21 (Dense)             (None, 128)               8320      
2020-01-14 12:44:46,346 [INFO] _________________________________________________________________
2020-01-14 12:44:46,346 [INFO] batch_normalization_17 (Batc (None, 128)               512       
2020-01-14 12:44:46,347 [INFO] _________________________________________________________________
2020-01-14 12:44:46,347 [INFO] dropout_17 (Dropout)         (None, 128)               0         
2020-01-14 12:44:46,347 [INFO] _________________________________________________________________
2020-01-14 12:44:46,347 [INFO] dense_22 (Dense)             (None, 122)               15738     
2020-01-14 12:44:46,347 [INFO] =================================================================
2020-01-14 12:44:46,347 [INFO] Total params: 53,914
2020-01-14 12:44:46,347 [INFO] Trainable params: 53,082
2020-01-14 12:44:46,347 [INFO] Non-trainable params: 832
2020-01-14 12:44:46,347 [INFO] _________________________________________________________________
2020-01-14 12:44:46,451 [INFO] _________________________________________________________________
2020-01-14 12:44:46,451 [INFO] Layer (type)                 Output Shape              Param #   
2020-01-14 12:44:46,451 [INFO] =================================================================
2020-01-14 12:44:46,451 [INFO] dense_23 (Dense)             (None, 64)                2112      
2020-01-14 12:44:46,451 [INFO] _________________________________________________________________
2020-01-14 12:44:46,451 [INFO] batch_normalization_18 (Batc (None, 64)                256       
2020-01-14 12:44:46,451 [INFO] _________________________________________________________________
2020-01-14 12:44:46,451 [INFO] dropout_18 (Dropout)         (None, 64)                0         
2020-01-14 12:44:46,451 [INFO] _________________________________________________________________
2020-01-14 12:44:46,451 [INFO] dense_24 (Dense)             (None, 5)                 325       
2020-01-14 12:44:46,451 [INFO] =================================================================
2020-01-14 12:44:46,452 [INFO] Total params: 2,693
2020-01-14 12:44:46,452 [INFO] Trainable params: 2,565
2020-01-14 12:44:46,452 [INFO] Non-trainable params: 128
2020-01-14 12:44:46,452 [INFO] _________________________________________________________________
2020-01-14 12:44:46,452 [INFO] Training model
…
