…
2019-12-24 10:46:39,356 [WARNING] From /home/hasitha/anaconda3/lib/python3.7/site-packages/tensorflow/python/ops/nn_impl.py:180: add_dispatch_support.<locals>.wrapper (from tensorflow.python.ops.array_ops) is deprecated and will be removed in a future version.
Instructions for updating:
Use tf.where in 2.0, which has the same broadcast rule as np.where
2019-12-24 10:46:39,365 [INFO] _________________________________________________________________
2019-12-24 10:46:39,365 [INFO] Layer (type)                 Output Shape              Param #   
2019-12-24 10:46:39,365 [INFO] =================================================================
2019-12-24 10:46:39,365 [INFO] dense_1 (Dense)              (None, 128)               15744     
2019-12-24 10:46:39,365 [INFO] _________________________________________________________________
2019-12-24 10:46:39,366 [INFO] batch_normalization_1 (Batch (None, 128)               512       
2019-12-24 10:46:39,366 [INFO] _________________________________________________________________
2019-12-24 10:46:39,366 [INFO] dropout_1 (Dropout)          (None, 128)               0         
2019-12-24 10:46:39,366 [INFO] _________________________________________________________________
2019-12-24 10:46:39,366 [INFO] dense_2 (Dense)              (None, 64)                8256      
2019-12-24 10:46:39,366 [INFO] _________________________________________________________________
2019-12-24 10:46:39,366 [INFO] batch_normalization_2 (Batch (None, 64)                256       
2019-12-24 10:46:39,366 [INFO] _________________________________________________________________
2019-12-24 10:46:39,366 [INFO] dropout_2 (Dropout)          (None, 64)                0         
2019-12-24 10:46:39,366 [INFO] _________________________________________________________________
2019-12-24 10:46:39,366 [INFO] dense_3 (Dense)              (None, 32)                2080      
2019-12-24 10:46:39,366 [INFO] _________________________________________________________________
2019-12-24 10:46:39,366 [INFO] batch_normalization_3 (Batch (None, 32)                128       
2019-12-24 10:46:39,367 [INFO] _________________________________________________________________
2019-12-24 10:46:39,367 [INFO] dropout_3 (Dropout)          (None, 32)                0         
2019-12-24 10:46:39,367 [INFO] _________________________________________________________________
2019-12-24 10:46:39,367 [INFO] dense_4 (Dense)              (None, 5)                 165       
2019-12-24 10:46:39,367 [INFO] =================================================================
2019-12-24 10:46:39,367 [INFO] Total params: 27,141
2019-12-24 10:46:39,367 [INFO] Trainable params: 26,693
2019-12-24 10:46:39,367 [INFO] Non-trainable params: 448
2019-12-24 10:46:39,367 [INFO] _________________________________________________________________
2019-12-24 10:46:39.378616: I tensorflow/core/platform/cpu_feature_guard.cc:142] Your CPU supports instructions that this TensorFlow binary was not compiled to use: AVX2 FMA
…
[BernoulliRBM] Iteration 15, pseudo-likelihood = -28.72, time = 6.43s2019-12-24 11:51:34,755 [INFO] Pretraining Complete
2019-12-24 11:51:34,777 [INFO] Getting pretrained weights
2019-12-24 11:51:34,777 [INFO] Creating and initializing feed forward neural network
2019-12-24 11:51:35,061 [INFO] _________________________________________________________________
2019-12-24 11:51:35,061 [INFO] Layer (type)                 Output Shape              Param #   
2019-12-24 11:51:35,061 [INFO] =================================================================
2019-12-24 11:51:35,061 [INFO] dense_21 (Dense)             (None, 128)               10112     
2019-12-24 11:51:35,061 [INFO] _________________________________________________________________
2019-12-24 11:51:35,061 [INFO] batch_normalization_16 (Batc (None, 128)               512       
2019-12-24 11:51:35,061 [INFO] _________________________________________________________________
2019-12-24 11:51:35,062 [INFO] dropout_16 (Dropout)         (None, 128)               0         
2019-12-24 11:51:35,062 [INFO] _________________________________________________________________
2019-12-24 11:51:35,062 [INFO] dense_22 (Dense)             (None, 64)                8256      
2019-12-24 11:51:35,062 [INFO] _________________________________________________________________
2019-12-24 11:51:35,062 [INFO] batch_normalization_17 (Batc (None, 64)                256       
2019-12-24 11:51:35,062 [INFO] _________________________________________________________________
2019-12-24 11:51:35,062 [INFO] dropout_17 (Dropout)         (None, 64)                0         
2019-12-24 11:51:35,062 [INFO] _________________________________________________________________
2019-12-24 11:51:35,062 [INFO] dense_23 (Dense)             (None, 32)                2080      
2019-12-24 11:51:35,062 [INFO] _________________________________________________________________
2019-12-24 11:51:35,062 [INFO] batch_normalization_18 (Batc (None, 32)                128       
2019-12-24 11:51:35,062 [INFO] _________________________________________________________________
2019-12-24 11:51:35,062 [INFO] dropout_18 (Dropout)         (None, 32)                0         
2019-12-24 11:51:35,063 [INFO] _________________________________________________________________
2019-12-24 11:51:35,063 [INFO] dense_24 (Dense)             (None, 12)                396       
2019-12-24 11:51:35,063 [INFO] =================================================================
2019-12-24 11:51:35,063 [INFO] Total params: 21,740
2019-12-24 11:51:35,063 [INFO] Trainable params: 21,292
2019-12-24 11:51:35,063 [INFO] Non-trainable params: 448
2019-12-24 11:51:35,063 [INFO] _________________________________________________________________
2019-12-24 11:51:36,731 [INFO] Fine-tuning final neural network
…
[BernoulliRBM] Iteration 16, pseudo-likelihood = -28.66, time = 6.56s2019-12-24 14:52:06,296 [INFO] Pretraining Complete
2019-12-24 14:52:06,313 [INFO] Getting pretrained weights
2019-12-24 14:52:06,313 [INFO] Creating and initializing feed forward neural network
2019-12-24 14:52:06,584 [INFO] _________________________________________________________________
2019-12-24 14:52:06,584 [INFO] Layer (type)                 Output Shape              Param #   
2019-12-24 14:52:06,584 [INFO] =================================================================
2019-12-24 14:52:06,585 [INFO] dense_25 (Dense)             (None, 128)               10112     
2019-12-24 14:52:06,585 [INFO] _________________________________________________________________
2019-12-24 14:52:06,585 [INFO] batch_normalization_19 (Batc (None, 128)               512       
2019-12-24 14:52:06,585 [INFO] _________________________________________________________________
2019-12-24 14:52:06,585 [INFO] dropout_19 (Dropout)         (None, 128)               0         
2019-12-24 14:52:06,585 [INFO] _________________________________________________________________
2019-12-24 14:52:06,585 [INFO] dense_26 (Dense)             (None, 64)                8256      
2019-12-24 14:52:06,585 [INFO] _________________________________________________________________
2019-12-24 14:52:06,585 [INFO] batch_normalization_20 (Batc (None, 64)                256       
2019-12-24 14:52:06,585 [INFO] _________________________________________________________________
2019-12-24 14:52:06,585 [INFO] dropout_20 (Dropout)         (None, 64)                0         
2019-12-24 14:52:06,585 [INFO] _________________________________________________________________
2019-12-24 14:52:06,585 [INFO] dense_27 (Dense)             (None, 33)                2145      
2019-12-24 14:52:06,585 [INFO] _________________________________________________________________
2019-12-24 14:52:06,585 [INFO] batch_normalization_21 (Batc (None, 33)                132       
2019-12-24 14:52:06,585 [INFO] _________________________________________________________________
2019-12-24 14:52:06,585 [INFO] dropout_21 (Dropout)         (None, 33)                0         
2019-12-24 14:52:06,586 [INFO] _________________________________________________________________
2019-12-24 14:52:06,586 [INFO] dense_28 (Dense)             (None, 12)                408       
2019-12-24 14:52:06,586 [INFO] =================================================================
2019-12-24 14:52:06,586 [INFO] Total params: 21,821
2019-12-24 14:52:06,586 [INFO] Trainable params: 21,371
2019-12-24 14:52:06,586 [INFO] Non-trainable params: 450
2019-12-24 14:52:06,586 [INFO] _________________________________________________________________
2019-12-24 14:52:08,585 [INFO] Fine-tuning final neural network
…
[BernoulliRBM] Iteration 16, pseudo-likelihood = -28.67, time = 6.64s2019-12-24 17:59:37,767 [INFO] Pretraining Complete
2019-12-24 17:59:37,791 [INFO] Getting pretrained weights
2019-12-24 17:59:37,792 [INFO] Creating and initializing feed forward neural network
2019-12-24 17:59:38,078 [INFO] _________________________________________________________________
2019-12-24 17:59:38,078 [INFO] Layer (type)                 Output Shape              Param #   
2019-12-24 17:59:38,078 [INFO] =================================================================
2019-12-24 17:59:38,078 [INFO] dense_29 (Dense)             (None, 128)               10112     
2019-12-24 17:59:38,078 [INFO] _________________________________________________________________
2019-12-24 17:59:38,078 [INFO] batch_normalization_22 (Batc (None, 128)               512       
2019-12-24 17:59:38,078 [INFO] _________________________________________________________________
2019-12-24 17:59:38,078 [INFO] dropout_22 (Dropout)         (None, 128)               0         
2019-12-24 17:59:38,078 [INFO] _________________________________________________________________
2019-12-24 17:59:38,079 [INFO] dense_30 (Dense)             (None, 64)                8256      
2019-12-24 17:59:38,079 [INFO] _________________________________________________________________
2019-12-24 17:59:38,079 [INFO] batch_normalization_23 (Batc (None, 64)                256       
2019-12-24 17:59:38,079 [INFO] _________________________________________________________________
2019-12-24 17:59:38,079 [INFO] dropout_23 (Dropout)         (None, 64)                0         
2019-12-24 17:59:38,079 [INFO] _________________________________________________________________
2019-12-24 17:59:38,079 [INFO] dense_31 (Dense)             (None, 34)                2210      
2019-12-24 17:59:38,079 [INFO] _________________________________________________________________
2019-12-24 17:59:38,079 [INFO] batch_normalization_24 (Batc (None, 34)                136       
2019-12-24 17:59:38,079 [INFO] _________________________________________________________________
2019-12-24 17:59:38,079 [INFO] dropout_24 (Dropout)         (None, 34)                0         
2019-12-24 17:59:38,079 [INFO] _________________________________________________________________
2019-12-24 17:59:38,079 [INFO] dense_32 (Dense)             (None, 12)                420       
2019-12-24 17:59:38,079 [INFO] =================================================================
2019-12-24 17:59:38,079 [INFO] Total params: 21,902
2019-12-24 17:59:38,080 [INFO] Trainable params: 21,450
2019-12-24 17:59:38,080 [INFO] Non-trainable params: 452
2019-12-24 17:59:38,080 [INFO] _________________________________________________________________
2019-12-24 17:59:40,409 [INFO] Fine-tuning final neural network
…
[BernoulliRBM] Iteration 15, pseudo-likelihood = -28.65, time = 6.78s2019-12-24 20:55:41,663 [INFO] Pretraining Complete
2019-12-24 20:55:41,663 [INFO] Getting pretrained weights
2019-12-24 20:55:41,663 [INFO] Creating and initializing feed forward neural network
2019-12-24 20:55:41,940 [INFO] _________________________________________________________________
2019-12-24 20:55:41,940 [INFO] Layer (type)                 Output Shape              Param #   
2019-12-24 20:55:41,940 [INFO] =================================================================
2019-12-24 20:55:41,940 [INFO] dense_33 (Dense)             (None, 128)               10112     
2019-12-24 20:55:41,940 [INFO] _________________________________________________________________
2019-12-24 20:55:41,940 [INFO] batch_normalization_25 (Batc (None, 128)               512       
2019-12-24 20:55:41,940 [INFO] _________________________________________________________________
2019-12-24 20:55:41,940 [INFO] dropout_25 (Dropout)         (None, 128)               0         
2019-12-24 20:55:41,941 [INFO] _________________________________________________________________
2019-12-24 20:55:41,941 [INFO] dense_34 (Dense)             (None, 64)                8256      
2019-12-24 20:55:41,941 [INFO] _________________________________________________________________
2019-12-24 20:55:41,941 [INFO] batch_normalization_26 (Batc (None, 64)                256       
2019-12-24 20:55:41,941 [INFO] _________________________________________________________________
2019-12-24 20:55:41,941 [INFO] dropout_26 (Dropout)         (None, 64)                0         
2019-12-24 20:55:41,941 [INFO] _________________________________________________________________
2019-12-24 20:55:41,941 [INFO] dense_35 (Dense)             (None, 35)                2275      
2019-12-24 20:55:41,941 [INFO] _________________________________________________________________
2019-12-24 20:55:41,941 [INFO] batch_normalization_27 (Batc (None, 35)                140       
2019-12-24 20:55:41,941 [INFO] _________________________________________________________________
2019-12-24 20:55:41,941 [INFO] dropout_27 (Dropout)         (None, 35)                0         
2019-12-24 20:55:41,941 [INFO] _________________________________________________________________
2019-12-24 20:55:41,941 [INFO] dense_36 (Dense)             (None, 12)                432       
2019-12-24 20:55:41,941 [INFO] =================================================================
2019-12-24 20:55:41,942 [INFO] Total params: 21,983
2019-12-24 20:55:41,942 [INFO] Trainable params: 21,529
2019-12-24 20:55:41,942 [INFO] Non-trainable params: 454
2019-12-24 20:55:41,942 [INFO] _________________________________________________________________
2019-12-24 20:55:44,606 [INFO] Fine-tuning final neural network
…
2019-12-25 00:15:32,702 [INFO] Creating and initializing feed forward neural network
2019-12-25 00:15:32,945 [WARNING] Large dropout rate: 0.6 (>0.5). In TensorFlow 2.x, dropout() uses dropout rate instead of keep_prob. Please ensure that this is intended.
2019-12-25 00:15:32,985 [INFO] _________________________________________________________________
2019-12-25 00:15:32,985 [INFO] Layer (type)                 Output Shape              Param #   
2019-12-25 00:15:32,985 [INFO] =================================================================
2019-12-25 00:15:32,985 [INFO] dense_37 (Dense)             (None, 128)               10112     
2019-12-25 00:15:32,985 [INFO] _________________________________________________________________
2019-12-25 00:15:32,985 [INFO] batch_normalization_28 (Batc (None, 128)               512       
2019-12-25 00:15:32,985 [INFO] _________________________________________________________________
2019-12-25 00:15:32,985 [INFO] dropout_28 (Dropout)         (None, 128)               0         
2019-12-25 00:15:32,985 [INFO] _________________________________________________________________
2019-12-25 00:15:32,985 [INFO] dense_38 (Dense)             (None, 64)                8256      
2019-12-25 00:15:32,985 [INFO] _________________________________________________________________
2019-12-25 00:15:32,986 [INFO] batch_normalization_29 (Batc (None, 64)                256       
2019-12-25 00:15:32,986 [INFO] _________________________________________________________________
2019-12-25 00:15:32,986 [INFO] dropout_29 (Dropout)         (None, 64)                0         
2019-12-25 00:15:32,986 [INFO] _________________________________________________________________
2019-12-25 00:15:32,986 [INFO] dense_39 (Dense)             (None, 36)                2340      
2019-12-25 00:15:32,986 [INFO] _________________________________________________________________
2019-12-25 00:15:32,986 [INFO] batch_normalization_30 (Batc (None, 36)                144       
2019-12-25 00:15:32,986 [INFO] _________________________________________________________________
2019-12-25 00:15:32,986 [INFO] dropout_30 (Dropout)         (None, 36)                0         
2019-12-25 00:15:32,986 [INFO] _________________________________________________________________
2019-12-25 00:15:32,986 [INFO] dense_40 (Dense)             (None, 12)                444       
2019-12-25 00:15:32,986 [INFO] =================================================================
2019-12-25 00:15:32,986 [INFO] Total params: 22,064
2019-12-25 00:15:32,986 [INFO] Trainable params: 21,608
2019-12-25 00:15:32,986 [INFO] Non-trainable params: 456
2019-12-25 00:15:32,986 [INFO] _________________________________________________________________
2019-12-25 00:15:35,967 [INFO] Fine-tuning final neural network
…
[BernoulliRBM] Iteration 16, pseudo-likelihood = -33.88, time = 7.40s2019-12-25 03:43:14,983 [INFO] Pretraining Complete
2019-12-25 03:43:15,010 [INFO] Getting pretrained weights
2019-12-25 03:43:15,010 [INFO] Creating and initializing feed forward neural network
2019-12-25 03:43:15,806 [INFO] _________________________________________________________________
2019-12-25 03:43:15,806 [INFO] Layer (type)                 Output Shape              Param #   
2019-12-25 03:43:15,806 [INFO] =================================================================
2019-12-25 03:43:15,806 [INFO] dense_41 (Dense)             (None, 128)               9984      
2019-12-25 03:43:15,806 [INFO] _________________________________________________________________
2019-12-25 03:43:15,806 [INFO] batch_normalization_31 (Batc (None, 128)               512       
2019-12-25 03:43:15,806 [INFO] _________________________________________________________________
2019-12-25 03:43:15,806 [INFO] dropout_31 (Dropout)         (None, 128)               0         
2019-12-25 03:43:15,806 [INFO] _________________________________________________________________
2019-12-25 03:43:15,806 [INFO] dense_42 (Dense)             (None, 64)                8256      
2019-12-25 03:43:15,806 [INFO] _________________________________________________________________
2019-12-25 03:43:15,806 [INFO] batch_normalization_32 (Batc (None, 64)                256       
2019-12-25 03:43:15,806 [INFO] _________________________________________________________________
2019-12-25 03:43:15,806 [INFO] dropout_32 (Dropout)         (None, 64)                0         
2019-12-25 03:43:15,806 [INFO] _________________________________________________________________
2019-12-25 03:43:15,807 [INFO] dense_43 (Dense)             (None, 32)                2080      
2019-12-25 03:43:15,807 [INFO] _________________________________________________________________
2019-12-25 03:43:15,807 [INFO] batch_normalization_33 (Batc (None, 32)                128       
2019-12-25 03:43:15,807 [INFO] _________________________________________________________________
2019-12-25 03:43:15,807 [INFO] dropout_33 (Dropout)         (None, 32)                0         
2019-12-25 03:43:15,807 [INFO] _________________________________________________________________
2019-12-25 03:43:15,807 [INFO] dense_44 (Dense)             (None, 15)                495       
2019-12-25 03:43:15,807 [INFO] =================================================================
2019-12-25 03:43:15,807 [INFO] Total params: 21,711
2019-12-25 03:43:15,807 [INFO] Trainable params: 21,263
2019-12-25 03:43:15,807 [INFO] Non-trainable params: 448
2019-12-25 03:43:15,807 [INFO] _________________________________________________________________
2019-12-25 03:43:19,537 [INFO] Fine-tuning final neural network
…
[BernoulliRBM] Iteration 16, pseudo-likelihood = -33.89, time = 7.55s2019-12-25 07:44:27,349 [INFO] Pretraining Complete
2019-12-25 07:44:27,382 [INFO] Getting pretrained weights
2019-12-25 07:44:27,382 [INFO] Creating and initializing feed forward neural network
2019-12-25 07:44:28,275 [INFO] _________________________________________________________________
2019-12-25 07:44:28,276 [INFO] Layer (type)                 Output Shape              Param #   
2019-12-25 07:44:28,276 [INFO] =================================================================
2019-12-25 07:44:28,276 [INFO] dense_45 (Dense)             (None, 128)               9984      
2019-12-25 07:44:28,276 [INFO] _________________________________________________________________
2019-12-25 07:44:28,276 [INFO] batch_normalization_34 (Batc (None, 128)               512       
2019-12-25 07:44:28,276 [INFO] _________________________________________________________________
2019-12-25 07:44:28,276 [INFO] dropout_34 (Dropout)         (None, 128)               0         
2019-12-25 07:44:28,276 [INFO] _________________________________________________________________
2019-12-25 07:44:28,276 [INFO] dense_46 (Dense)             (None, 64)                8256      
2019-12-25 07:44:28,276 [INFO] _________________________________________________________________
2019-12-25 07:44:28,277 [INFO] batch_normalization_35 (Batc (None, 64)                256       
2019-12-25 07:44:28,277 [INFO] _________________________________________________________________
2019-12-25 07:44:28,277 [INFO] dropout_35 (Dropout)         (None, 64)                0         
2019-12-25 07:44:28,277 [INFO] _________________________________________________________________
2019-12-25 07:44:28,277 [INFO] dense_47 (Dense)             (None, 33)                2145      
2019-12-25 07:44:28,277 [INFO] _________________________________________________________________
2019-12-25 07:44:28,277 [INFO] batch_normalization_36 (Batc (None, 33)                132       
2019-12-25 07:44:28,277 [INFO] _________________________________________________________________
2019-12-25 07:44:28,277 [INFO] dropout_36 (Dropout)         (None, 33)                0         
2019-12-25 07:44:28,277 [INFO] _________________________________________________________________
2019-12-25 07:44:28,277 [INFO] dense_48 (Dense)             (None, 15)                510       
2019-12-25 07:44:28,277 [INFO] =================================================================
2019-12-25 07:44:28,277 [INFO] Total params: 21,795
2019-12-25 07:44:28,277 [INFO] Trainable params: 21,345
2019-12-25 07:44:28,278 [INFO] Non-trainable params: 450
2019-12-25 07:44:28,278 [INFO] _________________________________________________________________
2019-12-25 07:44:32,395 [INFO] Fine-tuning final neural network
…
[BernoulliRBM] Iteration 16, pseudo-likelihood = -33.92, time = 7.66s2019-12-25 11:54:59,726 [INFO] Pretraining Complete
2019-12-25 11:54:59,738 [INFO] Getting pretrained weights
2019-12-25 11:54:59,738 [INFO] Creating and initializing feed forward neural network
2019-12-25 11:55:00,535 [INFO] _________________________________________________________________
2019-12-25 11:55:00,535 [INFO] Layer (type)                 Output Shape              Param #   
2019-12-25 11:55:00,535 [INFO] =================================================================
2019-12-25 11:55:00,535 [INFO] dense_49 (Dense)             (None, 128)               9984      
2019-12-25 11:55:00,535 [INFO] _________________________________________________________________
2019-12-25 11:55:00,535 [INFO] batch_normalization_37 (Batc (None, 128)               512       
2019-12-25 11:55:00,535 [INFO] _________________________________________________________________
2019-12-25 11:55:00,535 [INFO] dropout_37 (Dropout)         (None, 128)               0         
2019-12-25 11:55:00,535 [INFO] _________________________________________________________________
2019-12-25 11:55:00,535 [INFO] dense_50 (Dense)             (None, 64)                8256      
2019-12-25 11:55:00,536 [INFO] _________________________________________________________________
2019-12-25 11:55:00,536 [INFO] batch_normalization_38 (Batc (None, 64)                256       
2019-12-25 11:55:00,536 [INFO] _________________________________________________________________
2019-12-25 11:55:00,536 [INFO] dropout_38 (Dropout)         (None, 64)                0         
2019-12-25 11:55:00,536 [INFO] _________________________________________________________________
2019-12-25 11:55:00,536 [INFO] dense_51 (Dense)             (None, 34)                2210      
2019-12-25 11:55:00,536 [INFO] _________________________________________________________________
2019-12-25 11:55:00,536 [INFO] batch_normalization_39 (Batc (None, 34)                136       
2019-12-25 11:55:00,536 [INFO] _________________________________________________________________
2019-12-25 11:55:00,536 [INFO] dropout_39 (Dropout)         (None, 34)                0         
2019-12-25 11:55:00,536 [INFO] _________________________________________________________________
2019-12-25 11:55:00,536 [INFO] dense_52 (Dense)             (None, 15)                525       
2019-12-25 11:55:00,536 [INFO] =================================================================
2019-12-25 11:55:00,536 [INFO] Total params: 21,879
2019-12-25 11:55:00,536 [INFO] Trainable params: 21,427
2019-12-25 11:55:00,536 [INFO] Non-trainable params: 452
2019-12-25 11:55:00,537 [INFO] _________________________________________________________________
2019-12-25 11:55:04,884 [INFO] Fine-tuning final neural network
…
[BernoulliRBM] Iteration 16, pseudo-likelihood = -33.91, time = 7.77s2019-12-25 16:11:32,914 [INFO] Pretraining Complete
2019-12-25 16:11:32,914 [INFO] Getting pretrained weights
2019-12-25 16:11:32,914 [INFO] Creating and initializing feed forward neural network
2019-12-25 16:11:33,751 [INFO] _________________________________________________________________
2019-12-25 16:11:33,751 [INFO] Layer (type)                 Output Shape              Param #   
2019-12-25 16:11:33,751 [INFO] =================================================================
2019-12-25 16:11:33,751 [INFO] dense_53 (Dense)             (None, 128)               9984      
2019-12-25 16:11:33,751 [INFO] _________________________________________________________________
2019-12-25 16:11:33,751 [INFO] batch_normalization_40 (Batc (None, 128)               512       
2019-12-25 16:11:33,751 [INFO] _________________________________________________________________
2019-12-25 16:11:33,752 [INFO] dropout_40 (Dropout)         (None, 128)               0         
2019-12-25 16:11:33,752 [INFO] _________________________________________________________________
2019-12-25 16:11:33,752 [INFO] dense_54 (Dense)             (None, 64)                8256      
2019-12-25 16:11:33,752 [INFO] _________________________________________________________________
2019-12-25 16:11:33,752 [INFO] batch_normalization_41 (Batc (None, 64)                256       
2019-12-25 16:11:33,752 [INFO] _________________________________________________________________
2019-12-25 16:11:33,752 [INFO] dropout_41 (Dropout)         (None, 64)                0         
2019-12-25 16:11:33,752 [INFO] _________________________________________________________________
2019-12-25 16:11:33,752 [INFO] dense_55 (Dense)             (None, 35)                2275      
2019-12-25 16:11:33,752 [INFO] _________________________________________________________________
2019-12-25 16:11:33,752 [INFO] batch_normalization_42 (Batc (None, 35)                140       
2019-12-25 16:11:33,752 [INFO] _________________________________________________________________
2019-12-25 16:11:33,752 [INFO] dropout_42 (Dropout)         (None, 35)                0         
2019-12-25 16:11:33,752 [INFO] _________________________________________________________________
2019-12-25 16:11:33,752 [INFO] dense_56 (Dense)             (None, 15)                540       
2019-12-25 16:11:33,752 [INFO] =================================================================
2019-12-25 16:11:33,753 [INFO] Total params: 21,963
2019-12-25 16:11:33,753 [INFO] Trainable params: 21,509
2019-12-25 16:11:33,753 [INFO] Non-trainable params: 454
2019-12-25 16:11:33,753 [INFO] _________________________________________________________________
2019-12-25 16:11:38,600 [INFO] Fine-tuning final neural network
…
2019-12-25 20:34:01,583 [INFO] Creating and initializing feed forward neural network
2019-12-25 20:34:02,370 [WARNING] Large dropout rate: 0.6 (>0.5). In TensorFlow 2.x, dropout() uses dropout rate instead of keep_prob. Please ensure that this is intended.
2019-12-25 20:34:02,411 [INFO] _________________________________________________________________
2019-12-25 20:34:02,411 [INFO] Layer (type)                 Output Shape              Param #   
2019-12-25 20:34:02,411 [INFO] =================================================================
2019-12-25 20:34:02,411 [INFO] dense_57 (Dense)             (None, 128)               9984      
2019-12-25 20:34:02,411 [INFO] _________________________________________________________________
2019-12-25 20:34:02,411 [INFO] batch_normalization_43 (Batc (None, 128)               512       
2019-12-25 20:34:02,411 [INFO] _________________________________________________________________
2019-12-25 20:34:02,411 [INFO] dropout_43 (Dropout)         (None, 128)               0         
2019-12-25 20:34:02,411 [INFO] _________________________________________________________________
2019-12-25 20:34:02,411 [INFO] dense_58 (Dense)             (None, 64)                8256      
2019-12-25 20:34:02,411 [INFO] _________________________________________________________________
2019-12-25 20:34:02,412 [INFO] batch_normalization_44 (Batc (None, 64)                256       
2019-12-25 20:34:02,412 [INFO] _________________________________________________________________
2019-12-25 20:34:02,412 [INFO] dropout_44 (Dropout)         (None, 64)                0         
2019-12-25 20:34:02,412 [INFO] _________________________________________________________________
2019-12-25 20:34:02,412 [INFO] dense_59 (Dense)             (None, 36)                2340      
2019-12-25 20:34:02,412 [INFO] _________________________________________________________________
2019-12-25 20:34:02,412 [INFO] batch_normalization_45 (Batc (None, 36)                144       
2019-12-25 20:34:02,412 [INFO] _________________________________________________________________
2019-12-25 20:34:02,412 [INFO] dropout_45 (Dropout)         (None, 36)                0         
2019-12-25 20:34:02,412 [INFO] _________________________________________________________________
2019-12-25 20:34:02,412 [INFO] dense_60 (Dense)             (None, 15)                555       
2019-12-25 20:34:02,412 [INFO] =================================================================
2019-12-25 20:34:02,412 [INFO] Total params: 22,047
2019-12-25 20:34:02,412 [INFO] Trainable params: 21,591
2019-12-25 20:34:02,412 [INFO] Non-trainable params: 456
2019-12-25 20:34:02,412 [INFO] _________________________________________________________________
2019-12-25 20:34:07,507 [INFO] Fine-tuning final neural network
…
2019-12-30 15:57:38,433 [WARNING] From /home/sunanda/anaconda3/envs/ml_env_cpu/lib/python3.7/site-packages/keras/backend/tensorflow_backend.py:3445: calling dropout (from tensorflow.python.ops.nn_ops) with keep_prob is deprecated and will be removed in a future version.
Instructions for updating:
Please use `rate` instead of `keep_prob`. Rate should be set to `rate = 1 - keep_prob`.
2019-12-30 15:57:38,641 [INFO] _________________________________________________________________
2019-12-30 15:57:38,641 [INFO] Layer (type)                 Output Shape              Param #   
2019-12-30 15:57:38,642 [INFO] =================================================================
2019-12-30 15:57:38,642 [INFO] dense_1 (Dense)              (None, 128)               15872     
2019-12-30 15:57:38,642 [INFO] _________________________________________________________________
2019-12-30 15:57:38,642 [INFO] batch_normalization_1 (Batch (None, 128)               512       
2019-12-30 15:57:38,642 [INFO] _________________________________________________________________
2019-12-30 15:57:38,642 [INFO] dropout_1 (Dropout)          (None, 128)               0         
2019-12-30 15:57:38,642 [INFO] _________________________________________________________________
2019-12-30 15:57:38,642 [INFO] dense_2 (Dense)              (None, 64)                8256      
2019-12-30 15:57:38,642 [INFO] _________________________________________________________________
2019-12-30 15:57:38,642 [INFO] batch_normalization_2 (Batch (None, 64)                256       
2019-12-30 15:57:38,642 [INFO] _________________________________________________________________
2019-12-30 15:57:38,642 [INFO] dropout_2 (Dropout)          (None, 64)                0         
2019-12-30 15:57:38,643 [INFO] _________________________________________________________________
2019-12-30 15:57:38,643 [INFO] dense_3 (Dense)              (None, 32)                2080      
2019-12-30 15:57:38,643 [INFO] _________________________________________________________________
2019-12-30 15:57:38,643 [INFO] batch_normalization_3 (Batch (None, 32)                128       
2019-12-30 15:57:38,643 [INFO] _________________________________________________________________
2019-12-30 15:57:38,643 [INFO] dropout_3 (Dropout)          (None, 32)                0         
2019-12-30 15:57:38,643 [INFO] _________________________________________________________________
2019-12-30 15:57:38,643 [INFO] dense_4 (Dense)              (None, 5)                 165       
2019-12-30 15:57:38,643 [INFO] =================================================================
2019-12-30 15:57:38,644 [INFO] Total params: 27,269
2019-12-30 15:57:38,644 [INFO] Trainable params: 26,821
2019-12-30 15:57:38,644 [INFO] Non-trainable params: 448
2019-12-30 15:57:38,644 [INFO] _________________________________________________________________
2019-12-30 15:57:38.644307: I tensorflow/core/platform/cpu_feature_guard.cc:141] Your CPU supports instructions that this TensorFlow binary was not compiled to use: SSE4.1 SSE4.2 AVX
…
[BernoulliRBM] Iteration 16, pseudo-likelihood = -7.10, time = 8.09s2019-12-30 23:33:28,800 [INFO] Pretraining Complete
2019-12-30 23:33:28,801 [INFO] Getting pretrained weights
2019-12-30 23:33:28,801 [INFO] Creating and initializing feed forward neural network
2019-12-30 23:33:29,180 [INFO] _________________________________________________________________
2019-12-30 23:33:29,180 [INFO] Layer (type)                 Output Shape              Param #   
2019-12-30 23:33:29,180 [INFO] =================================================================
2019-12-30 23:33:29,180 [INFO] dense_5 (Dense)              (None, 128)               15872     
2019-12-30 23:33:29,180 [INFO] _________________________________________________________________
2019-12-30 23:33:29,181 [INFO] batch_normalization_4 (Batch (None, 128)               512       
2019-12-30 23:33:29,181 [INFO] _________________________________________________________________
2019-12-30 23:33:29,181 [INFO] dropout_4 (Dropout)          (None, 128)               0         
2019-12-30 23:33:29,181 [INFO] _________________________________________________________________
2019-12-30 23:33:29,181 [INFO] dense_6 (Dense)              (None, 64)                8256      
2019-12-30 23:33:29,181 [INFO] _________________________________________________________________
2019-12-30 23:33:29,181 [INFO] batch_normalization_5 (Batch (None, 64)                256       
2019-12-30 23:33:29,181 [INFO] _________________________________________________________________
2019-12-30 23:33:29,181 [INFO] dropout_5 (Dropout)          (None, 64)                0         
2019-12-30 23:33:29,181 [INFO] _________________________________________________________________
2019-12-30 23:33:29,181 [INFO] dense_7 (Dense)              (None, 33)                2145      
2019-12-30 23:33:29,181 [INFO] _________________________________________________________________
2019-12-30 23:33:29,182 [INFO] batch_normalization_6 (Batch (None, 33)                132       
2019-12-30 23:33:29,182 [INFO] _________________________________________________________________
2019-12-30 23:33:29,182 [INFO] dropout_6 (Dropout)          (None, 33)                0         
2019-12-30 23:33:29,182 [INFO] _________________________________________________________________
2019-12-30 23:33:29,182 [INFO] dense_8 (Dense)              (None, 5)                 170       
2019-12-30 23:33:29,182 [INFO] =================================================================
2019-12-30 23:33:29,182 [INFO] Total params: 27,343
2019-12-30 23:33:29,182 [INFO] Trainable params: 26,893
2019-12-30 23:33:29,182 [INFO] Non-trainable params: 450
2019-12-30 23:33:29,182 [INFO] _________________________________________________________________
2019-12-30 23:33:29,599 [INFO] Fine-tuning final neural network
…
[BernoulliRBM] Iteration 16, pseudo-likelihood = -6.75, time = 8.22s2019-12-31 07:26:19,365 [INFO] Pretraining Complete
2019-12-31 07:26:19,365 [INFO] Getting pretrained weights
2019-12-31 07:26:19,365 [INFO] Creating and initializing feed forward neural network
2019-12-31 07:26:19,653 [INFO] _________________________________________________________________
2019-12-31 07:26:19,654 [INFO] Layer (type)                 Output Shape              Param #   
2019-12-31 07:26:19,654 [INFO] =================================================================
2019-12-31 07:26:19,654 [INFO] dense_9 (Dense)              (None, 128)               15872     
2019-12-31 07:26:19,654 [INFO] _________________________________________________________________
2019-12-31 07:26:19,654 [INFO] batch_normalization_7 (Batch (None, 128)               512       
2019-12-31 07:26:19,654 [INFO] _________________________________________________________________
2019-12-31 07:26:19,654 [INFO] dropout_7 (Dropout)          (None, 128)               0         
2019-12-31 07:26:19,654 [INFO] _________________________________________________________________
2019-12-31 07:26:19,654 [INFO] dense_10 (Dense)             (None, 64)                8256      
2019-12-31 07:26:19,654 [INFO] _________________________________________________________________
2019-12-31 07:26:19,654 [INFO] batch_normalization_8 (Batch (None, 64)                256       
2019-12-31 07:26:19,655 [INFO] _________________________________________________________________
2019-12-31 07:26:19,655 [INFO] dropout_8 (Dropout)          (None, 64)                0         
2019-12-31 07:26:19,655 [INFO] _________________________________________________________________
2019-12-31 07:26:19,655 [INFO] dense_11 (Dense)             (None, 34)                2210      
2019-12-31 07:26:19,655 [INFO] _________________________________________________________________
2019-12-31 07:26:19,655 [INFO] batch_normalization_9 (Batch (None, 34)                136       
2019-12-31 07:26:19,655 [INFO] _________________________________________________________________
2019-12-31 07:26:19,655 [INFO] dropout_9 (Dropout)          (None, 34)                0         
2019-12-31 07:26:19,655 [INFO] _________________________________________________________________
2019-12-31 07:26:19,655 [INFO] dense_12 (Dense)             (None, 5)                 175       
2019-12-31 07:26:19,655 [INFO] =================================================================
2019-12-31 07:26:19,656 [INFO] Total params: 27,417
2019-12-31 07:26:19,656 [INFO] Trainable params: 26,965
2019-12-31 07:26:19,656 [INFO] Non-trainable params: 452
2019-12-31 07:26:19,656 [INFO] _________________________________________________________________
2019-12-31 07:26:20,325 [INFO] Fine-tuning final neural network
…
[BernoulliRBM] Iteration 16, pseudo-likelihood = -10.05, time = 8.53s2019-12-31 15:38:23,938 [INFO] Pretraining Complete
2019-12-31 15:38:23,938 [INFO] Getting pretrained weights
2019-12-31 15:38:23,938 [INFO] Creating and initializing feed forward neural network
2019-12-31 15:38:24,229 [INFO] _________________________________________________________________
2019-12-31 15:38:24,229 [INFO] Layer (type)                 Output Shape              Param #   
2019-12-31 15:38:24,229 [INFO] =================================================================
2019-12-31 15:38:24,230 [INFO] dense_13 (Dense)             (None, 128)               15872     
2019-12-31 15:38:24,230 [INFO] _________________________________________________________________
2019-12-31 15:38:24,230 [INFO] batch_normalization_10 (Batc (None, 128)               512       
2019-12-31 15:38:24,230 [INFO] _________________________________________________________________
2019-12-31 15:38:24,230 [INFO] dropout_10 (Dropout)         (None, 128)               0         
2019-12-31 15:38:24,230 [INFO] _________________________________________________________________
2019-12-31 15:38:24,230 [INFO] dense_14 (Dense)             (None, 64)                8256      
2019-12-31 15:38:24,230 [INFO] _________________________________________________________________
2019-12-31 15:38:24,230 [INFO] batch_normalization_11 (Batc (None, 64)                256       
2019-12-31 15:38:24,230 [INFO] _________________________________________________________________
2019-12-31 15:38:24,230 [INFO] dropout_11 (Dropout)         (None, 64)                0         
2019-12-31 15:38:24,231 [INFO] _________________________________________________________________
2019-12-31 15:38:24,231 [INFO] dense_15 (Dense)             (None, 35)                2275      
2019-12-31 15:38:24,231 [INFO] _________________________________________________________________
2019-12-31 15:38:24,231 [INFO] batch_normalization_12 (Batc (None, 35)                140       
2019-12-31 15:38:24,231 [INFO] _________________________________________________________________
2019-12-31 15:38:24,231 [INFO] dropout_12 (Dropout)         (None, 35)                0         
2019-12-31 15:38:24,231 [INFO] _________________________________________________________________
2019-12-31 15:38:24,231 [INFO] dense_16 (Dense)             (None, 5)                 180       
2019-12-31 15:38:24,231 [INFO] =================================================================
2019-12-31 15:38:24,232 [INFO] Total params: 27,491
2019-12-31 15:38:24,232 [INFO] Trainable params: 27,037
2019-12-31 15:38:24,232 [INFO] Non-trainable params: 454
2019-12-31 15:38:24,232 [INFO] _________________________________________________________________
2019-12-31 15:38:25,196 [INFO] Fine-tuning final neural network
…
[BernoulliRBM] Iteration 16, pseudo-likelihood = -5.94, time = 8.48s2020-01-01 00:10:18,034 [INFO] Pretraining Complete
2020-01-01 00:10:18,034 [INFO] Getting pretrained weights
2020-01-01 00:10:18,034 [INFO] Creating and initializing feed forward neural network
2020-01-01 00:10:18,330 [INFO] _________________________________________________________________
2020-01-01 00:10:18,330 [INFO] Layer (type)                 Output Shape              Param #   
2020-01-01 00:10:18,330 [INFO] =================================================================
2020-01-01 00:10:18,330 [INFO] dense_17 (Dense)             (None, 128)               15872     
2020-01-01 00:10:18,330 [INFO] _________________________________________________________________
2020-01-01 00:10:18,330 [INFO] batch_normalization_13 (Batc (None, 128)               512       
2020-01-01 00:10:18,330 [INFO] _________________________________________________________________
2020-01-01 00:10:18,330 [INFO] dropout_13 (Dropout)         (None, 128)               0         
2020-01-01 00:10:18,330 [INFO] _________________________________________________________________
2020-01-01 00:10:18,330 [INFO] dense_18 (Dense)             (None, 64)                8256      
2020-01-01 00:10:18,330 [INFO] _________________________________________________________________
2020-01-01 00:10:18,331 [INFO] batch_normalization_14 (Batc (None, 64)                256       
2020-01-01 00:10:18,331 [INFO] _________________________________________________________________
2020-01-01 00:10:18,331 [INFO] dropout_14 (Dropout)         (None, 64)                0         
2020-01-01 00:10:18,331 [INFO] _________________________________________________________________
2020-01-01 00:10:18,331 [INFO] dense_19 (Dense)             (None, 36)                2340      
2020-01-01 00:10:18,331 [INFO] _________________________________________________________________
2020-01-01 00:10:18,331 [INFO] batch_normalization_15 (Batc (None, 36)                144       
2020-01-01 00:10:18,331 [INFO] _________________________________________________________________
2020-01-01 00:10:18,331 [INFO] dropout_15 (Dropout)         (None, 36)                0         
2020-01-01 00:10:18,331 [INFO] _________________________________________________________________
2020-01-01 00:10:18,331 [INFO] dense_20 (Dense)             (None, 5)                 185       
2020-01-01 00:10:18,331 [INFO] =================================================================
2020-01-01 00:10:18,332 [INFO] Total params: 27,565
2020-01-01 00:10:18,332 [INFO] Trainable params: 27,109
2020-01-01 00:10:18,332 [INFO] Non-trainable params: 456
2020-01-01 00:10:18,332 [INFO] _________________________________________________________________
2020-01-01 00:10:19,602 [INFO] Fine-tuning final neural network
…
