…
2019-12-28 03:06:25,059 [INFO] Reading complete. time_to_read=0.07 seconds
2019-12-28 03:06:25,059 [INFO] Reading HDF dataset ../Datasets/full_datasets/ids2017/y_test.h5
2019-12-28 03:06:25,127 [INFO] Reading complete. time_to_read=0.07 seconds
2019-12-28 03:06:28,289 [INFO] Initializing model
2019-12-28 03:06:29,116 [INFO] _________________________________________________________________
2019-12-28 03:06:29,116 [INFO] Layer (type)                 Output Shape              Param #   
2019-12-28 03:06:29,116 [INFO] =================================================================
2019-12-28 03:06:29,116 [INFO] dense_101 (Dense)            (None, 600)               47400     
2019-12-28 03:06:29,116 [INFO] _________________________________________________________________
2019-12-28 03:06:29,116 [INFO] batch_normalization_84 (Batc (None, 600)               2400      
2019-12-28 03:06:29,116 [INFO] _________________________________________________________________
2019-12-28 03:06:29,116 [INFO] dropout_84 (Dropout)         (None, 600)               0         
2019-12-28 03:06:29,116 [INFO] _________________________________________________________________
2019-12-28 03:06:29,116 [INFO] dense_102 (Dense)            (None, 500)               300500    
2019-12-28 03:06:29,116 [INFO] _________________________________________________________________
2019-12-28 03:06:29,116 [INFO] batch_normalization_85 (Batc (None, 500)               2000      
2019-12-28 03:06:29,116 [INFO] _________________________________________________________________
2019-12-28 03:06:29,116 [INFO] dropout_85 (Dropout)         (None, 500)               0         
2019-12-28 03:06:29,116 [INFO] _________________________________________________________________
2019-12-28 03:06:29,117 [INFO] dense_103 (Dense)            (None, 400)               200400    
2019-12-28 03:06:29,117 [INFO] _________________________________________________________________
2019-12-28 03:06:29,117 [INFO] batch_normalization_86 (Batc (None, 400)               1600      
2019-12-28 03:06:29,117 [INFO] _________________________________________________________________
2019-12-28 03:06:29,117 [INFO] dropout_86 (Dropout)         (None, 400)               0         
2019-12-28 03:06:29,117 [INFO] _________________________________________________________________
2019-12-28 03:06:29,117 [INFO] dense_104 (Dense)            (None, 256)               102656    
2019-12-28 03:06:29,117 [INFO] _________________________________________________________________
2019-12-28 03:06:29,117 [INFO] batch_normalization_87 (Batc (None, 256)               1024      
2019-12-28 03:06:29,117 [INFO] _________________________________________________________________
2019-12-28 03:06:29,117 [INFO] dropout_87 (Dropout)         (None, 256)               0         
2019-12-28 03:06:29,117 [INFO] _________________________________________________________________
2019-12-28 03:06:29,117 [INFO] dense_105 (Dense)            (None, 128)               32896     
2019-12-28 03:06:29,117 [INFO] _________________________________________________________________
2019-12-28 03:06:29,117 [INFO] batch_normalization_88 (Batc (None, 128)               512       
2019-12-28 03:06:29,117 [INFO] _________________________________________________________________
2019-12-28 03:06:29,117 [INFO] dropout_88 (Dropout)         (None, 128)               0         
2019-12-28 03:06:29,117 [INFO] _________________________________________________________________
2019-12-28 03:06:29,118 [INFO] dense_106 (Dense)            (None, 64)                8256      
2019-12-28 03:06:29,118 [INFO] _________________________________________________________________
2019-12-28 03:06:29,118 [INFO] batch_normalization_89 (Batc (None, 64)                256       
2019-12-28 03:06:29,118 [INFO] _________________________________________________________________
2019-12-28 03:06:29,118 [INFO] dropout_89 (Dropout)         (None, 64)                0         
2019-12-28 03:06:29,118 [INFO] _________________________________________________________________
2019-12-28 03:06:29,118 [INFO] dense_107 (Dense)            (None, 32)                2080      
2019-12-28 03:06:29,118 [INFO] _________________________________________________________________
2019-12-28 03:06:29,118 [INFO] batch_normalization_90 (Batc (None, 32)                128       
2019-12-28 03:06:29,118 [INFO] _________________________________________________________________
2019-12-28 03:06:29,118 [INFO] dropout_90 (Dropout)         (None, 32)                0         
2019-12-28 03:06:29,118 [INFO] _________________________________________________________________
2019-12-28 03:06:29,118 [INFO] dense_108 (Dense)            (None, 16)                528       
2019-12-28 03:06:29,118 [INFO] _________________________________________________________________
2019-12-28 03:06:29,118 [INFO] batch_normalization_91 (Batc (None, 16)                64        
2019-12-28 03:06:29,118 [INFO] _________________________________________________________________
2019-12-28 03:06:29,118 [INFO] dropout_91 (Dropout)         (None, 16)                0         
2019-12-28 03:06:29,118 [INFO] _________________________________________________________________
2019-12-28 03:06:29,119 [INFO] dense_109 (Dense)            (None, 12)                204       
2019-12-28 03:06:29,119 [INFO] =================================================================
2019-12-28 03:06:29,119 [INFO] Total params: 702,904
2019-12-28 03:06:29,119 [INFO] Trainable params: 698,912
2019-12-28 03:06:29,119 [INFO] Non-trainable params: 3,992
2019-12-28 03:06:29,119 [INFO] _________________________________________________________________
2019-12-28 03:06:29,119 [INFO] Training model
…
