…
2020-01-14 17:50:56,436 [INFO] Pretraining Deep Belief Network
2020-01-14 18:00:02,993 [INFO] Pretraining Complete
2020-01-14 18:00:02,993 [INFO] Getting pretrained weights
2020-01-14 18:00:02,993 [INFO] Creating and initializing feed forward neural network
2020-01-14 18:00:03,308 [INFO] _________________________________________________________________
2020-01-14 18:00:03,308 [INFO] Layer (type)                 Output Shape              Param #   
2020-01-14 18:00:03,308 [INFO] =================================================================
2020-01-14 18:00:03,308 [INFO] dense_37 (Dense)             (None, 128)               15872     
2020-01-14 18:00:03,308 [INFO] _________________________________________________________________
2020-01-14 18:00:03,308 [INFO] batch_normalization_28 (Batc (None, 128)               512       
2020-01-14 18:00:03,308 [INFO] _________________________________________________________________
2020-01-14 18:00:03,308 [INFO] dropout_28 (Dropout)         (None, 128)               0         
2020-01-14 18:00:03,308 [INFO] _________________________________________________________________
2020-01-14 18:00:03,309 [INFO] dense_38 (Dense)             (None, 64)                8256      
2020-01-14 18:00:03,309 [INFO] _________________________________________________________________
2020-01-14 18:00:03,309 [INFO] batch_normalization_29 (Batc (None, 64)                256       
2020-01-14 18:00:03,309 [INFO] _________________________________________________________________
2020-01-14 18:00:03,309 [INFO] dropout_29 (Dropout)         (None, 64)                0         
2020-01-14 18:00:03,309 [INFO] _________________________________________________________________
2020-01-14 18:00:03,309 [INFO] dense_39 (Dense)             (None, 32)                2080      
2020-01-14 18:00:03,309 [INFO] _________________________________________________________________
2020-01-14 18:00:03,309 [INFO] batch_normalization_30 (Batc (None, 32)                128       
2020-01-14 18:00:03,309 [INFO] _________________________________________________________________
2020-01-14 18:00:03,309 [INFO] dropout_30 (Dropout)         (None, 32)                0         
2020-01-14 18:00:03,309 [INFO] _________________________________________________________________
2020-01-14 18:00:03,310 [INFO] dense_40 (Dense)             (None, 5)                 165       
2020-01-14 18:00:03,310 [INFO] =================================================================
2020-01-14 18:00:03,310 [INFO] Total params: 27,269
2020-01-14 18:00:03,310 [INFO] Trainable params: 26,821
2020-01-14 18:00:03,310 [INFO] Non-trainable params: 448
2020-01-14 18:00:03,310 [INFO] _________________________________________________________________
2020-01-14 18:00:06,381 [INFO] Fine-tuning final neural network
…
