…
2020-01-09 05:38:56,191 [INFO] Reading complete. time_to_read=0.07 seconds
2020-01-09 05:38:56,191 [INFO] Reading HDF dataset ../Datasets/full_datasets/ids2017/y_test.h5
2020-01-09 05:38:56,258 [INFO] Reading complete. time_to_read=0.07 seconds
2020-01-09 05:38:59,455 [INFO] Initializing model
2020-01-09 05:39:00,292 [INFO] _________________________________________________________________
2020-01-09 05:39:00,292 [INFO] Layer (type)                 Output Shape              Param #   
2020-01-09 05:39:00,292 [INFO] =================================================================
2020-01-09 05:39:00,292 [INFO] dense_35 (Dense)             (None, 64)                5056      
2020-01-09 05:39:00,292 [INFO] _________________________________________________________________
2020-01-09 05:39:00,292 [INFO] batch_normalization_31 (Batc (None, 64)                256       
2020-01-09 05:39:00,292 [INFO] _________________________________________________________________
2020-01-09 05:39:00,292 [INFO] dropout_31 (Dropout)         (None, 64)                0         
2020-01-09 05:39:00,292 [INFO] _________________________________________________________________
2020-01-09 05:39:00,292 [INFO] dense_36 (Dense)             (None, 64)                4160      
2020-01-09 05:39:00,292 [INFO] _________________________________________________________________
2020-01-09 05:39:00,292 [INFO] batch_normalization_32 (Batc (None, 64)                256       
2020-01-09 05:39:00,292 [INFO] _________________________________________________________________
2020-01-09 05:39:00,292 [INFO] dropout_32 (Dropout)         (None, 64)                0         
2020-01-09 05:39:00,292 [INFO] _________________________________________________________________
2020-01-09 05:39:00,293 [INFO] dense_37 (Dense)             (None, 64)                4160      
2020-01-09 05:39:00,293 [INFO] _________________________________________________________________
2020-01-09 05:39:00,293 [INFO] batch_normalization_33 (Batc (None, 64)                256       
2020-01-09 05:39:00,293 [INFO] _________________________________________________________________
2020-01-09 05:39:00,293 [INFO] dropout_33 (Dropout)         (None, 64)                0         
2020-01-09 05:39:00,293 [INFO] _________________________________________________________________
2020-01-09 05:39:00,293 [INFO] dense_38 (Dense)             (None, 64)                4160      
2020-01-09 05:39:00,293 [INFO] _________________________________________________________________
2020-01-09 05:39:00,293 [INFO] batch_normalization_34 (Batc (None, 64)                256       
2020-01-09 05:39:00,293 [INFO] _________________________________________________________________
2020-01-09 05:39:00,293 [INFO] dropout_34 (Dropout)         (None, 64)                0         
2020-01-09 05:39:00,293 [INFO] _________________________________________________________________
2020-01-09 05:39:00,293 [INFO] dense_39 (Dense)             (None, 64)                4160      
2020-01-09 05:39:00,293 [INFO] _________________________________________________________________
2020-01-09 05:39:00,293 [INFO] batch_normalization_35 (Batc (None, 64)                256       
2020-01-09 05:39:00,293 [INFO] _________________________________________________________________
2020-01-09 05:39:00,294 [INFO] dropout_35 (Dropout)         (None, 64)                0         
2020-01-09 05:39:00,294 [INFO] _________________________________________________________________
2020-01-09 05:39:00,294 [INFO] dense_40 (Dense)             (None, 64)                4160      
2020-01-09 05:39:00,294 [INFO] _________________________________________________________________
2020-01-09 05:39:00,294 [INFO] batch_normalization_36 (Batc (None, 64)                256       
2020-01-09 05:39:00,294 [INFO] _________________________________________________________________
2020-01-09 05:39:00,294 [INFO] dropout_36 (Dropout)         (None, 64)                0         
2020-01-09 05:39:00,294 [INFO] _________________________________________________________________
2020-01-09 05:39:00,294 [INFO] dense_41 (Dense)             (None, 64)                4160      
2020-01-09 05:39:00,294 [INFO] _________________________________________________________________
2020-01-09 05:39:00,294 [INFO] batch_normalization_37 (Batc (None, 64)                256       
2020-01-09 05:39:00,294 [INFO] _________________________________________________________________
2020-01-09 05:39:00,294 [INFO] dropout_37 (Dropout)         (None, 64)                0         
2020-01-09 05:39:00,294 [INFO] _________________________________________________________________
2020-01-09 05:39:00,294 [INFO] dense_42 (Dense)             (None, 64)                4160      
2020-01-09 05:39:00,294 [INFO] _________________________________________________________________
2020-01-09 05:39:00,294 [INFO] batch_normalization_38 (Batc (None, 64)                256       
2020-01-09 05:39:00,295 [INFO] _________________________________________________________________
2020-01-09 05:39:00,295 [INFO] dropout_38 (Dropout)         (None, 64)                0         
2020-01-09 05:39:00,295 [INFO] _________________________________________________________________
2020-01-09 05:39:00,295 [INFO] dense_43 (Dense)             (None, 64)                4160      
2020-01-09 05:39:00,295 [INFO] _________________________________________________________________
2020-01-09 05:39:00,295 [INFO] batch_normalization_39 (Batc (None, 64)                256       
2020-01-09 05:39:00,295 [INFO] _________________________________________________________________
2020-01-09 05:39:00,295 [INFO] dropout_39 (Dropout)         (None, 64)                0         
2020-01-09 05:39:00,295 [INFO] _________________________________________________________________
2020-01-09 05:39:00,295 [INFO] dense_44 (Dense)             (None, 64)                4160      
2020-01-09 05:39:00,295 [INFO] _________________________________________________________________
2020-01-09 05:39:00,295 [INFO] batch_normalization_40 (Batc (None, 64)                256       
2020-01-09 05:39:00,295 [INFO] _________________________________________________________________
2020-01-09 05:39:00,295 [INFO] dropout_40 (Dropout)         (None, 64)                0         
2020-01-09 05:39:00,295 [INFO] _________________________________________________________________
2020-01-09 05:39:00,295 [INFO] dense_45 (Dense)             (None, 12)                780       
2020-01-09 05:39:00,295 [INFO] =================================================================
2020-01-09 05:39:00,296 [INFO] Total params: 45,836
2020-01-09 05:39:00,296 [INFO] Trainable params: 44,556
2020-01-09 05:39:00,296 [INFO] Non-trainable params: 1,280
2020-01-09 05:39:00,296 [INFO] _________________________________________________________________
2020-01-09 05:39:00,296 [INFO] Training model
…
