…
2019-12-24 17:29:12,570 [INFO] Pretraining Deep Belief Network
2019-12-24 17:59:37,767 [INFO] Pretraining Complete
2019-12-24 17:59:37,791 [INFO] Getting pretrained weights
2019-12-24 17:59:37,792 [INFO] Creating and initializing feed forward neural network
2019-12-24 17:59:38,078 [INFO] _________________________________________________________________
2019-12-24 17:59:38,078 [INFO] Layer (type)                 Output Shape              Param #   
2019-12-24 17:59:38,078 [INFO] =================================================================
2019-12-24 17:59:38,078 [INFO] dense_29 (Dense)             (None, 128)               10112     
2019-12-24 17:59:38,078 [INFO] _________________________________________________________________
2019-12-24 17:59:38,078 [INFO] batch_normalization_22 (Batc (None, 128)               512       
2019-12-24 17:59:38,078 [INFO] _________________________________________________________________
2019-12-24 17:59:38,078 [INFO] dropout_22 (Dropout)         (None, 128)               0         
2019-12-24 17:59:38,078 [INFO] _________________________________________________________________
2019-12-24 17:59:38,079 [INFO] dense_30 (Dense)             (None, 64)                8256      
2019-12-24 17:59:38,079 [INFO] _________________________________________________________________
2019-12-24 17:59:38,079 [INFO] batch_normalization_23 (Batc (None, 64)                256       
2019-12-24 17:59:38,079 [INFO] _________________________________________________________________
2019-12-24 17:59:38,079 [INFO] dropout_23 (Dropout)         (None, 64)                0         
2019-12-24 17:59:38,079 [INFO] _________________________________________________________________
2019-12-24 17:59:38,079 [INFO] dense_31 (Dense)             (None, 34)                2210      
2019-12-24 17:59:38,079 [INFO] _________________________________________________________________
2019-12-24 17:59:38,079 [INFO] batch_normalization_24 (Batc (None, 34)                136       
2019-12-24 17:59:38,079 [INFO] _________________________________________________________________
2019-12-24 17:59:38,079 [INFO] dropout_24 (Dropout)         (None, 34)                0         
2019-12-24 17:59:38,079 [INFO] _________________________________________________________________
2019-12-24 17:59:38,079 [INFO] dense_32 (Dense)             (None, 12)                420       
2019-12-24 17:59:38,079 [INFO] =================================================================
2019-12-24 17:59:38,079 [INFO] Total params: 21,902
2019-12-24 17:59:38,080 [INFO] Trainable params: 21,450
2019-12-24 17:59:38,080 [INFO] Non-trainable params: 452
2019-12-24 17:59:38,080 [INFO] _________________________________________________________________
2019-12-24 17:59:40,409 [INFO] Fine-tuning final neural network
…
