…
2019-12-21 13:45:00,501 [INFO] Reading complete. time_to_read=0.12 seconds
2019-12-21 13:45:00,501 [INFO] Reading HDF dataset ../Datasets/full_datasets/kdd99_five_classes/y_test.h5
2019-12-21 13:45:00,548 [INFO] Reading complete. time_to_read=0.05 seconds
2019-12-21 13:45:47,891 [INFO] Initializing model
2019-12-21 13:45:50,270 [INFO] _________________________________________________________________
2019-12-21 13:45:50,272 [INFO] Layer (type)                 Output Shape              Param #   
2019-12-21 13:45:50,273 [INFO] =================================================================
2019-12-21 13:45:50,275 [INFO] dense_34 (Dense)             (None, 64)                7936      
2019-12-21 13:45:50,277 [INFO] _________________________________________________________________
2019-12-21 13:45:50,278 [INFO] batch_normalization_27 (Batc (None, 64)                256       
2019-12-21 13:45:50,279 [INFO] _________________________________________________________________
2019-12-21 13:45:50,280 [INFO] dropout_27 (Dropout)         (None, 64)                0         
2019-12-21 13:45:50,280 [INFO] _________________________________________________________________
2019-12-21 13:45:50,282 [INFO] dense_35 (Dense)             (None, 32)                2080      
2019-12-21 13:45:50,283 [INFO] _________________________________________________________________
2019-12-21 13:45:50,283 [INFO] batch_normalization_28 (Batc (None, 32)                128       
2019-12-21 13:45:50,285 [INFO] _________________________________________________________________
2019-12-21 13:45:50,286 [INFO] dropout_28 (Dropout)         (None, 32)                0         
2019-12-21 13:45:50,287 [INFO] _________________________________________________________________
2019-12-21 13:45:50,288 [INFO] dense_36 (Dense)             (None, 66)                2178      
2019-12-21 13:45:50,289 [INFO] _________________________________________________________________
2019-12-21 13:45:50,290 [INFO] batch_normalization_29 (Batc (None, 66)                264       
2019-12-21 13:45:50,291 [INFO] _________________________________________________________________
2019-12-21 13:45:50,292 [INFO] dropout_29 (Dropout)         (None, 66)                0         
2019-12-21 13:45:50,293 [INFO] _________________________________________________________________
2019-12-21 13:45:50,294 [INFO] dense_37 (Dense)             (None, 5)                 335       
2019-12-21 13:45:50,295 [INFO] =================================================================
2019-12-21 13:45:50,297 [INFO] Total params: 13,177
2019-12-21 13:45:50,298 [INFO] Trainable params: 12,853
2019-12-21 13:45:50,299 [INFO] Non-trainable params: 324
2019-12-21 13:45:50,300 [INFO] _________________________________________________________________
2019-12-21 13:45:50,301 [INFO] Training model
…
