…
2020-01-14 12:23:12,805 [INFO] Pretraining Deep Belief Network
2020-01-14 12:23:27,319 [INFO] Pretraining Complete
2020-01-14 12:23:27,319 [INFO] Getting pretrained weights
2020-01-14 12:23:27,319 [INFO] Creating and initializing feed forward neural network
2020-01-14 12:23:27,612 [INFO] _________________________________________________________________
2020-01-14 12:23:27,612 [INFO] Layer (type)                 Output Shape              Param #   
2020-01-14 12:23:27,612 [INFO] =================================================================
2020-01-14 12:23:27,612 [INFO] dense_9 (Dense)              (None, 128)               15744     
2020-01-14 12:23:27,612 [INFO] _________________________________________________________________
2020-01-14 12:23:27,612 [INFO] batch_normalization_7 (Batch (None, 128)               512       
2020-01-14 12:23:27,612 [INFO] _________________________________________________________________
2020-01-14 12:23:27,612 [INFO] dropout_7 (Dropout)          (None, 128)               0         
2020-01-14 12:23:27,612 [INFO] _________________________________________________________________
2020-01-14 12:23:27,613 [INFO] dense_10 (Dense)             (None, 64)                8256      
2020-01-14 12:23:27,613 [INFO] _________________________________________________________________
2020-01-14 12:23:27,613 [INFO] batch_normalization_8 (Batch (None, 64)                256       
2020-01-14 12:23:27,613 [INFO] _________________________________________________________________
2020-01-14 12:23:27,613 [INFO] dropout_8 (Dropout)          (None, 64)                0         
2020-01-14 12:23:27,613 [INFO] _________________________________________________________________
2020-01-14 12:23:27,613 [INFO] dense_11 (Dense)             (None, 32)                2080      
2020-01-14 12:23:27,613 [INFO] _________________________________________________________________
2020-01-14 12:23:27,613 [INFO] batch_normalization_9 (Batch (None, 32)                128       
2020-01-14 12:23:27,613 [INFO] _________________________________________________________________
2020-01-14 12:23:27,613 [INFO] dropout_9 (Dropout)          (None, 32)                0         
2020-01-14 12:23:27,613 [INFO] _________________________________________________________________
2020-01-14 12:23:27,613 [INFO] dense_12 (Dense)             (None, 5)                 165       
2020-01-14 12:23:27,614 [INFO] =================================================================
2020-01-14 12:23:27,614 [INFO] Total params: 27,141
2020-01-14 12:23:27,614 [INFO] Trainable params: 26,693
2020-01-14 12:23:27,614 [INFO] Non-trainable params: 448
2020-01-14 12:23:27,614 [INFO] _________________________________________________________________
2020-01-14 12:23:28,287 [INFO] Fine-tuning final neural network
…
