…
2019-12-24 11:01:17,406 [INFO] Pretraining Deep Belief Network
2019-12-24 11:02:17,489 [INFO] Pretraining Complete
2019-12-24 11:02:17,489 [INFO] Getting pretrained weights
2019-12-24 11:02:17,489 [INFO] Creating and initializing feed forward neural network
2019-12-24 11:02:17,760 [INFO] _________________________________________________________________
2019-12-24 11:02:17,760 [INFO] Layer (type)                 Output Shape              Param #   
2019-12-24 11:02:17,760 [INFO] =================================================================
2019-12-24 11:02:17,761 [INFO] dense_9 (Dense)              (None, 128)               15744     
2019-12-24 11:02:17,761 [INFO] _________________________________________________________________
2019-12-24 11:02:17,761 [INFO] batch_normalization_7 (Batch (None, 128)               512       
2019-12-24 11:02:17,761 [INFO] _________________________________________________________________
2019-12-24 11:02:17,761 [INFO] dropout_7 (Dropout)          (None, 128)               0         
2019-12-24 11:02:17,761 [INFO] _________________________________________________________________
2019-12-24 11:02:17,761 [INFO] dense_10 (Dense)             (None, 64)                8256      
2019-12-24 11:02:17,761 [INFO] _________________________________________________________________
2019-12-24 11:02:17,761 [INFO] batch_normalization_8 (Batch (None, 64)                256       
2019-12-24 11:02:17,761 [INFO] _________________________________________________________________
2019-12-24 11:02:17,761 [INFO] dropout_8 (Dropout)          (None, 64)                0         
2019-12-24 11:02:17,762 [INFO] _________________________________________________________________
2019-12-24 11:02:17,762 [INFO] dense_11 (Dense)             (None, 32)                2080      
2019-12-24 11:02:17,762 [INFO] _________________________________________________________________
2019-12-24 11:02:17,762 [INFO] batch_normalization_9 (Batch (None, 32)                128       
2019-12-24 11:02:17,762 [INFO] _________________________________________________________________
2019-12-24 11:02:17,762 [INFO] dropout_9 (Dropout)          (None, 32)                0         
2019-12-24 11:02:17,762 [INFO] _________________________________________________________________
2019-12-24 11:02:17,762 [INFO] dense_12 (Dense)             (None, 5)                 165       
2019-12-24 11:02:17,762 [INFO] =================================================================
2019-12-24 11:02:17,762 [INFO] Total params: 27,141
2019-12-24 11:02:17,762 [INFO] Trainable params: 26,693
2019-12-24 11:02:17,762 [INFO] Non-trainable params: 448
2019-12-24 11:02:17,763 [INFO] _________________________________________________________________
2019-12-24 11:02:18,464 [INFO] Fine-tuning final neural network
…
