…
2019-12-24 11:06:53,991 [INFO] Pretraining Deep Belief Network
2019-12-24 11:07:53,926 [INFO] Pretraining Complete
2019-12-24 11:07:53,926 [INFO] Getting pretrained weights
2019-12-24 11:07:53,926 [INFO] Creating and initializing feed forward neural network
2019-12-24 11:07:54,199 [INFO] _________________________________________________________________
2019-12-24 11:07:54,199 [INFO] Layer (type)                 Output Shape              Param #   
2019-12-24 11:07:54,199 [INFO] =================================================================
2019-12-24 11:07:54,200 [INFO] dense_13 (Dense)             (None, 128)               15744     
2019-12-24 11:07:54,200 [INFO] _________________________________________________________________
2019-12-24 11:07:54,200 [INFO] batch_normalization_10 (Batc (None, 128)               512       
2019-12-24 11:07:54,200 [INFO] _________________________________________________________________
2019-12-24 11:07:54,200 [INFO] dropout_10 (Dropout)         (None, 128)               0         
2019-12-24 11:07:54,200 [INFO] _________________________________________________________________
2019-12-24 11:07:54,200 [INFO] dense_14 (Dense)             (None, 64)                8256      
2019-12-24 11:07:54,200 [INFO] _________________________________________________________________
2019-12-24 11:07:54,201 [INFO] batch_normalization_11 (Batc (None, 64)                256       
2019-12-24 11:07:54,201 [INFO] _________________________________________________________________
2019-12-24 11:07:54,201 [INFO] dropout_11 (Dropout)         (None, 64)                0         
2019-12-24 11:07:54,201 [INFO] _________________________________________________________________
2019-12-24 11:07:54,201 [INFO] dense_15 (Dense)             (None, 32)                2080      
2019-12-24 11:07:54,201 [INFO] _________________________________________________________________
2019-12-24 11:07:54,201 [INFO] batch_normalization_12 (Batc (None, 32)                128       
2019-12-24 11:07:54,201 [INFO] _________________________________________________________________
2019-12-24 11:07:54,201 [INFO] dropout_12 (Dropout)         (None, 32)                0         
2019-12-24 11:07:54,201 [INFO] _________________________________________________________________
2019-12-24 11:07:54,201 [INFO] dense_16 (Dense)             (None, 5)                 165       
2019-12-24 11:07:54,201 [INFO] =================================================================
2019-12-24 11:07:54,202 [INFO] Total params: 27,141
2019-12-24 11:07:54,202 [INFO] Trainable params: 26,693
2019-12-24 11:07:54,202 [INFO] Non-trainable params: 448
2019-12-24 11:07:54,202 [INFO] _________________________________________________________________
2019-12-24 11:07:55,237 [INFO] Fine-tuning final neural network
…
