…
2019-12-24 02:01:10,295 [INFO] Reading complete. time_to_read=0.08 seconds
2019-12-24 02:01:10,295 [INFO] Reading HDF dataset ../Datasets/full_datasets/ids2017/y_test.h5
2019-12-24 02:01:10,376 [INFO] Reading complete. time_to_read=0.08 seconds
2019-12-24 02:01:13,311 [INFO] Initializing model
2019-12-24 02:01:13,847 [INFO] _________________________________________________________________
2019-12-24 02:01:13,847 [INFO] Layer (type)                 Output Shape              Param #   
2019-12-24 02:01:13,847 [INFO] =================================================================
2019-12-24 02:01:13,847 [INFO] dense_61 (Dense)             (None, 128)               10112     
2019-12-24 02:01:13,847 [INFO] _________________________________________________________________
2019-12-24 02:01:13,847 [INFO] batch_normalization_41 (Batc (None, 128)               512       
2019-12-24 02:01:13,847 [INFO] _________________________________________________________________
2019-12-24 02:01:13,847 [INFO] dropout_41 (Dropout)         (None, 128)               0         
2019-12-24 02:01:13,847 [INFO] _________________________________________________________________
2019-12-24 02:01:13,848 [INFO] dense_62 (Dense)             (None, 64)                8256      
2019-12-24 02:01:13,848 [INFO] _________________________________________________________________
2019-12-24 02:01:13,848 [INFO] batch_normalization_42 (Batc (None, 64)                256       
2019-12-24 02:01:13,848 [INFO] _________________________________________________________________
2019-12-24 02:01:13,848 [INFO] dropout_42 (Dropout)         (None, 64)                0         
2019-12-24 02:01:13,848 [INFO] _________________________________________________________________
2019-12-24 02:01:13,848 [INFO] dense_63 (Dense)             (None, 32)                2080      
2019-12-24 02:01:13,848 [INFO] _________________________________________________________________
2019-12-24 02:01:13,848 [INFO] batch_normalization_43 (Batc (None, 32)                128       
2019-12-24 02:01:13,848 [INFO] _________________________________________________________________
2019-12-24 02:01:13,848 [INFO] dropout_43 (Dropout)         (None, 32)                0         
2019-12-24 02:01:13,848 [INFO] _________________________________________________________________
2019-12-24 02:01:13,849 [INFO] dense_64 (Dense)             (None, 64)                2112      
2019-12-24 02:01:13,849 [INFO] _________________________________________________________________
2019-12-24 02:01:13,849 [INFO] batch_normalization_44 (Batc (None, 64)                256       
2019-12-24 02:01:13,849 [INFO] _________________________________________________________________
2019-12-24 02:01:13,849 [INFO] dropout_44 (Dropout)         (None, 64)                0         
2019-12-24 02:01:13,849 [INFO] _________________________________________________________________
2019-12-24 02:01:13,849 [INFO] dense_65 (Dense)             (None, 128)               8320      
2019-12-24 02:01:13,849 [INFO] _________________________________________________________________
2019-12-24 02:01:13,849 [INFO] batch_normalization_45 (Batc (None, 128)               512       
2019-12-24 02:01:13,849 [INFO] _________________________________________________________________
2019-12-24 02:01:13,849 [INFO] dropout_45 (Dropout)         (None, 128)               0         
2019-12-24 02:01:13,849 [INFO] _________________________________________________________________
2019-12-24 02:01:13,850 [INFO] dense_66 (Dense)             (None, 78)                10062     
2019-12-24 02:01:13,850 [INFO] =================================================================
2019-12-24 02:01:13,850 [INFO] Total params: 42,606
2019-12-24 02:01:13,850 [INFO] Trainable params: 41,774
2019-12-24 02:01:13,850 [INFO] Non-trainable params: 832
2019-12-24 02:01:13,850 [INFO] _________________________________________________________________
2019-12-24 02:01:13,984 [INFO] _________________________________________________________________
2019-12-24 02:01:13,985 [INFO] Layer (type)                 Output Shape              Param #   
2019-12-24 02:01:13,985 [INFO] =================================================================
2019-12-24 02:01:13,985 [INFO] dense_67 (Dense)             (None, 64)                2112      
2019-12-24 02:01:13,985 [INFO] _________________________________________________________________
2019-12-24 02:01:13,985 [INFO] batch_normalization_46 (Batc (None, 64)                256       
2019-12-24 02:01:13,985 [INFO] _________________________________________________________________
2019-12-24 02:01:13,985 [INFO] dropout_46 (Dropout)         (None, 64)                0         
2019-12-24 02:01:13,985 [INFO] _________________________________________________________________
2019-12-24 02:01:13,985 [INFO] dense_68 (Dense)             (None, 12)                780       
2019-12-24 02:01:13,985 [INFO] =================================================================
2019-12-24 02:01:13,986 [INFO] Total params: 3,148
2019-12-24 02:01:13,986 [INFO] Trainable params: 3,020
2019-12-24 02:01:13,986 [INFO] Non-trainable params: 128
2019-12-24 02:01:13,986 [INFO] _________________________________________________________________
2019-12-24 02:01:13,986 [INFO] Training model
…
