…
2020-01-14 12:22:05,995 [WARNING] From /home/sunanda/anaconda3/envs/ml_env_cpu/lib/python3.7/site-packages/keras/backend/tensorflow_backend.py:3445: calling dropout (from tensorflow.python.ops.nn_ops) with keep_prob is deprecated and will be removed in a future version.
Instructions for updating:
Please use `rate` instead of `keep_prob`. Rate should be set to `rate = 1 - keep_prob`.
2020-01-14 12:22:06,214 [INFO] _________________________________________________________________
2020-01-14 12:22:06,214 [INFO] Layer (type)                 Output Shape              Param #   
2020-01-14 12:22:06,214 [INFO] =================================================================
2020-01-14 12:22:06,215 [INFO] dense_1 (Dense)              (None, 128)               15744     
2020-01-14 12:22:06,215 [INFO] _________________________________________________________________
2020-01-14 12:22:06,215 [INFO] batch_normalization_1 (Batch (None, 128)               512       
2020-01-14 12:22:06,215 [INFO] _________________________________________________________________
2020-01-14 12:22:06,215 [INFO] dropout_1 (Dropout)          (None, 128)               0         
2020-01-14 12:22:06,215 [INFO] _________________________________________________________________
2020-01-14 12:22:06,215 [INFO] dense_2 (Dense)              (None, 64)                8256      
2020-01-14 12:22:06,215 [INFO] _________________________________________________________________
2020-01-14 12:22:06,215 [INFO] batch_normalization_2 (Batch (None, 64)                256       
2020-01-14 12:22:06,215 [INFO] _________________________________________________________________
2020-01-14 12:22:06,215 [INFO] dropout_2 (Dropout)          (None, 64)                0         
2020-01-14 12:22:06,216 [INFO] _________________________________________________________________
2020-01-14 12:22:06,216 [INFO] dense_3 (Dense)              (None, 32)                2080      
2020-01-14 12:22:06,216 [INFO] _________________________________________________________________
2020-01-14 12:22:06,216 [INFO] batch_normalization_3 (Batch (None, 32)                128       
2020-01-14 12:22:06,216 [INFO] _________________________________________________________________
2020-01-14 12:22:06,216 [INFO] dropout_3 (Dropout)          (None, 32)                0         
2020-01-14 12:22:06,216 [INFO] _________________________________________________________________
2020-01-14 12:22:06,216 [INFO] dense_4 (Dense)              (None, 5)                 165       
2020-01-14 12:22:06,216 [INFO] =================================================================
2020-01-14 12:22:06,217 [INFO] Total params: 27,141
2020-01-14 12:22:06,217 [INFO] Trainable params: 26,693
2020-01-14 12:22:06,217 [INFO] Non-trainable params: 448
2020-01-14 12:22:06,217 [INFO] _________________________________________________________________
2020-01-14 12:22:06.217351: I tensorflow/core/platform/cpu_feature_guard.cc:141] Your CPU supports instructions that this TensorFlow binary was not compiled to use: SSE4.1 SSE4.2 AVX
…
OMP: Info #250: KMP_AFFINITY: pid 16375 tid 16774 thread 19 bound to OS proc set 3
2020-01-14 12:31:48,555 [INFO] Pretraining Complete
2020-01-14 12:31:48,555 [INFO] Getting pretrained weights
2020-01-14 12:31:48,555 [INFO] Creating and initializing feed forward neural network
2020-01-14 12:31:48,850 [INFO] _________________________________________________________________
2020-01-14 12:31:48,850 [INFO] Layer (type)                 Output Shape              Param #   
2020-01-14 12:31:48,850 [INFO] =================================================================
2020-01-14 12:31:48,850 [INFO] dense_13 (Dense)             (None, 128)               10112     
2020-01-14 12:31:48,850 [INFO] _________________________________________________________________
2020-01-14 12:31:48,851 [INFO] batch_normalization_10 (Batc (None, 128)               512       
2020-01-14 12:31:48,851 [INFO] _________________________________________________________________
2020-01-14 12:31:48,851 [INFO] dropout_10 (Dropout)         (None, 128)               0         
2020-01-14 12:31:48,851 [INFO] _________________________________________________________________
2020-01-14 12:31:48,851 [INFO] dense_14 (Dense)             (None, 64)                8256      
2020-01-14 12:31:48,851 [INFO] _________________________________________________________________
2020-01-14 12:31:48,851 [INFO] batch_normalization_11 (Batc (None, 64)                256       
2020-01-14 12:31:48,851 [INFO] _________________________________________________________________
2020-01-14 12:31:48,851 [INFO] dropout_11 (Dropout)         (None, 64)                0         
2020-01-14 12:31:48,851 [INFO] _________________________________________________________________
2020-01-14 12:31:48,851 [INFO] dense_15 (Dense)             (None, 32)                2080      
2020-01-14 12:31:48,851 [INFO] _________________________________________________________________
2020-01-14 12:31:48,852 [INFO] batch_normalization_12 (Batc (None, 32)                128       
2020-01-14 12:31:48,852 [INFO] _________________________________________________________________
2020-01-14 12:31:48,852 [INFO] dropout_12 (Dropout)         (None, 32)                0         
2020-01-14 12:31:48,852 [INFO] _________________________________________________________________
2020-01-14 12:31:48,852 [INFO] dense_16 (Dense)             (None, 12)                396       
2020-01-14 12:31:48,852 [INFO] =================================================================
2020-01-14 12:31:48,852 [INFO] Total params: 21,740
2020-01-14 12:31:48,852 [INFO] Trainable params: 21,292
2020-01-14 12:31:48,852 [INFO] Non-trainable params: 448
2020-01-14 12:31:48,852 [INFO] _________________________________________________________________
2020-01-14 12:31:49,822 [INFO] Fine-tuning final neural network
…
2020-01-14 13:50:35,506 [INFO] Pretraining Deep Belief Network
2020-01-14 13:57:55,594 [INFO] Pretraining Complete
2020-01-14 13:57:55,594 [INFO] Getting pretrained weights
2020-01-14 13:57:55,595 [INFO] Creating and initializing feed forward neural network
2020-01-14 13:57:55,894 [INFO] _________________________________________________________________
2020-01-14 13:57:55,894 [INFO] Layer (type)                 Output Shape              Param #   
2020-01-14 13:57:55,894 [INFO] =================================================================
2020-01-14 13:57:55,894 [INFO] dense_17 (Dense)             (None, 128)               10112     
2020-01-14 13:57:55,894 [INFO] _________________________________________________________________
2020-01-14 13:57:55,894 [INFO] batch_normalization_13 (Batc (None, 128)               512       
2020-01-14 13:57:55,894 [INFO] _________________________________________________________________
2020-01-14 13:57:55,895 [INFO] dropout_13 (Dropout)         (None, 128)               0         
2020-01-14 13:57:55,895 [INFO] _________________________________________________________________
2020-01-14 13:57:55,895 [INFO] dense_18 (Dense)             (None, 64)                8256      
2020-01-14 13:57:55,895 [INFO] _________________________________________________________________
2020-01-14 13:57:55,895 [INFO] batch_normalization_14 (Batc (None, 64)                256       
2020-01-14 13:57:55,895 [INFO] _________________________________________________________________
2020-01-14 13:57:55,895 [INFO] dropout_14 (Dropout)         (None, 64)                0         
2020-01-14 13:57:55,895 [INFO] _________________________________________________________________
2020-01-14 13:57:55,895 [INFO] dense_19 (Dense)             (None, 33)                2145      
2020-01-14 13:57:55,895 [INFO] _________________________________________________________________
2020-01-14 13:57:55,895 [INFO] batch_normalization_15 (Batc (None, 33)                132       
2020-01-14 13:57:55,895 [INFO] _________________________________________________________________
2020-01-14 13:57:55,896 [INFO] dropout_15 (Dropout)         (None, 33)                0         
2020-01-14 13:57:55,896 [INFO] _________________________________________________________________
2020-01-14 13:57:55,896 [INFO] dense_20 (Dense)             (None, 12)                408       
2020-01-14 13:57:55,896 [INFO] =================================================================
2020-01-14 13:57:55,896 [INFO] Total params: 21,821
2020-01-14 13:57:55,896 [INFO] Trainable params: 21,371
2020-01-14 13:57:55,896 [INFO] Non-trainable params: 450
2020-01-14 13:57:55,896 [INFO] _________________________________________________________________
2020-01-14 13:57:57,169 [INFO] Fine-tuning final neural network
…
2020-01-14 14:52:03,050 [INFO] Pretraining Deep Belief Network
2020-01-14 14:59:24,203 [INFO] Pretraining Complete
2020-01-14 14:59:24,203 [INFO] Getting pretrained weights
2020-01-14 14:59:24,203 [INFO] Creating and initializing feed forward neural network
2020-01-14 14:59:24,507 [INFO] _________________________________________________________________
2020-01-14 14:59:24,507 [INFO] Layer (type)                 Output Shape              Param #   
2020-01-14 14:59:24,507 [INFO] =================================================================
2020-01-14 14:59:24,507 [INFO] dense_21 (Dense)             (None, 128)               10112     
2020-01-14 14:59:24,507 [INFO] _________________________________________________________________
2020-01-14 14:59:24,507 [INFO] batch_normalization_16 (Batc (None, 128)               512       
2020-01-14 14:59:24,507 [INFO] _________________________________________________________________
2020-01-14 14:59:24,507 [INFO] dropout_16 (Dropout)         (None, 128)               0         
2020-01-14 14:59:24,507 [INFO] _________________________________________________________________
2020-01-14 14:59:24,507 [INFO] dense_22 (Dense)             (None, 64)                8256      
2020-01-14 14:59:24,508 [INFO] _________________________________________________________________
2020-01-14 14:59:24,508 [INFO] batch_normalization_17 (Batc (None, 64)                256       
2020-01-14 14:59:24,508 [INFO] _________________________________________________________________
2020-01-14 14:59:24,508 [INFO] dropout_17 (Dropout)         (None, 64)                0         
2020-01-14 14:59:24,508 [INFO] _________________________________________________________________
2020-01-14 14:59:24,508 [INFO] dense_23 (Dense)             (None, 34)                2210      
2020-01-14 14:59:24,508 [INFO] _________________________________________________________________
2020-01-14 14:59:24,508 [INFO] batch_normalization_18 (Batc (None, 34)                136       
2020-01-14 14:59:24,508 [INFO] _________________________________________________________________
2020-01-14 14:59:24,508 [INFO] dropout_18 (Dropout)         (None, 34)                0         
2020-01-14 14:59:24,508 [INFO] _________________________________________________________________
2020-01-14 14:59:24,508 [INFO] dense_24 (Dense)             (None, 12)                420       
2020-01-14 14:59:24,509 [INFO] =================================================================
2020-01-14 14:59:24,509 [INFO] Total params: 21,902
2020-01-14 14:59:24,509 [INFO] Trainable params: 21,450
2020-01-14 14:59:24,509 [INFO] Non-trainable params: 452
2020-01-14 14:59:24,509 [INFO] _________________________________________________________________
2020-01-14 14:59:26,134 [INFO] Fine-tuning final neural network
…
2020-01-14 16:08:00,128 [INFO] Pretraining Deep Belief Network
2020-01-14 16:16:20,688 [INFO] Pretraining Complete
2020-01-14 16:16:20,689 [INFO] Getting pretrained weights
2020-01-14 16:16:20,689 [INFO] Creating and initializing feed forward neural network
2020-01-14 16:16:20,994 [INFO] _________________________________________________________________
2020-01-14 16:16:20,994 [INFO] Layer (type)                 Output Shape              Param #   
2020-01-14 16:16:20,994 [INFO] =================================================================
2020-01-14 16:16:20,995 [INFO] dense_25 (Dense)             (None, 128)               9984      
2020-01-14 16:16:20,995 [INFO] _________________________________________________________________
2020-01-14 16:16:20,995 [INFO] batch_normalization_19 (Batc (None, 128)               512       
2020-01-14 16:16:20,995 [INFO] _________________________________________________________________
2020-01-14 16:16:20,995 [INFO] dropout_19 (Dropout)         (None, 128)               0         
2020-01-14 16:16:20,995 [INFO] _________________________________________________________________
2020-01-14 16:16:20,995 [INFO] dense_26 (Dense)             (None, 64)                8256      
2020-01-14 16:16:20,995 [INFO] _________________________________________________________________
2020-01-14 16:16:20,995 [INFO] batch_normalization_20 (Batc (None, 64)                256       
2020-01-14 16:16:20,995 [INFO] _________________________________________________________________
2020-01-14 16:16:20,995 [INFO] dropout_20 (Dropout)         (None, 64)                0         
2020-01-14 16:16:20,996 [INFO] _________________________________________________________________
2020-01-14 16:16:20,996 [INFO] dense_27 (Dense)             (None, 32)                2080      
2020-01-14 16:16:20,996 [INFO] _________________________________________________________________
2020-01-14 16:16:20,996 [INFO] batch_normalization_21 (Batc (None, 32)                128       
2020-01-14 16:16:20,996 [INFO] _________________________________________________________________
2020-01-14 16:16:20,996 [INFO] dropout_21 (Dropout)         (None, 32)                0         
2020-01-14 16:16:20,996 [INFO] _________________________________________________________________
2020-01-14 16:16:20,996 [INFO] dense_28 (Dense)             (None, 15)                495       
2020-01-14 16:16:20,996 [INFO] =================================================================
2020-01-14 16:16:20,996 [INFO] Total params: 21,711
2020-01-14 16:16:20,997 [INFO] Trainable params: 21,263
2020-01-14 16:16:20,997 [INFO] Non-trainable params: 448
2020-01-14 16:16:20,997 [INFO] _________________________________________________________________
2020-01-14 16:16:22,982 [INFO] Fine-tuning final neural network
…
2020-01-14 16:38:43,365 [INFO] Pretraining Deep Belief Network
2020-01-14 16:47:05,549 [INFO] Pretraining Complete
2020-01-14 16:47:05,549 [INFO] Getting pretrained weights
2020-01-14 16:47:05,549 [INFO] Creating and initializing feed forward neural network
2020-01-14 16:47:05,859 [INFO] _________________________________________________________________
2020-01-14 16:47:05,859 [INFO] Layer (type)                 Output Shape              Param #   
2020-01-14 16:47:05,859 [INFO] =================================================================
2020-01-14 16:47:05,859 [INFO] dense_29 (Dense)             (None, 128)               9984      
2020-01-14 16:47:05,859 [INFO] _________________________________________________________________
2020-01-14 16:47:05,860 [INFO] batch_normalization_22 (Batc (None, 128)               512       
2020-01-14 16:47:05,860 [INFO] _________________________________________________________________
2020-01-14 16:47:05,860 [INFO] dropout_22 (Dropout)         (None, 128)               0         
2020-01-14 16:47:05,860 [INFO] _________________________________________________________________
2020-01-14 16:47:05,860 [INFO] dense_30 (Dense)             (None, 64)                8256      
2020-01-14 16:47:05,860 [INFO] _________________________________________________________________
2020-01-14 16:47:05,860 [INFO] batch_normalization_23 (Batc (None, 64)                256       
2020-01-14 16:47:05,860 [INFO] _________________________________________________________________
2020-01-14 16:47:05,860 [INFO] dropout_23 (Dropout)         (None, 64)                0         
2020-01-14 16:47:05,860 [INFO] _________________________________________________________________
2020-01-14 16:47:05,860 [INFO] dense_31 (Dense)             (None, 33)                2145      
2020-01-14 16:47:05,860 [INFO] _________________________________________________________________
2020-01-14 16:47:05,861 [INFO] batch_normalization_24 (Batc (None, 33)                132       
2020-01-14 16:47:05,861 [INFO] _________________________________________________________________
2020-01-14 16:47:05,861 [INFO] dropout_24 (Dropout)         (None, 33)                0         
2020-01-14 16:47:05,861 [INFO] _________________________________________________________________
2020-01-14 16:47:05,861 [INFO] dense_32 (Dense)             (None, 15)                510       
2020-01-14 16:47:05,861 [INFO] =================================================================
2020-01-14 16:47:05,861 [INFO] Total params: 21,795
2020-01-14 16:47:05,861 [INFO] Trainable params: 21,345
2020-01-14 16:47:05,861 [INFO] Non-trainable params: 450
2020-01-14 16:47:05,861 [INFO] _________________________________________________________________
2020-01-14 16:47:08,214 [INFO] Fine-tuning final neural network
…
2020-01-14 17:16:25,050 [INFO] Pretraining Deep Belief Network
2020-01-14 17:24:48,309 [INFO] Pretraining Complete
2020-01-14 17:24:48,309 [INFO] Getting pretrained weights
2020-01-14 17:24:48,309 [INFO] Creating and initializing feed forward neural network
2020-01-14 17:24:48,624 [INFO] _________________________________________________________________
2020-01-14 17:24:48,624 [INFO] Layer (type)                 Output Shape              Param #   
2020-01-14 17:24:48,624 [INFO] =================================================================
2020-01-14 17:24:48,624 [INFO] dense_33 (Dense)             (None, 128)               9984      
2020-01-14 17:24:48,624 [INFO] _________________________________________________________________
2020-01-14 17:24:48,624 [INFO] batch_normalization_25 (Batc (None, 128)               512       
2020-01-14 17:24:48,624 [INFO] _________________________________________________________________
2020-01-14 17:24:48,624 [INFO] dropout_25 (Dropout)         (None, 128)               0         
2020-01-14 17:24:48,624 [INFO] _________________________________________________________________
2020-01-14 17:24:48,624 [INFO] dense_34 (Dense)             (None, 64)                8256      
2020-01-14 17:24:48,624 [INFO] _________________________________________________________________
2020-01-14 17:24:48,625 [INFO] batch_normalization_26 (Batc (None, 64)                256       
2020-01-14 17:24:48,625 [INFO] _________________________________________________________________
2020-01-14 17:24:48,625 [INFO] dropout_26 (Dropout)         (None, 64)                0         
2020-01-14 17:24:48,625 [INFO] _________________________________________________________________
2020-01-14 17:24:48,625 [INFO] dense_35 (Dense)             (None, 34)                2210      
2020-01-14 17:24:48,625 [INFO] _________________________________________________________________
2020-01-14 17:24:48,625 [INFO] batch_normalization_27 (Batc (None, 34)                136       
2020-01-14 17:24:48,625 [INFO] _________________________________________________________________
2020-01-14 17:24:48,625 [INFO] dropout_27 (Dropout)         (None, 34)                0         
2020-01-14 17:24:48,625 [INFO] _________________________________________________________________
2020-01-14 17:24:48,625 [INFO] dense_36 (Dense)             (None, 15)                525       
2020-01-14 17:24:48,625 [INFO] =================================================================
2020-01-14 17:24:48,626 [INFO] Total params: 21,879
2020-01-14 17:24:48,626 [INFO] Trainable params: 21,427
2020-01-14 17:24:48,626 [INFO] Non-trainable params: 452
2020-01-14 17:24:48,626 [INFO] _________________________________________________________________
2020-01-14 17:24:51,306 [INFO] Fine-tuning final neural network
…
2020-01-14 17:50:56,436 [INFO] Pretraining Deep Belief Network
2020-01-14 18:00:02,993 [INFO] Pretraining Complete
2020-01-14 18:00:02,993 [INFO] Getting pretrained weights
2020-01-14 18:00:02,993 [INFO] Creating and initializing feed forward neural network
2020-01-14 18:00:03,308 [INFO] _________________________________________________________________
2020-01-14 18:00:03,308 [INFO] Layer (type)                 Output Shape              Param #   
2020-01-14 18:00:03,308 [INFO] =================================================================
2020-01-14 18:00:03,308 [INFO] dense_37 (Dense)             (None, 128)               15872     
2020-01-14 18:00:03,308 [INFO] _________________________________________________________________
2020-01-14 18:00:03,308 [INFO] batch_normalization_28 (Batc (None, 128)               512       
2020-01-14 18:00:03,308 [INFO] _________________________________________________________________
2020-01-14 18:00:03,308 [INFO] dropout_28 (Dropout)         (None, 128)               0         
2020-01-14 18:00:03,308 [INFO] _________________________________________________________________
2020-01-14 18:00:03,309 [INFO] dense_38 (Dense)             (None, 64)                8256      
2020-01-14 18:00:03,309 [INFO] _________________________________________________________________
2020-01-14 18:00:03,309 [INFO] batch_normalization_29 (Batc (None, 64)                256       
2020-01-14 18:00:03,309 [INFO] _________________________________________________________________
2020-01-14 18:00:03,309 [INFO] dropout_29 (Dropout)         (None, 64)                0         
2020-01-14 18:00:03,309 [INFO] _________________________________________________________________
2020-01-14 18:00:03,309 [INFO] dense_39 (Dense)             (None, 32)                2080      
2020-01-14 18:00:03,309 [INFO] _________________________________________________________________
2020-01-14 18:00:03,309 [INFO] batch_normalization_30 (Batc (None, 32)                128       
2020-01-14 18:00:03,309 [INFO] _________________________________________________________________
2020-01-14 18:00:03,309 [INFO] dropout_30 (Dropout)         (None, 32)                0         
2020-01-14 18:00:03,309 [INFO] _________________________________________________________________
2020-01-14 18:00:03,310 [INFO] dense_40 (Dense)             (None, 5)                 165       
2020-01-14 18:00:03,310 [INFO] =================================================================
2020-01-14 18:00:03,310 [INFO] Total params: 27,269
2020-01-14 18:00:03,310 [INFO] Trainable params: 26,821
2020-01-14 18:00:03,310 [INFO] Non-trainable params: 448
2020-01-14 18:00:03,310 [INFO] _________________________________________________________________
2020-01-14 18:00:06,381 [INFO] Fine-tuning final neural network
…
2020-01-14 18:40:23,935 [INFO] Pretraining Deep Belief Network
2020-01-14 18:49:33,021 [INFO] Pretraining Complete
2020-01-14 18:49:33,021 [INFO] Getting pretrained weights
2020-01-14 18:49:33,021 [INFO] Creating and initializing feed forward neural network
2020-01-14 18:49:33,338 [INFO] _________________________________________________________________
2020-01-14 18:49:33,339 [INFO] Layer (type)                 Output Shape              Param #   
2020-01-14 18:49:33,339 [INFO] =================================================================
2020-01-14 18:49:33,339 [INFO] dense_41 (Dense)             (None, 128)               15872     
2020-01-14 18:49:33,339 [INFO] _________________________________________________________________
2020-01-14 18:49:33,339 [INFO] batch_normalization_31 (Batc (None, 128)               512       
2020-01-14 18:49:33,339 [INFO] _________________________________________________________________
2020-01-14 18:49:33,339 [INFO] dropout_31 (Dropout)         (None, 128)               0         
2020-01-14 18:49:33,339 [INFO] _________________________________________________________________
2020-01-14 18:49:33,339 [INFO] dense_42 (Dense)             (None, 64)                8256      
2020-01-14 18:49:33,339 [INFO] _________________________________________________________________
2020-01-14 18:49:33,339 [INFO] batch_normalization_32 (Batc (None, 64)                256       
2020-01-14 18:49:33,340 [INFO] _________________________________________________________________
2020-01-14 18:49:33,340 [INFO] dropout_32 (Dropout)         (None, 64)                0         
2020-01-14 18:49:33,340 [INFO] _________________________________________________________________
2020-01-14 18:49:33,340 [INFO] dense_43 (Dense)             (None, 33)                2145      
2020-01-14 18:49:33,340 [INFO] _________________________________________________________________
2020-01-14 18:49:33,340 [INFO] batch_normalization_33 (Batc (None, 33)                132       
2020-01-14 18:49:33,340 [INFO] _________________________________________________________________
2020-01-14 18:49:33,340 [INFO] dropout_33 (Dropout)         (None, 33)                0         
2020-01-14 18:49:33,340 [INFO] _________________________________________________________________
2020-01-14 18:49:33,340 [INFO] dense_44 (Dense)             (None, 5)                 170       
2020-01-14 18:49:33,340 [INFO] =================================================================
2020-01-14 18:49:33,341 [INFO] Total params: 27,343
2020-01-14 18:49:33,341 [INFO] Trainable params: 26,893
2020-01-14 18:49:33,341 [INFO] Non-trainable params: 450
2020-01-14 18:49:33,341 [INFO] _________________________________________________________________
2020-01-14 18:49:36,767 [INFO] Fine-tuning final neural network
…
2020-01-14 19:11:53,325 [INFO] Pretraining Deep Belief Network
2020-01-14 19:21:03,143 [INFO] Pretraining Complete
2020-01-14 19:21:03,143 [INFO] Getting pretrained weights
2020-01-14 19:21:03,143 [INFO] Creating and initializing feed forward neural network
2020-01-14 19:21:03,466 [INFO] _________________________________________________________________
2020-01-14 19:21:03,466 [INFO] Layer (type)                 Output Shape              Param #   
2020-01-14 19:21:03,466 [INFO] =================================================================
2020-01-14 19:21:03,466 [INFO] dense_45 (Dense)             (None, 128)               15872     
2020-01-14 19:21:03,466 [INFO] _________________________________________________________________
2020-01-14 19:21:03,467 [INFO] batch_normalization_34 (Batc (None, 128)               512       
2020-01-14 19:21:03,467 [INFO] _________________________________________________________________
2020-01-14 19:21:03,467 [INFO] dropout_34 (Dropout)         (None, 128)               0         
2020-01-14 19:21:03,467 [INFO] _________________________________________________________________
2020-01-14 19:21:03,467 [INFO] dense_46 (Dense)             (None, 64)                8256      
2020-01-14 19:21:03,467 [INFO] _________________________________________________________________
2020-01-14 19:21:03,467 [INFO] batch_normalization_35 (Batc (None, 64)                256       
2020-01-14 19:21:03,467 [INFO] _________________________________________________________________
2020-01-14 19:21:03,467 [INFO] dropout_35 (Dropout)         (None, 64)                0         
2020-01-14 19:21:03,467 [INFO] _________________________________________________________________
2020-01-14 19:21:03,467 [INFO] dense_47 (Dense)             (None, 34)                2210      
2020-01-14 19:21:03,467 [INFO] _________________________________________________________________
2020-01-14 19:21:03,468 [INFO] batch_normalization_36 (Batc (None, 34)                136       
2020-01-14 19:21:03,468 [INFO] _________________________________________________________________
2020-01-14 19:21:03,468 [INFO] dropout_36 (Dropout)         (None, 34)                0         
2020-01-14 19:21:03,468 [INFO] _________________________________________________________________
2020-01-14 19:21:03,468 [INFO] dense_48 (Dense)             (None, 5)                 175       
2020-01-14 19:21:03,468 [INFO] =================================================================
2020-01-14 19:21:03,468 [INFO] Total params: 27,417
2020-01-14 19:21:03,468 [INFO] Trainable params: 26,965
2020-01-14 19:21:03,468 [INFO] Non-trainable params: 452
2020-01-14 19:21:03,468 [INFO] _________________________________________________________________
2020-01-14 19:21:07,248 [INFO] Fine-tuning final neural network
…
