…
2019-12-27 22:42:47,567 [INFO] Reading complete. time_to_read=0.07 seconds
2019-12-27 22:42:47,567 [INFO] Reading HDF dataset ../Datasets/full_datasets/ids2017/y_test.h5
2019-12-27 22:42:47,636 [INFO] Reading complete. time_to_read=0.07 seconds
2019-12-27 22:42:50,773 [INFO] Initializing model
2019-12-27 22:42:51,477 [INFO] _________________________________________________________________
2019-12-27 22:42:51,478 [INFO] Layer (type)                 Output Shape              Param #   
2019-12-27 22:42:51,478 [INFO] =================================================================
2019-12-27 22:42:51,478 [INFO] dense_93 (Dense)             (None, 500)               39500     
2019-12-27 22:42:51,478 [INFO] _________________________________________________________________
2019-12-27 22:42:51,478 [INFO] batch_normalization_77 (Batc (None, 500)               2000      
2019-12-27 22:42:51,478 [INFO] _________________________________________________________________
2019-12-27 22:42:51,478 [INFO] dropout_77 (Dropout)         (None, 500)               0         
2019-12-27 22:42:51,478 [INFO] _________________________________________________________________
2019-12-27 22:42:51,478 [INFO] dense_94 (Dense)             (None, 400)               200400    
2019-12-27 22:42:51,478 [INFO] _________________________________________________________________
2019-12-27 22:42:51,478 [INFO] batch_normalization_78 (Batc (None, 400)               1600      
2019-12-27 22:42:51,478 [INFO] _________________________________________________________________
2019-12-27 22:42:51,478 [INFO] dropout_78 (Dropout)         (None, 400)               0         
2019-12-27 22:42:51,478 [INFO] _________________________________________________________________
2019-12-27 22:42:51,478 [INFO] dense_95 (Dense)             (None, 256)               102656    
2019-12-27 22:42:51,479 [INFO] _________________________________________________________________
2019-12-27 22:42:51,479 [INFO] batch_normalization_79 (Batc (None, 256)               1024      
2019-12-27 22:42:51,479 [INFO] _________________________________________________________________
2019-12-27 22:42:51,479 [INFO] dropout_79 (Dropout)         (None, 256)               0         
2019-12-27 22:42:51,479 [INFO] _________________________________________________________________
2019-12-27 22:42:51,479 [INFO] dense_96 (Dense)             (None, 128)               32896     
2019-12-27 22:42:51,479 [INFO] _________________________________________________________________
2019-12-27 22:42:51,479 [INFO] batch_normalization_80 (Batc (None, 128)               512       
2019-12-27 22:42:51,479 [INFO] _________________________________________________________________
2019-12-27 22:42:51,479 [INFO] dropout_80 (Dropout)         (None, 128)               0         
2019-12-27 22:42:51,479 [INFO] _________________________________________________________________
2019-12-27 22:42:51,479 [INFO] dense_97 (Dense)             (None, 64)                8256      
2019-12-27 22:42:51,479 [INFO] _________________________________________________________________
2019-12-27 22:42:51,479 [INFO] batch_normalization_81 (Batc (None, 64)                256       
2019-12-27 22:42:51,479 [INFO] _________________________________________________________________
2019-12-27 22:42:51,479 [INFO] dropout_81 (Dropout)         (None, 64)                0         
2019-12-27 22:42:51,479 [INFO] _________________________________________________________________
2019-12-27 22:42:51,479 [INFO] dense_98 (Dense)             (None, 32)                2080      
2019-12-27 22:42:51,480 [INFO] _________________________________________________________________
2019-12-27 22:42:51,480 [INFO] batch_normalization_82 (Batc (None, 32)                128       
2019-12-27 22:42:51,480 [INFO] _________________________________________________________________
2019-12-27 22:42:51,480 [INFO] dropout_82 (Dropout)         (None, 32)                0         
2019-12-27 22:42:51,480 [INFO] _________________________________________________________________
2019-12-27 22:42:51,480 [INFO] dense_99 (Dense)             (None, 16)                528       
2019-12-27 22:42:51,480 [INFO] _________________________________________________________________
2019-12-27 22:42:51,480 [INFO] batch_normalization_83 (Batc (None, 16)                64        
2019-12-27 22:42:51,480 [INFO] _________________________________________________________________
2019-12-27 22:42:51,480 [INFO] dropout_83 (Dropout)         (None, 16)                0         
2019-12-27 22:42:51,480 [INFO] _________________________________________________________________
2019-12-27 22:42:51,480 [INFO] dense_100 (Dense)            (None, 12)                204       
2019-12-27 22:42:51,480 [INFO] =================================================================
2019-12-27 22:42:51,480 [INFO] Total params: 392,104
2019-12-27 22:42:51,481 [INFO] Trainable params: 389,312
2019-12-27 22:42:51,481 [INFO] Non-trainable params: 2,792
2019-12-27 22:42:51,481 [INFO] _________________________________________________________________
2019-12-27 22:42:51,481 [INFO] Training model
…
