…
2020-01-01 21:33:10,582 [INFO] Reading complete. time_to_read=0.09 seconds
2020-01-01 21:33:10,582 [INFO] Reading HDF dataset ../Datasets/small_datasets/ids2018/y_test.h5
2020-01-01 21:33:10,669 [INFO] Reading complete. time_to_read=0.09 seconds
2020-01-01 21:33:14,648 [INFO] Initializing model
2020-01-01 21:33:15,478 [INFO] _________________________________________________________________
2020-01-01 21:33:15,478 [INFO] Layer (type)                 Output Shape              Param #   
2020-01-01 21:33:15,478 [INFO] =================================================================
2020-01-01 21:33:15,478 [INFO] dense_55 (Dense)             (None, 800)               62400     
2020-01-01 21:33:15,478 [INFO] _________________________________________________________________
2020-01-01 21:33:15,478 [INFO] batch_normalization_46 (Batc (None, 800)               3200      
2020-01-01 21:33:15,478 [INFO] _________________________________________________________________
2020-01-01 21:33:15,478 [INFO] dropout_46 (Dropout)         (None, 800)               0         
2020-01-01 21:33:15,478 [INFO] _________________________________________________________________
2020-01-01 21:33:15,478 [INFO] dense_56 (Dense)             (None, 700)               560700    
2020-01-01 21:33:15,478 [INFO] _________________________________________________________________
2020-01-01 21:33:15,478 [INFO] batch_normalization_47 (Batc (None, 700)               2800      
2020-01-01 21:33:15,478 [INFO] _________________________________________________________________
2020-01-01 21:33:15,478 [INFO] dropout_47 (Dropout)         (None, 700)               0         
2020-01-01 21:33:15,479 [INFO] _________________________________________________________________
2020-01-01 21:33:15,479 [INFO] dense_57 (Dense)             (None, 600)               420600    
2020-01-01 21:33:15,479 [INFO] _________________________________________________________________
2020-01-01 21:33:15,479 [INFO] batch_normalization_48 (Batc (None, 600)               2400      
2020-01-01 21:33:15,479 [INFO] _________________________________________________________________
2020-01-01 21:33:15,479 [INFO] dropout_48 (Dropout)         (None, 600)               0         
2020-01-01 21:33:15,479 [INFO] _________________________________________________________________
2020-01-01 21:33:15,479 [INFO] dense_58 (Dense)             (None, 500)               300500    
2020-01-01 21:33:15,479 [INFO] _________________________________________________________________
2020-01-01 21:33:15,479 [INFO] batch_normalization_49 (Batc (None, 500)               2000      
2020-01-01 21:33:15,479 [INFO] _________________________________________________________________
2020-01-01 21:33:15,479 [INFO] dropout_49 (Dropout)         (None, 500)               0         
2020-01-01 21:33:15,479 [INFO] _________________________________________________________________
2020-01-01 21:33:15,479 [INFO] dense_59 (Dense)             (None, 400)               200400    
2020-01-01 21:33:15,479 [INFO] _________________________________________________________________
2020-01-01 21:33:15,479 [INFO] batch_normalization_50 (Batc (None, 400)               1600      
2020-01-01 21:33:15,479 [INFO] _________________________________________________________________
2020-01-01 21:33:15,480 [INFO] dropout_50 (Dropout)         (None, 400)               0         
2020-01-01 21:33:15,480 [INFO] _________________________________________________________________
2020-01-01 21:33:15,480 [INFO] dense_60 (Dense)             (None, 256)               102656    
2020-01-01 21:33:15,480 [INFO] _________________________________________________________________
2020-01-01 21:33:15,480 [INFO] batch_normalization_51 (Batc (None, 256)               1024      
2020-01-01 21:33:15,480 [INFO] _________________________________________________________________
2020-01-01 21:33:15,480 [INFO] dropout_51 (Dropout)         (None, 256)               0         
2020-01-01 21:33:15,480 [INFO] _________________________________________________________________
2020-01-01 21:33:15,480 [INFO] dense_61 (Dense)             (None, 128)               32896     
2020-01-01 21:33:15,480 [INFO] _________________________________________________________________
2020-01-01 21:33:15,480 [INFO] batch_normalization_52 (Batc (None, 128)               512       
2020-01-01 21:33:15,480 [INFO] _________________________________________________________________
2020-01-01 21:33:15,480 [INFO] dropout_52 (Dropout)         (None, 128)               0         
2020-01-01 21:33:15,480 [INFO] _________________________________________________________________
2020-01-01 21:33:15,480 [INFO] dense_62 (Dense)             (None, 64)                8256      
2020-01-01 21:33:15,480 [INFO] _________________________________________________________________
2020-01-01 21:33:15,480 [INFO] batch_normalization_53 (Batc (None, 64)                256       
2020-01-01 21:33:15,481 [INFO] _________________________________________________________________
2020-01-01 21:33:15,481 [INFO] dropout_53 (Dropout)         (None, 64)                0         
2020-01-01 21:33:15,481 [INFO] _________________________________________________________________
2020-01-01 21:33:15,481 [INFO] dense_63 (Dense)             (None, 32)                2080      
2020-01-01 21:33:15,481 [INFO] _________________________________________________________________
2020-01-01 21:33:15,481 [INFO] batch_normalization_54 (Batc (None, 32)                128       
2020-01-01 21:33:15,481 [INFO] _________________________________________________________________
2020-01-01 21:33:15,481 [INFO] dropout_54 (Dropout)         (None, 32)                0         
2020-01-01 21:33:15,481 [INFO] _________________________________________________________________
2020-01-01 21:33:15,481 [INFO] dense_64 (Dense)             (None, 16)                528       
2020-01-01 21:33:15,481 [INFO] _________________________________________________________________
2020-01-01 21:33:15,481 [INFO] batch_normalization_55 (Batc (None, 16)                64        
2020-01-01 21:33:15,481 [INFO] _________________________________________________________________
2020-01-01 21:33:15,481 [INFO] dropout_55 (Dropout)         (None, 16)                0         
2020-01-01 21:33:15,481 [INFO] _________________________________________________________________
2020-01-01 21:33:15,481 [INFO] dense_65 (Dense)             (None, 15)                255       
2020-01-01 21:33:15,481 [INFO] =================================================================
2020-01-01 21:33:15,482 [INFO] Total params: 1,705,255
2020-01-01 21:33:15,482 [INFO] Trainable params: 1,698,263
2020-01-01 21:33:15,482 [INFO] Non-trainable params: 6,992
2020-01-01 21:33:15,482 [INFO] _________________________________________________________________
2020-01-01 21:33:15,482 [INFO] Training model
…
