…
2020-01-14 18:16:19,688 [INFO] Reading complete. time_to_read=0.15 seconds
2020-01-14 18:16:19,688 [INFO] Reading HDF dataset ../Datasets/full_datasets/kdd99_five_classes/y_test.h5
2020-01-14 18:16:19,730 [INFO] Reading complete. time_to_read=0.04 seconds
2020-01-14 18:17:13,188 [INFO] Initializing model
2020-01-14 18:17:16,338 [INFO] _________________________________________________________________
2020-01-14 18:17:16,339 [INFO] Layer (type)                 Output Shape              Param #   
2020-01-14 18:17:16,339 [INFO] =================================================================
2020-01-14 18:17:16,340 [INFO] dense_81 (Dense)             (None, 128)               15872     
2020-01-14 18:17:16,340 [INFO] _________________________________________________________________
2020-01-14 18:17:16,340 [INFO] batch_normalization_61 (Batc (None, 128)               512       
2020-01-14 18:17:16,340 [INFO] _________________________________________________________________
2020-01-14 18:17:16,341 [INFO] dropout_61 (Dropout)         (None, 128)               0         
2020-01-14 18:17:16,341 [INFO] _________________________________________________________________
2020-01-14 18:17:16,341 [INFO] dense_82 (Dense)             (None, 64)                8256      
2020-01-14 18:17:16,341 [INFO] _________________________________________________________________
2020-01-14 18:17:16,341 [INFO] batch_normalization_62 (Batc (None, 64)                256       
2020-01-14 18:17:16,341 [INFO] _________________________________________________________________
2020-01-14 18:17:16,341 [INFO] dropout_62 (Dropout)         (None, 64)                0         
2020-01-14 18:17:16,341 [INFO] _________________________________________________________________
2020-01-14 18:17:16,341 [INFO] dense_83 (Dense)             (None, 32)                2080      
2020-01-14 18:17:16,341 [INFO] _________________________________________________________________
2020-01-14 18:17:16,341 [INFO] batch_normalization_63 (Batc (None, 32)                128       
2020-01-14 18:17:16,341 [INFO] _________________________________________________________________
2020-01-14 18:17:16,341 [INFO] dropout_63 (Dropout)         (None, 32)                0         
2020-01-14 18:17:16,341 [INFO] _________________________________________________________________
2020-01-14 18:17:16,342 [INFO] dense_84 (Dense)             (None, 64)                2112      
2020-01-14 18:17:16,342 [INFO] _________________________________________________________________
2020-01-14 18:17:16,342 [INFO] batch_normalization_64 (Batc (None, 64)                256       
2020-01-14 18:17:16,342 [INFO] _________________________________________________________________
2020-01-14 18:17:16,342 [INFO] dropout_64 (Dropout)         (None, 64)                0         
2020-01-14 18:17:16,342 [INFO] _________________________________________________________________
2020-01-14 18:17:16,342 [INFO] dense_85 (Dense)             (None, 128)               8320      
2020-01-14 18:17:16,342 [INFO] _________________________________________________________________
2020-01-14 18:17:16,342 [INFO] batch_normalization_65 (Batc (None, 128)               512       
2020-01-14 18:17:16,342 [INFO] _________________________________________________________________
2020-01-14 18:17:16,342 [INFO] dropout_65 (Dropout)         (None, 128)               0         
2020-01-14 18:17:16,342 [INFO] _________________________________________________________________
2020-01-14 18:17:16,342 [INFO] dense_86 (Dense)             (None, 123)               15867     
2020-01-14 18:17:16,342 [INFO] =================================================================
2020-01-14 18:17:16,343 [INFO] Total params: 54,171
2020-01-14 18:17:16,343 [INFO] Trainable params: 53,339
2020-01-14 18:17:16,343 [INFO] Non-trainable params: 832
2020-01-14 18:17:16,343 [INFO] _________________________________________________________________
2020-01-14 18:17:16,665 [INFO] _________________________________________________________________
2020-01-14 18:17:16,665 [INFO] Layer (type)                 Output Shape              Param #   
2020-01-14 18:17:16,673 [INFO] =================================================================
2020-01-14 18:17:16,673 [INFO] dense_87 (Dense)             (None, 64)                2112      
2020-01-14 18:17:16,673 [INFO] _________________________________________________________________
2020-01-14 18:17:16,674 [INFO] batch_normalization_66 (Batc (None, 64)                256       
2020-01-14 18:17:16,674 [INFO] _________________________________________________________________
2020-01-14 18:17:16,674 [INFO] dropout_66 (Dropout)         (None, 64)                0         
2020-01-14 18:17:16,674 [INFO] _________________________________________________________________
2020-01-14 18:17:16,674 [INFO] dense_88 (Dense)             (None, 5)                 325       
2020-01-14 18:17:16,674 [INFO] =================================================================
2020-01-14 18:17:16,674 [INFO] Total params: 2,693
2020-01-14 18:17:16,674 [INFO] Trainable params: 2,565
2020-01-14 18:17:16,674 [INFO] Non-trainable params: 128
2020-01-14 18:17:16,674 [INFO] _________________________________________________________________
2020-01-14 18:17:16,674 [INFO] Training model
…
