…
2020-01-09 08:34:55,684 [INFO] Reading complete. time_to_read=0.09 seconds
2020-01-09 08:34:55,684 [INFO] Reading HDF dataset ../Datasets/small_datasets/ids2018/y_test.h5
2020-01-09 08:34:55,770 [INFO] Reading complete. time_to_read=0.09 seconds
2020-01-09 08:34:59,641 [INFO] Initializing model
2020-01-09 08:35:00,439 [INFO] _________________________________________________________________
2020-01-09 08:35:00,439 [INFO] Layer (type)                 Output Shape              Param #   
2020-01-09 08:35:00,439 [INFO] =================================================================
2020-01-09 08:35:00,440 [INFO] dense_35 (Dense)             (None, 64)                4992      
2020-01-09 08:35:00,440 [INFO] _________________________________________________________________
2020-01-09 08:35:00,440 [INFO] batch_normalization_31 (Batc (None, 64)                256       
2020-01-09 08:35:00,440 [INFO] _________________________________________________________________
2020-01-09 08:35:00,440 [INFO] dropout_31 (Dropout)         (None, 64)                0         
2020-01-09 08:35:00,440 [INFO] _________________________________________________________________
2020-01-09 08:35:00,440 [INFO] dense_36 (Dense)             (None, 64)                4160      
2020-01-09 08:35:00,440 [INFO] _________________________________________________________________
2020-01-09 08:35:00,440 [INFO] batch_normalization_32 (Batc (None, 64)                256       
2020-01-09 08:35:00,440 [INFO] _________________________________________________________________
2020-01-09 08:35:00,440 [INFO] dropout_32 (Dropout)         (None, 64)                0         
2020-01-09 08:35:00,440 [INFO] _________________________________________________________________
2020-01-09 08:35:00,440 [INFO] dense_37 (Dense)             (None, 64)                4160      
2020-01-09 08:35:00,440 [INFO] _________________________________________________________________
2020-01-09 08:35:00,440 [INFO] batch_normalization_33 (Batc (None, 64)                256       
2020-01-09 08:35:00,440 [INFO] _________________________________________________________________
2020-01-09 08:35:00,440 [INFO] dropout_33 (Dropout)         (None, 64)                0         
2020-01-09 08:35:00,440 [INFO] _________________________________________________________________
2020-01-09 08:35:00,441 [INFO] dense_38 (Dense)             (None, 64)                4160      
2020-01-09 08:35:00,441 [INFO] _________________________________________________________________
2020-01-09 08:35:00,441 [INFO] batch_normalization_34 (Batc (None, 64)                256       
2020-01-09 08:35:00,441 [INFO] _________________________________________________________________
2020-01-09 08:35:00,441 [INFO] dropout_34 (Dropout)         (None, 64)                0         
2020-01-09 08:35:00,441 [INFO] _________________________________________________________________
2020-01-09 08:35:00,441 [INFO] dense_39 (Dense)             (None, 64)                4160      
2020-01-09 08:35:00,441 [INFO] _________________________________________________________________
2020-01-09 08:35:00,441 [INFO] batch_normalization_35 (Batc (None, 64)                256       
2020-01-09 08:35:00,441 [INFO] _________________________________________________________________
2020-01-09 08:35:00,441 [INFO] dropout_35 (Dropout)         (None, 64)                0         
2020-01-09 08:35:00,441 [INFO] _________________________________________________________________
2020-01-09 08:35:00,441 [INFO] dense_40 (Dense)             (None, 64)                4160      
2020-01-09 08:35:00,441 [INFO] _________________________________________________________________
2020-01-09 08:35:00,441 [INFO] batch_normalization_36 (Batc (None, 64)                256       
2020-01-09 08:35:00,441 [INFO] _________________________________________________________________
2020-01-09 08:35:00,441 [INFO] dropout_36 (Dropout)         (None, 64)                0         
2020-01-09 08:35:00,442 [INFO] _________________________________________________________________
2020-01-09 08:35:00,442 [INFO] dense_41 (Dense)             (None, 64)                4160      
2020-01-09 08:35:00,442 [INFO] _________________________________________________________________
2020-01-09 08:35:00,442 [INFO] batch_normalization_37 (Batc (None, 64)                256       
2020-01-09 08:35:00,442 [INFO] _________________________________________________________________
2020-01-09 08:35:00,442 [INFO] dropout_37 (Dropout)         (None, 64)                0         
2020-01-09 08:35:00,442 [INFO] _________________________________________________________________
2020-01-09 08:35:00,442 [INFO] dense_42 (Dense)             (None, 64)                4160      
2020-01-09 08:35:00,442 [INFO] _________________________________________________________________
2020-01-09 08:35:00,442 [INFO] batch_normalization_38 (Batc (None, 64)                256       
2020-01-09 08:35:00,442 [INFO] _________________________________________________________________
2020-01-09 08:35:00,442 [INFO] dropout_38 (Dropout)         (None, 64)                0         
2020-01-09 08:35:00,442 [INFO] _________________________________________________________________
2020-01-09 08:35:00,442 [INFO] dense_43 (Dense)             (None, 64)                4160      
2020-01-09 08:35:00,442 [INFO] _________________________________________________________________
2020-01-09 08:35:00,442 [INFO] batch_normalization_39 (Batc (None, 64)                256       
2020-01-09 08:35:00,442 [INFO] _________________________________________________________________
2020-01-09 08:35:00,442 [INFO] dropout_39 (Dropout)         (None, 64)                0         
2020-01-09 08:35:00,443 [INFO] _________________________________________________________________
2020-01-09 08:35:00,443 [INFO] dense_44 (Dense)             (None, 64)                4160      
2020-01-09 08:35:00,443 [INFO] _________________________________________________________________
2020-01-09 08:35:00,443 [INFO] batch_normalization_40 (Batc (None, 64)                256       
2020-01-09 08:35:00,443 [INFO] _________________________________________________________________
2020-01-09 08:35:00,443 [INFO] dropout_40 (Dropout)         (None, 64)                0         
2020-01-09 08:35:00,443 [INFO] _________________________________________________________________
2020-01-09 08:35:00,443 [INFO] dense_45 (Dense)             (None, 15)                975       
2020-01-09 08:35:00,443 [INFO] =================================================================
2020-01-09 08:35:00,443 [INFO] Total params: 45,967
2020-01-09 08:35:00,443 [INFO] Trainable params: 44,687
2020-01-09 08:35:00,443 [INFO] Non-trainable params: 1,280
2020-01-09 08:35:00,443 [INFO] _________________________________________________________________
2020-01-09 08:35:00,444 [INFO] Training model
…
