…
2020-01-13 20:28:43,968 [INFO] Reading complete. time_to_read=0.00 seconds
2020-01-13 20:28:43,968 [INFO] Reading HDF dataset ../Datasets/small_datasets/nsl_kdd_five_classes/y_test.h5
2020-01-13 20:28:43,972 [INFO] Reading complete. time_to_read=0.00 seconds
2020-01-13 20:28:44,088 [INFO] Initializing model
2020-01-13 20:28:44,379 [INFO] _________________________________________________________________
2020-01-13 20:28:44,379 [INFO] Layer (type)                 Output Shape              Param #   
2020-01-13 20:28:44,379 [INFO] =================================================================
2020-01-13 20:28:44,379 [INFO] dense_5 (Dense)              (None, 64)                7872      
2020-01-13 20:28:44,379 [INFO] _________________________________________________________________
2020-01-13 20:28:44,379 [INFO] batch_normalization_4 (Batch (None, 64)                256       
2020-01-13 20:28:44,379 [INFO] _________________________________________________________________
2020-01-13 20:28:44,380 [INFO] dropout_4 (Dropout)          (None, 64)                0         
2020-01-13 20:28:44,380 [INFO] _________________________________________________________________
2020-01-13 20:28:44,380 [INFO] dense_6 (Dense)              (None, 32)                2080      
2020-01-13 20:28:44,380 [INFO] _________________________________________________________________
2020-01-13 20:28:44,380 [INFO] batch_normalization_5 (Batch (None, 32)                128       
2020-01-13 20:28:44,380 [INFO] _________________________________________________________________
2020-01-13 20:28:44,380 [INFO] dropout_5 (Dropout)          (None, 32)                0         
2020-01-13 20:28:44,380 [INFO] _________________________________________________________________
2020-01-13 20:28:44,380 [INFO] dense_7 (Dense)              (None, 65)                2145      
2020-01-13 20:28:44,380 [INFO] _________________________________________________________________
2020-01-13 20:28:44,381 [INFO] batch_normalization_6 (Batch (None, 65)                260       
2020-01-13 20:28:44,381 [INFO] _________________________________________________________________
2020-01-13 20:28:44,381 [INFO] dropout_6 (Dropout)          (None, 65)                0         
2020-01-13 20:28:44,381 [INFO] _________________________________________________________________
2020-01-13 20:28:44,381 [INFO] dense_8 (Dense)              (None, 5)                 330       
2020-01-13 20:28:44,381 [INFO] =================================================================
2020-01-13 20:28:44,381 [INFO] Total params: 13,071
2020-01-13 20:28:44,381 [INFO] Trainable params: 12,749
2020-01-13 20:28:44,381 [INFO] Non-trainable params: 322
2020-01-13 20:28:44,381 [INFO] _________________________________________________________________
2020-01-13 20:28:44,381 [INFO] Training model
…
