…
2020-01-05 16:01:50,894 [INFO] Reading complete. time_to_read=0.08 seconds
2020-01-05 16:01:50,894 [INFO] Reading HDF dataset ../Datasets/small_datasets/ids2018/y_test.h5
2020-01-05 16:01:50,978 [INFO] Reading complete. time_to_read=0.08 seconds
2020-01-05 16:01:54,854 [INFO] Initializing model
2020-01-05 16:01:55,126 [INFO] _________________________________________________________________
2020-01-05 16:01:55,126 [INFO] Layer (type)                 Output Shape              Param #   
2020-01-05 16:01:55,126 [INFO] =================================================================
2020-01-05 16:01:55,127 [INFO] dense_9 (Dense)              (None, 3000)              234000    
2020-01-05 16:01:55,127 [INFO] _________________________________________________________________
2020-01-05 16:01:55,127 [INFO] batch_normalization_7 (Batch (None, 3000)              12000     
2020-01-05 16:01:55,127 [INFO] _________________________________________________________________
2020-01-05 16:01:55,127 [INFO] dropout_7 (Dropout)          (None, 3000)              0         
2020-01-05 16:01:55,127 [INFO] _________________________________________________________________
2020-01-05 16:01:55,127 [INFO] dense_10 (Dense)             (None, 1500)              4501500   
2020-01-05 16:01:55,127 [INFO] _________________________________________________________________
2020-01-05 16:01:55,127 [INFO] batch_normalization_8 (Batch (None, 1500)              6000      
2020-01-05 16:01:55,127 [INFO] _________________________________________________________________
2020-01-05 16:01:55,127 [INFO] dropout_8 (Dropout)          (None, 1500)              0         
2020-01-05 16:01:55,127 [INFO] _________________________________________________________________
2020-01-05 16:01:55,127 [INFO] dense_11 (Dense)             (None, 500)               750500    
2020-01-05 16:01:55,127 [INFO] _________________________________________________________________
2020-01-05 16:01:55,127 [INFO] batch_normalization_9 (Batch (None, 500)               2000      
2020-01-05 16:01:55,127 [INFO] _________________________________________________________________
2020-01-05 16:01:55,128 [INFO] dropout_9 (Dropout)          (None, 500)               0         
2020-01-05 16:01:55,128 [INFO] _________________________________________________________________
2020-01-05 16:01:55,128 [INFO] dense_12 (Dense)             (None, 15)                7515      
2020-01-05 16:01:55,128 [INFO] =================================================================
2020-01-05 16:01:55,128 [INFO] Total params: 5,513,515
2020-01-05 16:01:55,128 [INFO] Trainable params: 5,503,515
2020-01-05 16:01:55,128 [INFO] Non-trainable params: 10,000
2020-01-05 16:01:55,128 [INFO] _________________________________________________________________
2020-01-05 16:01:55,128 [INFO] Training model
…
