…
2019-12-27 00:13:30,909 [INFO] Reading complete. time_to_read=0.00 seconds
2019-12-27 00:13:30,909 [INFO] Reading HDF dataset ../Datasets/small_datasets/nsl_kdd_five_classes/y_test.h5
2019-12-27 00:13:30,913 [INFO] Reading complete. time_to_read=0.00 seconds
2019-12-27 00:13:31,096 [INFO] Initializing model
2019-12-27 00:13:31,505 [INFO] _________________________________________________________________
2019-12-27 00:13:31,505 [INFO] Layer (type)                 Output Shape              Param #   
2019-12-27 00:13:31,505 [INFO] =================================================================
2019-12-27 00:13:31,505 [INFO] dense_15 (Dense)             (None, 256)               31488     
2019-12-27 00:13:31,505 [INFO] _________________________________________________________________
2019-12-27 00:13:31,505 [INFO] batch_normalization_11 (Batc (None, 256)               1024      
2019-12-27 00:13:31,506 [INFO] _________________________________________________________________
2019-12-27 00:13:31,506 [INFO] dropout_11 (Dropout)         (None, 256)               0         
2019-12-27 00:13:31,506 [INFO] _________________________________________________________________
2019-12-27 00:13:31,506 [INFO] dense_16 (Dense)             (None, 128)               32896     
2019-12-27 00:13:31,506 [INFO] _________________________________________________________________
2019-12-27 00:13:31,506 [INFO] batch_normalization_12 (Batc (None, 128)               512       
2019-12-27 00:13:31,506 [INFO] _________________________________________________________________
2019-12-27 00:13:31,506 [INFO] dropout_12 (Dropout)         (None, 128)               0         
2019-12-27 00:13:31,506 [INFO] _________________________________________________________________
2019-12-27 00:13:31,506 [INFO] dense_17 (Dense)             (None, 64)                8256      
2019-12-27 00:13:31,506 [INFO] _________________________________________________________________
2019-12-27 00:13:31,506 [INFO] batch_normalization_13 (Batc (None, 64)                256       
2019-12-27 00:13:31,506 [INFO] _________________________________________________________________
2019-12-27 00:13:31,506 [INFO] dropout_13 (Dropout)         (None, 64)                0         
2019-12-27 00:13:31,507 [INFO] _________________________________________________________________
2019-12-27 00:13:31,507 [INFO] dense_18 (Dense)             (None, 32)                2080      
2019-12-27 00:13:31,507 [INFO] _________________________________________________________________
2019-12-27 00:13:31,507 [INFO] batch_normalization_14 (Batc (None, 32)                128       
2019-12-27 00:13:31,507 [INFO] _________________________________________________________________
2019-12-27 00:13:31,507 [INFO] dropout_14 (Dropout)         (None, 32)                0         
2019-12-27 00:13:31,507 [INFO] _________________________________________________________________
2019-12-27 00:13:31,507 [INFO] dense_19 (Dense)             (None, 16)                528       
2019-12-27 00:13:31,507 [INFO] _________________________________________________________________
2019-12-27 00:13:31,507 [INFO] batch_normalization_15 (Batc (None, 16)                64        
2019-12-27 00:13:31,507 [INFO] _________________________________________________________________
2019-12-27 00:13:31,507 [INFO] dropout_15 (Dropout)         (None, 16)                0         
2019-12-27 00:13:31,507 [INFO] _________________________________________________________________
2019-12-27 00:13:31,507 [INFO] dense_20 (Dense)             (None, 5)                 85        
2019-12-27 00:13:31,507 [INFO] =================================================================
2019-12-27 00:13:31,508 [INFO] Total params: 77,317
2019-12-27 00:13:31,508 [INFO] Trainable params: 76,325
2019-12-27 00:13:31,508 [INFO] Non-trainable params: 992
2019-12-27 00:13:31,508 [INFO] _________________________________________________________________
2019-12-27 00:13:31,508 [INFO] Training model
…
