…
2020-01-08 16:19:05,071 [WARNING] From /home/hasitha/anaconda3/lib/python3.7/site-packages/tensorflow/python/ops/nn_impl.py:180: add_dispatch_support.<locals>.wrapper (from tensorflow.python.ops.array_ops) is deprecated and will be removed in a future version.
Instructions for updating:
Use tf.where in 2.0, which has the same broadcast rule as np.where
2020-01-08 16:19:05,080 [INFO] _________________________________________________________________
2020-01-08 16:19:05,081 [INFO] Layer (type)                 Output Shape              Param #   
2020-01-08 16:19:05,081 [INFO] =================================================================
2020-01-08 16:19:05,081 [INFO] dense_1 (Dense)              (None, 64)                4992      
2020-01-08 16:19:05,081 [INFO] _________________________________________________________________
2020-01-08 16:19:05,081 [INFO] batch_normalization_1 (Batch (None, 64)                256       
2020-01-08 16:19:05,081 [INFO] _________________________________________________________________
2020-01-08 16:19:05,081 [INFO] dropout_1 (Dropout)          (None, 64)                0         
2020-01-08 16:19:05,081 [INFO] _________________________________________________________________
2020-01-08 16:19:05,081 [INFO] dense_2 (Dense)              (None, 64)                4160      
2020-01-08 16:19:05,081 [INFO] _________________________________________________________________
2020-01-08 16:19:05,081 [INFO] batch_normalization_2 (Batch (None, 64)                256       
2020-01-08 16:19:05,081 [INFO] _________________________________________________________________
2020-01-08 16:19:05,081 [INFO] dropout_2 (Dropout)          (None, 64)                0         
2020-01-08 16:19:05,081 [INFO] _________________________________________________________________
2020-01-08 16:19:05,081 [INFO] dense_3 (Dense)              (None, 64)                4160      
2020-01-08 16:19:05,081 [INFO] _________________________________________________________________
2020-01-08 16:19:05,082 [INFO] batch_normalization_3 (Batch (None, 64)                256       
2020-01-08 16:19:05,082 [INFO] _________________________________________________________________
2020-01-08 16:19:05,082 [INFO] dropout_3 (Dropout)          (None, 64)                0         
2020-01-08 16:19:05,082 [INFO] _________________________________________________________________
2020-01-08 16:19:05,082 [INFO] dense_4 (Dense)              (None, 64)                4160      
2020-01-08 16:19:05,082 [INFO] _________________________________________________________________
2020-01-08 16:19:05,082 [INFO] batch_normalization_4 (Batch (None, 64)                256       
2020-01-08 16:19:05,082 [INFO] _________________________________________________________________
2020-01-08 16:19:05,082 [INFO] dropout_4 (Dropout)          (None, 64)                0         
2020-01-08 16:19:05,082 [INFO] _________________________________________________________________
2020-01-08 16:19:05,082 [INFO] dense_5 (Dense)              (None, 64)                4160      
2020-01-08 16:19:05,082 [INFO] _________________________________________________________________
2020-01-08 16:19:05,082 [INFO] batch_normalization_5 (Batch (None, 64)                256       
2020-01-08 16:19:05,082 [INFO] _________________________________________________________________
2020-01-08 16:19:05,082 [INFO] dropout_5 (Dropout)          (None, 64)                0         
2020-01-08 16:19:05,082 [INFO] _________________________________________________________________
2020-01-08 16:19:05,082 [INFO] dense_6 (Dense)              (None, 64)                4160      
2020-01-08 16:19:05,082 [INFO] _________________________________________________________________
2020-01-08 16:19:05,083 [INFO] batch_normalization_6 (Batch (None, 64)                256       
2020-01-08 16:19:05,083 [INFO] _________________________________________________________________
2020-01-08 16:19:05,083 [INFO] dropout_6 (Dropout)          (None, 64)                0         
2020-01-08 16:19:05,083 [INFO] _________________________________________________________________
2020-01-08 16:19:05,083 [INFO] dense_7 (Dense)              (None, 15)                975       
2020-01-08 16:19:05,083 [INFO] =================================================================
2020-01-08 16:19:05,083 [INFO] Total params: 28,303
2020-01-08 16:19:05,083 [INFO] Trainable params: 27,535
2020-01-08 16:19:05,083 [INFO] Non-trainable params: 768
2020-01-08 16:19:05,083 [INFO] _________________________________________________________________
2020-01-08 16:19:05,083 [INFO] Training model
…
