…
2020-05-09 02:33:04,263 [INFO] Reading HDF dataset ../Datasets/full_datasets/ids2018/y_test_9.h5
2020-05-09 02:33:04,372 [INFO] Reading complete. time_to_read=0.11 seconds
2020-05-09 02:33:11,150 [INFO] Initializing model
2020-05-09 02:33:11,290 [INFO] Model: "sequential_2"
2020-05-09 02:33:11,290 [INFO] _________________________________________________________________
2020-05-09 02:33:11,290 [INFO] Layer (type)                 Output Shape              Param #   
2020-05-09 02:33:11,290 [INFO] =================================================================
2020-05-09 02:33:11,290 [INFO] dense_6 (Dense)              (None, 128)               9984      
2020-05-09 02:33:11,290 [INFO] _________________________________________________________________
2020-05-09 02:33:11,290 [INFO] batch_normalization_5 (Batch (None, 128)               512       
2020-05-09 02:33:11,290 [INFO] _________________________________________________________________
2020-05-09 02:33:11,290 [INFO] dropout_5 (Dropout)          (None, 128)               0         
2020-05-09 02:33:11,290 [INFO] _________________________________________________________________
2020-05-09 02:33:11,290 [INFO] dense_7 (Dense)              (None, 64)                8256      
2020-05-09 02:33:11,290 [INFO] _________________________________________________________________
2020-05-09 02:33:11,290 [INFO] batch_normalization_6 (Batch (None, 64)                256       
2020-05-09 02:33:11,290 [INFO] _________________________________________________________________
2020-05-09 02:33:11,290 [INFO] dropout_6 (Dropout)          (None, 64)                0         
2020-05-09 02:33:11,290 [INFO] _________________________________________________________________
2020-05-09 02:33:11,290 [INFO] dense_8 (Dense)              (None, 32)                2080      
2020-05-09 02:33:11,290 [INFO] _________________________________________________________________
2020-05-09 02:33:11,290 [INFO] batch_normalization_7 (Batch (None, 32)                128       
2020-05-09 02:33:11,290 [INFO] _________________________________________________________________
2020-05-09 02:33:11,290 [INFO] dropout_7 (Dropout)          (None, 32)                0         
2020-05-09 02:33:11,290 [INFO] _________________________________________________________________
2020-05-09 02:33:11,291 [INFO] dense_9 (Dense)              (None, 16)                528       
2020-05-09 02:33:11,291 [INFO] _________________________________________________________________
2020-05-09 02:33:11,291 [INFO] batch_normalization_8 (Batch (None, 16)                64        
2020-05-09 02:33:11,291 [INFO] _________________________________________________________________
2020-05-09 02:33:11,291 [INFO] dropout_8 (Dropout)          (None, 16)                0         
2020-05-09 02:33:11,291 [INFO] _________________________________________________________________
2020-05-09 02:33:11,291 [INFO] dense_10 (Dense)             (None, 15)                255       
2020-05-09 02:33:11,291 [INFO] =================================================================
2020-05-09 02:33:11,291 [INFO] Total params: 22,063
2020-05-09 02:33:11,291 [INFO] Trainable params: 21,583
2020-05-09 02:33:11,291 [INFO] Non-trainable params: 480
2020-05-09 02:33:11,291 [INFO] _________________________________________________________________
2020-05-09 02:33:11,291 [INFO] Training model
…
