…
2020-01-08 19:08:01,709 [INFO] Reading complete. time_to_read=0.08 seconds
2020-01-08 19:08:01,709 [INFO] Reading HDF dataset ../Datasets/full_datasets/ids2017/y_test.h5
2020-01-08 19:08:01,786 [INFO] Reading complete. time_to_read=0.08 seconds
2020-01-08 19:08:04,600 [INFO] Initializing model
2020-01-08 19:08:04,942 [INFO] _________________________________________________________________
2020-01-08 19:08:04,942 [INFO] Layer (type)                 Output Shape              Param #   
2020-01-08 19:08:04,943 [INFO] =================================================================
2020-01-08 19:08:04,943 [INFO] dense_10 (Dense)             (None, 64)                5056      
2020-01-08 19:08:04,943 [INFO] _________________________________________________________________
2020-01-08 19:08:04,943 [INFO] batch_normalization_7 (Batch (None, 64)                256       
2020-01-08 19:08:04,943 [INFO] _________________________________________________________________
2020-01-08 19:08:04,943 [INFO] dropout_7 (Dropout)          (None, 64)                0         
2020-01-08 19:08:04,943 [INFO] _________________________________________________________________
2020-01-08 19:08:04,943 [INFO] dense_11 (Dense)             (None, 64)                4160      
2020-01-08 19:08:04,943 [INFO] _________________________________________________________________
2020-01-08 19:08:04,943 [INFO] batch_normalization_8 (Batch (None, 64)                256       
2020-01-08 19:08:04,943 [INFO] _________________________________________________________________
2020-01-08 19:08:04,943 [INFO] dropout_8 (Dropout)          (None, 64)                0         
2020-01-08 19:08:04,943 [INFO] _________________________________________________________________
2020-01-08 19:08:04,943 [INFO] dense_12 (Dense)             (None, 64)                4160      
2020-01-08 19:08:04,943 [INFO] _________________________________________________________________
2020-01-08 19:08:04,944 [INFO] batch_normalization_9 (Batch (None, 64)                256       
2020-01-08 19:08:04,944 [INFO] _________________________________________________________________
2020-01-08 19:08:04,944 [INFO] dropout_9 (Dropout)          (None, 64)                0         
2020-01-08 19:08:04,944 [INFO] _________________________________________________________________
2020-01-08 19:08:04,944 [INFO] dense_13 (Dense)             (None, 64)                4160      
2020-01-08 19:08:04,944 [INFO] _________________________________________________________________
2020-01-08 19:08:04,944 [INFO] batch_normalization_10 (Batc (None, 64)                256       
2020-01-08 19:08:04,944 [INFO] _________________________________________________________________
2020-01-08 19:08:04,944 [INFO] dropout_10 (Dropout)         (None, 64)                0         
2020-01-08 19:08:04,944 [INFO] _________________________________________________________________
2020-01-08 19:08:04,944 [INFO] dense_14 (Dense)             (None, 12)                780       
2020-01-08 19:08:04,944 [INFO] =================================================================
2020-01-08 19:08:04,944 [INFO] Total params: 19,340
2020-01-08 19:08:04,944 [INFO] Trainable params: 18,828
2020-01-08 19:08:04,944 [INFO] Non-trainable params: 512
2020-01-08 19:08:04,944 [INFO] _________________________________________________________________
2020-01-08 19:08:04,945 [INFO] Training model
…
