…
2019-12-23 02:39:55,576 [INFO] Reading complete. time_to_read=0.09 seconds
2019-12-23 02:39:55,576 [INFO] Reading HDF dataset ../Datasets/small_datasets/ids2018/y_test.h5
2019-12-23 02:39:55,670 [INFO] Reading complete. time_to_read=0.09 seconds
2019-12-23 02:39:59,601 [INFO] Initializing model
2019-12-23 02:39:59,967 [INFO] _________________________________________________________________
2019-12-23 02:39:59,967 [INFO] Layer (type)                 Output Shape              Param #   
2019-12-23 02:39:59,967 [INFO] =================================================================
2019-12-23 02:39:59,967 [INFO] dense_66 (Dense)             (None, 128)               9984      
2019-12-23 02:39:59,968 [INFO] _________________________________________________________________
2019-12-23 02:39:59,968 [INFO] batch_normalization_52 (Batc (None, 128)               512       
2019-12-23 02:39:59,968 [INFO] _________________________________________________________________
2019-12-23 02:39:59,968 [INFO] dropout_52 (Dropout)         (None, 128)               0         
2019-12-23 02:39:59,968 [INFO] _________________________________________________________________
2019-12-23 02:39:59,968 [INFO] dense_67 (Dense)             (None, 64)                8256      
2019-12-23 02:39:59,968 [INFO] _________________________________________________________________
2019-12-23 02:39:59,968 [INFO] batch_normalization_53 (Batc (None, 64)                256       
2019-12-23 02:39:59,968 [INFO] _________________________________________________________________
2019-12-23 02:39:59,968 [INFO] dropout_53 (Dropout)         (None, 64)                0         
2019-12-23 02:39:59,968 [INFO] _________________________________________________________________
2019-12-23 02:39:59,968 [INFO] dense_68 (Dense)             (None, 32)                2080      
2019-12-23 02:39:59,968 [INFO] _________________________________________________________________
2019-12-23 02:39:59,968 [INFO] batch_normalization_54 (Batc (None, 32)                128       
2019-12-23 02:39:59,968 [INFO] _________________________________________________________________
2019-12-23 02:39:59,968 [INFO] dropout_54 (Dropout)         (None, 32)                0         
2019-12-23 02:39:59,968 [INFO] _________________________________________________________________
2019-12-23 02:39:59,969 [INFO] dense_69 (Dense)             (None, 16)                528       
2019-12-23 02:39:59,969 [INFO] _________________________________________________________________
2019-12-23 02:39:59,969 [INFO] batch_normalization_55 (Batc (None, 16)                64        
2019-12-23 02:39:59,969 [INFO] _________________________________________________________________
2019-12-23 02:39:59,969 [INFO] dropout_55 (Dropout)         (None, 16)                0         
2019-12-23 02:39:59,969 [INFO] _________________________________________________________________
2019-12-23 02:39:59,969 [INFO] dense_70 (Dense)             (None, 15)                255       
2019-12-23 02:39:59,969 [INFO] =================================================================
2019-12-23 02:39:59,969 [INFO] Total params: 22,063
2019-12-23 02:39:59,969 [INFO] Trainable params: 21,583
2019-12-23 02:39:59,969 [INFO] Non-trainable params: 480
2019-12-23 02:39:59,969 [INFO] _________________________________________________________________
2019-12-23 02:39:59,969 [INFO] Training model
…
