…
2020-01-14 19:11:53,325 [INFO] Pretraining Deep Belief Network
2020-01-14 19:21:03,143 [INFO] Pretraining Complete
2020-01-14 19:21:03,143 [INFO] Getting pretrained weights
2020-01-14 19:21:03,143 [INFO] Creating and initializing feed forward neural network
2020-01-14 19:21:03,466 [INFO] _________________________________________________________________
2020-01-14 19:21:03,466 [INFO] Layer (type)                 Output Shape              Param #   
2020-01-14 19:21:03,466 [INFO] =================================================================
2020-01-14 19:21:03,466 [INFO] dense_45 (Dense)             (None, 128)               15872     
2020-01-14 19:21:03,466 [INFO] _________________________________________________________________
2020-01-14 19:21:03,467 [INFO] batch_normalization_34 (Batc (None, 128)               512       
2020-01-14 19:21:03,467 [INFO] _________________________________________________________________
2020-01-14 19:21:03,467 [INFO] dropout_34 (Dropout)         (None, 128)               0         
2020-01-14 19:21:03,467 [INFO] _________________________________________________________________
2020-01-14 19:21:03,467 [INFO] dense_46 (Dense)             (None, 64)                8256      
2020-01-14 19:21:03,467 [INFO] _________________________________________________________________
2020-01-14 19:21:03,467 [INFO] batch_normalization_35 (Batc (None, 64)                256       
2020-01-14 19:21:03,467 [INFO] _________________________________________________________________
2020-01-14 19:21:03,467 [INFO] dropout_35 (Dropout)         (None, 64)                0         
2020-01-14 19:21:03,467 [INFO] _________________________________________________________________
2020-01-14 19:21:03,467 [INFO] dense_47 (Dense)             (None, 34)                2210      
2020-01-14 19:21:03,467 [INFO] _________________________________________________________________
2020-01-14 19:21:03,468 [INFO] batch_normalization_36 (Batc (None, 34)                136       
2020-01-14 19:21:03,468 [INFO] _________________________________________________________________
2020-01-14 19:21:03,468 [INFO] dropout_36 (Dropout)         (None, 34)                0         
2020-01-14 19:21:03,468 [INFO] _________________________________________________________________
2020-01-14 19:21:03,468 [INFO] dense_48 (Dense)             (None, 5)                 175       
2020-01-14 19:21:03,468 [INFO] =================================================================
2020-01-14 19:21:03,468 [INFO] Total params: 27,417
2020-01-14 19:21:03,468 [INFO] Trainable params: 26,965
2020-01-14 19:21:03,468 [INFO] Non-trainable params: 452
2020-01-14 19:21:03,468 [INFO] _________________________________________________________________
2020-01-14 19:21:07,248 [INFO] Fine-tuning final neural network
…
