…
2019-12-27 06:25:38,292 [INFO] Reading complete. time_to_read=0.10 seconds
2019-12-27 06:25:38,293 [INFO] Reading HDF dataset ../Datasets/small_datasets/ids2018/y_test.h5
2019-12-27 06:25:38,389 [INFO] Reading complete. time_to_read=0.10 seconds
2019-12-27 06:25:41,726 [INFO] Initializing model
2019-12-27 06:25:42,428 [INFO] _________________________________________________________________
2019-12-27 06:25:42,428 [INFO] Layer (type)                 Output Shape              Param #   
2019-12-27 06:25:42,429 [INFO] =================================================================
2019-12-27 06:25:42,429 [INFO] dense_165 (Dense)            (None, 128)               9984      
2019-12-27 06:25:42,429 [INFO] _________________________________________________________________
2019-12-27 06:25:42,429 [INFO] batch_normalization_119 (Bat (None, 128)               512       
2019-12-27 06:25:42,429 [INFO] _________________________________________________________________
2019-12-27 06:25:42,429 [INFO] dropout_119 (Dropout)        (None, 128)               0         
2019-12-27 06:25:42,429 [INFO] _________________________________________________________________
2019-12-27 06:25:42,429 [INFO] dense_166 (Dense)            (None, 64)                8256      
2019-12-27 06:25:42,429 [INFO] _________________________________________________________________
2019-12-27 06:25:42,429 [INFO] batch_normalization_120 (Bat (None, 64)                256       
2019-12-27 06:25:42,429 [INFO] _________________________________________________________________
2019-12-27 06:25:42,429 [INFO] dropout_120 (Dropout)        (None, 64)                0         
2019-12-27 06:25:42,430 [INFO] _________________________________________________________________
2019-12-27 06:25:42,430 [INFO] dense_167 (Dense)            (None, 32)                2080      
2019-12-27 06:25:42,430 [INFO] _________________________________________________________________
2019-12-27 06:25:42,430 [INFO] batch_normalization_121 (Bat (None, 32)                128       
2019-12-27 06:25:42,430 [INFO] _________________________________________________________________
2019-12-27 06:25:42,430 [INFO] dropout_121 (Dropout)        (None, 32)                0         
2019-12-27 06:25:42,430 [INFO] _________________________________________________________________
2019-12-27 06:25:42,430 [INFO] dense_168 (Dense)            (None, 64)                2112      
2019-12-27 06:25:42,430 [INFO] _________________________________________________________________
2019-12-27 06:25:42,430 [INFO] batch_normalization_122 (Bat (None, 64)                256       
2019-12-27 06:25:42,430 [INFO] _________________________________________________________________
2019-12-27 06:25:42,430 [INFO] dropout_122 (Dropout)        (None, 64)                0         
2019-12-27 06:25:42,431 [INFO] _________________________________________________________________
2019-12-27 06:25:42,431 [INFO] dense_169 (Dense)            (None, 128)               8320      
2019-12-27 06:25:42,431 [INFO] _________________________________________________________________
2019-12-27 06:25:42,431 [INFO] batch_normalization_123 (Bat (None, 128)               512       
2019-12-27 06:25:42,431 [INFO] _________________________________________________________________
2019-12-27 06:25:42,431 [INFO] dropout_123 (Dropout)        (None, 128)               0         
2019-12-27 06:25:42,431 [INFO] _________________________________________________________________
2019-12-27 06:25:42,431 [INFO] dense_170 (Dense)            (None, 77)                9933      
2019-12-27 06:25:42,431 [INFO] =================================================================
2019-12-27 06:25:42,432 [INFO] Total params: 42,349
2019-12-27 06:25:42,432 [INFO] Trainable params: 41,517
2019-12-27 06:25:42,432 [INFO] Non-trainable params: 832
2019-12-27 06:25:42,432 [INFO] _________________________________________________________________
2019-12-27 06:25:42,599 [INFO] _________________________________________________________________
2019-12-27 06:25:42,600 [INFO] Layer (type)                 Output Shape              Param #   
2019-12-27 06:25:42,600 [INFO] =================================================================
2019-12-27 06:25:42,600 [INFO] dense_171 (Dense)            (None, 64)                2112      
2019-12-27 06:25:42,600 [INFO] _________________________________________________________________
2019-12-27 06:25:42,600 [INFO] batch_normalization_124 (Bat (None, 64)                256       
2019-12-27 06:25:42,600 [INFO] _________________________________________________________________
2019-12-27 06:25:42,600 [INFO] dropout_124 (Dropout)        (None, 64)                0         
2019-12-27 06:25:42,600 [INFO] _________________________________________________________________
2019-12-27 06:25:42,600 [INFO] dense_172 (Dense)            (None, 15)                975       
2019-12-27 06:25:42,600 [INFO] =================================================================
2019-12-27 06:25:42,601 [INFO] Total params: 3,343
2019-12-27 06:25:42,601 [INFO] Trainable params: 3,215
2019-12-27 06:25:42,601 [INFO] Non-trainable params: 128
2019-12-27 06:25:42,601 [INFO] _________________________________________________________________
2019-12-27 06:25:42,601 [INFO] Training model
…
