…
2019-12-21 03:05:52,658 [INFO] Reading complete. time_to_read=0.07 seconds
2019-12-21 03:05:52,659 [INFO] Reading HDF dataset ../Datasets/full_datasets/ids2017/y_test.h5
2019-12-21 03:05:52,732 [INFO] Reading complete. time_to_read=0.07 seconds
2019-12-21 03:05:56,175 [INFO] Initializing model
2019-12-21 03:05:56,634 [INFO] _________________________________________________________________
2019-12-21 03:05:56,634 [INFO] Layer (type)                 Output Shape              Param #   
2019-12-21 03:05:56,634 [INFO] =================================================================
2019-12-21 03:05:56,634 [INFO] dense_16 (Dense)             (None, 256)               20224     
2019-12-21 03:05:56,634 [INFO] _________________________________________________________________
2019-12-21 03:05:56,634 [INFO] batch_normalization_13 (Batc (None, 256)               1024      
2019-12-21 03:05:56,634 [INFO] _________________________________________________________________
2019-12-21 03:05:56,634 [INFO] dropout_13 (Dropout)         (None, 256)               0         
2019-12-21 03:05:56,634 [INFO] _________________________________________________________________
2019-12-21 03:05:56,634 [INFO] dense_17 (Dense)             (None, 128)               32896     
2019-12-21 03:05:56,634 [INFO] _________________________________________________________________
2019-12-21 03:05:56,634 [INFO] batch_normalization_14 (Batc (None, 128)               512       
2019-12-21 03:05:56,635 [INFO] _________________________________________________________________
2019-12-21 03:05:56,635 [INFO] dropout_14 (Dropout)         (None, 128)               0         
2019-12-21 03:05:56,635 [INFO] _________________________________________________________________
2019-12-21 03:05:56,635 [INFO] dense_18 (Dense)             (None, 64)                8256      
2019-12-21 03:05:56,635 [INFO] _________________________________________________________________
2019-12-21 03:05:56,635 [INFO] batch_normalization_15 (Batc (None, 64)                256       
2019-12-21 03:05:56,635 [INFO] _________________________________________________________________
2019-12-21 03:05:56,635 [INFO] dropout_15 (Dropout)         (None, 64)                0         
2019-12-21 03:05:56,635 [INFO] _________________________________________________________________
2019-12-21 03:05:56,635 [INFO] dense_19 (Dense)             (None, 32)                2080      
2019-12-21 03:05:56,635 [INFO] _________________________________________________________________
2019-12-21 03:05:56,635 [INFO] batch_normalization_16 (Batc (None, 32)                128       
2019-12-21 03:05:56,635 [INFO] _________________________________________________________________
2019-12-21 03:05:56,635 [INFO] dropout_16 (Dropout)         (None, 32)                0         
2019-12-21 03:05:56,635 [INFO] _________________________________________________________________
2019-12-21 03:05:56,635 [INFO] dense_20 (Dense)             (None, 12)                396       
2019-12-21 03:05:56,635 [INFO] =================================================================
2019-12-21 03:05:56,636 [INFO] Total params: 65,772
2019-12-21 03:05:56,636 [INFO] Trainable params: 64,812
2019-12-21 03:05:56,636 [INFO] Non-trainable params: 960
2019-12-21 03:05:56,636 [INFO] _________________________________________________________________
2019-12-21 03:05:56,636 [INFO] Training model
…
