…
2020-01-14 14:52:03,050 [INFO] Pretraining Deep Belief Network
2020-01-14 14:59:24,203 [INFO] Pretraining Complete
2020-01-14 14:59:24,203 [INFO] Getting pretrained weights
2020-01-14 14:59:24,203 [INFO] Creating and initializing feed forward neural network
2020-01-14 14:59:24,507 [INFO] _________________________________________________________________
2020-01-14 14:59:24,507 [INFO] Layer (type)                 Output Shape              Param #   
2020-01-14 14:59:24,507 [INFO] =================================================================
2020-01-14 14:59:24,507 [INFO] dense_21 (Dense)             (None, 128)               10112     
2020-01-14 14:59:24,507 [INFO] _________________________________________________________________
2020-01-14 14:59:24,507 [INFO] batch_normalization_16 (Batc (None, 128)               512       
2020-01-14 14:59:24,507 [INFO] _________________________________________________________________
2020-01-14 14:59:24,507 [INFO] dropout_16 (Dropout)         (None, 128)               0         
2020-01-14 14:59:24,507 [INFO] _________________________________________________________________
2020-01-14 14:59:24,507 [INFO] dense_22 (Dense)             (None, 64)                8256      
2020-01-14 14:59:24,508 [INFO] _________________________________________________________________
2020-01-14 14:59:24,508 [INFO] batch_normalization_17 (Batc (None, 64)                256       
2020-01-14 14:59:24,508 [INFO] _________________________________________________________________
2020-01-14 14:59:24,508 [INFO] dropout_17 (Dropout)         (None, 64)                0         
2020-01-14 14:59:24,508 [INFO] _________________________________________________________________
2020-01-14 14:59:24,508 [INFO] dense_23 (Dense)             (None, 34)                2210      
2020-01-14 14:59:24,508 [INFO] _________________________________________________________________
2020-01-14 14:59:24,508 [INFO] batch_normalization_18 (Batc (None, 34)                136       
2020-01-14 14:59:24,508 [INFO] _________________________________________________________________
2020-01-14 14:59:24,508 [INFO] dropout_18 (Dropout)         (None, 34)                0         
2020-01-14 14:59:24,508 [INFO] _________________________________________________________________
2020-01-14 14:59:24,508 [INFO] dense_24 (Dense)             (None, 12)                420       
2020-01-14 14:59:24,509 [INFO] =================================================================
2020-01-14 14:59:24,509 [INFO] Total params: 21,902
2020-01-14 14:59:24,509 [INFO] Trainable params: 21,450
2020-01-14 14:59:24,509 [INFO] Non-trainable params: 452
2020-01-14 14:59:24,509 [INFO] _________________________________________________________________
2020-01-14 14:59:26,134 [INFO] Fine-tuning final neural network
…
