…
2019-12-24 11:21:17,269 [INFO] Pretraining Deep Belief Network
2019-12-24 11:51:34,755 [INFO] Pretraining Complete
2019-12-24 11:51:34,777 [INFO] Getting pretrained weights
2019-12-24 11:51:34,777 [INFO] Creating and initializing feed forward neural network
2019-12-24 11:51:35,061 [INFO] _________________________________________________________________
2019-12-24 11:51:35,061 [INFO] Layer (type)                 Output Shape              Param #   
2019-12-24 11:51:35,061 [INFO] =================================================================
2019-12-24 11:51:35,061 [INFO] dense_21 (Dense)             (None, 128)               10112     
2019-12-24 11:51:35,061 [INFO] _________________________________________________________________
2019-12-24 11:51:35,061 [INFO] batch_normalization_16 (Batc (None, 128)               512       
2019-12-24 11:51:35,061 [INFO] _________________________________________________________________
2019-12-24 11:51:35,062 [INFO] dropout_16 (Dropout)         (None, 128)               0         
2019-12-24 11:51:35,062 [INFO] _________________________________________________________________
2019-12-24 11:51:35,062 [INFO] dense_22 (Dense)             (None, 64)                8256      
2019-12-24 11:51:35,062 [INFO] _________________________________________________________________
2019-12-24 11:51:35,062 [INFO] batch_normalization_17 (Batc (None, 64)                256       
2019-12-24 11:51:35,062 [INFO] _________________________________________________________________
2019-12-24 11:51:35,062 [INFO] dropout_17 (Dropout)         (None, 64)                0         
2019-12-24 11:51:35,062 [INFO] _________________________________________________________________
2019-12-24 11:51:35,062 [INFO] dense_23 (Dense)             (None, 32)                2080      
2019-12-24 11:51:35,062 [INFO] _________________________________________________________________
2019-12-24 11:51:35,062 [INFO] batch_normalization_18 (Batc (None, 32)                128       
2019-12-24 11:51:35,062 [INFO] _________________________________________________________________
2019-12-24 11:51:35,062 [INFO] dropout_18 (Dropout)         (None, 32)                0         
2019-12-24 11:51:35,063 [INFO] _________________________________________________________________
2019-12-24 11:51:35,063 [INFO] dense_24 (Dense)             (None, 12)                396       
2019-12-24 11:51:35,063 [INFO] =================================================================
2019-12-24 11:51:35,063 [INFO] Total params: 21,740
2019-12-24 11:51:35,063 [INFO] Trainable params: 21,292
2019-12-24 11:51:35,063 [INFO] Non-trainable params: 448
2019-12-24 11:51:35,063 [INFO] _________________________________________________________________
2019-12-24 11:51:36,731 [INFO] Fine-tuning final neural network
…
