…
2020-01-08 19:39:55,596 [INFO] Reading complete. time_to_read=0.08 seconds
2020-01-08 19:39:55,596 [INFO] Reading HDF dataset ../Datasets/small_datasets/ids2018/y_test.h5
2020-01-08 19:39:55,680 [INFO] Reading complete. time_to_read=0.08 seconds
2020-01-08 19:39:59,577 [INFO] Initializing model
2020-01-08 19:40:00,134 [INFO] _________________________________________________________________
2020-01-08 19:40:00,134 [INFO] Layer (type)                 Output Shape              Param #   
2020-01-08 19:40:00,134 [INFO] =================================================================
2020-01-08 19:40:00,134 [INFO] dense_8 (Dense)              (None, 64)                4992      
2020-01-08 19:40:00,134 [INFO] _________________________________________________________________
2020-01-08 19:40:00,134 [INFO] batch_normalization_7 (Batch (None, 64)                256       
2020-01-08 19:40:00,134 [INFO] _________________________________________________________________
2020-01-08 19:40:00,134 [INFO] dropout_7 (Dropout)          (None, 64)                0         
2020-01-08 19:40:00,134 [INFO] _________________________________________________________________
2020-01-08 19:40:00,134 [INFO] dense_9 (Dense)              (None, 64)                4160      
2020-01-08 19:40:00,134 [INFO] _________________________________________________________________
2020-01-08 19:40:00,134 [INFO] batch_normalization_8 (Batch (None, 64)                256       
2020-01-08 19:40:00,134 [INFO] _________________________________________________________________
2020-01-08 19:40:00,134 [INFO] dropout_8 (Dropout)          (None, 64)                0         
2020-01-08 19:40:00,134 [INFO] _________________________________________________________________
2020-01-08 19:40:00,135 [INFO] dense_10 (Dense)             (None, 64)                4160      
2020-01-08 19:40:00,135 [INFO] _________________________________________________________________
2020-01-08 19:40:00,135 [INFO] batch_normalization_9 (Batch (None, 64)                256       
2020-01-08 19:40:00,135 [INFO] _________________________________________________________________
2020-01-08 19:40:00,135 [INFO] dropout_9 (Dropout)          (None, 64)                0         
2020-01-08 19:40:00,135 [INFO] _________________________________________________________________
2020-01-08 19:40:00,135 [INFO] dense_11 (Dense)             (None, 64)                4160      
2020-01-08 19:40:00,135 [INFO] _________________________________________________________________
2020-01-08 19:40:00,135 [INFO] batch_normalization_10 (Batc (None, 64)                256       
2020-01-08 19:40:00,135 [INFO] _________________________________________________________________
2020-01-08 19:40:00,135 [INFO] dropout_10 (Dropout)         (None, 64)                0         
2020-01-08 19:40:00,135 [INFO] _________________________________________________________________
2020-01-08 19:40:00,135 [INFO] dense_12 (Dense)             (None, 64)                4160      
2020-01-08 19:40:00,135 [INFO] _________________________________________________________________
2020-01-08 19:40:00,135 [INFO] batch_normalization_11 (Batc (None, 64)                256       
2020-01-08 19:40:00,135 [INFO] _________________________________________________________________
2020-01-08 19:40:00,135 [INFO] dropout_11 (Dropout)         (None, 64)                0         
2020-01-08 19:40:00,135 [INFO] _________________________________________________________________
2020-01-08 19:40:00,136 [INFO] dense_13 (Dense)             (None, 64)                4160      
2020-01-08 19:40:00,136 [INFO] _________________________________________________________________
2020-01-08 19:40:00,136 [INFO] batch_normalization_12 (Batc (None, 64)                256       
2020-01-08 19:40:00,136 [INFO] _________________________________________________________________
2020-01-08 19:40:00,136 [INFO] dropout_12 (Dropout)         (None, 64)                0         
2020-01-08 19:40:00,136 [INFO] _________________________________________________________________
2020-01-08 19:40:00,136 [INFO] dense_14 (Dense)             (None, 64)                4160      
2020-01-08 19:40:00,136 [INFO] _________________________________________________________________
2020-01-08 19:40:00,136 [INFO] batch_normalization_13 (Batc (None, 64)                256       
2020-01-08 19:40:00,136 [INFO] _________________________________________________________________
2020-01-08 19:40:00,136 [INFO] dropout_13 (Dropout)         (None, 64)                0         
2020-01-08 19:40:00,136 [INFO] _________________________________________________________________
2020-01-08 19:40:00,136 [INFO] dense_15 (Dense)             (None, 15)                975       
2020-01-08 19:40:00,136 [INFO] =================================================================
2020-01-08 19:40:00,137 [INFO] Total params: 32,719
2020-01-08 19:40:00,137 [INFO] Trainable params: 31,823
2020-01-08 19:40:00,137 [INFO] Non-trainable params: 896
2020-01-08 19:40:00,137 [INFO] _________________________________________________________________
2020-01-08 19:40:00,137 [INFO] Training model
…
