…
2020-01-14 12:43:58,011 [INFO] Reading complete. time_to_read=0.00 seconds
2020-01-14 12:43:58,011 [INFO] Reading HDF dataset ../Datasets/small_datasets/nsl_kdd_five_classes/y_test.h5
2020-01-14 12:43:58,014 [INFO] Reading complete. time_to_read=0.00 seconds
2020-01-14 12:43:58,214 [INFO] Initializing model
2020-01-14 12:43:58,607 [INFO] _________________________________________________________________
2020-01-14 12:43:58,607 [INFO] Layer (type)                 Output Shape              Param #   
2020-01-14 12:43:58,607 [INFO] =================================================================
2020-01-14 12:43:58,607 [INFO] dense_9 (Dense)              (None, 128)               15744     
2020-01-14 12:43:58,607 [INFO] _________________________________________________________________
2020-01-14 12:43:58,607 [INFO] batch_normalization_7 (Batch (None, 128)               512       
2020-01-14 12:43:58,607 [INFO] _________________________________________________________________
2020-01-14 12:43:58,607 [INFO] dropout_7 (Dropout)          (None, 128)               0         
2020-01-14 12:43:58,607 [INFO] _________________________________________________________________
2020-01-14 12:43:58,608 [INFO] dense_10 (Dense)             (None, 64)                8256      
2020-01-14 12:43:58,608 [INFO] _________________________________________________________________
2020-01-14 12:43:58,608 [INFO] batch_normalization_8 (Batch (None, 64)                256       
2020-01-14 12:43:58,608 [INFO] _________________________________________________________________
2020-01-14 12:43:58,608 [INFO] dropout_8 (Dropout)          (None, 64)                0         
2020-01-14 12:43:58,608 [INFO] _________________________________________________________________
2020-01-14 12:43:58,608 [INFO] dense_11 (Dense)             (None, 32)                2080      
2020-01-14 12:43:58,608 [INFO] _________________________________________________________________
2020-01-14 12:43:58,608 [INFO] batch_normalization_9 (Batch (None, 32)                128       
2020-01-14 12:43:58,608 [INFO] _________________________________________________________________
2020-01-14 12:43:58,608 [INFO] dropout_9 (Dropout)          (None, 32)                0         
2020-01-14 12:43:58,608 [INFO] _________________________________________________________________
2020-01-14 12:43:58,608 [INFO] dense_12 (Dense)             (None, 64)                2112      
2020-01-14 12:43:58,608 [INFO] _________________________________________________________________
2020-01-14 12:43:58,608 [INFO] batch_normalization_10 (Batc (None, 64)                256       
2020-01-14 12:43:58,608 [INFO] _________________________________________________________________
2020-01-14 12:43:58,608 [INFO] dropout_10 (Dropout)         (None, 64)                0         
2020-01-14 12:43:58,608 [INFO] _________________________________________________________________
2020-01-14 12:43:58,609 [INFO] dense_13 (Dense)             (None, 128)               8320      
2020-01-14 12:43:58,609 [INFO] _________________________________________________________________
2020-01-14 12:43:58,609 [INFO] batch_normalization_11 (Batc (None, 128)               512       
2020-01-14 12:43:58,609 [INFO] _________________________________________________________________
2020-01-14 12:43:58,609 [INFO] dropout_11 (Dropout)         (None, 128)               0         
2020-01-14 12:43:58,609 [INFO] _________________________________________________________________
2020-01-14 12:43:58,609 [INFO] dense_14 (Dense)             (None, 122)               15738     
2020-01-14 12:43:58,609 [INFO] =================================================================
2020-01-14 12:43:58,609 [INFO] Total params: 53,914
2020-01-14 12:43:58,609 [INFO] Trainable params: 53,082
2020-01-14 12:43:58,609 [INFO] Non-trainable params: 832
2020-01-14 12:43:58,609 [INFO] _________________________________________________________________
2020-01-14 12:43:58,712 [INFO] _________________________________________________________________
2020-01-14 12:43:58,713 [INFO] Layer (type)                 Output Shape              Param #   
2020-01-14 12:43:58,713 [INFO] =================================================================
2020-01-14 12:43:58,713 [INFO] dense_15 (Dense)             (None, 64)                2112      
2020-01-14 12:43:58,713 [INFO] _________________________________________________________________
2020-01-14 12:43:58,713 [INFO] batch_normalization_12 (Batc (None, 64)                256       
2020-01-14 12:43:58,713 [INFO] _________________________________________________________________
2020-01-14 12:43:58,713 [INFO] dropout_12 (Dropout)         (None, 64)                0         
2020-01-14 12:43:58,713 [INFO] _________________________________________________________________
2020-01-14 12:43:58,713 [INFO] dense_16 (Dense)             (None, 5)                 325       
2020-01-14 12:43:58,713 [INFO] =================================================================
2020-01-14 12:43:58,713 [INFO] Total params: 2,693
2020-01-14 12:43:58,713 [INFO] Trainable params: 2,565
2020-01-14 12:43:58,713 [INFO] Non-trainable params: 128
2020-01-14 12:43:58,713 [INFO] _________________________________________________________________
2020-01-14 12:43:58,713 [INFO] Training model
…
