…
2020-01-14 05:43:38,845 [INFO] Reading complete. time_to_read=0.10 seconds
2020-01-14 05:43:38,845 [INFO] Reading HDF dataset ../Datasets/small_datasets/ids2018/y_test.h5
2020-01-14 05:43:38,943 [INFO] Reading complete. time_to_read=0.10 seconds
2020-01-14 05:43:42,379 [INFO] Initializing model
2020-01-14 05:43:42,808 [INFO] _________________________________________________________________
2020-01-14 05:43:42,808 [INFO] Layer (type)                 Output Shape              Param #   
2020-01-14 05:43:42,808 [INFO] =================================================================
2020-01-14 05:43:42,808 [INFO] dense_50 (Dense)             (None, 128)               9984      
2020-01-14 05:43:42,808 [INFO] _________________________________________________________________
2020-01-14 05:43:42,808 [INFO] batch_normalization_39 (Batc (None, 128)               512       
2020-01-14 05:43:42,808 [INFO] _________________________________________________________________
2020-01-14 05:43:42,808 [INFO] dropout_39 (Dropout)         (None, 128)               0         
2020-01-14 05:43:42,809 [INFO] _________________________________________________________________
2020-01-14 05:43:42,809 [INFO] dense_51 (Dense)             (None, 64)                8256      
2020-01-14 05:43:42,809 [INFO] _________________________________________________________________
2020-01-14 05:43:42,809 [INFO] batch_normalization_40 (Batc (None, 64)                256       
2020-01-14 05:43:42,809 [INFO] _________________________________________________________________
2020-01-14 05:43:42,809 [INFO] dropout_40 (Dropout)         (None, 64)                0         
2020-01-14 05:43:42,809 [INFO] _________________________________________________________________
2020-01-14 05:43:42,809 [INFO] dense_52 (Dense)             (None, 32)                2080      
2020-01-14 05:43:42,809 [INFO] _________________________________________________________________
2020-01-14 05:43:42,809 [INFO] batch_normalization_41 (Batc (None, 32)                128       
2020-01-14 05:43:42,809 [INFO] _________________________________________________________________
2020-01-14 05:43:42,809 [INFO] dropout_41 (Dropout)         (None, 32)                0         
2020-01-14 05:43:42,810 [INFO] _________________________________________________________________
2020-01-14 05:43:42,810 [INFO] dense_53 (Dense)             (None, 16)                528       
2020-01-14 05:43:42,810 [INFO] _________________________________________________________________
2020-01-14 05:43:42,810 [INFO] batch_normalization_42 (Batc (None, 16)                64        
2020-01-14 05:43:42,810 [INFO] _________________________________________________________________
2020-01-14 05:43:42,810 [INFO] dropout_42 (Dropout)         (None, 16)                0         
2020-01-14 05:43:42,810 [INFO] _________________________________________________________________
2020-01-14 05:43:42,810 [INFO] dense_54 (Dense)             (None, 15)                255       
2020-01-14 05:43:42,810 [INFO] =================================================================
2020-01-14 05:43:42,811 [INFO] Total params: 22,063
2020-01-14 05:43:42,811 [INFO] Trainable params: 21,583
2020-01-14 05:43:42,811 [INFO] Non-trainable params: 480
2020-01-14 05:43:42,811 [INFO] _________________________________________________________________
2020-01-14 05:43:42,811 [INFO] Training model
…
