…
2020-01-14 12:43:16,218 [WARNING] From /home/hasitha/anaconda3/lib/python3.7/site-packages/tensorflow/python/ops/nn_impl.py:180: add_dispatch_support.<locals>.wrapper (from tensorflow.python.ops.array_ops) is deprecated and will be removed in a future version.
Instructions for updating:
Use tf.where in 2.0, which has the same broadcast rule as np.where
2020-01-14 12:43:16,227 [INFO] _________________________________________________________________
2020-01-14 12:43:16,227 [INFO] Layer (type)                 Output Shape              Param #   
2020-01-14 12:43:16,227 [INFO] =================================================================
2020-01-14 12:43:16,227 [INFO] dense_1 (Dense)              (None, 128)               15744     
2020-01-14 12:43:16,227 [INFO] _________________________________________________________________
2020-01-14 12:43:16,227 [INFO] batch_normalization_1 (Batch (None, 128)               512       
2020-01-14 12:43:16,227 [INFO] _________________________________________________________________
2020-01-14 12:43:16,227 [INFO] dropout_1 (Dropout)          (None, 128)               0         
2020-01-14 12:43:16,227 [INFO] _________________________________________________________________
2020-01-14 12:43:16,227 [INFO] dense_2 (Dense)              (None, 64)                8256      
2020-01-14 12:43:16,227 [INFO] _________________________________________________________________
2020-01-14 12:43:16,227 [INFO] batch_normalization_2 (Batch (None, 64)                256       
2020-01-14 12:43:16,227 [INFO] _________________________________________________________________
2020-01-14 12:43:16,227 [INFO] dropout_2 (Dropout)          (None, 64)                0         
2020-01-14 12:43:16,228 [INFO] _________________________________________________________________
2020-01-14 12:43:16,228 [INFO] dense_3 (Dense)              (None, 32)                2080      
2020-01-14 12:43:16,228 [INFO] _________________________________________________________________
2020-01-14 12:43:16,228 [INFO] batch_normalization_3 (Batch (None, 32)                128       
2020-01-14 12:43:16,228 [INFO] _________________________________________________________________
2020-01-14 12:43:16,228 [INFO] dropout_3 (Dropout)          (None, 32)                0         
2020-01-14 12:43:16,228 [INFO] _________________________________________________________________
2020-01-14 12:43:16,228 [INFO] dense_4 (Dense)              (None, 64)                2112      
2020-01-14 12:43:16,228 [INFO] _________________________________________________________________
2020-01-14 12:43:16,228 [INFO] batch_normalization_4 (Batch (None, 64)                256       
2020-01-14 12:43:16,228 [INFO] _________________________________________________________________
2020-01-14 12:43:16,228 [INFO] dropout_4 (Dropout)          (None, 64)                0         
2020-01-14 12:43:16,228 [INFO] _________________________________________________________________
2020-01-14 12:43:16,228 [INFO] dense_5 (Dense)              (None, 128)               8320      
2020-01-14 12:43:16,228 [INFO] _________________________________________________________________
2020-01-14 12:43:16,228 [INFO] batch_normalization_5 (Batch (None, 128)               512       
2020-01-14 12:43:16,228 [INFO] _________________________________________________________________
2020-01-14 12:43:16,228 [INFO] dropout_5 (Dropout)          (None, 128)               0         
2020-01-14 12:43:16,228 [INFO] _________________________________________________________________
2020-01-14 12:43:16,229 [INFO] dense_6 (Dense)              (None, 122)               15738     
2020-01-14 12:43:16,229 [INFO] =================================================================
2020-01-14 12:43:16,229 [INFO] Total params: 53,914
2020-01-14 12:43:16,229 [INFO] Trainable params: 53,082
2020-01-14 12:43:16,229 [INFO] Non-trainable params: 832
2020-01-14 12:43:16,229 [INFO] _________________________________________________________________
2020-01-14 12:43:16,331 [INFO] _________________________________________________________________
2020-01-14 12:43:16,331 [INFO] Layer (type)                 Output Shape              Param #   
2020-01-14 12:43:16,331 [INFO] =================================================================
2020-01-14 12:43:16,331 [INFO] dense_7 (Dense)              (None, 64)                2112      
2020-01-14 12:43:16,331 [INFO] _________________________________________________________________
2020-01-14 12:43:16,331 [INFO] batch_normalization_6 (Batch (None, 64)                256       
2020-01-14 12:43:16,331 [INFO] _________________________________________________________________
2020-01-14 12:43:16,332 [INFO] dropout_6 (Dropout)          (None, 64)                0         
2020-01-14 12:43:16,332 [INFO] _________________________________________________________________
2020-01-14 12:43:16,332 [INFO] dense_8 (Dense)              (None, 5)                 325       
2020-01-14 12:43:16,332 [INFO] =================================================================
2020-01-14 12:43:16,332 [INFO] Total params: 2,693
2020-01-14 12:43:16,332 [INFO] Trainable params: 2,565
2020-01-14 12:43:16,332 [INFO] Non-trainable params: 128
2020-01-14 12:43:16,332 [INFO] _________________________________________________________________
2020-01-14 12:43:16,332 [INFO] Training model
…
