…
2020-01-05 01:03:03,076 [INFO] Reading complete. time_to_read=0.08 seconds
2020-01-05 01:03:03,076 [INFO] Reading HDF dataset ../Datasets/small_datasets/ids2018/y_test.h5
2020-01-05 01:03:03,161 [INFO] Reading complete. time_to_read=0.08 seconds
2020-01-05 01:03:07,017 [INFO] Initializing model
2020-01-05 01:03:07,288 [INFO] _________________________________________________________________
2020-01-05 01:03:07,289 [INFO] Layer (type)                 Output Shape              Param #   
2020-01-05 01:03:07,289 [INFO] =================================================================
2020-01-05 01:03:07,289 [INFO] dense_5 (Dense)              (None, 2000)              156000    
2020-01-05 01:03:07,289 [INFO] _________________________________________________________________
2020-01-05 01:03:07,289 [INFO] batch_normalization_4 (Batch (None, 2000)              8000      
2020-01-05 01:03:07,289 [INFO] _________________________________________________________________
2020-01-05 01:03:07,289 [INFO] dropout_4 (Dropout)          (None, 2000)              0         
2020-01-05 01:03:07,289 [INFO] _________________________________________________________________
2020-01-05 01:03:07,289 [INFO] dense_6 (Dense)              (None, 1000)              2001000   
2020-01-05 01:03:07,289 [INFO] _________________________________________________________________
2020-01-05 01:03:07,289 [INFO] batch_normalization_5 (Batch (None, 1000)              4000      
2020-01-05 01:03:07,289 [INFO] _________________________________________________________________
2020-01-05 01:03:07,289 [INFO] dropout_5 (Dropout)          (None, 1000)              0         
2020-01-05 01:03:07,289 [INFO] _________________________________________________________________
2020-01-05 01:03:07,289 [INFO] dense_7 (Dense)              (None, 500)               500500    
2020-01-05 01:03:07,289 [INFO] _________________________________________________________________
2020-01-05 01:03:07,290 [INFO] batch_normalization_6 (Batch (None, 500)               2000      
2020-01-05 01:03:07,290 [INFO] _________________________________________________________________
2020-01-05 01:03:07,290 [INFO] dropout_6 (Dropout)          (None, 500)               0         
2020-01-05 01:03:07,290 [INFO] _________________________________________________________________
2020-01-05 01:03:07,290 [INFO] dense_8 (Dense)              (None, 15)                7515      
2020-01-05 01:03:07,290 [INFO] =================================================================
2020-01-05 01:03:07,290 [INFO] Total params: 2,679,015
2020-01-05 01:03:07,290 [INFO] Trainable params: 2,672,015
2020-01-05 01:03:07,290 [INFO] Non-trainable params: 7,000
2020-01-05 01:03:07,290 [INFO] _________________________________________________________________
2020-01-05 01:03:07,290 [INFO] Training model
…
