…
2019-12-21 00:56:05,292 [INFO] Reading complete. time_to_read=0.07 seconds
2019-12-21 00:56:05,292 [INFO] Reading HDF dataset ../Datasets/full_datasets/ids2017/y_test.h5
2019-12-21 00:56:05,366 [INFO] Reading complete. time_to_read=0.07 seconds
2019-12-21 00:56:08,806 [INFO] Initializing model
2019-12-21 00:56:09,246 [INFO] _________________________________________________________________
2019-12-21 00:56:09,246 [INFO] Layer (type)                 Output Shape              Param #   
2019-12-21 00:56:09,246 [INFO] =================================================================
2019-12-21 00:56:09,246 [INFO] dense_11 (Dense)             (None, 256)               20224     
2019-12-21 00:56:09,246 [INFO] _________________________________________________________________
2019-12-21 00:56:09,246 [INFO] batch_normalization_9 (Batch (None, 256)               1024      
2019-12-21 00:56:09,246 [INFO] _________________________________________________________________
2019-12-21 00:56:09,247 [INFO] dropout_9 (Dropout)          (None, 256)               0         
2019-12-21 00:56:09,247 [INFO] _________________________________________________________________
2019-12-21 00:56:09,247 [INFO] dense_12 (Dense)             (None, 128)               32896     
2019-12-21 00:56:09,247 [INFO] _________________________________________________________________
2019-12-21 00:56:09,247 [INFO] batch_normalization_10 (Batc (None, 128)               512       
2019-12-21 00:56:09,247 [INFO] _________________________________________________________________
2019-12-21 00:56:09,247 [INFO] dropout_10 (Dropout)         (None, 128)               0         
2019-12-21 00:56:09,247 [INFO] _________________________________________________________________
2019-12-21 00:56:09,247 [INFO] dense_13 (Dense)             (None, 64)                8256      
2019-12-21 00:56:09,247 [INFO] _________________________________________________________________
2019-12-21 00:56:09,247 [INFO] batch_normalization_11 (Batc (None, 64)                256       
2019-12-21 00:56:09,247 [INFO] _________________________________________________________________
2019-12-21 00:56:09,247 [INFO] dropout_11 (Dropout)         (None, 64)                0         
2019-12-21 00:56:09,247 [INFO] _________________________________________________________________
2019-12-21 00:56:09,247 [INFO] dense_14 (Dense)             (None, 32)                2080      
2019-12-21 00:56:09,247 [INFO] _________________________________________________________________
2019-12-21 00:56:09,247 [INFO] batch_normalization_12 (Batc (None, 32)                128       
2019-12-21 00:56:09,248 [INFO] _________________________________________________________________
2019-12-21 00:56:09,248 [INFO] dropout_12 (Dropout)         (None, 32)                0         
2019-12-21 00:56:09,248 [INFO] _________________________________________________________________
2019-12-21 00:56:09,248 [INFO] dense_15 (Dense)             (None, 12)                396       
2019-12-21 00:56:09,248 [INFO] =================================================================
2019-12-21 00:56:09,248 [INFO] Total params: 65,772
2019-12-21 00:56:09,248 [INFO] Trainable params: 64,812
2019-12-21 00:56:09,248 [INFO] Non-trainable params: 960
2019-12-21 00:56:09,248 [INFO] _________________________________________________________________
2019-12-21 00:56:09,248 [INFO] Training model
…
