…
2020-01-09 01:38:42,340 [INFO] Reading complete. time_to_read=0.07 seconds
2020-01-09 01:38:42,340 [INFO] Reading HDF dataset ../Datasets/full_datasets/ids2017/y_test.h5
2020-01-09 01:38:42,406 [INFO] Reading complete. time_to_read=0.07 seconds
2020-01-09 01:38:45,616 [INFO] Initializing model
2020-01-09 01:38:46,494 [INFO] _________________________________________________________________
2020-01-09 01:38:46,494 [INFO] Layer (type)                 Output Shape              Param #   
2020-01-09 01:38:46,494 [INFO] =================================================================
2020-01-09 01:38:46,494 [INFO] dense_25 (Dense)             (None, 64)                5056      
2020-01-09 01:38:46,494 [INFO] _________________________________________________________________
2020-01-09 01:38:46,494 [INFO] batch_normalization_22 (Batc (None, 64)                256       
2020-01-09 01:38:46,494 [INFO] _________________________________________________________________
2020-01-09 01:38:46,494 [INFO] dropout_22 (Dropout)         (None, 64)                0         
2020-01-09 01:38:46,494 [INFO] _________________________________________________________________
2020-01-09 01:38:46,494 [INFO] dense_26 (Dense)             (None, 64)                4160      
2020-01-09 01:38:46,495 [INFO] _________________________________________________________________
2020-01-09 01:38:46,495 [INFO] batch_normalization_23 (Batc (None, 64)                256       
2020-01-09 01:38:46,495 [INFO] _________________________________________________________________
2020-01-09 01:38:46,495 [INFO] dropout_23 (Dropout)         (None, 64)                0         
2020-01-09 01:38:46,495 [INFO] _________________________________________________________________
2020-01-09 01:38:46,495 [INFO] dense_27 (Dense)             (None, 64)                4160      
2020-01-09 01:38:46,495 [INFO] _________________________________________________________________
2020-01-09 01:38:46,495 [INFO] batch_normalization_24 (Batc (None, 64)                256       
2020-01-09 01:38:46,495 [INFO] _________________________________________________________________
2020-01-09 01:38:46,495 [INFO] dropout_24 (Dropout)         (None, 64)                0         
2020-01-09 01:38:46,495 [INFO] _________________________________________________________________
2020-01-09 01:38:46,495 [INFO] dense_28 (Dense)             (None, 64)                4160      
2020-01-09 01:38:46,495 [INFO] _________________________________________________________________
2020-01-09 01:38:46,495 [INFO] batch_normalization_25 (Batc (None, 64)                256       
2020-01-09 01:38:46,495 [INFO] _________________________________________________________________
2020-01-09 01:38:46,495 [INFO] dropout_25 (Dropout)         (None, 64)                0         
2020-01-09 01:38:46,495 [INFO] _________________________________________________________________
2020-01-09 01:38:46,496 [INFO] dense_29 (Dense)             (None, 64)                4160      
2020-01-09 01:38:46,496 [INFO] _________________________________________________________________
2020-01-09 01:38:46,496 [INFO] batch_normalization_26 (Batc (None, 64)                256       
2020-01-09 01:38:46,496 [INFO] _________________________________________________________________
2020-01-09 01:38:46,496 [INFO] dropout_26 (Dropout)         (None, 64)                0         
2020-01-09 01:38:46,496 [INFO] _________________________________________________________________
2020-01-09 01:38:46,496 [INFO] dense_30 (Dense)             (None, 64)                4160      
2020-01-09 01:38:46,496 [INFO] _________________________________________________________________
2020-01-09 01:38:46,496 [INFO] batch_normalization_27 (Batc (None, 64)                256       
2020-01-09 01:38:46,496 [INFO] _________________________________________________________________
2020-01-09 01:38:46,496 [INFO] dropout_27 (Dropout)         (None, 64)                0         
2020-01-09 01:38:46,496 [INFO] _________________________________________________________________
2020-01-09 01:38:46,496 [INFO] dense_31 (Dense)             (None, 64)                4160      
2020-01-09 01:38:46,496 [INFO] _________________________________________________________________
2020-01-09 01:38:46,496 [INFO] batch_normalization_28 (Batc (None, 64)                256       
2020-01-09 01:38:46,496 [INFO] _________________________________________________________________
2020-01-09 01:38:46,496 [INFO] dropout_28 (Dropout)         (None, 64)                0         
2020-01-09 01:38:46,497 [INFO] _________________________________________________________________
2020-01-09 01:38:46,497 [INFO] dense_32 (Dense)             (None, 64)                4160      
2020-01-09 01:38:46,497 [INFO] _________________________________________________________________
2020-01-09 01:38:46,497 [INFO] batch_normalization_29 (Batc (None, 64)                256       
2020-01-09 01:38:46,497 [INFO] _________________________________________________________________
2020-01-09 01:38:46,497 [INFO] dropout_29 (Dropout)         (None, 64)                0         
2020-01-09 01:38:46,497 [INFO] _________________________________________________________________
2020-01-09 01:38:46,497 [INFO] dense_33 (Dense)             (None, 64)                4160      
2020-01-09 01:38:46,497 [INFO] _________________________________________________________________
2020-01-09 01:38:46,497 [INFO] batch_normalization_30 (Batc (None, 64)                256       
2020-01-09 01:38:46,497 [INFO] _________________________________________________________________
2020-01-09 01:38:46,497 [INFO] dropout_30 (Dropout)         (None, 64)                0         
2020-01-09 01:38:46,497 [INFO] _________________________________________________________________
2020-01-09 01:38:46,497 [INFO] dense_34 (Dense)             (None, 12)                780       
2020-01-09 01:38:46,497 [INFO] =================================================================
2020-01-09 01:38:46,498 [INFO] Total params: 41,420
2020-01-09 01:38:46,498 [INFO] Trainable params: 40,268
2020-01-09 01:38:46,498 [INFO] Non-trainable params: 1,152
2020-01-09 01:38:46,498 [INFO] _________________________________________________________________
2020-01-09 01:38:46,498 [INFO] Training model
…
