…
2019-12-22 22:02:31,803 [INFO] Reading complete. time_to_read=0.09 seconds
2019-12-22 22:02:31,803 [INFO] Reading HDF dataset ../Datasets/small_datasets/ids2018/y_test.h5
2019-12-22 22:02:31,889 [INFO] Reading complete. time_to_read=0.09 seconds
2019-12-22 22:02:35,815 [INFO] Initializing model
2019-12-22 22:02:36,175 [INFO] _________________________________________________________________
2019-12-22 22:02:36,175 [INFO] Layer (type)                 Output Shape              Param #   
2019-12-22 22:02:36,175 [INFO] =================================================================
2019-12-22 22:02:36,175 [INFO] dense_61 (Dense)             (None, 128)               9984      
2019-12-22 22:02:36,176 [INFO] _________________________________________________________________
2019-12-22 22:02:36,176 [INFO] batch_normalization_48 (Batc (None, 128)               512       
2019-12-22 22:02:36,176 [INFO] _________________________________________________________________
2019-12-22 22:02:36,176 [INFO] dropout_48 (Dropout)         (None, 128)               0         
2019-12-22 22:02:36,176 [INFO] _________________________________________________________________
2019-12-22 22:02:36,176 [INFO] dense_62 (Dense)             (None, 64)                8256      
2019-12-22 22:02:36,176 [INFO] _________________________________________________________________
2019-12-22 22:02:36,176 [INFO] batch_normalization_49 (Batc (None, 64)                256       
2019-12-22 22:02:36,176 [INFO] _________________________________________________________________
2019-12-22 22:02:36,176 [INFO] dropout_49 (Dropout)         (None, 64)                0         
2019-12-22 22:02:36,176 [INFO] _________________________________________________________________
2019-12-22 22:02:36,176 [INFO] dense_63 (Dense)             (None, 32)                2080      
2019-12-22 22:02:36,176 [INFO] _________________________________________________________________
2019-12-22 22:02:36,176 [INFO] batch_normalization_50 (Batc (None, 32)                128       
2019-12-22 22:02:36,176 [INFO] _________________________________________________________________
2019-12-22 22:02:36,176 [INFO] dropout_50 (Dropout)         (None, 32)                0         
2019-12-22 22:02:36,176 [INFO] _________________________________________________________________
2019-12-22 22:02:36,177 [INFO] dense_64 (Dense)             (None, 16)                528       
2019-12-22 22:02:36,177 [INFO] _________________________________________________________________
2019-12-22 22:02:36,177 [INFO] batch_normalization_51 (Batc (None, 16)                64        
2019-12-22 22:02:36,177 [INFO] _________________________________________________________________
2019-12-22 22:02:36,177 [INFO] dropout_51 (Dropout)         (None, 16)                0         
2019-12-22 22:02:36,177 [INFO] _________________________________________________________________
2019-12-22 22:02:36,177 [INFO] dense_65 (Dense)             (None, 15)                255       
2019-12-22 22:02:36,177 [INFO] =================================================================
2019-12-22 22:02:36,177 [INFO] Total params: 22,063
2019-12-22 22:02:36,177 [INFO] Trainable params: 21,583
2019-12-22 22:02:36,177 [INFO] Non-trainable params: 480
2019-12-22 22:02:36,177 [INFO] _________________________________________________________________
2019-12-22 22:02:36,177 [INFO] Training model
…
