…
2019-12-24 05:28:35,299 [INFO] Reading complete. time_to_read=0.08 seconds
2019-12-24 05:28:35,299 [INFO] Reading HDF dataset ../Datasets/full_datasets/ids2017/y_test.h5
2019-12-24 05:28:35,381 [INFO] Reading complete. time_to_read=0.08 seconds
2019-12-24 05:28:38,328 [INFO] Initializing model
2019-12-24 05:28:38,874 [INFO] _________________________________________________________________
2019-12-24 05:28:38,874 [INFO] Layer (type)                 Output Shape              Param #   
2019-12-24 05:28:38,877 [INFO] =================================================================
2019-12-24 05:28:38,877 [INFO] dense_69 (Dense)             (None, 128)               10112     
2019-12-24 05:28:38,877 [INFO] _________________________________________________________________
2019-12-24 05:28:38,877 [INFO] batch_normalization_47 (Batc (None, 128)               512       
2019-12-24 05:28:38,877 [INFO] _________________________________________________________________
2019-12-24 05:28:38,877 [INFO] dropout_47 (Dropout)         (None, 128)               0         
2019-12-24 05:28:38,877 [INFO] _________________________________________________________________
2019-12-24 05:28:38,877 [INFO] dense_70 (Dense)             (None, 64)                8256      
2019-12-24 05:28:38,877 [INFO] _________________________________________________________________
2019-12-24 05:28:38,878 [INFO] batch_normalization_48 (Batc (None, 64)                256       
2019-12-24 05:28:38,878 [INFO] _________________________________________________________________
2019-12-24 05:28:38,878 [INFO] dropout_48 (Dropout)         (None, 64)                0         
2019-12-24 05:28:38,878 [INFO] _________________________________________________________________
2019-12-24 05:28:38,878 [INFO] dense_71 (Dense)             (None, 32)                2080      
2019-12-24 05:28:38,878 [INFO] _________________________________________________________________
2019-12-24 05:28:38,878 [INFO] batch_normalization_49 (Batc (None, 32)                128       
2019-12-24 05:28:38,878 [INFO] _________________________________________________________________
2019-12-24 05:28:38,878 [INFO] dropout_49 (Dropout)         (None, 32)                0         
2019-12-24 05:28:38,878 [INFO] _________________________________________________________________
2019-12-24 05:28:38,878 [INFO] dense_72 (Dense)             (None, 64)                2112      
2019-12-24 05:28:38,878 [INFO] _________________________________________________________________
2019-12-24 05:28:38,879 [INFO] batch_normalization_50 (Batc (None, 64)                256       
2019-12-24 05:28:38,879 [INFO] _________________________________________________________________
2019-12-24 05:28:38,879 [INFO] dropout_50 (Dropout)         (None, 64)                0         
2019-12-24 05:28:38,879 [INFO] _________________________________________________________________
2019-12-24 05:28:38,879 [INFO] dense_73 (Dense)             (None, 128)               8320      
2019-12-24 05:28:38,879 [INFO] _________________________________________________________________
2019-12-24 05:28:38,879 [INFO] batch_normalization_51 (Batc (None, 128)               512       
2019-12-24 05:28:38,879 [INFO] _________________________________________________________________
2019-12-24 05:28:38,879 [INFO] dropout_51 (Dropout)         (None, 128)               0         
2019-12-24 05:28:38,879 [INFO] _________________________________________________________________
2019-12-24 05:28:38,879 [INFO] dense_74 (Dense)             (None, 78)                10062     
2019-12-24 05:28:38,879 [INFO] =================================================================
2019-12-24 05:28:38,880 [INFO] Total params: 42,606
2019-12-24 05:28:38,880 [INFO] Trainable params: 41,774
2019-12-24 05:28:38,880 [INFO] Non-trainable params: 832
2019-12-24 05:28:38,880 [INFO] _________________________________________________________________
2019-12-24 05:28:39,018 [INFO] _________________________________________________________________
2019-12-24 05:28:39,018 [INFO] Layer (type)                 Output Shape              Param #   
2019-12-24 05:28:39,018 [INFO] =================================================================
2019-12-24 05:28:39,018 [INFO] dense_75 (Dense)             (None, 64)                2112      
2019-12-24 05:28:39,018 [INFO] _________________________________________________________________
2019-12-24 05:28:39,018 [INFO] batch_normalization_52 (Batc (None, 64)                256       
2019-12-24 05:28:39,018 [INFO] _________________________________________________________________
2019-12-24 05:28:39,018 [INFO] dropout_52 (Dropout)         (None, 64)                0         
2019-12-24 05:28:39,018 [INFO] _________________________________________________________________
2019-12-24 05:28:39,018 [INFO] dense_76 (Dense)             (None, 12)                780       
2019-12-24 05:28:39,019 [INFO] =================================================================
2019-12-24 05:28:39,019 [INFO] Total params: 3,148
2019-12-24 05:28:39,019 [INFO] Trainable params: 3,020
2019-12-24 05:28:39,019 [INFO] Non-trainable params: 128
2019-12-24 05:28:39,019 [INFO] _________________________________________________________________
2019-12-24 05:28:39,019 [INFO] Training model
…
