…
2020-01-08 14:31:59,075 [INFO] Reading complete. time_to_read=0.00 seconds
2020-01-08 14:31:59,075 [INFO] Reading HDF dataset ../Datasets/small_datasets/nsl_kdd_five_classes/y_test.h5
2020-01-08 14:31:59,078 [INFO] Reading complete. time_to_read=0.00 seconds
2020-01-08 14:31:59,268 [INFO] Initializing model
2020-01-08 14:31:59,847 [INFO] _________________________________________________________________
2020-01-08 14:31:59,847 [INFO] Layer (type)                 Output Shape              Param #   
2020-01-08 14:31:59,847 [INFO] =================================================================
2020-01-08 14:31:59,847 [INFO] dense_28 (Dense)             (None, 64)                7872      
2020-01-08 14:31:59,847 [INFO] _________________________________________________________________
2020-01-08 14:31:59,848 [INFO] batch_normalization_22 (Batc (None, 64)                256       
2020-01-08 14:31:59,848 [INFO] _________________________________________________________________
2020-01-08 14:31:59,848 [INFO] dropout_22 (Dropout)         (None, 64)                0         
2020-01-08 14:31:59,848 [INFO] _________________________________________________________________
2020-01-08 14:31:59,848 [INFO] dense_29 (Dense)             (None, 64)                4160      
2020-01-08 14:31:59,848 [INFO] _________________________________________________________________
2020-01-08 14:31:59,848 [INFO] batch_normalization_23 (Batc (None, 64)                256       
2020-01-08 14:31:59,848 [INFO] _________________________________________________________________
2020-01-08 14:31:59,848 [INFO] dropout_23 (Dropout)         (None, 64)                0         
2020-01-08 14:31:59,848 [INFO] _________________________________________________________________
2020-01-08 14:31:59,848 [INFO] dense_30 (Dense)             (None, 64)                4160      
2020-01-08 14:31:59,848 [INFO] _________________________________________________________________
2020-01-08 14:31:59,848 [INFO] batch_normalization_24 (Batc (None, 64)                256       
2020-01-08 14:31:59,848 [INFO] _________________________________________________________________
2020-01-08 14:31:59,848 [INFO] dropout_24 (Dropout)         (None, 64)                0         
2020-01-08 14:31:59,848 [INFO] _________________________________________________________________
2020-01-08 14:31:59,848 [INFO] dense_31 (Dense)             (None, 64)                4160      
2020-01-08 14:31:59,848 [INFO] _________________________________________________________________
2020-01-08 14:31:59,849 [INFO] batch_normalization_25 (Batc (None, 64)                256       
2020-01-08 14:31:59,849 [INFO] _________________________________________________________________
2020-01-08 14:31:59,849 [INFO] dropout_25 (Dropout)         (None, 64)                0         
2020-01-08 14:31:59,849 [INFO] _________________________________________________________________
2020-01-08 14:31:59,849 [INFO] dense_32 (Dense)             (None, 64)                4160      
2020-01-08 14:31:59,849 [INFO] _________________________________________________________________
2020-01-08 14:31:59,849 [INFO] batch_normalization_26 (Batc (None, 64)                256       
2020-01-08 14:31:59,849 [INFO] _________________________________________________________________
2020-01-08 14:31:59,849 [INFO] dropout_26 (Dropout)         (None, 64)                0         
2020-01-08 14:31:59,849 [INFO] _________________________________________________________________
2020-01-08 14:31:59,849 [INFO] dense_33 (Dense)             (None, 64)                4160      
2020-01-08 14:31:59,849 [INFO] _________________________________________________________________
2020-01-08 14:31:59,849 [INFO] batch_normalization_27 (Batc (None, 64)                256       
2020-01-08 14:31:59,849 [INFO] _________________________________________________________________
2020-01-08 14:31:59,849 [INFO] dropout_27 (Dropout)         (None, 64)                0         
2020-01-08 14:31:59,849 [INFO] _________________________________________________________________
2020-01-08 14:31:59,849 [INFO] dense_34 (Dense)             (None, 64)                4160      
2020-01-08 14:31:59,849 [INFO] _________________________________________________________________
2020-01-08 14:31:59,850 [INFO] batch_normalization_28 (Batc (None, 64)                256       
2020-01-08 14:31:59,850 [INFO] _________________________________________________________________
2020-01-08 14:31:59,850 [INFO] dropout_28 (Dropout)         (None, 64)                0         
2020-01-08 14:31:59,850 [INFO] _________________________________________________________________
2020-01-08 14:31:59,850 [INFO] dense_35 (Dense)             (None, 5)                 325       
2020-01-08 14:31:59,850 [INFO] =================================================================
2020-01-08 14:31:59,850 [INFO] Total params: 34,949
2020-01-08 14:31:59,850 [INFO] Trainable params: 34,053
2020-01-08 14:31:59,850 [INFO] Non-trainable params: 896
2020-01-08 14:31:59,850 [INFO] _________________________________________________________________
2020-01-08 14:31:59,850 [INFO] Training model
…
