…
2020-01-14 18:48:23,671 [INFO] Reading complete. time_to_read=0.12 seconds
2020-01-14 18:48:23,671 [INFO] Reading HDF dataset ../Datasets/full_datasets/kdd99_five_classes/y_test.h5
2020-01-14 18:48:23,725 [INFO] Reading complete. time_to_read=0.05 seconds
2020-01-14 18:49:16,588 [INFO] Initializing model
2020-01-14 18:49:20,489 [INFO] _________________________________________________________________
2020-01-14 18:49:20,491 [INFO] Layer (type)                 Output Shape              Param #   
2020-01-14 18:49:20,491 [INFO] =================================================================
2020-01-14 18:49:20,492 [INFO] dense_89 (Dense)             (None, 128)               15872     
2020-01-14 18:49:20,492 [INFO] _________________________________________________________________
2020-01-14 18:49:20,492 [INFO] batch_normalization_67 (Batc (None, 128)               512       
2020-01-14 18:49:20,492 [INFO] _________________________________________________________________
2020-01-14 18:49:20,492 [INFO] dropout_67 (Dropout)         (None, 128)               0         
2020-01-14 18:49:20,493 [INFO] _________________________________________________________________
2020-01-14 18:49:20,493 [INFO] dense_90 (Dense)             (None, 64)                8256      
2020-01-14 18:49:20,493 [INFO] _________________________________________________________________
2020-01-14 18:49:20,493 [INFO] batch_normalization_68 (Batc (None, 64)                256       
2020-01-14 18:49:20,493 [INFO] _________________________________________________________________
2020-01-14 18:49:20,493 [INFO] dropout_68 (Dropout)         (None, 64)                0         
2020-01-14 18:49:20,493 [INFO] _________________________________________________________________
2020-01-14 18:49:20,493 [INFO] dense_91 (Dense)             (None, 32)                2080      
2020-01-14 18:49:20,493 [INFO] _________________________________________________________________
2020-01-14 18:49:20,493 [INFO] batch_normalization_69 (Batc (None, 32)                128       
2020-01-14 18:49:20,493 [INFO] _________________________________________________________________
2020-01-14 18:49:20,493 [INFO] dropout_69 (Dropout)         (None, 32)                0         
2020-01-14 18:49:20,493 [INFO] _________________________________________________________________
2020-01-14 18:49:20,494 [INFO] dense_92 (Dense)             (None, 64)                2112      
2020-01-14 18:49:20,494 [INFO] _________________________________________________________________
2020-01-14 18:49:20,494 [INFO] batch_normalization_70 (Batc (None, 64)                256       
2020-01-14 18:49:20,494 [INFO] _________________________________________________________________
2020-01-14 18:49:20,494 [INFO] dropout_70 (Dropout)         (None, 64)                0         
2020-01-14 18:49:20,494 [INFO] _________________________________________________________________
2020-01-14 18:49:20,494 [INFO] dense_93 (Dense)             (None, 128)               8320      
2020-01-14 18:49:20,494 [INFO] _________________________________________________________________
2020-01-14 18:49:20,494 [INFO] batch_normalization_71 (Batc (None, 128)               512       
2020-01-14 18:49:20,494 [INFO] _________________________________________________________________
2020-01-14 18:49:20,494 [INFO] dropout_71 (Dropout)         (None, 128)               0         
2020-01-14 18:49:20,494 [INFO] _________________________________________________________________
2020-01-14 18:49:20,494 [INFO] dense_94 (Dense)             (None, 123)               15867     
2020-01-14 18:49:20,495 [INFO] =================================================================
2020-01-14 18:49:20,495 [INFO] Total params: 54,171
2020-01-14 18:49:20,495 [INFO] Trainable params: 53,339
2020-01-14 18:49:20,495 [INFO] Non-trainable params: 832
2020-01-14 18:49:20,495 [INFO] _________________________________________________________________
2020-01-14 18:49:20,888 [INFO] _________________________________________________________________
2020-01-14 18:49:20,889 [INFO] Layer (type)                 Output Shape              Param #   
2020-01-14 18:49:20,889 [INFO] =================================================================
2020-01-14 18:49:20,889 [INFO] dense_95 (Dense)             (None, 64)                2112      
2020-01-14 18:49:20,889 [INFO] _________________________________________________________________
2020-01-14 18:49:20,889 [INFO] batch_normalization_72 (Batc (None, 64)                256       
2020-01-14 18:49:20,889 [INFO] _________________________________________________________________
2020-01-14 18:49:20,889 [INFO] dropout_72 (Dropout)         (None, 64)                0         
2020-01-14 18:49:20,889 [INFO] _________________________________________________________________
2020-01-14 18:49:20,890 [INFO] dense_96 (Dense)             (None, 5)                 325       
2020-01-14 18:49:20,890 [INFO] =================================================================
2020-01-14 18:49:20,890 [INFO] Total params: 2,693
2020-01-14 18:49:20,890 [INFO] Trainable params: 2,565
2020-01-14 18:49:20,890 [INFO] Non-trainable params: 128
2020-01-14 18:49:20,890 [INFO] _________________________________________________________________
2020-01-14 18:49:20,890 [INFO] Training model
…
