…
2020-01-14 15:13:18,834 [INFO] Reading complete. time_to_read=0.07 seconds
2020-01-14 15:13:18,834 [INFO] Reading HDF dataset ../Datasets/full_datasets/ids2017/y_test.h5
2020-01-14 15:13:18,908 [INFO] Reading complete. time_to_read=0.07 seconds
2020-01-14 15:13:22,358 [INFO] Initializing model
2020-01-14 15:13:22,793 [INFO] _________________________________________________________________
2020-01-14 15:13:22,794 [INFO] Layer (type)                 Output Shape              Param #   
2020-01-14 15:13:22,794 [INFO] =================================================================
2020-01-14 15:13:22,794 [INFO] dense_41 (Dense)             (None, 128)               10112     
2020-01-14 15:13:22,794 [INFO] _________________________________________________________________
2020-01-14 15:13:22,794 [INFO] batch_normalization_31 (Batc (None, 128)               512       
2020-01-14 15:13:22,794 [INFO] _________________________________________________________________
2020-01-14 15:13:22,794 [INFO] dropout_31 (Dropout)         (None, 128)               0         
2020-01-14 15:13:22,794 [INFO] _________________________________________________________________
2020-01-14 15:13:22,794 [INFO] dense_42 (Dense)             (None, 64)                8256      
2020-01-14 15:13:22,794 [INFO] _________________________________________________________________
2020-01-14 15:13:22,794 [INFO] batch_normalization_32 (Batc (None, 64)                256       
2020-01-14 15:13:22,794 [INFO] _________________________________________________________________
2020-01-14 15:13:22,794 [INFO] dropout_32 (Dropout)         (None, 64)                0         
2020-01-14 15:13:22,794 [INFO] _________________________________________________________________
2020-01-14 15:13:22,794 [INFO] dense_43 (Dense)             (None, 32)                2080      
2020-01-14 15:13:22,794 [INFO] _________________________________________________________________
2020-01-14 15:13:22,795 [INFO] batch_normalization_33 (Batc (None, 32)                128       
2020-01-14 15:13:22,795 [INFO] _________________________________________________________________
2020-01-14 15:13:22,795 [INFO] dropout_33 (Dropout)         (None, 32)                0         
2020-01-14 15:13:22,795 [INFO] _________________________________________________________________
2020-01-14 15:13:22,795 [INFO] dense_44 (Dense)             (None, 64)                2112      
2020-01-14 15:13:22,795 [INFO] _________________________________________________________________
2020-01-14 15:13:22,795 [INFO] batch_normalization_34 (Batc (None, 64)                256       
2020-01-14 15:13:22,795 [INFO] _________________________________________________________________
2020-01-14 15:13:22,795 [INFO] dropout_34 (Dropout)         (None, 64)                0         
2020-01-14 15:13:22,795 [INFO] _________________________________________________________________
2020-01-14 15:13:22,795 [INFO] dense_45 (Dense)             (None, 128)               8320      
2020-01-14 15:13:22,795 [INFO] _________________________________________________________________
2020-01-14 15:13:22,795 [INFO] batch_normalization_35 (Batc (None, 128)               512       
2020-01-14 15:13:22,795 [INFO] _________________________________________________________________
2020-01-14 15:13:22,795 [INFO] dropout_35 (Dropout)         (None, 128)               0         
2020-01-14 15:13:22,795 [INFO] _________________________________________________________________
2020-01-14 15:13:22,795 [INFO] dense_46 (Dense)             (None, 78)                10062     
2020-01-14 15:13:22,795 [INFO] =================================================================
2020-01-14 15:13:22,796 [INFO] Total params: 42,606
2020-01-14 15:13:22,796 [INFO] Trainable params: 41,774
2020-01-14 15:13:22,796 [INFO] Non-trainable params: 832
2020-01-14 15:13:22,796 [INFO] _________________________________________________________________
2020-01-14 15:13:22,903 [INFO] _________________________________________________________________
2020-01-14 15:13:22,903 [INFO] Layer (type)                 Output Shape              Param #   
2020-01-14 15:13:22,903 [INFO] =================================================================
2020-01-14 15:13:22,903 [INFO] dense_47 (Dense)             (None, 64)                2112      
2020-01-14 15:13:22,903 [INFO] _________________________________________________________________
2020-01-14 15:13:22,903 [INFO] batch_normalization_36 (Batc (None, 64)                256       
2020-01-14 15:13:22,903 [INFO] _________________________________________________________________
2020-01-14 15:13:22,904 [INFO] dropout_36 (Dropout)         (None, 64)                0         
2020-01-14 15:13:22,904 [INFO] _________________________________________________________________
2020-01-14 15:13:22,904 [INFO] dense_48 (Dense)             (None, 12)                780       
2020-01-14 15:13:22,904 [INFO] =================================================================
2020-01-14 15:13:22,904 [INFO] Total params: 3,148
2020-01-14 15:13:22,904 [INFO] Trainable params: 3,020
2020-01-14 15:13:22,904 [INFO] Non-trainable params: 128
2020-01-14 15:13:22,904 [INFO] _________________________________________________________________
2020-01-14 15:13:22,904 [INFO] Training model
…
