…
2019-12-31 23:24:39,391 [INFO] Pretraining Deep Belief Network
2020-01-01 00:10:18,034 [INFO] Pretraining Complete
2020-01-01 00:10:18,034 [INFO] Getting pretrained weights
2020-01-01 00:10:18,034 [INFO] Creating and initializing feed forward neural network
2020-01-01 00:10:18,330 [INFO] _________________________________________________________________
2020-01-01 00:10:18,330 [INFO] Layer (type)                 Output Shape              Param #   
2020-01-01 00:10:18,330 [INFO] =================================================================
2020-01-01 00:10:18,330 [INFO] dense_17 (Dense)             (None, 128)               15872     
2020-01-01 00:10:18,330 [INFO] _________________________________________________________________
2020-01-01 00:10:18,330 [INFO] batch_normalization_13 (Batc (None, 128)               512       
2020-01-01 00:10:18,330 [INFO] _________________________________________________________________
2020-01-01 00:10:18,330 [INFO] dropout_13 (Dropout)         (None, 128)               0         
2020-01-01 00:10:18,330 [INFO] _________________________________________________________________
2020-01-01 00:10:18,330 [INFO] dense_18 (Dense)             (None, 64)                8256      
2020-01-01 00:10:18,330 [INFO] _________________________________________________________________
2020-01-01 00:10:18,331 [INFO] batch_normalization_14 (Batc (None, 64)                256       
2020-01-01 00:10:18,331 [INFO] _________________________________________________________________
2020-01-01 00:10:18,331 [INFO] dropout_14 (Dropout)         (None, 64)                0         
2020-01-01 00:10:18,331 [INFO] _________________________________________________________________
2020-01-01 00:10:18,331 [INFO] dense_19 (Dense)             (None, 36)                2340      
2020-01-01 00:10:18,331 [INFO] _________________________________________________________________
2020-01-01 00:10:18,331 [INFO] batch_normalization_15 (Batc (None, 36)                144       
2020-01-01 00:10:18,331 [INFO] _________________________________________________________________
2020-01-01 00:10:18,331 [INFO] dropout_15 (Dropout)         (None, 36)                0         
2020-01-01 00:10:18,331 [INFO] _________________________________________________________________
2020-01-01 00:10:18,331 [INFO] dense_20 (Dense)             (None, 5)                 185       
2020-01-01 00:10:18,331 [INFO] =================================================================
2020-01-01 00:10:18,332 [INFO] Total params: 27,565
2020-01-01 00:10:18,332 [INFO] Trainable params: 27,109
2020-01-01 00:10:18,332 [INFO] Non-trainable params: 456
2020-01-01 00:10:18,332 [INFO] _________________________________________________________________
2020-01-01 00:10:19,602 [INFO] Fine-tuning final neural network
…
