…
2020-01-14 12:24:30,533 [INFO] Pretraining Deep Belief Network
2020-01-14 12:31:48,555 [INFO] Pretraining Complete
2020-01-14 12:31:48,555 [INFO] Getting pretrained weights
2020-01-14 12:31:48,555 [INFO] Creating and initializing feed forward neural network
2020-01-14 12:31:48,850 [INFO] _________________________________________________________________
2020-01-14 12:31:48,850 [INFO] Layer (type)                 Output Shape              Param #   
2020-01-14 12:31:48,850 [INFO] =================================================================
2020-01-14 12:31:48,850 [INFO] dense_13 (Dense)             (None, 128)               10112     
2020-01-14 12:31:48,850 [INFO] _________________________________________________________________
2020-01-14 12:31:48,851 [INFO] batch_normalization_10 (Batc (None, 128)               512       
2020-01-14 12:31:48,851 [INFO] _________________________________________________________________
2020-01-14 12:31:48,851 [INFO] dropout_10 (Dropout)         (None, 128)               0         
2020-01-14 12:31:48,851 [INFO] _________________________________________________________________
2020-01-14 12:31:48,851 [INFO] dense_14 (Dense)             (None, 64)                8256      
2020-01-14 12:31:48,851 [INFO] _________________________________________________________________
2020-01-14 12:31:48,851 [INFO] batch_normalization_11 (Batc (None, 64)                256       
2020-01-14 12:31:48,851 [INFO] _________________________________________________________________
2020-01-14 12:31:48,851 [INFO] dropout_11 (Dropout)         (None, 64)                0         
2020-01-14 12:31:48,851 [INFO] _________________________________________________________________
2020-01-14 12:31:48,851 [INFO] dense_15 (Dense)             (None, 32)                2080      
2020-01-14 12:31:48,851 [INFO] _________________________________________________________________
2020-01-14 12:31:48,852 [INFO] batch_normalization_12 (Batc (None, 32)                128       
2020-01-14 12:31:48,852 [INFO] _________________________________________________________________
2020-01-14 12:31:48,852 [INFO] dropout_12 (Dropout)         (None, 32)                0         
2020-01-14 12:31:48,852 [INFO] _________________________________________________________________
2020-01-14 12:31:48,852 [INFO] dense_16 (Dense)             (None, 12)                396       
2020-01-14 12:31:48,852 [INFO] =================================================================
2020-01-14 12:31:48,852 [INFO] Total params: 21,740
2020-01-14 12:31:48,852 [INFO] Trainable params: 21,292
2020-01-14 12:31:48,852 [INFO] Non-trainable params: 448
2020-01-14 12:31:48,852 [INFO] _________________________________________________________________
2020-01-14 12:31:49,822 [INFO] Fine-tuning final neural network
…
