…
2019-12-27 00:24:19,794 [INFO] Reading complete. time_to_read=0.00 seconds
2019-12-27 00:24:19,794 [INFO] Reading HDF dataset ../Datasets/small_datasets/nsl_kdd_five_classes/y_test.h5
2019-12-27 00:24:19,798 [INFO] Reading complete. time_to_read=0.00 seconds
2019-12-27 00:24:19,984 [INFO] Initializing model
2019-12-27 00:24:20,471 [INFO] _________________________________________________________________
2019-12-27 00:24:20,471 [INFO] Layer (type)                 Output Shape              Param #   
2019-12-27 00:24:20,471 [INFO] =================================================================
2019-12-27 00:24:20,471 [INFO] dense_21 (Dense)             (None, 400)               49200     
2019-12-27 00:24:20,471 [INFO] _________________________________________________________________
2019-12-27 00:24:20,471 [INFO] batch_normalization_16 (Batc (None, 400)               1600      
2019-12-27 00:24:20,471 [INFO] _________________________________________________________________
2019-12-27 00:24:20,471 [INFO] dropout_16 (Dropout)         (None, 400)               0         
2019-12-27 00:24:20,471 [INFO] _________________________________________________________________
2019-12-27 00:24:20,472 [INFO] dense_22 (Dense)             (None, 256)               102656    
2019-12-27 00:24:20,472 [INFO] _________________________________________________________________
2019-12-27 00:24:20,472 [INFO] batch_normalization_17 (Batc (None, 256)               1024      
2019-12-27 00:24:20,472 [INFO] _________________________________________________________________
2019-12-27 00:24:20,472 [INFO] dropout_17 (Dropout)         (None, 256)               0         
2019-12-27 00:24:20,472 [INFO] _________________________________________________________________
2019-12-27 00:24:20,472 [INFO] dense_23 (Dense)             (None, 128)               32896     
2019-12-27 00:24:20,472 [INFO] _________________________________________________________________
2019-12-27 00:24:20,472 [INFO] batch_normalization_18 (Batc (None, 128)               512       
2019-12-27 00:24:20,472 [INFO] _________________________________________________________________
2019-12-27 00:24:20,472 [INFO] dropout_18 (Dropout)         (None, 128)               0         
2019-12-27 00:24:20,472 [INFO] _________________________________________________________________
2019-12-27 00:24:20,472 [INFO] dense_24 (Dense)             (None, 64)                8256      
2019-12-27 00:24:20,472 [INFO] _________________________________________________________________
2019-12-27 00:24:20,472 [INFO] batch_normalization_19 (Batc (None, 64)                256       
2019-12-27 00:24:20,472 [INFO] _________________________________________________________________
2019-12-27 00:24:20,473 [INFO] dropout_19 (Dropout)         (None, 64)                0         
2019-12-27 00:24:20,473 [INFO] _________________________________________________________________
2019-12-27 00:24:20,473 [INFO] dense_25 (Dense)             (None, 32)                2080      
2019-12-27 00:24:20,473 [INFO] _________________________________________________________________
2019-12-27 00:24:20,473 [INFO] batch_normalization_20 (Batc (None, 32)                128       
2019-12-27 00:24:20,473 [INFO] _________________________________________________________________
2019-12-27 00:24:20,473 [INFO] dropout_20 (Dropout)         (None, 32)                0         
2019-12-27 00:24:20,473 [INFO] _________________________________________________________________
2019-12-27 00:24:20,473 [INFO] dense_26 (Dense)             (None, 16)                528       
2019-12-27 00:24:20,473 [INFO] _________________________________________________________________
2019-12-27 00:24:20,473 [INFO] batch_normalization_21 (Batc (None, 16)                64        
2019-12-27 00:24:20,473 [INFO] _________________________________________________________________
2019-12-27 00:24:20,473 [INFO] dropout_21 (Dropout)         (None, 16)                0         
2019-12-27 00:24:20,473 [INFO] _________________________________________________________________
2019-12-27 00:24:20,473 [INFO] dense_27 (Dense)             (None, 5)                 85        
2019-12-27 00:24:20,473 [INFO] =================================================================
2019-12-27 00:24:20,474 [INFO] Total params: 199,285
2019-12-27 00:24:20,474 [INFO] Trainable params: 197,493
2019-12-27 00:24:20,474 [INFO] Non-trainable params: 1,792
2019-12-27 00:24:20,474 [INFO] _________________________________________________________________
2019-12-27 00:24:20,474 [INFO] Training model
…
