…
2020-05-09 16:58:30,286 [INFO] Reading HDF dataset ../Datasets/full_datasets/ids2018/y_test_9.h5
2020-05-09 16:58:30,401 [INFO] Reading complete. time_to_read=0.11 seconds
2020-05-09 16:58:37,457 [INFO] Initializing model
2020-05-09 16:58:37,633 [INFO] Model: "sequential_5"
2020-05-09 16:58:37,633 [INFO] _________________________________________________________________
2020-05-09 16:58:37,633 [INFO] Layer (type)                 Output Shape              Param #   
2020-05-09 16:58:37,633 [INFO] =================================================================
2020-05-09 16:58:37,633 [INFO] dense_17 (Dense)             (None, 128)               9984      
2020-05-09 16:58:37,633 [INFO] _________________________________________________________________
2020-05-09 16:58:37,633 [INFO] batch_normalization_13 (Batc (None, 128)               512       
2020-05-09 16:58:37,633 [INFO] _________________________________________________________________
2020-05-09 16:58:37,633 [INFO] dropout_13 (Dropout)         (None, 128)               0         
2020-05-09 16:58:37,633 [INFO] _________________________________________________________________
2020-05-09 16:58:37,633 [INFO] dense_18 (Dense)             (None, 64)                8256      
2020-05-09 16:58:37,634 [INFO] _________________________________________________________________
2020-05-09 16:58:37,634 [INFO] batch_normalization_14 (Batc (None, 64)                256       
2020-05-09 16:58:37,634 [INFO] _________________________________________________________________
2020-05-09 16:58:37,634 [INFO] dropout_14 (Dropout)         (None, 64)                0         
2020-05-09 16:58:37,634 [INFO] _________________________________________________________________
2020-05-09 16:58:37,634 [INFO] dense_19 (Dense)             (None, 32)                2080      
2020-05-09 16:58:37,634 [INFO] _________________________________________________________________
2020-05-09 16:58:37,634 [INFO] batch_normalization_15 (Batc (None, 32)                128       
2020-05-09 16:58:37,634 [INFO] _________________________________________________________________
2020-05-09 16:58:37,634 [INFO] dropout_15 (Dropout)         (None, 32)                0         
2020-05-09 16:58:37,634 [INFO] _________________________________________________________________
2020-05-09 16:58:37,634 [INFO] dense_20 (Dense)             (None, 64)                2112      
2020-05-09 16:58:37,634 [INFO] _________________________________________________________________
2020-05-09 16:58:37,634 [INFO] batch_normalization_16 (Batc (None, 64)                256       
2020-05-09 16:58:37,634 [INFO] _________________________________________________________________
2020-05-09 16:58:37,634 [INFO] dropout_16 (Dropout)         (None, 64)                0         
2020-05-09 16:58:37,634 [INFO] _________________________________________________________________
2020-05-09 16:58:37,634 [INFO] dense_21 (Dense)             (None, 128)               8320      
2020-05-09 16:58:37,634 [INFO] _________________________________________________________________
2020-05-09 16:58:37,634 [INFO] batch_normalization_17 (Batc (None, 128)               512       
2020-05-09 16:58:37,634 [INFO] _________________________________________________________________
2020-05-09 16:58:37,634 [INFO] dropout_17 (Dropout)         (None, 128)               0         
2020-05-09 16:58:37,634 [INFO] _________________________________________________________________
2020-05-09 16:58:37,635 [INFO] dense_22 (Dense)             (None, 77)                9933      
2020-05-09 16:58:37,635 [INFO] =================================================================
2020-05-09 16:58:37,635 [INFO] Total params: 42,349
2020-05-09 16:58:37,635 [INFO] Trainable params: 41,517
2020-05-09 16:58:37,635 [INFO] Non-trainable params: 832
2020-05-09 16:58:37,635 [INFO] _________________________________________________________________
2020-05-09 16:58:37,672 [INFO] Model: "sequential_6"
2020-05-09 16:58:37,672 [INFO] _________________________________________________________________
2020-05-09 16:58:37,672 [INFO] Layer (type)                 Output Shape              Param #   
2020-05-09 16:58:37,672 [INFO] =================================================================
2020-05-09 16:58:37,672 [INFO] dense_23 (Dense)             (None, 64)                2112      
2020-05-09 16:58:37,672 [INFO] _________________________________________________________________
2020-05-09 16:58:37,672 [INFO] batch_normalization_18 (Batc (None, 64)                256       
2020-05-09 16:58:37,672 [INFO] _________________________________________________________________
2020-05-09 16:58:37,672 [INFO] dropout_18 (Dropout)         (None, 64)                0         
2020-05-09 16:58:37,672 [INFO] _________________________________________________________________
2020-05-09 16:58:37,672 [INFO] dense_24 (Dense)             (None, 15)                975       
2020-05-09 16:58:37,672 [INFO] =================================================================
2020-05-09 16:58:37,672 [INFO] Total params: 3,343
2020-05-09 16:58:37,672 [INFO] Trainable params: 3,215
2020-05-09 16:58:37,672 [INFO] Non-trainable params: 128
2020-05-09 16:58:37,672 [INFO] _________________________________________________________________
2020-05-09 16:58:37,672 [INFO] Training model
…
