…
2020-01-13 23:48:19,921 [INFO] Reading complete. time_to_read=0.06 seconds
2020-01-13 23:48:19,922 [INFO] Reading HDF dataset ../Datasets/full_datasets/kdd99_five_classes/y_test.h5
2020-01-13 23:48:19,942 [INFO] Reading complete. time_to_read=0.02 seconds
2020-01-13 23:48:27,230 [INFO] Initializing model
2020-01-13 23:48:27,545 [INFO] _________________________________________________________________
2020-01-13 23:48:27,545 [INFO] Layer (type)                 Output Shape              Param #   
2020-01-13 23:48:27,545 [INFO] =================================================================
2020-01-13 23:48:27,545 [INFO] dense_36 (Dense)             (None, 64)                7936      
2020-01-13 23:48:27,545 [INFO] _________________________________________________________________
2020-01-13 23:48:27,545 [INFO] batch_normalization_28 (Batc (None, 64)                256       
2020-01-13 23:48:27,545 [INFO] _________________________________________________________________
2020-01-13 23:48:27,545 [INFO] dropout_28 (Dropout)         (None, 64)                0         
2020-01-13 23:48:27,545 [INFO] _________________________________________________________________
2020-01-13 23:48:27,546 [INFO] dense_37 (Dense)             (None, 32)                2080      
2020-01-13 23:48:27,546 [INFO] _________________________________________________________________
2020-01-13 23:48:27,546 [INFO] batch_normalization_29 (Batc (None, 32)                128       
2020-01-13 23:48:27,546 [INFO] _________________________________________________________________
2020-01-13 23:48:27,546 [INFO] dropout_29 (Dropout)         (None, 32)                0         
2020-01-13 23:48:27,546 [INFO] _________________________________________________________________
2020-01-13 23:48:27,546 [INFO] dense_38 (Dense)             (None, 66)                2178      
2020-01-13 23:48:27,546 [INFO] _________________________________________________________________
2020-01-13 23:48:27,546 [INFO] batch_normalization_30 (Batc (None, 66)                264       
2020-01-13 23:48:27,546 [INFO] _________________________________________________________________
2020-01-13 23:48:27,546 [INFO] dropout_30 (Dropout)         (None, 66)                0         
2020-01-13 23:48:27,546 [INFO] _________________________________________________________________
2020-01-13 23:48:27,547 [INFO] dense_39 (Dense)             (None, 5)                 335       
2020-01-13 23:48:27,547 [INFO] =================================================================
2020-01-13 23:48:27,547 [INFO] Total params: 13,177
2020-01-13 23:48:27,547 [INFO] Trainable params: 12,853
2020-01-13 23:48:27,547 [INFO] Non-trainable params: 324
2020-01-13 23:48:27,547 [INFO] _________________________________________________________________
2020-01-13 23:48:27,547 [INFO] Training model
…
