…
2019-12-27 00:06:24,520 [INFO] Reading complete. time_to_read=0.00 seconds
2019-12-27 00:06:24,520 [INFO] Reading HDF dataset ../Datasets/small_datasets/nsl_kdd_five_classes/y_test.h5
2019-12-27 00:06:24,523 [INFO] Reading complete. time_to_read=0.00 seconds
2019-12-27 00:06:24,710 [INFO] Initializing model
2019-12-27 00:06:25,036 [INFO] _________________________________________________________________
2019-12-27 00:06:25,037 [INFO] Layer (type)                 Output Shape              Param #   
2019-12-27 00:06:25,037 [INFO] =================================================================
2019-12-27 00:06:25,037 [INFO] dense_10 (Dense)             (None, 128)               15744     
2019-12-27 00:06:25,037 [INFO] _________________________________________________________________
2019-12-27 00:06:25,037 [INFO] batch_normalization_7 (Batch (None, 128)               512       
2019-12-27 00:06:25,037 [INFO] _________________________________________________________________
2019-12-27 00:06:25,037 [INFO] dropout_7 (Dropout)          (None, 128)               0         
2019-12-27 00:06:25,037 [INFO] _________________________________________________________________
2019-12-27 00:06:25,037 [INFO] dense_11 (Dense)             (None, 64)                8256      
2019-12-27 00:06:25,037 [INFO] _________________________________________________________________
2019-12-27 00:06:25,037 [INFO] batch_normalization_8 (Batch (None, 64)                256       
2019-12-27 00:06:25,038 [INFO] _________________________________________________________________
2019-12-27 00:06:25,038 [INFO] dropout_8 (Dropout)          (None, 64)                0         
2019-12-27 00:06:25,038 [INFO] _________________________________________________________________
2019-12-27 00:06:25,038 [INFO] dense_12 (Dense)             (None, 32)                2080      
2019-12-27 00:06:25,038 [INFO] _________________________________________________________________
2019-12-27 00:06:25,038 [INFO] batch_normalization_9 (Batch (None, 32)                128       
2019-12-27 00:06:25,038 [INFO] _________________________________________________________________
2019-12-27 00:06:25,038 [INFO] dropout_9 (Dropout)          (None, 32)                0         
2019-12-27 00:06:25,038 [INFO] _________________________________________________________________
2019-12-27 00:06:25,038 [INFO] dense_13 (Dense)             (None, 16)                528       
2019-12-27 00:06:25,038 [INFO] _________________________________________________________________
2019-12-27 00:06:25,038 [INFO] batch_normalization_10 (Batc (None, 16)                64        
2019-12-27 00:06:25,038 [INFO] _________________________________________________________________
2019-12-27 00:06:25,038 [INFO] dropout_10 (Dropout)         (None, 16)                0         
2019-12-27 00:06:25,038 [INFO] _________________________________________________________________
2019-12-27 00:06:25,038 [INFO] dense_14 (Dense)             (None, 5)                 85        
2019-12-27 00:06:25,039 [INFO] =================================================================
2019-12-27 00:06:25,039 [INFO] Total params: 27,653
2019-12-27 00:06:25,039 [INFO] Trainable params: 27,173
2019-12-27 00:06:25,039 [INFO] Non-trainable params: 480
2019-12-27 00:06:25,039 [INFO] _________________________________________________________________
2019-12-27 00:06:25,039 [INFO] Training model
…
