…
2020-05-09 02:02:38,293 [INFO] Reading HDF dataset ../Datasets/full_datasets/ids2018/y_test_9.h5
2020-05-09 02:02:38,405 [INFO] Reading complete. time_to_read=0.11 seconds
2020-05-09 02:02:45,365 [INFO] Initializing model
2020-05-09 02:02:46,044 [INFO] Model: "sequential_1"
2020-05-09 02:02:46,044 [INFO] _________________________________________________________________
2020-05-09 02:02:46,045 [INFO] Layer (type)                 Output Shape              Param #   
2020-05-09 02:02:46,045 [INFO] =================================================================
2020-05-09 02:02:46,045 [INFO] dense_1 (Dense)              (None, 128)               9984      
2020-05-09 02:02:46,045 [INFO] _________________________________________________________________
2020-05-09 02:02:46,045 [INFO] batch_normalization_1 (Batch (None, 128)               512       
2020-05-09 02:02:46,045 [INFO] _________________________________________________________________
2020-05-09 02:02:46,045 [INFO] dropout_1 (Dropout)          (None, 128)               0         
2020-05-09 02:02:46,045 [INFO] _________________________________________________________________
2020-05-09 02:02:46,045 [INFO] dense_2 (Dense)              (None, 64)                8256      
2020-05-09 02:02:46,045 [INFO] _________________________________________________________________
2020-05-09 02:02:46,045 [INFO] batch_normalization_2 (Batch (None, 64)                256       
2020-05-09 02:02:46,045 [INFO] _________________________________________________________________
2020-05-09 02:02:46,045 [INFO] dropout_2 (Dropout)          (None, 64)                0         
2020-05-09 02:02:46,045 [INFO] _________________________________________________________________
2020-05-09 02:02:46,045 [INFO] dense_3 (Dense)              (None, 32)                2080      
2020-05-09 02:02:46,045 [INFO] _________________________________________________________________
2020-05-09 02:02:46,045 [INFO] batch_normalization_3 (Batch (None, 32)                128       
2020-05-09 02:02:46,045 [INFO] _________________________________________________________________
2020-05-09 02:02:46,045 [INFO] dropout_3 (Dropout)          (None, 32)                0         
2020-05-09 02:02:46,045 [INFO] _________________________________________________________________
2020-05-09 02:02:46,045 [INFO] dense_4 (Dense)              (None, 16)                528       
2020-05-09 02:02:46,045 [INFO] _________________________________________________________________
2020-05-09 02:02:46,045 [INFO] batch_normalization_4 (Batch (None, 16)                64        
2020-05-09 02:02:46,045 [INFO] _________________________________________________________________
2020-05-09 02:02:46,045 [INFO] dropout_4 (Dropout)          (None, 16)                0         
2020-05-09 02:02:46,046 [INFO] _________________________________________________________________
2020-05-09 02:02:46,046 [INFO] dense_5 (Dense)              (None, 15)                255       
2020-05-09 02:02:46,046 [INFO] =================================================================
2020-05-09 02:02:46,046 [INFO] Total params: 22,063
2020-05-09 02:02:46,046 [INFO] Trainable params: 21,583
2020-05-09 02:02:46,046 [INFO] Non-trainable params: 480
2020-05-09 02:02:46,046 [INFO] _________________________________________________________________
2020-05-09 02:02:46,046 [INFO] Training model
…
