…
2019-12-30 18:56:33,148 [INFO] Reading complete. time_to_read=0.08 seconds
2019-12-30 18:56:33,148 [INFO] Reading HDF dataset ../Datasets/small_datasets/ids2018/y_test.h5
2019-12-30 18:56:33,233 [INFO] Reading complete. time_to_read=0.08 seconds
2019-12-30 18:56:37,104 [INFO] Initializing model
2019-12-30 18:56:37,460 [INFO] _________________________________________________________________
2019-12-30 18:56:37,460 [INFO] Layer (type)                 Output Shape              Param #   
2019-12-30 18:56:37,460 [INFO] =================================================================
2019-12-30 18:56:37,460 [INFO] dense_6 (Dense)              (None, 64)                4992      
2019-12-30 18:56:37,460 [INFO] _________________________________________________________________
2019-12-30 18:56:37,461 [INFO] batch_normalization_4 (Batch (None, 64)                256       
2019-12-30 18:56:37,461 [INFO] _________________________________________________________________
2019-12-30 18:56:37,461 [INFO] dropout_4 (Dropout)          (None, 64)                0         
2019-12-30 18:56:37,461 [INFO] _________________________________________________________________
2019-12-30 18:56:37,461 [INFO] dense_7 (Dense)              (None, 32)                2080      
2019-12-30 18:56:37,461 [INFO] _________________________________________________________________
2019-12-30 18:56:37,461 [INFO] batch_normalization_5 (Batch (None, 32)                128       
2019-12-30 18:56:37,461 [INFO] _________________________________________________________________
2019-12-30 18:56:37,461 [INFO] dropout_5 (Dropout)          (None, 32)                0         
2019-12-30 18:56:37,461 [INFO] _________________________________________________________________
2019-12-30 18:56:37,461 [INFO] dense_8 (Dense)              (None, 16)                528       
2019-12-30 18:56:37,461 [INFO] _________________________________________________________________
2019-12-30 18:56:37,461 [INFO] batch_normalization_6 (Batch (None, 16)                64        
2019-12-30 18:56:37,461 [INFO] _________________________________________________________________
2019-12-30 18:56:37,461 [INFO] dropout_6 (Dropout)          (None, 16)                0         
2019-12-30 18:56:37,461 [INFO] _________________________________________________________________
2019-12-30 18:56:37,461 [INFO] dense_9 (Dense)              (None, 15)                255       
2019-12-30 18:56:37,462 [INFO] =================================================================
2019-12-30 18:56:37,462 [INFO] Total params: 8,303
2019-12-30 18:56:37,462 [INFO] Trainable params: 8,079
2019-12-30 18:56:37,462 [INFO] Non-trainable params: 224
2019-12-30 18:56:37,462 [INFO] _________________________________________________________________
2019-12-30 18:56:37,462 [INFO] Training model
…
