…
2019-12-25 11:20:17,338 [INFO] Pretraining Deep Belief Network
2019-12-25 11:54:59,726 [INFO] Pretraining Complete
2019-12-25 11:54:59,738 [INFO] Getting pretrained weights
2019-12-25 11:54:59,738 [INFO] Creating and initializing feed forward neural network
2019-12-25 11:55:00,535 [INFO] _________________________________________________________________
2019-12-25 11:55:00,535 [INFO] Layer (type)                 Output Shape              Param #   
2019-12-25 11:55:00,535 [INFO] =================================================================
2019-12-25 11:55:00,535 [INFO] dense_49 (Dense)             (None, 128)               9984      
2019-12-25 11:55:00,535 [INFO] _________________________________________________________________
2019-12-25 11:55:00,535 [INFO] batch_normalization_37 (Batc (None, 128)               512       
2019-12-25 11:55:00,535 [INFO] _________________________________________________________________
2019-12-25 11:55:00,535 [INFO] dropout_37 (Dropout)         (None, 128)               0         
2019-12-25 11:55:00,535 [INFO] _________________________________________________________________
2019-12-25 11:55:00,535 [INFO] dense_50 (Dense)             (None, 64)                8256      
2019-12-25 11:55:00,536 [INFO] _________________________________________________________________
2019-12-25 11:55:00,536 [INFO] batch_normalization_38 (Batc (None, 64)                256       
2019-12-25 11:55:00,536 [INFO] _________________________________________________________________
2019-12-25 11:55:00,536 [INFO] dropout_38 (Dropout)         (None, 64)                0         
2019-12-25 11:55:00,536 [INFO] _________________________________________________________________
2019-12-25 11:55:00,536 [INFO] dense_51 (Dense)             (None, 34)                2210      
2019-12-25 11:55:00,536 [INFO] _________________________________________________________________
2019-12-25 11:55:00,536 [INFO] batch_normalization_39 (Batc (None, 34)                136       
2019-12-25 11:55:00,536 [INFO] _________________________________________________________________
2019-12-25 11:55:00,536 [INFO] dropout_39 (Dropout)         (None, 34)                0         
2019-12-25 11:55:00,536 [INFO] _________________________________________________________________
2019-12-25 11:55:00,536 [INFO] dense_52 (Dense)             (None, 15)                525       
2019-12-25 11:55:00,536 [INFO] =================================================================
2019-12-25 11:55:00,536 [INFO] Total params: 21,879
2019-12-25 11:55:00,536 [INFO] Trainable params: 21,427
2019-12-25 11:55:00,536 [INFO] Non-trainable params: 452
2019-12-25 11:55:00,537 [INFO] _________________________________________________________________
2019-12-25 11:55:04,884 [INFO] Fine-tuning final neural network
…
