…
2019-12-24 01:50:10,063 [INFO] Reading complete. time_to_read=0.00 seconds
2019-12-24 01:50:10,063 [INFO] Reading HDF dataset ../Datasets/small_datasets/nsl_kdd_five_classes/y_test.h5
2019-12-24 01:50:10,067 [INFO] Reading complete. time_to_read=0.00 seconds
2019-12-24 01:50:10,183 [INFO] Initializing model
2019-12-24 01:50:10,714 [INFO] _________________________________________________________________
2019-12-24 01:50:10,715 [INFO] Layer (type)                 Output Shape              Param #   
2019-12-24 01:50:10,715 [INFO] =================================================================
2019-12-24 01:50:10,715 [INFO] dense_53 (Dense)             (None, 128)               15744     
2019-12-24 01:50:10,715 [INFO] _________________________________________________________________
2019-12-24 01:50:10,715 [INFO] batch_normalization_35 (Batc (None, 128)               512       
2019-12-24 01:50:10,715 [INFO] _________________________________________________________________
2019-12-24 01:50:10,715 [INFO] dropout_35 (Dropout)         (None, 128)               0         
2019-12-24 01:50:10,715 [INFO] _________________________________________________________________
2019-12-24 01:50:10,715 [INFO] dense_54 (Dense)             (None, 64)                8256      
2019-12-24 01:50:10,715 [INFO] _________________________________________________________________
2019-12-24 01:50:10,715 [INFO] batch_normalization_36 (Batc (None, 64)                256       
2019-12-24 01:50:10,716 [INFO] _________________________________________________________________
2019-12-24 01:50:10,716 [INFO] dropout_36 (Dropout)         (None, 64)                0         
2019-12-24 01:50:10,716 [INFO] _________________________________________________________________
2019-12-24 01:50:10,716 [INFO] dense_55 (Dense)             (None, 32)                2080      
2019-12-24 01:50:10,716 [INFO] _________________________________________________________________
2019-12-24 01:50:10,716 [INFO] batch_normalization_37 (Batc (None, 32)                128       
2019-12-24 01:50:10,716 [INFO] _________________________________________________________________
2019-12-24 01:50:10,716 [INFO] dropout_37 (Dropout)         (None, 32)                0         
2019-12-24 01:50:10,716 [INFO] _________________________________________________________________
2019-12-24 01:50:10,716 [INFO] dense_56 (Dense)             (None, 64)                2112      
2019-12-24 01:50:10,716 [INFO] _________________________________________________________________
2019-12-24 01:50:10,716 [INFO] batch_normalization_38 (Batc (None, 64)                256       
2019-12-24 01:50:10,717 [INFO] _________________________________________________________________
2019-12-24 01:50:10,717 [INFO] dropout_38 (Dropout)         (None, 64)                0         
2019-12-24 01:50:10,717 [INFO] _________________________________________________________________
2019-12-24 01:50:10,717 [INFO] dense_57 (Dense)             (None, 128)               8320      
2019-12-24 01:50:10,717 [INFO] _________________________________________________________________
2019-12-24 01:50:10,717 [INFO] batch_normalization_39 (Batc (None, 128)               512       
2019-12-24 01:50:10,717 [INFO] _________________________________________________________________
2019-12-24 01:50:10,717 [INFO] dropout_39 (Dropout)         (None, 128)               0         
2019-12-24 01:50:10,717 [INFO] _________________________________________________________________
2019-12-24 01:50:10,717 [INFO] dense_58 (Dense)             (None, 122)               15738     
2019-12-24 01:50:10,717 [INFO] =================================================================
2019-12-24 01:50:10,718 [INFO] Total params: 53,914
2019-12-24 01:50:10,718 [INFO] Trainable params: 53,082
2019-12-24 01:50:10,718 [INFO] Non-trainable params: 832
2019-12-24 01:50:10,718 [INFO] _________________________________________________________________
2019-12-24 01:50:10,852 [INFO] _________________________________________________________________
2019-12-24 01:50:10,852 [INFO] Layer (type)                 Output Shape              Param #   
2019-12-24 01:50:10,852 [INFO] =================================================================
2019-12-24 01:50:10,852 [INFO] dense_59 (Dense)             (None, 64)                2112      
2019-12-24 01:50:10,852 [INFO] _________________________________________________________________
2019-12-24 01:50:10,852 [INFO] batch_normalization_40 (Batc (None, 64)                256       
2019-12-24 01:50:10,852 [INFO] _________________________________________________________________
2019-12-24 01:50:10,852 [INFO] dropout_40 (Dropout)         (None, 64)                0         
2019-12-24 01:50:10,852 [INFO] _________________________________________________________________
2019-12-24 01:50:10,852 [INFO] dense_60 (Dense)             (None, 5)                 325       
2019-12-24 01:50:10,852 [INFO] =================================================================
2019-12-24 01:50:10,853 [INFO] Total params: 2,693
2019-12-24 01:50:10,853 [INFO] Trainable params: 2,565
2019-12-24 01:50:10,853 [INFO] Non-trainable params: 128
2019-12-24 01:50:10,853 [INFO] _________________________________________________________________
2019-12-24 01:50:10,853 [INFO] Training model
…
