…
2020-01-05 01:08:44,208 [INFO] Reading complete. time_to_read=0.07 seconds
2020-01-05 01:08:44,208 [INFO] Reading HDF dataset ../Datasets/full_datasets/ids2017/y_test.h5
2020-01-05 01:08:44,275 [INFO] Reading complete. time_to_read=0.07 seconds
2020-01-05 01:08:47,449 [INFO] Initializing model
2020-01-05 01:08:47,701 [INFO] _________________________________________________________________
2020-01-05 01:08:47,702 [INFO] Layer (type)                 Output Shape              Param #   
2020-01-05 01:08:47,702 [INFO] =================================================================
2020-01-05 01:08:47,702 [INFO] dense_5 (Dense)              (None, 2000)              158000    
2020-01-05 01:08:47,702 [INFO] _________________________________________________________________
2020-01-05 01:08:47,702 [INFO] batch_normalization_4 (Batch (None, 2000)              8000      
2020-01-05 01:08:47,702 [INFO] _________________________________________________________________
2020-01-05 01:08:47,702 [INFO] dropout_4 (Dropout)          (None, 2000)              0         
2020-01-05 01:08:47,702 [INFO] _________________________________________________________________
2020-01-05 01:08:47,702 [INFO] dense_6 (Dense)              (None, 1000)              2001000   
2020-01-05 01:08:47,702 [INFO] _________________________________________________________________
2020-01-05 01:08:47,702 [INFO] batch_normalization_5 (Batch (None, 1000)              4000      
2020-01-05 01:08:47,702 [INFO] _________________________________________________________________
2020-01-05 01:08:47,702 [INFO] dropout_5 (Dropout)          (None, 1000)              0         
2020-01-05 01:08:47,702 [INFO] _________________________________________________________________
2020-01-05 01:08:47,702 [INFO] dense_7 (Dense)              (None, 500)               500500    
2020-01-05 01:08:47,702 [INFO] _________________________________________________________________
2020-01-05 01:08:47,702 [INFO] batch_normalization_6 (Batch (None, 500)               2000      
2020-01-05 01:08:47,703 [INFO] _________________________________________________________________
2020-01-05 01:08:47,703 [INFO] dropout_6 (Dropout)          (None, 500)               0         
2020-01-05 01:08:47,703 [INFO] _________________________________________________________________
2020-01-05 01:08:47,703 [INFO] dense_8 (Dense)              (None, 12)                6012      
2020-01-05 01:08:47,703 [INFO] =================================================================
2020-01-05 01:08:47,703 [INFO] Total params: 2,679,512
2020-01-05 01:08:47,703 [INFO] Trainable params: 2,672,512
2020-01-05 01:08:47,703 [INFO] Non-trainable params: 7,000
2020-01-05 01:08:47,703 [INFO] _________________________________________________________________
2020-01-05 01:08:47,703 [INFO] Training model
…
