…
2019-12-24 20:25:10,567 [INFO] Pretraining Deep Belief Network
2019-12-24 20:55:41,663 [INFO] Pretraining Complete
2019-12-24 20:55:41,663 [INFO] Getting pretrained weights
2019-12-24 20:55:41,663 [INFO] Creating and initializing feed forward neural network
2019-12-24 20:55:41,940 [INFO] _________________________________________________________________
2019-12-24 20:55:41,940 [INFO] Layer (type)                 Output Shape              Param #   
2019-12-24 20:55:41,940 [INFO] =================================================================
2019-12-24 20:55:41,940 [INFO] dense_33 (Dense)             (None, 128)               10112     
2019-12-24 20:55:41,940 [INFO] _________________________________________________________________
2019-12-24 20:55:41,940 [INFO] batch_normalization_25 (Batc (None, 128)               512       
2019-12-24 20:55:41,940 [INFO] _________________________________________________________________
2019-12-24 20:55:41,940 [INFO] dropout_25 (Dropout)         (None, 128)               0         
2019-12-24 20:55:41,941 [INFO] _________________________________________________________________
2019-12-24 20:55:41,941 [INFO] dense_34 (Dense)             (None, 64)                8256      
2019-12-24 20:55:41,941 [INFO] _________________________________________________________________
2019-12-24 20:55:41,941 [INFO] batch_normalization_26 (Batc (None, 64)                256       
2019-12-24 20:55:41,941 [INFO] _________________________________________________________________
2019-12-24 20:55:41,941 [INFO] dropout_26 (Dropout)         (None, 64)                0         
2019-12-24 20:55:41,941 [INFO] _________________________________________________________________
2019-12-24 20:55:41,941 [INFO] dense_35 (Dense)             (None, 35)                2275      
2019-12-24 20:55:41,941 [INFO] _________________________________________________________________
2019-12-24 20:55:41,941 [INFO] batch_normalization_27 (Batc (None, 35)                140       
2019-12-24 20:55:41,941 [INFO] _________________________________________________________________
2019-12-24 20:55:41,941 [INFO] dropout_27 (Dropout)         (None, 35)                0         
2019-12-24 20:55:41,941 [INFO] _________________________________________________________________
2019-12-24 20:55:41,941 [INFO] dense_36 (Dense)             (None, 12)                432       
2019-12-24 20:55:41,941 [INFO] =================================================================
2019-12-24 20:55:41,942 [INFO] Total params: 21,983
2019-12-24 20:55:41,942 [INFO] Trainable params: 21,529
2019-12-24 20:55:41,942 [INFO] Non-trainable params: 454
2019-12-24 20:55:41,942 [INFO] _________________________________________________________________
2019-12-24 20:55:44,606 [INFO] Fine-tuning final neural network
…
