…
2020-01-08 20:19:16,534 [INFO] Reading complete. time_to_read=0.10 seconds
2020-01-08 20:19:16,535 [INFO] Reading HDF dataset ../Datasets/small_datasets/ids2018/y_test.h5
2020-01-08 20:19:16,633 [INFO] Reading complete. time_to_read=0.10 seconds
2020-01-08 20:19:20,028 [INFO] Initializing model
2020-01-08 20:19:20,319 [INFO] _________________________________________________________________
2020-01-08 20:19:20,319 [INFO] Layer (type)                 Output Shape              Param #   
2020-01-08 20:19:20,319 [INFO] =================================================================
2020-01-08 20:19:20,319 [INFO] dense_6 (Dense)              (None, 64)                4992      
2020-01-08 20:19:20,319 [INFO] _________________________________________________________________
2020-01-08 20:19:20,319 [INFO] batch_normalization_4 (Batch (None, 64)                256       
2020-01-08 20:19:20,319 [INFO] _________________________________________________________________
2020-01-08 20:19:20,319 [INFO] dropout_4 (Dropout)          (None, 64)                0         
2020-01-08 20:19:20,319 [INFO] _________________________________________________________________
2020-01-08 20:19:20,320 [INFO] dense_7 (Dense)              (None, 64)                4160      
2020-01-08 20:19:20,320 [INFO] _________________________________________________________________
2020-01-08 20:19:20,320 [INFO] batch_normalization_5 (Batch (None, 64)                256       
2020-01-08 20:19:20,320 [INFO] _________________________________________________________________
2020-01-08 20:19:20,320 [INFO] dropout_5 (Dropout)          (None, 64)                0         
2020-01-08 20:19:20,320 [INFO] _________________________________________________________________
2020-01-08 20:19:20,320 [INFO] dense_8 (Dense)              (None, 64)                4160      
2020-01-08 20:19:20,320 [INFO] _________________________________________________________________
2020-01-08 20:19:20,320 [INFO] batch_normalization_6 (Batch (None, 64)                256       
2020-01-08 20:19:20,320 [INFO] _________________________________________________________________
2020-01-08 20:19:20,320 [INFO] dropout_6 (Dropout)          (None, 64)                0         
2020-01-08 20:19:20,320 [INFO] _________________________________________________________________
2020-01-08 20:19:20,321 [INFO] dense_9 (Dense)              (None, 15)                975       
2020-01-08 20:19:20,321 [INFO] =================================================================
2020-01-08 20:19:20,321 [INFO] Total params: 15,055
2020-01-08 20:19:20,321 [INFO] Trainable params: 14,671
2020-01-08 20:19:20,321 [INFO] Non-trainable params: 384
2020-01-08 20:19:20,321 [INFO] _________________________________________________________________
2020-01-08 20:19:20,321 [INFO] Training model
…
