…
2019-12-24 16:22:53,347 [INFO] Reading complete. time_to_read=0.08 seconds
2019-12-24 16:22:53,347 [INFO] Reading HDF dataset ../Datasets/full_datasets/ids2017/y_test.h5
2019-12-24 16:22:53,429 [INFO] Reading complete. time_to_read=0.08 seconds
2019-12-24 16:22:56,351 [INFO] Initializing model
2019-12-24 16:22:56,933 [INFO] _________________________________________________________________
2019-12-24 16:22:56,936 [INFO] Layer (type)                 Output Shape              Param #   
2019-12-24 16:22:56,936 [INFO] =================================================================
2019-12-24 16:22:56,936 [INFO] dense_93 (Dense)             (None, 128)               10112     
2019-12-24 16:22:56,936 [INFO] _________________________________________________________________
2019-12-24 16:22:56,936 [INFO] batch_normalization_65 (Batc (None, 128)               512       
2019-12-24 16:22:56,936 [INFO] _________________________________________________________________
2019-12-24 16:22:56,936 [INFO] dropout_65 (Dropout)         (None, 128)               0         
2019-12-24 16:22:56,936 [INFO] _________________________________________________________________
2019-12-24 16:22:56,936 [INFO] dense_94 (Dense)             (None, 64)                8256      
2019-12-24 16:22:56,937 [INFO] _________________________________________________________________
2019-12-24 16:22:56,937 [INFO] batch_normalization_66 (Batc (None, 64)                256       
2019-12-24 16:22:56,937 [INFO] _________________________________________________________________
2019-12-24 16:22:56,937 [INFO] dropout_66 (Dropout)         (None, 64)                0         
2019-12-24 16:22:56,937 [INFO] _________________________________________________________________
2019-12-24 16:22:56,937 [INFO] dense_95 (Dense)             (None, 32)                2080      
2019-12-24 16:22:56,937 [INFO] _________________________________________________________________
2019-12-24 16:22:56,937 [INFO] batch_normalization_67 (Batc (None, 32)                128       
2019-12-24 16:22:56,937 [INFO] _________________________________________________________________
2019-12-24 16:22:56,937 [INFO] dropout_67 (Dropout)         (None, 32)                0         
2019-12-24 16:22:56,937 [INFO] _________________________________________________________________
2019-12-24 16:22:56,937 [INFO] dense_96 (Dense)             (None, 64)                2112      
2019-12-24 16:22:56,938 [INFO] _________________________________________________________________
2019-12-24 16:22:56,938 [INFO] batch_normalization_68 (Batc (None, 64)                256       
2019-12-24 16:22:56,938 [INFO] _________________________________________________________________
2019-12-24 16:22:56,938 [INFO] dropout_68 (Dropout)         (None, 64)                0         
2019-12-24 16:22:56,938 [INFO] _________________________________________________________________
2019-12-24 16:22:56,938 [INFO] dense_97 (Dense)             (None, 128)               8320      
2019-12-24 16:22:56,938 [INFO] _________________________________________________________________
2019-12-24 16:22:56,938 [INFO] batch_normalization_69 (Batc (None, 128)               512       
2019-12-24 16:22:56,938 [INFO] _________________________________________________________________
2019-12-24 16:22:56,938 [INFO] dropout_69 (Dropout)         (None, 128)               0         
2019-12-24 16:22:56,938 [INFO] _________________________________________________________________
2019-12-24 16:22:56,938 [INFO] dense_98 (Dense)             (None, 78)                10062     
2019-12-24 16:22:56,939 [INFO] =================================================================
2019-12-24 16:22:56,939 [INFO] Total params: 42,606
2019-12-24 16:22:56,939 [INFO] Trainable params: 41,774
2019-12-24 16:22:56,939 [INFO] Non-trainable params: 832
2019-12-24 16:22:56,939 [INFO] _________________________________________________________________
2019-12-24 16:22:57,084 [INFO] _________________________________________________________________
2019-12-24 16:22:57,084 [INFO] Layer (type)                 Output Shape              Param #   
2019-12-24 16:22:57,084 [INFO] =================================================================
2019-12-24 16:22:57,084 [INFO] dense_99 (Dense)             (None, 64)                2112      
2019-12-24 16:22:57,084 [INFO] _________________________________________________________________
2019-12-24 16:22:57,085 [INFO] batch_normalization_70 (Batc (None, 64)                256       
2019-12-24 16:22:57,085 [INFO] _________________________________________________________________
2019-12-24 16:22:57,085 [INFO] dropout_70 (Dropout)         (None, 64)                0         
2019-12-24 16:22:57,085 [INFO] _________________________________________________________________
2019-12-24 16:22:57,085 [INFO] dense_100 (Dense)            (None, 12)                780       
2019-12-24 16:22:57,085 [INFO] =================================================================
2019-12-24 16:22:57,085 [INFO] Total params: 3,148
2019-12-24 16:22:57,085 [INFO] Trainable params: 3,020
2019-12-24 16:22:57,085 [INFO] Non-trainable params: 128
2019-12-24 16:22:57,085 [INFO] _________________________________________________________________
2019-12-24 16:22:57,085 [INFO] Training model
…
