…
2020-01-14 17:01:19,554 [INFO] Reading complete. time_to_read=0.09 seconds
2020-01-14 17:01:19,554 [INFO] Reading HDF dataset ../Datasets/small_datasets/ids2018/y_test.h5
2020-01-14 17:01:19,640 [INFO] Reading complete. time_to_read=0.09 seconds
2020-01-14 17:01:23,604 [INFO] Initializing model
2020-01-14 17:01:24,071 [INFO] _________________________________________________________________
2020-01-14 17:01:24,072 [INFO] Layer (type)                 Output Shape              Param #   
2020-01-14 17:01:24,072 [INFO] =================================================================
2020-01-14 17:01:24,072 [INFO] dense_49 (Dense)             (None, 128)               9984      
2020-01-14 17:01:24,072 [INFO] _________________________________________________________________
2020-01-14 17:01:24,072 [INFO] batch_normalization_37 (Batc (None, 128)               512       
2020-01-14 17:01:24,072 [INFO] _________________________________________________________________
2020-01-14 17:01:24,072 [INFO] dropout_37 (Dropout)         (None, 128)               0         
2020-01-14 17:01:24,072 [INFO] _________________________________________________________________
2020-01-14 17:01:24,072 [INFO] dense_50 (Dense)             (None, 64)                8256      
2020-01-14 17:01:24,072 [INFO] _________________________________________________________________
2020-01-14 17:01:24,072 [INFO] batch_normalization_38 (Batc (None, 64)                256       
2020-01-14 17:01:24,072 [INFO] _________________________________________________________________
2020-01-14 17:01:24,072 [INFO] dropout_38 (Dropout)         (None, 64)                0         
2020-01-14 17:01:24,072 [INFO] _________________________________________________________________
2020-01-14 17:01:24,072 [INFO] dense_51 (Dense)             (None, 32)                2080      
2020-01-14 17:01:24,072 [INFO] _________________________________________________________________
2020-01-14 17:01:24,073 [INFO] batch_normalization_39 (Batc (None, 32)                128       
2020-01-14 17:01:24,073 [INFO] _________________________________________________________________
2020-01-14 17:01:24,073 [INFO] dropout_39 (Dropout)         (None, 32)                0         
2020-01-14 17:01:24,073 [INFO] _________________________________________________________________
2020-01-14 17:01:24,073 [INFO] dense_52 (Dense)             (None, 64)                2112      
2020-01-14 17:01:24,073 [INFO] _________________________________________________________________
2020-01-14 17:01:24,073 [INFO] batch_normalization_40 (Batc (None, 64)                256       
2020-01-14 17:01:24,073 [INFO] _________________________________________________________________
2020-01-14 17:01:24,073 [INFO] dropout_40 (Dropout)         (None, 64)                0         
2020-01-14 17:01:24,073 [INFO] _________________________________________________________________
2020-01-14 17:01:24,073 [INFO] dense_53 (Dense)             (None, 128)               8320      
2020-01-14 17:01:24,073 [INFO] _________________________________________________________________
2020-01-14 17:01:24,073 [INFO] batch_normalization_41 (Batc (None, 128)               512       
2020-01-14 17:01:24,073 [INFO] _________________________________________________________________
2020-01-14 17:01:24,073 [INFO] dropout_41 (Dropout)         (None, 128)               0         
2020-01-14 17:01:24,073 [INFO] _________________________________________________________________
2020-01-14 17:01:24,073 [INFO] dense_54 (Dense)             (None, 77)                9933      
2020-01-14 17:01:24,073 [INFO] =================================================================
2020-01-14 17:01:24,074 [INFO] Total params: 42,349
2020-01-14 17:01:24,074 [INFO] Trainable params: 41,517
2020-01-14 17:01:24,074 [INFO] Non-trainable params: 832
2020-01-14 17:01:24,074 [INFO] _________________________________________________________________
2020-01-14 17:01:24,182 [INFO] _________________________________________________________________
2020-01-14 17:01:24,182 [INFO] Layer (type)                 Output Shape              Param #   
2020-01-14 17:01:24,182 [INFO] =================================================================
2020-01-14 17:01:24,182 [INFO] dense_55 (Dense)             (None, 64)                2112      
2020-01-14 17:01:24,182 [INFO] _________________________________________________________________
2020-01-14 17:01:24,182 [INFO] batch_normalization_42 (Batc (None, 64)                256       
2020-01-14 17:01:24,182 [INFO] _________________________________________________________________
2020-01-14 17:01:24,182 [INFO] dropout_42 (Dropout)         (None, 64)                0         
2020-01-14 17:01:24,182 [INFO] _________________________________________________________________
2020-01-14 17:01:24,183 [INFO] dense_56 (Dense)             (None, 15)                975       
2020-01-14 17:01:24,183 [INFO] =================================================================
2020-01-14 17:01:24,183 [INFO] Total params: 3,343
2020-01-14 17:01:24,183 [INFO] Trainable params: 3,215
2020-01-14 17:01:24,183 [INFO] Non-trainable params: 128
2020-01-14 17:01:24,183 [INFO] _________________________________________________________________
2020-01-14 17:01:24,183 [INFO] Training model
…
