…
2020-01-08 18:58:20,343 [INFO] Reading complete. time_to_read=0.07 seconds
2020-01-08 18:58:20,343 [INFO] Reading HDF dataset ../Datasets/full_datasets/ids2017/y_test.h5
2020-01-08 18:58:20,409 [INFO] Reading complete. time_to_read=0.07 seconds
2020-01-08 18:58:23,594 [INFO] Initializing model
2020-01-08 18:58:24,141 [INFO] _________________________________________________________________
2020-01-08 18:58:24,141 [INFO] Layer (type)                 Output Shape              Param #   
2020-01-08 18:58:24,141 [INFO] =================================================================
2020-01-08 18:58:24,142 [INFO] dense_8 (Dense)              (None, 64)                5056      
2020-01-08 18:58:24,142 [INFO] _________________________________________________________________
2020-01-08 18:58:24,142 [INFO] batch_normalization_7 (Batch (None, 64)                256       
2020-01-08 18:58:24,142 [INFO] _________________________________________________________________
2020-01-08 18:58:24,142 [INFO] dropout_7 (Dropout)          (None, 64)                0         
2020-01-08 18:58:24,142 [INFO] _________________________________________________________________
2020-01-08 18:58:24,142 [INFO] dense_9 (Dense)              (None, 64)                4160      
2020-01-08 18:58:24,142 [INFO] _________________________________________________________________
2020-01-08 18:58:24,142 [INFO] batch_normalization_8 (Batch (None, 64)                256       
2020-01-08 18:58:24,142 [INFO] _________________________________________________________________
2020-01-08 18:58:24,142 [INFO] dropout_8 (Dropout)          (None, 64)                0         
2020-01-08 18:58:24,142 [INFO] _________________________________________________________________
2020-01-08 18:58:24,142 [INFO] dense_10 (Dense)             (None, 64)                4160      
2020-01-08 18:58:24,142 [INFO] _________________________________________________________________
2020-01-08 18:58:24,142 [INFO] batch_normalization_9 (Batch (None, 64)                256       
2020-01-08 18:58:24,142 [INFO] _________________________________________________________________
2020-01-08 18:58:24,142 [INFO] dropout_9 (Dropout)          (None, 64)                0         
2020-01-08 18:58:24,143 [INFO] _________________________________________________________________
2020-01-08 18:58:24,143 [INFO] dense_11 (Dense)             (None, 64)                4160      
2020-01-08 18:58:24,143 [INFO] _________________________________________________________________
2020-01-08 18:58:24,143 [INFO] batch_normalization_10 (Batc (None, 64)                256       
2020-01-08 18:58:24,143 [INFO] _________________________________________________________________
2020-01-08 18:58:24,143 [INFO] dropout_10 (Dropout)         (None, 64)                0         
2020-01-08 18:58:24,143 [INFO] _________________________________________________________________
2020-01-08 18:58:24,143 [INFO] dense_12 (Dense)             (None, 64)                4160      
2020-01-08 18:58:24,143 [INFO] _________________________________________________________________
2020-01-08 18:58:24,143 [INFO] batch_normalization_11 (Batc (None, 64)                256       
2020-01-08 18:58:24,143 [INFO] _________________________________________________________________
2020-01-08 18:58:24,143 [INFO] dropout_11 (Dropout)         (None, 64)                0         
2020-01-08 18:58:24,143 [INFO] _________________________________________________________________
2020-01-08 18:58:24,143 [INFO] dense_13 (Dense)             (None, 64)                4160      
2020-01-08 18:58:24,143 [INFO] _________________________________________________________________
2020-01-08 18:58:24,143 [INFO] batch_normalization_12 (Batc (None, 64)                256       
2020-01-08 18:58:24,143 [INFO] _________________________________________________________________
2020-01-08 18:58:24,144 [INFO] dropout_12 (Dropout)         (None, 64)                0         
2020-01-08 18:58:24,144 [INFO] _________________________________________________________________
2020-01-08 18:58:24,144 [INFO] dense_14 (Dense)             (None, 64)                4160      
2020-01-08 18:58:24,144 [INFO] _________________________________________________________________
2020-01-08 18:58:24,144 [INFO] batch_normalization_13 (Batc (None, 64)                256       
2020-01-08 18:58:24,144 [INFO] _________________________________________________________________
2020-01-08 18:58:24,144 [INFO] dropout_13 (Dropout)         (None, 64)                0         
2020-01-08 18:58:24,144 [INFO] _________________________________________________________________
2020-01-08 18:58:24,144 [INFO] dense_15 (Dense)             (None, 12)                780       
2020-01-08 18:58:24,144 [INFO] =================================================================
2020-01-08 18:58:24,144 [INFO] Total params: 32,588
2020-01-08 18:58:24,144 [INFO] Trainable params: 31,692
2020-01-08 18:58:24,144 [INFO] Non-trainable params: 896
2020-01-08 18:58:24,144 [INFO] _________________________________________________________________
2020-01-08 18:58:24,145 [INFO] Training model
…
