…
2020-01-08 15:06:15,347 [INFO] Reading complete. time_to_read=0.00 seconds
2020-01-08 15:06:15,348 [INFO] Reading HDF dataset ../Datasets/small_datasets/nsl_kdd_five_classes/y_test.h5
2020-01-08 15:06:15,351 [INFO] Reading complete. time_to_read=0.00 seconds
2020-01-08 15:06:15,539 [INFO] Initializing model
2020-01-08 15:06:16,427 [INFO] _________________________________________________________________
2020-01-08 15:06:16,427 [INFO] Layer (type)                 Output Shape              Param #   
2020-01-08 15:06:16,427 [INFO] =================================================================
2020-01-08 15:06:16,427 [INFO] dense_55 (Dense)             (None, 64)                7872      
2020-01-08 15:06:16,427 [INFO] _________________________________________________________________
2020-01-08 15:06:16,428 [INFO] batch_normalization_46 (Batc (None, 64)                256       
2020-01-08 15:06:16,428 [INFO] _________________________________________________________________
2020-01-08 15:06:16,428 [INFO] dropout_46 (Dropout)         (None, 64)                0         
2020-01-08 15:06:16,428 [INFO] _________________________________________________________________
2020-01-08 15:06:16,428 [INFO] dense_56 (Dense)             (None, 64)                4160      
2020-01-08 15:06:16,428 [INFO] _________________________________________________________________
2020-01-08 15:06:16,428 [INFO] batch_normalization_47 (Batc (None, 64)                256       
2020-01-08 15:06:16,428 [INFO] _________________________________________________________________
2020-01-08 15:06:16,428 [INFO] dropout_47 (Dropout)         (None, 64)                0         
2020-01-08 15:06:16,428 [INFO] _________________________________________________________________
2020-01-08 15:06:16,428 [INFO] dense_57 (Dense)             (None, 64)                4160      
2020-01-08 15:06:16,428 [INFO] _________________________________________________________________
2020-01-08 15:06:16,428 [INFO] batch_normalization_48 (Batc (None, 64)                256       
2020-01-08 15:06:16,428 [INFO] _________________________________________________________________
2020-01-08 15:06:16,428 [INFO] dropout_48 (Dropout)         (None, 64)                0         
2020-01-08 15:06:16,428 [INFO] _________________________________________________________________
2020-01-08 15:06:16,428 [INFO] dense_58 (Dense)             (None, 64)                4160      
2020-01-08 15:06:16,428 [INFO] _________________________________________________________________
2020-01-08 15:06:16,429 [INFO] batch_normalization_49 (Batc (None, 64)                256       
2020-01-08 15:06:16,429 [INFO] _________________________________________________________________
2020-01-08 15:06:16,429 [INFO] dropout_49 (Dropout)         (None, 64)                0         
2020-01-08 15:06:16,429 [INFO] _________________________________________________________________
2020-01-08 15:06:16,429 [INFO] dense_59 (Dense)             (None, 64)                4160      
2020-01-08 15:06:16,429 [INFO] _________________________________________________________________
2020-01-08 15:06:16,429 [INFO] batch_normalization_50 (Batc (None, 64)                256       
2020-01-08 15:06:16,429 [INFO] _________________________________________________________________
2020-01-08 15:06:16,429 [INFO] dropout_50 (Dropout)         (None, 64)                0         
2020-01-08 15:06:16,429 [INFO] _________________________________________________________________
2020-01-08 15:06:16,429 [INFO] dense_60 (Dense)             (None, 64)                4160      
2020-01-08 15:06:16,429 [INFO] _________________________________________________________________
2020-01-08 15:06:16,429 [INFO] batch_normalization_51 (Batc (None, 64)                256       
2020-01-08 15:06:16,429 [INFO] _________________________________________________________________
2020-01-08 15:06:16,429 [INFO] dropout_51 (Dropout)         (None, 64)                0         
2020-01-08 15:06:16,429 [INFO] _________________________________________________________________
2020-01-08 15:06:16,429 [INFO] dense_61 (Dense)             (None, 64)                4160      
2020-01-08 15:06:16,429 [INFO] _________________________________________________________________
2020-01-08 15:06:16,430 [INFO] batch_normalization_52 (Batc (None, 64)                256       
2020-01-08 15:06:16,430 [INFO] _________________________________________________________________
2020-01-08 15:06:16,430 [INFO] dropout_52 (Dropout)         (None, 64)                0         
2020-01-08 15:06:16,430 [INFO] _________________________________________________________________
2020-01-08 15:06:16,430 [INFO] dense_62 (Dense)             (None, 64)                4160      
2020-01-08 15:06:16,430 [INFO] _________________________________________________________________
2020-01-08 15:06:16,430 [INFO] batch_normalization_53 (Batc (None, 64)                256       
2020-01-08 15:06:16,430 [INFO] _________________________________________________________________
2020-01-08 15:06:16,430 [INFO] dropout_53 (Dropout)         (None, 64)                0         
2020-01-08 15:06:16,430 [INFO] _________________________________________________________________
2020-01-08 15:06:16,430 [INFO] dense_63 (Dense)             (None, 64)                4160      
2020-01-08 15:06:16,430 [INFO] _________________________________________________________________
2020-01-08 15:06:16,430 [INFO] batch_normalization_54 (Batc (None, 64)                256       
2020-01-08 15:06:16,430 [INFO] _________________________________________________________________
2020-01-08 15:06:16,430 [INFO] dropout_54 (Dropout)         (None, 64)                0         
2020-01-08 15:06:16,430 [INFO] _________________________________________________________________
2020-01-08 15:06:16,430 [INFO] dense_64 (Dense)             (None, 64)                4160      
2020-01-08 15:06:16,430 [INFO] _________________________________________________________________
2020-01-08 15:06:16,431 [INFO] batch_normalization_55 (Batc (None, 64)                256       
2020-01-08 15:06:16,431 [INFO] _________________________________________________________________
2020-01-08 15:06:16,431 [INFO] dropout_55 (Dropout)         (None, 64)                0         
2020-01-08 15:06:16,431 [INFO] _________________________________________________________________
2020-01-08 15:06:16,431 [INFO] dense_65 (Dense)             (None, 5)                 325       
2020-01-08 15:06:16,431 [INFO] =================================================================
2020-01-08 15:06:16,431 [INFO] Total params: 48,197
2020-01-08 15:06:16,431 [INFO] Trainable params: 46,917
2020-01-08 15:06:16,431 [INFO] Non-trainable params: 1,280
2020-01-08 15:06:16,431 [INFO] _________________________________________________________________
2020-01-08 15:06:16,431 [INFO] Training model
…
