…
2019-12-25 03:08:47,315 [INFO] Pretraining Deep Belief Network
2019-12-25 03:43:14,983 [INFO] Pretraining Complete
2019-12-25 03:43:15,010 [INFO] Getting pretrained weights
2019-12-25 03:43:15,010 [INFO] Creating and initializing feed forward neural network
2019-12-25 03:43:15,806 [INFO] _________________________________________________________________
2019-12-25 03:43:15,806 [INFO] Layer (type)                 Output Shape              Param #   
2019-12-25 03:43:15,806 [INFO] =================================================================
2019-12-25 03:43:15,806 [INFO] dense_41 (Dense)             (None, 128)               9984      
2019-12-25 03:43:15,806 [INFO] _________________________________________________________________
2019-12-25 03:43:15,806 [INFO] batch_normalization_31 (Batc (None, 128)               512       
2019-12-25 03:43:15,806 [INFO] _________________________________________________________________
2019-12-25 03:43:15,806 [INFO] dropout_31 (Dropout)         (None, 128)               0         
2019-12-25 03:43:15,806 [INFO] _________________________________________________________________
2019-12-25 03:43:15,806 [INFO] dense_42 (Dense)             (None, 64)                8256      
2019-12-25 03:43:15,806 [INFO] _________________________________________________________________
2019-12-25 03:43:15,806 [INFO] batch_normalization_32 (Batc (None, 64)                256       
2019-12-25 03:43:15,806 [INFO] _________________________________________________________________
2019-12-25 03:43:15,806 [INFO] dropout_32 (Dropout)         (None, 64)                0         
2019-12-25 03:43:15,806 [INFO] _________________________________________________________________
2019-12-25 03:43:15,807 [INFO] dense_43 (Dense)             (None, 32)                2080      
2019-12-25 03:43:15,807 [INFO] _________________________________________________________________
2019-12-25 03:43:15,807 [INFO] batch_normalization_33 (Batc (None, 32)                128       
2019-12-25 03:43:15,807 [INFO] _________________________________________________________________
2019-12-25 03:43:15,807 [INFO] dropout_33 (Dropout)         (None, 32)                0         
2019-12-25 03:43:15,807 [INFO] _________________________________________________________________
2019-12-25 03:43:15,807 [INFO] dense_44 (Dense)             (None, 15)                495       
2019-12-25 03:43:15,807 [INFO] =================================================================
2019-12-25 03:43:15,807 [INFO] Total params: 21,711
2019-12-25 03:43:15,807 [INFO] Trainable params: 21,263
2019-12-25 03:43:15,807 [INFO] Non-trainable params: 448
2019-12-25 03:43:15,807 [INFO] _________________________________________________________________
2019-12-25 03:43:19,537 [INFO] Fine-tuning final neural network
…
