…
2019-12-31 06:40:50,537 [INFO] Pretraining Deep Belief Network
2019-12-31 07:26:19,365 [INFO] Pretraining Complete
2019-12-31 07:26:19,365 [INFO] Getting pretrained weights
2019-12-31 07:26:19,365 [INFO] Creating and initializing feed forward neural network
2019-12-31 07:26:19,653 [INFO] _________________________________________________________________
2019-12-31 07:26:19,654 [INFO] Layer (type)                 Output Shape              Param #   
2019-12-31 07:26:19,654 [INFO] =================================================================
2019-12-31 07:26:19,654 [INFO] dense_9 (Dense)              (None, 128)               15872     
2019-12-31 07:26:19,654 [INFO] _________________________________________________________________
2019-12-31 07:26:19,654 [INFO] batch_normalization_7 (Batch (None, 128)               512       
2019-12-31 07:26:19,654 [INFO] _________________________________________________________________
2019-12-31 07:26:19,654 [INFO] dropout_7 (Dropout)          (None, 128)               0         
2019-12-31 07:26:19,654 [INFO] _________________________________________________________________
2019-12-31 07:26:19,654 [INFO] dense_10 (Dense)             (None, 64)                8256      
2019-12-31 07:26:19,654 [INFO] _________________________________________________________________
2019-12-31 07:26:19,654 [INFO] batch_normalization_8 (Batch (None, 64)                256       
2019-12-31 07:26:19,655 [INFO] _________________________________________________________________
2019-12-31 07:26:19,655 [INFO] dropout_8 (Dropout)          (None, 64)                0         
2019-12-31 07:26:19,655 [INFO] _________________________________________________________________
2019-12-31 07:26:19,655 [INFO] dense_11 (Dense)             (None, 34)                2210      
2019-12-31 07:26:19,655 [INFO] _________________________________________________________________
2019-12-31 07:26:19,655 [INFO] batch_normalization_9 (Batch (None, 34)                136       
2019-12-31 07:26:19,655 [INFO] _________________________________________________________________
2019-12-31 07:26:19,655 [INFO] dropout_9 (Dropout)          (None, 34)                0         
2019-12-31 07:26:19,655 [INFO] _________________________________________________________________
2019-12-31 07:26:19,655 [INFO] dense_12 (Dense)             (None, 5)                 175       
2019-12-31 07:26:19,655 [INFO] =================================================================
2019-12-31 07:26:19,656 [INFO] Total params: 27,417
2019-12-31 07:26:19,656 [INFO] Trainable params: 26,965
2019-12-31 07:26:19,656 [INFO] Non-trainable params: 452
2019-12-31 07:26:19,656 [INFO] _________________________________________________________________
2019-12-31 07:26:20,325 [INFO] Fine-tuning final neural network
…
