…
2020-01-08 17:10:27,606 [INFO] Reading complete. time_to_read=0.08 seconds
2020-01-08 17:10:27,606 [INFO] Reading HDF dataset ../Datasets/full_datasets/ids2017/y_test.h5
2020-01-08 17:10:27,683 [INFO] Reading complete. time_to_read=0.08 seconds
2020-01-08 17:10:30,463 [INFO] Initializing model
2020-01-08 17:10:30,724 [INFO] _________________________________________________________________
2020-01-08 17:10:30,724 [INFO] Layer (type)                 Output Shape              Param #   
2020-01-08 17:10:30,724 [INFO] =================================================================
2020-01-08 17:10:30,724 [INFO] dense_6 (Dense)              (None, 64)                5056      
2020-01-08 17:10:30,724 [INFO] _________________________________________________________________
2020-01-08 17:10:30,724 [INFO] batch_normalization_4 (Batch (None, 64)                256       
2020-01-08 17:10:30,724 [INFO] _________________________________________________________________
2020-01-08 17:10:30,724 [INFO] dropout_4 (Dropout)          (None, 64)                0         
2020-01-08 17:10:30,724 [INFO] _________________________________________________________________
2020-01-08 17:10:30,725 [INFO] dense_7 (Dense)              (None, 64)                4160      
2020-01-08 17:10:30,725 [INFO] _________________________________________________________________
2020-01-08 17:10:30,725 [INFO] batch_normalization_5 (Batch (None, 64)                256       
2020-01-08 17:10:30,725 [INFO] _________________________________________________________________
2020-01-08 17:10:30,725 [INFO] dropout_5 (Dropout)          (None, 64)                0         
2020-01-08 17:10:30,725 [INFO] _________________________________________________________________
2020-01-08 17:10:30,725 [INFO] dense_8 (Dense)              (None, 64)                4160      
2020-01-08 17:10:30,725 [INFO] _________________________________________________________________
2020-01-08 17:10:30,725 [INFO] batch_normalization_6 (Batch (None, 64)                256       
2020-01-08 17:10:30,725 [INFO] _________________________________________________________________
2020-01-08 17:10:30,725 [INFO] dropout_6 (Dropout)          (None, 64)                0         
2020-01-08 17:10:30,725 [INFO] _________________________________________________________________
2020-01-08 17:10:30,725 [INFO] dense_9 (Dense)              (None, 12)                780       
2020-01-08 17:10:30,725 [INFO] =================================================================
2020-01-08 17:10:30,725 [INFO] Total params: 14,924
2020-01-08 17:10:30,726 [INFO] Trainable params: 14,540
2020-01-08 17:10:30,726 [INFO] Non-trainable params: 384
2020-01-08 17:10:30,726 [INFO] _________________________________________________________________
2020-01-08 17:10:30,726 [INFO] Training model
…
