…
2020-01-13 21:19:40,254 [INFO] Reading complete. time_to_read=0.09 seconds
2020-01-13 21:19:40,254 [INFO] Reading HDF dataset ../Datasets/full_datasets/ids2017/y_test.h5
2020-01-13 21:19:40,340 [INFO] Reading complete. time_to_read=0.09 seconds
2020-01-13 21:19:43,353 [INFO] Initializing model
2020-01-13 21:19:43,742 [INFO] _________________________________________________________________
2020-01-13 21:19:43,745 [INFO] Layer (type)                 Output Shape              Param #   
2020-01-13 21:19:43,745 [INFO] =================================================================
2020-01-13 21:19:43,745 [INFO] dense_18 (Dense)             (None, 256)               20224     
2020-01-13 21:19:43,745 [INFO] _________________________________________________________________
2020-01-13 21:19:43,745 [INFO] batch_normalization_14 (Batc (None, 256)               1024      
2020-01-13 21:19:43,745 [INFO] _________________________________________________________________
2020-01-13 21:19:43,746 [INFO] dropout_14 (Dropout)         (None, 256)               0         
2020-01-13 21:19:43,746 [INFO] _________________________________________________________________
2020-01-13 21:19:43,746 [INFO] dense_19 (Dense)             (None, 128)               32896     
2020-01-13 21:19:43,746 [INFO] _________________________________________________________________
2020-01-13 21:19:43,746 [INFO] batch_normalization_15 (Batc (None, 128)               512       
2020-01-13 21:19:43,746 [INFO] _________________________________________________________________
2020-01-13 21:19:43,746 [INFO] dropout_15 (Dropout)         (None, 128)               0         
2020-01-13 21:19:43,746 [INFO] _________________________________________________________________
2020-01-13 21:19:43,746 [INFO] dense_20 (Dense)             (None, 64)                8256      
2020-01-13 21:19:43,746 [INFO] _________________________________________________________________
2020-01-13 21:19:43,746 [INFO] batch_normalization_16 (Batc (None, 64)                256       
2020-01-13 21:19:43,746 [INFO] _________________________________________________________________
2020-01-13 21:19:43,747 [INFO] dropout_16 (Dropout)         (None, 64)                0         
2020-01-13 21:19:43,747 [INFO] _________________________________________________________________
2020-01-13 21:19:43,747 [INFO] dense_21 (Dense)             (None, 32)                2080      
2020-01-13 21:19:43,747 [INFO] _________________________________________________________________
2020-01-13 21:19:43,747 [INFO] batch_normalization_17 (Batc (None, 32)                128       
2020-01-13 21:19:43,747 [INFO] _________________________________________________________________
2020-01-13 21:19:43,747 [INFO] dropout_17 (Dropout)         (None, 32)                0         
2020-01-13 21:19:43,747 [INFO] _________________________________________________________________
2020-01-13 21:19:43,747 [INFO] dense_22 (Dense)             (None, 12)                396       
2020-01-13 21:19:43,747 [INFO] =================================================================
2020-01-13 21:19:43,748 [INFO] Total params: 65,772
2020-01-13 21:19:43,748 [INFO] Trainable params: 64,812
2020-01-13 21:19:43,748 [INFO] Non-trainable params: 960
2020-01-13 21:19:43,748 [INFO] _________________________________________________________________
2020-01-13 21:19:43,748 [INFO] Training model
…
