…
2020-01-14 14:17:27,034 [INFO] Reading complete. time_to_read=0.08 seconds
2020-01-14 14:17:27,034 [INFO] Reading HDF dataset ../Datasets/full_datasets/ids2017/y_test.h5
2020-01-14 14:17:27,108 [INFO] Reading complete. time_to_read=0.07 seconds
2020-01-14 14:17:30,559 [INFO] Initializing model
2020-01-14 14:17:31,160 [INFO] _________________________________________________________________
2020-01-14 14:17:31,160 [INFO] Layer (type)                 Output Shape              Param #   
2020-01-14 14:17:31,160 [INFO] =================================================================
2020-01-14 14:17:31,160 [INFO] dense_33 (Dense)             (None, 128)               10112     
2020-01-14 14:17:31,160 [INFO] _________________________________________________________________
2020-01-14 14:17:31,160 [INFO] batch_normalization_25 (Batc (None, 128)               512       
2020-01-14 14:17:31,160 [INFO] _________________________________________________________________
2020-01-14 14:17:31,160 [INFO] dropout_25 (Dropout)         (None, 128)               0         
2020-01-14 14:17:31,160 [INFO] _________________________________________________________________
2020-01-14 14:17:31,161 [INFO] dense_34 (Dense)             (None, 64)                8256      
2020-01-14 14:17:31,161 [INFO] _________________________________________________________________
2020-01-14 14:17:31,161 [INFO] batch_normalization_26 (Batc (None, 64)                256       
2020-01-14 14:17:31,161 [INFO] _________________________________________________________________
2020-01-14 14:17:31,161 [INFO] dropout_26 (Dropout)         (None, 64)                0         
2020-01-14 14:17:31,161 [INFO] _________________________________________________________________
2020-01-14 14:17:31,161 [INFO] dense_35 (Dense)             (None, 32)                2080      
2020-01-14 14:17:31,161 [INFO] _________________________________________________________________
2020-01-14 14:17:31,161 [INFO] batch_normalization_27 (Batc (None, 32)                128       
2020-01-14 14:17:31,161 [INFO] _________________________________________________________________
2020-01-14 14:17:31,161 [INFO] dropout_27 (Dropout)         (None, 32)                0         
2020-01-14 14:17:31,161 [INFO] _________________________________________________________________
2020-01-14 14:17:31,161 [INFO] dense_36 (Dense)             (None, 64)                2112      
2020-01-14 14:17:31,161 [INFO] _________________________________________________________________
2020-01-14 14:17:31,161 [INFO] batch_normalization_28 (Batc (None, 64)                256       
2020-01-14 14:17:31,161 [INFO] _________________________________________________________________
2020-01-14 14:17:31,161 [INFO] dropout_28 (Dropout)         (None, 64)                0         
2020-01-14 14:17:31,161 [INFO] _________________________________________________________________
2020-01-14 14:17:31,162 [INFO] dense_37 (Dense)             (None, 128)               8320      
2020-01-14 14:17:31,162 [INFO] _________________________________________________________________
2020-01-14 14:17:31,162 [INFO] batch_normalization_29 (Batc (None, 128)               512       
2020-01-14 14:17:31,162 [INFO] _________________________________________________________________
2020-01-14 14:17:31,162 [INFO] dropout_29 (Dropout)         (None, 128)               0         
2020-01-14 14:17:31,162 [INFO] _________________________________________________________________
2020-01-14 14:17:31,162 [INFO] dense_38 (Dense)             (None, 78)                10062     
2020-01-14 14:17:31,162 [INFO] =================================================================
2020-01-14 14:17:31,162 [INFO] Total params: 42,606
2020-01-14 14:17:31,162 [INFO] Trainable params: 41,774
2020-01-14 14:17:31,162 [INFO] Non-trainable params: 832
2020-01-14 14:17:31,162 [INFO] _________________________________________________________________
2020-01-14 14:17:31,269 [INFO] _________________________________________________________________
2020-01-14 14:17:31,269 [INFO] Layer (type)                 Output Shape              Param #   
2020-01-14 14:17:31,269 [INFO] =================================================================
2020-01-14 14:17:31,269 [INFO] dense_39 (Dense)             (None, 64)                2112      
2020-01-14 14:17:31,269 [INFO] _________________________________________________________________
2020-01-14 14:17:31,269 [INFO] batch_normalization_30 (Batc (None, 64)                256       
2020-01-14 14:17:31,269 [INFO] _________________________________________________________________
2020-01-14 14:17:31,269 [INFO] dropout_30 (Dropout)         (None, 64)                0         
2020-01-14 14:17:31,269 [INFO] _________________________________________________________________
2020-01-14 14:17:31,269 [INFO] dense_40 (Dense)             (None, 12)                780       
2020-01-14 14:17:31,269 [INFO] =================================================================
2020-01-14 14:17:31,270 [INFO] Total params: 3,148
2020-01-14 14:17:31,270 [INFO] Trainable params: 3,020
2020-01-14 14:17:31,270 [INFO] Non-trainable params: 128
2020-01-14 14:17:31,270 [INFO] _________________________________________________________________
2020-01-14 14:17:31,270 [INFO] Training model
…
