…
2020-01-14 17:29:34,726 [INFO] Reading complete. time_to_read=0.09 seconds
2020-01-14 17:29:34,727 [INFO] Reading HDF dataset ../Datasets/small_datasets/ids2018/y_test.h5
2020-01-14 17:29:34,813 [INFO] Reading complete. time_to_read=0.09 seconds
2020-01-14 17:29:38,725 [INFO] Initializing model
2020-01-14 17:29:39,171 [INFO] _________________________________________________________________
2020-01-14 17:29:39,171 [INFO] Layer (type)                 Output Shape              Param #   
2020-01-14 17:29:39,172 [INFO] =================================================================
2020-01-14 17:29:39,172 [INFO] dense_65 (Dense)             (None, 128)               9984      
2020-01-14 17:29:39,172 [INFO] _________________________________________________________________
2020-01-14 17:29:39,172 [INFO] batch_normalization_49 (Batc (None, 128)               512       
2020-01-14 17:29:39,172 [INFO] _________________________________________________________________
2020-01-14 17:29:39,172 [INFO] dropout_49 (Dropout)         (None, 128)               0         
2020-01-14 17:29:39,172 [INFO] _________________________________________________________________
2020-01-14 17:29:39,172 [INFO] dense_66 (Dense)             (None, 64)                8256      
2020-01-14 17:29:39,172 [INFO] _________________________________________________________________
2020-01-14 17:29:39,172 [INFO] batch_normalization_50 (Batc (None, 64)                256       
2020-01-14 17:29:39,172 [INFO] _________________________________________________________________
2020-01-14 17:29:39,172 [INFO] dropout_50 (Dropout)         (None, 64)                0         
2020-01-14 17:29:39,172 [INFO] _________________________________________________________________
2020-01-14 17:29:39,172 [INFO] dense_67 (Dense)             (None, 32)                2080      
2020-01-14 17:29:39,172 [INFO] _________________________________________________________________
2020-01-14 17:29:39,172 [INFO] batch_normalization_51 (Batc (None, 32)                128       
2020-01-14 17:29:39,173 [INFO] _________________________________________________________________
2020-01-14 17:29:39,173 [INFO] dropout_51 (Dropout)         (None, 32)                0         
2020-01-14 17:29:39,173 [INFO] _________________________________________________________________
2020-01-14 17:29:39,173 [INFO] dense_68 (Dense)             (None, 64)                2112      
2020-01-14 17:29:39,173 [INFO] _________________________________________________________________
2020-01-14 17:29:39,173 [INFO] batch_normalization_52 (Batc (None, 64)                256       
2020-01-14 17:29:39,173 [INFO] _________________________________________________________________
2020-01-14 17:29:39,173 [INFO] dropout_52 (Dropout)         (None, 64)                0         
2020-01-14 17:29:39,173 [INFO] _________________________________________________________________
2020-01-14 17:29:39,173 [INFO] dense_69 (Dense)             (None, 128)               8320      
2020-01-14 17:29:39,173 [INFO] _________________________________________________________________
2020-01-14 17:29:39,173 [INFO] batch_normalization_53 (Batc (None, 128)               512       
2020-01-14 17:29:39,173 [INFO] _________________________________________________________________
2020-01-14 17:29:39,173 [INFO] dropout_53 (Dropout)         (None, 128)               0         
2020-01-14 17:29:39,173 [INFO] _________________________________________________________________
2020-01-14 17:29:39,173 [INFO] dense_70 (Dense)             (None, 77)                9933      
2020-01-14 17:29:39,173 [INFO] =================================================================
2020-01-14 17:29:39,174 [INFO] Total params: 42,349
2020-01-14 17:29:39,174 [INFO] Trainable params: 41,517
2020-01-14 17:29:39,174 [INFO] Non-trainable params: 832
2020-01-14 17:29:39,174 [INFO] _________________________________________________________________
2020-01-14 17:29:39,284 [INFO] _________________________________________________________________
2020-01-14 17:29:39,284 [INFO] Layer (type)                 Output Shape              Param #   
2020-01-14 17:29:39,284 [INFO] =================================================================
2020-01-14 17:29:39,284 [INFO] dense_71 (Dense)             (None, 64)                2112      
2020-01-14 17:29:39,285 [INFO] _________________________________________________________________
2020-01-14 17:29:39,285 [INFO] batch_normalization_54 (Batc (None, 64)                256       
2020-01-14 17:29:39,285 [INFO] _________________________________________________________________
2020-01-14 17:29:39,285 [INFO] dropout_54 (Dropout)         (None, 64)                0         
2020-01-14 17:29:39,285 [INFO] _________________________________________________________________
2020-01-14 17:29:39,285 [INFO] dense_72 (Dense)             (None, 15)                975       
2020-01-14 17:29:39,285 [INFO] =================================================================
2020-01-14 17:29:39,285 [INFO] Total params: 3,343
2020-01-14 17:29:39,285 [INFO] Trainable params: 3,215
2020-01-14 17:29:39,285 [INFO] Non-trainable params: 128
2020-01-14 17:29:39,285 [INFO] _________________________________________________________________
2020-01-14 17:29:39,285 [INFO] Training model
…
