…
2019-12-25 20:34:01,583 [INFO] Creating and initializing feed forward neural network
2019-12-25 20:34:02,370 [WARNING] Large dropout rate: 0.6 (>0.5). In TensorFlow 2.x, dropout() uses dropout rate instead of keep_prob. Please ensure that this is intended.
2019-12-25 20:34:02,411 [INFO] _________________________________________________________________
2019-12-25 20:34:02,411 [INFO] Layer (type)                 Output Shape              Param #   
2019-12-25 20:34:02,411 [INFO] =================================================================
2019-12-25 20:34:02,411 [INFO] dense_57 (Dense)             (None, 128)               9984      
2019-12-25 20:34:02,411 [INFO] _________________________________________________________________
2019-12-25 20:34:02,411 [INFO] batch_normalization_43 (Batc (None, 128)               512       
2019-12-25 20:34:02,411 [INFO] _________________________________________________________________
2019-12-25 20:34:02,411 [INFO] dropout_43 (Dropout)         (None, 128)               0         
2019-12-25 20:34:02,411 [INFO] _________________________________________________________________
2019-12-25 20:34:02,411 [INFO] dense_58 (Dense)             (None, 64)                8256      
2019-12-25 20:34:02,411 [INFO] _________________________________________________________________
2019-12-25 20:34:02,412 [INFO] batch_normalization_44 (Batc (None, 64)                256       
2019-12-25 20:34:02,412 [INFO] _________________________________________________________________
2019-12-25 20:34:02,412 [INFO] dropout_44 (Dropout)         (None, 64)                0         
2019-12-25 20:34:02,412 [INFO] _________________________________________________________________
2019-12-25 20:34:02,412 [INFO] dense_59 (Dense)             (None, 36)                2340      
2019-12-25 20:34:02,412 [INFO] _________________________________________________________________
2019-12-25 20:34:02,412 [INFO] batch_normalization_45 (Batc (None, 36)                144       
2019-12-25 20:34:02,412 [INFO] _________________________________________________________________
2019-12-25 20:34:02,412 [INFO] dropout_45 (Dropout)         (None, 36)                0         
2019-12-25 20:34:02,412 [INFO] _________________________________________________________________
2019-12-25 20:34:02,412 [INFO] dense_60 (Dense)             (None, 15)                555       
2019-12-25 20:34:02,412 [INFO] =================================================================
2019-12-25 20:34:02,412 [INFO] Total params: 22,047
2019-12-25 20:34:02,412 [INFO] Trainable params: 21,591
2019-12-25 20:34:02,412 [INFO] Non-trainable params: 456
2019-12-25 20:34:02,412 [INFO] _________________________________________________________________
2019-12-25 20:34:07,507 [INFO] Fine-tuning final neural network
…
