…
2019-12-25 00:15:32,702 [INFO] Creating and initializing feed forward neural network
2019-12-25 00:15:32,945 [WARNING] Large dropout rate: 0.6 (>0.5). In TensorFlow 2.x, dropout() uses dropout rate instead of keep_prob. Please ensure that this is intended.
2019-12-25 00:15:32,985 [INFO] _________________________________________________________________
2019-12-25 00:15:32,985 [INFO] Layer (type)                 Output Shape              Param #   
2019-12-25 00:15:32,985 [INFO] =================================================================
2019-12-25 00:15:32,985 [INFO] dense_37 (Dense)             (None, 128)               10112     
2019-12-25 00:15:32,985 [INFO] _________________________________________________________________
2019-12-25 00:15:32,985 [INFO] batch_normalization_28 (Batc (None, 128)               512       
2019-12-25 00:15:32,985 [INFO] _________________________________________________________________
2019-12-25 00:15:32,985 [INFO] dropout_28 (Dropout)         (None, 128)               0         
2019-12-25 00:15:32,985 [INFO] _________________________________________________________________
2019-12-25 00:15:32,985 [INFO] dense_38 (Dense)             (None, 64)                8256      
2019-12-25 00:15:32,985 [INFO] _________________________________________________________________
2019-12-25 00:15:32,986 [INFO] batch_normalization_29 (Batc (None, 64)                256       
2019-12-25 00:15:32,986 [INFO] _________________________________________________________________
2019-12-25 00:15:32,986 [INFO] dropout_29 (Dropout)         (None, 64)                0         
2019-12-25 00:15:32,986 [INFO] _________________________________________________________________
2019-12-25 00:15:32,986 [INFO] dense_39 (Dense)             (None, 36)                2340      
2019-12-25 00:15:32,986 [INFO] _________________________________________________________________
2019-12-25 00:15:32,986 [INFO] batch_normalization_30 (Batc (None, 36)                144       
2019-12-25 00:15:32,986 [INFO] _________________________________________________________________
2019-12-25 00:15:32,986 [INFO] dropout_30 (Dropout)         (None, 36)                0         
2019-12-25 00:15:32,986 [INFO] _________________________________________________________________
2019-12-25 00:15:32,986 [INFO] dense_40 (Dense)             (None, 12)                444       
2019-12-25 00:15:32,986 [INFO] =================================================================
2019-12-25 00:15:32,986 [INFO] Total params: 22,064
2019-12-25 00:15:32,986 [INFO] Trainable params: 21,608
2019-12-25 00:15:32,986 [INFO] Non-trainable params: 456
2019-12-25 00:15:32,986 [INFO] _________________________________________________________________
2019-12-25 00:15:35,967 [INFO] Fine-tuning final neural network
…
