…
2020-01-08 14:54:18,837 [INFO] Reading complete. time_to_read=0.00 seconds
2020-01-08 14:54:18,837 [INFO] Reading HDF dataset ../Datasets/small_datasets/nsl_kdd_five_classes/y_test.h5
2020-01-08 14:54:18,840 [INFO] Reading complete. time_to_read=0.00 seconds
2020-01-08 14:54:19,029 [INFO] Initializing model
2020-01-08 14:54:19,810 [INFO] _________________________________________________________________
2020-01-08 14:54:19,810 [INFO] Layer (type)                 Output Shape              Param #   
2020-01-08 14:54:19,810 [INFO] =================================================================
2020-01-08 14:54:19,810 [INFO] dense_45 (Dense)             (None, 64)                7872      
2020-01-08 14:54:19,810 [INFO] _________________________________________________________________
2020-01-08 14:54:19,810 [INFO] batch_normalization_37 (Batc (None, 64)                256       
2020-01-08 14:54:19,810 [INFO] _________________________________________________________________
2020-01-08 14:54:19,810 [INFO] dropout_37 (Dropout)         (None, 64)                0         
2020-01-08 14:54:19,810 [INFO] _________________________________________________________________
2020-01-08 14:54:19,810 [INFO] dense_46 (Dense)             (None, 64)                4160      
2020-01-08 14:54:19,811 [INFO] _________________________________________________________________
2020-01-08 14:54:19,811 [INFO] batch_normalization_38 (Batc (None, 64)                256       
2020-01-08 14:54:19,811 [INFO] _________________________________________________________________
2020-01-08 14:54:19,811 [INFO] dropout_38 (Dropout)         (None, 64)                0         
2020-01-08 14:54:19,811 [INFO] _________________________________________________________________
2020-01-08 14:54:19,811 [INFO] dense_47 (Dense)             (None, 64)                4160      
2020-01-08 14:54:19,811 [INFO] _________________________________________________________________
2020-01-08 14:54:19,811 [INFO] batch_normalization_39 (Batc (None, 64)                256       
2020-01-08 14:54:19,811 [INFO] _________________________________________________________________
2020-01-08 14:54:19,811 [INFO] dropout_39 (Dropout)         (None, 64)                0         
2020-01-08 14:54:19,811 [INFO] _________________________________________________________________
2020-01-08 14:54:19,811 [INFO] dense_48 (Dense)             (None, 64)                4160      
2020-01-08 14:54:19,811 [INFO] _________________________________________________________________
2020-01-08 14:54:19,811 [INFO] batch_normalization_40 (Batc (None, 64)                256       
2020-01-08 14:54:19,811 [INFO] _________________________________________________________________
2020-01-08 14:54:19,811 [INFO] dropout_40 (Dropout)         (None, 64)                0         
2020-01-08 14:54:19,811 [INFO] _________________________________________________________________
2020-01-08 14:54:19,811 [INFO] dense_49 (Dense)             (None, 64)                4160      
2020-01-08 14:54:19,812 [INFO] _________________________________________________________________
2020-01-08 14:54:19,812 [INFO] batch_normalization_41 (Batc (None, 64)                256       
2020-01-08 14:54:19,812 [INFO] _________________________________________________________________
2020-01-08 14:54:19,812 [INFO] dropout_41 (Dropout)         (None, 64)                0         
2020-01-08 14:54:19,812 [INFO] _________________________________________________________________
2020-01-08 14:54:19,812 [INFO] dense_50 (Dense)             (None, 64)                4160      
2020-01-08 14:54:19,812 [INFO] _________________________________________________________________
2020-01-08 14:54:19,812 [INFO] batch_normalization_42 (Batc (None, 64)                256       
2020-01-08 14:54:19,812 [INFO] _________________________________________________________________
2020-01-08 14:54:19,812 [INFO] dropout_42 (Dropout)         (None, 64)                0         
2020-01-08 14:54:19,812 [INFO] _________________________________________________________________
2020-01-08 14:54:19,812 [INFO] dense_51 (Dense)             (None, 64)                4160      
2020-01-08 14:54:19,812 [INFO] _________________________________________________________________
2020-01-08 14:54:19,812 [INFO] batch_normalization_43 (Batc (None, 64)                256       
2020-01-08 14:54:19,812 [INFO] _________________________________________________________________
2020-01-08 14:54:19,812 [INFO] dropout_43 (Dropout)         (None, 64)                0         
2020-01-08 14:54:19,812 [INFO] _________________________________________________________________
2020-01-08 14:54:19,812 [INFO] dense_52 (Dense)             (None, 64)                4160      
2020-01-08 14:54:19,813 [INFO] _________________________________________________________________
2020-01-08 14:54:19,813 [INFO] batch_normalization_44 (Batc (None, 64)                256       
2020-01-08 14:54:19,813 [INFO] _________________________________________________________________
2020-01-08 14:54:19,813 [INFO] dropout_44 (Dropout)         (None, 64)                0         
2020-01-08 14:54:19,813 [INFO] _________________________________________________________________
2020-01-08 14:54:19,813 [INFO] dense_53 (Dense)             (None, 64)                4160      
2020-01-08 14:54:19,813 [INFO] _________________________________________________________________
2020-01-08 14:54:19,813 [INFO] batch_normalization_45 (Batc (None, 64)                256       
2020-01-08 14:54:19,813 [INFO] _________________________________________________________________
2020-01-08 14:54:19,813 [INFO] dropout_45 (Dropout)         (None, 64)                0         
2020-01-08 14:54:19,813 [INFO] _________________________________________________________________
2020-01-08 14:54:19,813 [INFO] dense_54 (Dense)             (None, 5)                 325       
2020-01-08 14:54:19,813 [INFO] =================================================================
2020-01-08 14:54:19,814 [INFO] Total params: 43,781
2020-01-08 14:54:19,814 [INFO] Trainable params: 42,629
2020-01-08 14:54:19,814 [INFO] Non-trainable params: 1,152
2020-01-08 14:54:19,814 [INFO] _________________________________________________________________
2020-01-08 14:54:19,814 [INFO] Training model
…
