…
2019-12-20 17:46:32,737 [INFO] Reading complete. time_to_read=0.00 seconds
2019-12-20 17:46:32,737 [INFO] Reading HDF dataset ../Datasets/small_datasets/nsl_kdd_five_classes/y_test.h5
2019-12-20 17:46:32,741 [INFO] Reading complete. time_to_read=0.00 seconds
2019-12-20 17:46:32,937 [INFO] Initializing model
2019-12-20 17:46:33,188 [INFO] _________________________________________________________________
2019-12-20 17:46:33,188 [INFO] Layer (type)                 Output Shape              Param #   
2019-12-20 17:46:33,188 [INFO] =================================================================
2019-12-20 17:46:33,189 [INFO] dense_13 (Dense)             (None, 64)                7872      
2019-12-20 17:46:33,189 [INFO] _________________________________________________________________
2019-12-20 17:46:33,189 [INFO] batch_normalization_10 (Batc (None, 64)                256       
2019-12-20 17:46:33,189 [INFO] _________________________________________________________________
2019-12-20 17:46:33,189 [INFO] dropout_10 (Dropout)         (None, 64)                0         
2019-12-20 17:46:33,189 [INFO] _________________________________________________________________
2019-12-20 17:46:33,189 [INFO] dense_14 (Dense)             (None, 32)                2080      
2019-12-20 17:46:33,189 [INFO] _________________________________________________________________
2019-12-20 17:46:33,190 [INFO] batch_normalization_11 (Batc (None, 32)                128       
2019-12-20 17:46:33,190 [INFO] _________________________________________________________________
2019-12-20 17:46:33,190 [INFO] dropout_11 (Dropout)         (None, 32)                0         
2019-12-20 17:46:33,190 [INFO] _________________________________________________________________
2019-12-20 17:46:33,190 [INFO] dense_15 (Dense)             (None, 67)                2211      
2019-12-20 17:46:33,190 [INFO] _________________________________________________________________
2019-12-20 17:46:33,190 [INFO] batch_normalization_12 (Batc (None, 67)                268       
2019-12-20 17:46:33,190 [INFO] _________________________________________________________________
2019-12-20 17:46:33,190 [INFO] dropout_12 (Dropout)         (None, 67)                0         
2019-12-20 17:46:33,190 [INFO] _________________________________________________________________
2019-12-20 17:46:33,190 [INFO] dense_16 (Dense)             (None, 5)                 340       
2019-12-20 17:46:33,190 [INFO] =================================================================
2019-12-20 17:46:33,190 [INFO] Total params: 13,155
2019-12-20 17:46:33,191 [INFO] Trainable params: 12,829
2019-12-20 17:46:33,191 [INFO] Non-trainable params: 326
2019-12-20 17:46:33,191 [INFO] _________________________________________________________________
2019-12-20 17:46:33,191 [INFO] Training model
…
