…
2020-05-09 03:01:22,648 [INFO] Reading HDF dataset ../Datasets/full_datasets/ids2018/y_test_9.h5
2020-05-09 03:01:22,759 [INFO] Reading complete. time_to_read=0.11 seconds
2020-05-09 03:01:29,754 [INFO] Initializing model
2020-05-09 03:01:30,017 [INFO] Model: "sequential_3"
2020-05-09 03:01:30,018 [INFO] _________________________________________________________________
2020-05-09 03:01:30,018 [INFO] Layer (type)                 Output Shape              Param #   
2020-05-09 03:01:30,018 [INFO] =================================================================
2020-05-09 03:01:30,018 [INFO] dense_11 (Dense)             (None, 128)               9984      
2020-05-09 03:01:30,018 [INFO] _________________________________________________________________
2020-05-09 03:01:30,018 [INFO] batch_normalization_9 (Batch (None, 128)               512       
2020-05-09 03:01:30,018 [INFO] _________________________________________________________________
2020-05-09 03:01:30,018 [INFO] dropout_9 (Dropout)          (None, 128)               0         
2020-05-09 03:01:30,018 [INFO] _________________________________________________________________
2020-05-09 03:01:30,018 [INFO] dense_12 (Dense)             (None, 64)                8256      
2020-05-09 03:01:30,018 [INFO] _________________________________________________________________
2020-05-09 03:01:30,018 [INFO] batch_normalization_10 (Batc (None, 64)                256       
2020-05-09 03:01:30,018 [INFO] _________________________________________________________________
2020-05-09 03:01:30,018 [INFO] dropout_10 (Dropout)         (None, 64)                0         
2020-05-09 03:01:30,018 [INFO] _________________________________________________________________
2020-05-09 03:01:30,018 [INFO] dense_13 (Dense)             (None, 32)                2080      
2020-05-09 03:01:30,018 [INFO] _________________________________________________________________
2020-05-09 03:01:30,018 [INFO] batch_normalization_11 (Batc (None, 32)                128       
2020-05-09 03:01:30,018 [INFO] _________________________________________________________________
2020-05-09 03:01:30,018 [INFO] dropout_11 (Dropout)         (None, 32)                0         
2020-05-09 03:01:30,018 [INFO] _________________________________________________________________
2020-05-09 03:01:30,018 [INFO] dense_14 (Dense)             (None, 16)                528       
2020-05-09 03:01:30,018 [INFO] _________________________________________________________________
2020-05-09 03:01:30,018 [INFO] batch_normalization_12 (Batc (None, 16)                64        
2020-05-09 03:01:30,018 [INFO] _________________________________________________________________
2020-05-09 03:01:30,019 [INFO] dropout_12 (Dropout)         (None, 16)                0         
2020-05-09 03:01:30,019 [INFO] _________________________________________________________________
2020-05-09 03:01:30,019 [INFO] dense_15 (Dense)             (None, 15)                255       
2020-05-09 03:01:30,019 [INFO] =================================================================
2020-05-09 03:01:30,019 [INFO] Total params: 22,063
2020-05-09 03:01:30,019 [INFO] Trainable params: 21,583
2020-05-09 03:01:30,019 [INFO] Non-trainable params: 480
2020-05-09 03:01:30,019 [INFO] _________________________________________________________________
2020-05-09 03:01:30,019 [INFO] Training model
…
