…
2019-12-26 04:09:10,180 [INFO] Reading complete. time_to_read=0.05 seconds
2019-12-26 04:09:10,180 [INFO] Reading HDF dataset ../Datasets/full_datasets/kdd99_five_classes/y_test.h5
2019-12-26 04:09:10,200 [INFO] Reading complete. time_to_read=0.02 seconds
2019-12-26 04:09:17,333 [INFO] Initializing model
2019-12-26 04:09:17,975 [INFO] _________________________________________________________________
2019-12-26 04:09:17,975 [INFO] Layer (type)                 Output Shape              Param #   
2019-12-26 04:09:17,975 [INFO] =================================================================
2019-12-26 04:09:17,975 [INFO] dense_133 (Dense)            (None, 128)               15872     
2019-12-26 04:09:17,976 [INFO] _________________________________________________________________
2019-12-26 04:09:17,976 [INFO] batch_normalization_95 (Batc (None, 128)               512       
2019-12-26 04:09:17,976 [INFO] _________________________________________________________________
2019-12-26 04:09:17,976 [INFO] dropout_95 (Dropout)         (None, 128)               0         
2019-12-26 04:09:17,976 [INFO] _________________________________________________________________
2019-12-26 04:09:17,976 [INFO] dense_134 (Dense)            (None, 64)                8256      
2019-12-26 04:09:17,976 [INFO] _________________________________________________________________
2019-12-26 04:09:17,976 [INFO] batch_normalization_96 (Batc (None, 64)                256       
2019-12-26 04:09:17,976 [INFO] _________________________________________________________________
2019-12-26 04:09:17,976 [INFO] dropout_96 (Dropout)         (None, 64)                0         
2019-12-26 04:09:17,976 [INFO] _________________________________________________________________
2019-12-26 04:09:17,976 [INFO] dense_135 (Dense)            (None, 32)                2080      
2019-12-26 04:09:17,977 [INFO] _________________________________________________________________
2019-12-26 04:09:17,977 [INFO] batch_normalization_97 (Batc (None, 32)                128       
2019-12-26 04:09:17,977 [INFO] _________________________________________________________________
2019-12-26 04:09:17,977 [INFO] dropout_97 (Dropout)         (None, 32)                0         
2019-12-26 04:09:17,977 [INFO] _________________________________________________________________
2019-12-26 04:09:17,977 [INFO] dense_136 (Dense)            (None, 64)                2112      
2019-12-26 04:09:17,977 [INFO] _________________________________________________________________
2019-12-26 04:09:17,977 [INFO] batch_normalization_98 (Batc (None, 64)                256       
2019-12-26 04:09:17,977 [INFO] _________________________________________________________________
2019-12-26 04:09:17,977 [INFO] dropout_98 (Dropout)         (None, 64)                0         
2019-12-26 04:09:17,977 [INFO] _________________________________________________________________
2019-12-26 04:09:17,977 [INFO] dense_137 (Dense)            (None, 128)               8320      
2019-12-26 04:09:17,977 [INFO] _________________________________________________________________
2019-12-26 04:09:17,978 [INFO] batch_normalization_99 (Batc (None, 128)               512       
2019-12-26 04:09:17,978 [INFO] _________________________________________________________________
2019-12-26 04:09:17,978 [INFO] dropout_99 (Dropout)         (None, 128)               0         
2019-12-26 04:09:17,978 [INFO] _________________________________________________________________
2019-12-26 04:09:17,978 [INFO] dense_138 (Dense)            (None, 123)               15867     
2019-12-26 04:09:17,978 [INFO] =================================================================
2019-12-26 04:09:17,978 [INFO] Total params: 54,171
2019-12-26 04:09:17,979 [INFO] Trainable params: 53,339
2019-12-26 04:09:17,979 [INFO] Non-trainable params: 832
2019-12-26 04:09:17,979 [INFO] _________________________________________________________________
2019-12-26 04:09:18,136 [INFO] _________________________________________________________________
2019-12-26 04:09:18,136 [INFO] Layer (type)                 Output Shape              Param #   
2019-12-26 04:09:18,136 [INFO] =================================================================
2019-12-26 04:09:18,136 [INFO] dense_139 (Dense)            (None, 64)                2112      
2019-12-26 04:09:18,137 [INFO] _________________________________________________________________
2019-12-26 04:09:18,137 [INFO] batch_normalization_100 (Bat (None, 64)                256       
2019-12-26 04:09:18,137 [INFO] _________________________________________________________________
2019-12-26 04:09:18,137 [INFO] dropout_100 (Dropout)        (None, 64)                0         
2019-12-26 04:09:18,137 [INFO] _________________________________________________________________
2019-12-26 04:09:18,137 [INFO] dense_140 (Dense)            (None, 5)                 325       
2019-12-26 04:09:18,137 [INFO] =================================================================
2019-12-26 04:09:18,137 [INFO] Total params: 2,693
2019-12-26 04:09:18,137 [INFO] Trainable params: 2,565
2019-12-26 04:09:18,137 [INFO] Non-trainable params: 128
2019-12-26 04:09:18,137 [INFO] _________________________________________________________________
2019-12-26 04:09:18,137 [INFO] Training model
…
