…
2019-12-27 06:44:23,854 [INFO] Reading complete. time_to_read=0.07 seconds
2019-12-27 06:44:23,854 [INFO] Reading HDF dataset ../Datasets/full_datasets/ids2017/y_test.h5
2019-12-27 06:44:23,922 [INFO] Reading complete. time_to_read=0.07 seconds
2019-12-27 06:44:27,082 [INFO] Initializing model
2019-12-27 06:44:27,383 [INFO] _________________________________________________________________
2019-12-27 06:44:27,383 [INFO] Layer (type)                 Output Shape              Param #   
2019-12-27 06:44:27,383 [INFO] =================================================================
2019-12-27 06:44:27,383 [INFO] dense_71 (Dense)             (None, 64)                5056      
2019-12-27 06:44:27,383 [INFO] _________________________________________________________________
2019-12-27 06:44:27,383 [INFO] batch_normalization_59 (Batc (None, 64)                256       
2019-12-27 06:44:27,383 [INFO] _________________________________________________________________
2019-12-27 06:44:27,383 [INFO] dropout_59 (Dropout)         (None, 64)                0         
2019-12-27 06:44:27,383 [INFO] _________________________________________________________________
2019-12-27 06:44:27,383 [INFO] dense_72 (Dense)             (None, 32)                2080      
2019-12-27 06:44:27,383 [INFO] _________________________________________________________________
2019-12-27 06:44:27,383 [INFO] batch_normalization_60 (Batc (None, 32)                128       
2019-12-27 06:44:27,383 [INFO] _________________________________________________________________
2019-12-27 06:44:27,383 [INFO] dropout_60 (Dropout)         (None, 32)                0         
2019-12-27 06:44:27,383 [INFO] _________________________________________________________________
2019-12-27 06:44:27,383 [INFO] dense_73 (Dense)             (None, 16)                528       
2019-12-27 06:44:27,384 [INFO] _________________________________________________________________
2019-12-27 06:44:27,384 [INFO] batch_normalization_61 (Batc (None, 16)                64        
2019-12-27 06:44:27,384 [INFO] _________________________________________________________________
2019-12-27 06:44:27,384 [INFO] dropout_61 (Dropout)         (None, 16)                0         
2019-12-27 06:44:27,384 [INFO] _________________________________________________________________
2019-12-27 06:44:27,384 [INFO] dense_74 (Dense)             (None, 12)                204       
2019-12-27 06:44:27,384 [INFO] =================================================================
2019-12-27 06:44:27,384 [INFO] Total params: 8,316
2019-12-27 06:44:27,384 [INFO] Trainable params: 8,092
2019-12-27 06:44:27,384 [INFO] Non-trainable params: 224
2019-12-27 06:44:27,384 [INFO] _________________________________________________________________
2019-12-27 06:44:27,384 [INFO] Training model
…
