…
2020-01-14 16:08:00,128 [INFO] Pretraining Deep Belief Network
2020-01-14 16:16:20,688 [INFO] Pretraining Complete
2020-01-14 16:16:20,689 [INFO] Getting pretrained weights
2020-01-14 16:16:20,689 [INFO] Creating and initializing feed forward neural network
2020-01-14 16:16:20,994 [INFO] _________________________________________________________________
2020-01-14 16:16:20,994 [INFO] Layer (type)                 Output Shape              Param #   
2020-01-14 16:16:20,994 [INFO] =================================================================
2020-01-14 16:16:20,995 [INFO] dense_25 (Dense)             (None, 128)               9984      
2020-01-14 16:16:20,995 [INFO] _________________________________________________________________
2020-01-14 16:16:20,995 [INFO] batch_normalization_19 (Batc (None, 128)               512       
2020-01-14 16:16:20,995 [INFO] _________________________________________________________________
2020-01-14 16:16:20,995 [INFO] dropout_19 (Dropout)         (None, 128)               0         
2020-01-14 16:16:20,995 [INFO] _________________________________________________________________
2020-01-14 16:16:20,995 [INFO] dense_26 (Dense)             (None, 64)                8256      
2020-01-14 16:16:20,995 [INFO] _________________________________________________________________
2020-01-14 16:16:20,995 [INFO] batch_normalization_20 (Batc (None, 64)                256       
2020-01-14 16:16:20,995 [INFO] _________________________________________________________________
2020-01-14 16:16:20,995 [INFO] dropout_20 (Dropout)         (None, 64)                0         
2020-01-14 16:16:20,996 [INFO] _________________________________________________________________
2020-01-14 16:16:20,996 [INFO] dense_27 (Dense)             (None, 32)                2080      
2020-01-14 16:16:20,996 [INFO] _________________________________________________________________
2020-01-14 16:16:20,996 [INFO] batch_normalization_21 (Batc (None, 32)                128       
2020-01-14 16:16:20,996 [INFO] _________________________________________________________________
2020-01-14 16:16:20,996 [INFO] dropout_21 (Dropout)         (None, 32)                0         
2020-01-14 16:16:20,996 [INFO] _________________________________________________________________
2020-01-14 16:16:20,996 [INFO] dense_28 (Dense)             (None, 15)                495       
2020-01-14 16:16:20,996 [INFO] =================================================================
2020-01-14 16:16:20,996 [INFO] Total params: 21,711
2020-01-14 16:16:20,997 [INFO] Trainable params: 21,263
2020-01-14 16:16:20,997 [INFO] Non-trainable params: 448
2020-01-14 16:16:20,997 [INFO] _________________________________________________________________
2020-01-14 16:16:22,982 [INFO] Fine-tuning final neural network
…
