…
2020-01-08 14:16:07,057 [INFO] Reading complete. time_to_read=0.00 seconds
2020-01-08 14:16:07,057 [INFO] Reading HDF dataset ../Datasets/small_datasets/nsl_kdd_five_classes/y_test.h5
2020-01-08 14:16:07,060 [INFO] Reading complete. time_to_read=0.00 seconds
2020-01-08 14:16:07,250 [INFO] Initializing model
2020-01-08 14:16:07,658 [INFO] _________________________________________________________________
2020-01-08 14:16:07,658 [INFO] Layer (type)                 Output Shape              Param #   
2020-01-08 14:16:07,658 [INFO] =================================================================
2020-01-08 14:16:07,658 [INFO] dense_15 (Dense)             (None, 64)                7872      
2020-01-08 14:16:07,658 [INFO] _________________________________________________________________
2020-01-08 14:16:07,658 [INFO] batch_normalization_11 (Batc (None, 64)                256       
2020-01-08 14:16:07,658 [INFO] _________________________________________________________________
2020-01-08 14:16:07,658 [INFO] dropout_11 (Dropout)         (None, 64)                0         
2020-01-08 14:16:07,658 [INFO] _________________________________________________________________
2020-01-08 14:16:07,658 [INFO] dense_16 (Dense)             (None, 64)                4160      
2020-01-08 14:16:07,658 [INFO] _________________________________________________________________
2020-01-08 14:16:07,658 [INFO] batch_normalization_12 (Batc (None, 64)                256       
2020-01-08 14:16:07,658 [INFO] _________________________________________________________________
2020-01-08 14:16:07,658 [INFO] dropout_12 (Dropout)         (None, 64)                0         
2020-01-08 14:16:07,658 [INFO] _________________________________________________________________
2020-01-08 14:16:07,658 [INFO] dense_17 (Dense)             (None, 64)                4160      
2020-01-08 14:16:07,659 [INFO] _________________________________________________________________
2020-01-08 14:16:07,659 [INFO] batch_normalization_13 (Batc (None, 64)                256       
2020-01-08 14:16:07,659 [INFO] _________________________________________________________________
2020-01-08 14:16:07,659 [INFO] dropout_13 (Dropout)         (None, 64)                0         
2020-01-08 14:16:07,659 [INFO] _________________________________________________________________
2020-01-08 14:16:07,659 [INFO] dense_18 (Dense)             (None, 64)                4160      
2020-01-08 14:16:07,659 [INFO] _________________________________________________________________
2020-01-08 14:16:07,659 [INFO] batch_normalization_14 (Batc (None, 64)                256       
2020-01-08 14:16:07,659 [INFO] _________________________________________________________________
2020-01-08 14:16:07,659 [INFO] dropout_14 (Dropout)         (None, 64)                0         
2020-01-08 14:16:07,659 [INFO] _________________________________________________________________
2020-01-08 14:16:07,659 [INFO] dense_19 (Dense)             (None, 64)                4160      
2020-01-08 14:16:07,659 [INFO] _________________________________________________________________
2020-01-08 14:16:07,659 [INFO] batch_normalization_15 (Batc (None, 64)                256       
2020-01-08 14:16:07,659 [INFO] _________________________________________________________________
2020-01-08 14:16:07,659 [INFO] dropout_15 (Dropout)         (None, 64)                0         
2020-01-08 14:16:07,659 [INFO] _________________________________________________________________
2020-01-08 14:16:07,659 [INFO] dense_20 (Dense)             (None, 5)                 325       
2020-01-08 14:16:07,659 [INFO] =================================================================
2020-01-08 14:16:07,660 [INFO] Total params: 26,117
2020-01-08 14:16:07,660 [INFO] Trainable params: 25,477
2020-01-08 14:16:07,660 [INFO] Non-trainable params: 640
2020-01-08 14:16:07,660 [INFO] _________________________________________________________________
2020-01-08 14:16:07,660 [INFO] Training model
…
