…
2020-01-14 17:16:25,050 [INFO] Pretraining Deep Belief Network
2020-01-14 17:24:48,309 [INFO] Pretraining Complete
2020-01-14 17:24:48,309 [INFO] Getting pretrained weights
2020-01-14 17:24:48,309 [INFO] Creating and initializing feed forward neural network
2020-01-14 17:24:48,624 [INFO] _________________________________________________________________
2020-01-14 17:24:48,624 [INFO] Layer (type)                 Output Shape              Param #   
2020-01-14 17:24:48,624 [INFO] =================================================================
2020-01-14 17:24:48,624 [INFO] dense_33 (Dense)             (None, 128)               9984      
2020-01-14 17:24:48,624 [INFO] _________________________________________________________________
2020-01-14 17:24:48,624 [INFO] batch_normalization_25 (Batc (None, 128)               512       
2020-01-14 17:24:48,624 [INFO] _________________________________________________________________
2020-01-14 17:24:48,624 [INFO] dropout_25 (Dropout)         (None, 128)               0         
2020-01-14 17:24:48,624 [INFO] _________________________________________________________________
2020-01-14 17:24:48,624 [INFO] dense_34 (Dense)             (None, 64)                8256      
2020-01-14 17:24:48,624 [INFO] _________________________________________________________________
2020-01-14 17:24:48,625 [INFO] batch_normalization_26 (Batc (None, 64)                256       
2020-01-14 17:24:48,625 [INFO] _________________________________________________________________
2020-01-14 17:24:48,625 [INFO] dropout_26 (Dropout)         (None, 64)                0         
2020-01-14 17:24:48,625 [INFO] _________________________________________________________________
2020-01-14 17:24:48,625 [INFO] dense_35 (Dense)             (None, 34)                2210      
2020-01-14 17:24:48,625 [INFO] _________________________________________________________________
2020-01-14 17:24:48,625 [INFO] batch_normalization_27 (Batc (None, 34)                136       
2020-01-14 17:24:48,625 [INFO] _________________________________________________________________
2020-01-14 17:24:48,625 [INFO] dropout_27 (Dropout)         (None, 34)                0         
2020-01-14 17:24:48,625 [INFO] _________________________________________________________________
2020-01-14 17:24:48,625 [INFO] dense_36 (Dense)             (None, 15)                525       
2020-01-14 17:24:48,625 [INFO] =================================================================
2020-01-14 17:24:48,626 [INFO] Total params: 21,879
2020-01-14 17:24:48,626 [INFO] Trainable params: 21,427
2020-01-14 17:24:48,626 [INFO] Non-trainable params: 452
2020-01-14 17:24:48,626 [INFO] _________________________________________________________________
2020-01-14 17:24:51,306 [INFO] Fine-tuning final neural network
…
