…
2019-12-28 18:34:12,862 [INFO] Reading complete. time_to_read=0.07 seconds
2019-12-28 18:34:12,862 [INFO] Reading HDF dataset ../Datasets/full_datasets/ids2017/y_test.h5
2019-12-28 18:34:12,931 [INFO] Reading complete. time_to_read=0.07 seconds
2019-12-28 18:34:16,083 [INFO] Initializing model
2019-12-28 18:34:17,176 [INFO] _________________________________________________________________
2019-12-28 18:34:17,176 [INFO] Layer (type)                 Output Shape              Param #   
2019-12-28 18:34:17,176 [INFO] =================================================================
2019-12-28 18:34:17,176 [INFO] dense_120 (Dense)            (None, 800)               63200     
2019-12-28 18:34:17,176 [INFO] _________________________________________________________________
2019-12-28 18:34:17,176 [INFO] batch_normalization_101 (Bat (None, 800)               3200      
2019-12-28 18:34:17,176 [INFO] _________________________________________________________________
2019-12-28 18:34:17,177 [INFO] dropout_101 (Dropout)        (None, 800)               0         
2019-12-28 18:34:17,177 [INFO] _________________________________________________________________
2019-12-28 18:34:17,177 [INFO] dense_121 (Dense)            (None, 700)               560700    
2019-12-28 18:34:17,177 [INFO] _________________________________________________________________
2019-12-28 18:34:17,177 [INFO] batch_normalization_102 (Bat (None, 700)               2800      
2019-12-28 18:34:17,177 [INFO] _________________________________________________________________
2019-12-28 18:34:17,177 [INFO] dropout_102 (Dropout)        (None, 700)               0         
2019-12-28 18:34:17,177 [INFO] _________________________________________________________________
2019-12-28 18:34:17,177 [INFO] dense_122 (Dense)            (None, 600)               420600    
2019-12-28 18:34:17,177 [INFO] _________________________________________________________________
2019-12-28 18:34:17,177 [INFO] batch_normalization_103 (Bat (None, 600)               2400      
2019-12-28 18:34:17,177 [INFO] _________________________________________________________________
2019-12-28 18:34:17,177 [INFO] dropout_103 (Dropout)        (None, 600)               0         
2019-12-28 18:34:17,177 [INFO] _________________________________________________________________
2019-12-28 18:34:17,178 [INFO] dense_123 (Dense)            (None, 500)               300500    
2019-12-28 18:34:17,178 [INFO] _________________________________________________________________
2019-12-28 18:34:17,178 [INFO] batch_normalization_104 (Bat (None, 500)               2000      
2019-12-28 18:34:17,178 [INFO] _________________________________________________________________
2019-12-28 18:34:17,178 [INFO] dropout_104 (Dropout)        (None, 500)               0         
2019-12-28 18:34:17,178 [INFO] _________________________________________________________________
2019-12-28 18:34:17,178 [INFO] dense_124 (Dense)            (None, 400)               200400    
2019-12-28 18:34:17,178 [INFO] _________________________________________________________________
2019-12-28 18:34:17,178 [INFO] batch_normalization_105 (Bat (None, 400)               1600      
2019-12-28 18:34:17,178 [INFO] _________________________________________________________________
2019-12-28 18:34:17,178 [INFO] dropout_105 (Dropout)        (None, 400)               0         
2019-12-28 18:34:17,178 [INFO] _________________________________________________________________
2019-12-28 18:34:17,178 [INFO] dense_125 (Dense)            (None, 256)               102656    
2019-12-28 18:34:17,178 [INFO] _________________________________________________________________
2019-12-28 18:34:17,178 [INFO] batch_normalization_106 (Bat (None, 256)               1024      
2019-12-28 18:34:17,178 [INFO] _________________________________________________________________
2019-12-28 18:34:17,179 [INFO] dropout_106 (Dropout)        (None, 256)               0         
2019-12-28 18:34:17,179 [INFO] _________________________________________________________________
2019-12-28 18:34:17,179 [INFO] dense_126 (Dense)            (None, 128)               32896     
2019-12-28 18:34:17,179 [INFO] _________________________________________________________________
2019-12-28 18:34:17,179 [INFO] batch_normalization_107 (Bat (None, 128)               512       
2019-12-28 18:34:17,179 [INFO] _________________________________________________________________
2019-12-28 18:34:17,179 [INFO] dropout_107 (Dropout)        (None, 128)               0         
2019-12-28 18:34:17,179 [INFO] _________________________________________________________________
2019-12-28 18:34:17,179 [INFO] dense_127 (Dense)            (None, 64)                8256      
2019-12-28 18:34:17,179 [INFO] _________________________________________________________________
2019-12-28 18:34:17,179 [INFO] batch_normalization_108 (Bat (None, 64)                256       
2019-12-28 18:34:17,179 [INFO] _________________________________________________________________
2019-12-28 18:34:17,179 [INFO] dropout_108 (Dropout)        (None, 64)                0         
2019-12-28 18:34:17,179 [INFO] _________________________________________________________________
2019-12-28 18:34:17,179 [INFO] dense_128 (Dense)            (None, 32)                2080      
2019-12-28 18:34:17,179 [INFO] _________________________________________________________________
2019-12-28 18:34:17,180 [INFO] batch_normalization_109 (Bat (None, 32)                128       
2019-12-28 18:34:17,180 [INFO] _________________________________________________________________
2019-12-28 18:34:17,180 [INFO] dropout_109 (Dropout)        (None, 32)                0         
2019-12-28 18:34:17,180 [INFO] _________________________________________________________________
2019-12-28 18:34:17,180 [INFO] dense_129 (Dense)            (None, 16)                528       
2019-12-28 18:34:17,180 [INFO] _________________________________________________________________
2019-12-28 18:34:17,180 [INFO] batch_normalization_110 (Bat (None, 16)                64        
2019-12-28 18:34:17,180 [INFO] _________________________________________________________________
2019-12-28 18:34:17,180 [INFO] dropout_110 (Dropout)        (None, 16)                0         
2019-12-28 18:34:17,180 [INFO] _________________________________________________________________
2019-12-28 18:34:17,180 [INFO] dense_130 (Dense)            (None, 12)                204       
2019-12-28 18:34:17,180 [INFO] =================================================================
2019-12-28 18:34:17,181 [INFO] Total params: 1,706,004
2019-12-28 18:34:17,181 [INFO] Trainable params: 1,699,012
2019-12-28 18:34:17,181 [INFO] Non-trainable params: 6,992
2019-12-28 18:34:17,181 [INFO] _________________________________________________________________
2019-12-28 18:34:17,181 [INFO] Training model
…
