…
2020-05-09 17:20:58,006 [INFO] Reading HDF dataset ../Datasets/full_datasets/ids2018/y_test_9.h5
2020-05-09 17:20:58,115 [INFO] Reading complete. time_to_read=0.11 seconds
2020-05-09 17:21:05,146 [INFO] Initializing model
2020-05-09 17:21:05,311 [INFO] Model: "sequential_7"
2020-05-09 17:21:05,311 [INFO] _________________________________________________________________
2020-05-09 17:21:05,311 [INFO] Layer (type)                 Output Shape              Param #   
2020-05-09 17:21:05,311 [INFO] =================================================================
2020-05-09 17:21:05,311 [INFO] dense_25 (Dense)             (None, 128)               9984      
2020-05-09 17:21:05,311 [INFO] _________________________________________________________________
2020-05-09 17:21:05,311 [INFO] batch_normalization_19 (Batc (None, 128)               512       
2020-05-09 17:21:05,311 [INFO] _________________________________________________________________
2020-05-09 17:21:05,311 [INFO] dropout_19 (Dropout)         (None, 128)               0         
2020-05-09 17:21:05,311 [INFO] _________________________________________________________________
2020-05-09 17:21:05,311 [INFO] dense_26 (Dense)             (None, 64)                8256      
2020-05-09 17:21:05,311 [INFO] _________________________________________________________________
2020-05-09 17:21:05,311 [INFO] batch_normalization_20 (Batc (None, 64)                256       
2020-05-09 17:21:05,311 [INFO] _________________________________________________________________
2020-05-09 17:21:05,311 [INFO] dropout_20 (Dropout)         (None, 64)                0         
2020-05-09 17:21:05,311 [INFO] _________________________________________________________________
2020-05-09 17:21:05,311 [INFO] dense_27 (Dense)             (None, 32)                2080      
2020-05-09 17:21:05,311 [INFO] _________________________________________________________________
2020-05-09 17:21:05,311 [INFO] batch_normalization_21 (Batc (None, 32)                128       
2020-05-09 17:21:05,311 [INFO] _________________________________________________________________
2020-05-09 17:21:05,311 [INFO] dropout_21 (Dropout)         (None, 32)                0         
2020-05-09 17:21:05,311 [INFO] _________________________________________________________________
2020-05-09 17:21:05,312 [INFO] dense_28 (Dense)             (None, 64)                2112      
2020-05-09 17:21:05,312 [INFO] _________________________________________________________________
2020-05-09 17:21:05,312 [INFO] batch_normalization_22 (Batc (None, 64)                256       
2020-05-09 17:21:05,312 [INFO] _________________________________________________________________
2020-05-09 17:21:05,312 [INFO] dropout_22 (Dropout)         (None, 64)                0         
2020-05-09 17:21:05,312 [INFO] _________________________________________________________________
2020-05-09 17:21:05,312 [INFO] dense_29 (Dense)             (None, 128)               8320      
2020-05-09 17:21:05,312 [INFO] _________________________________________________________________
2020-05-09 17:21:05,312 [INFO] batch_normalization_23 (Batc (None, 128)               512       
2020-05-09 17:21:05,312 [INFO] _________________________________________________________________
2020-05-09 17:21:05,312 [INFO] dropout_23 (Dropout)         (None, 128)               0         
2020-05-09 17:21:05,312 [INFO] _________________________________________________________________
2020-05-09 17:21:05,312 [INFO] dense_30 (Dense)             (None, 77)                9933      
2020-05-09 17:21:05,312 [INFO] =================================================================
2020-05-09 17:21:05,312 [INFO] Total params: 42,349
2020-05-09 17:21:05,312 [INFO] Trainable params: 41,517
2020-05-09 17:21:05,312 [INFO] Non-trainable params: 832
2020-05-09 17:21:05,312 [INFO] _________________________________________________________________
2020-05-09 17:21:05,347 [INFO] Model: "sequential_8"
2020-05-09 17:21:05,347 [INFO] _________________________________________________________________
2020-05-09 17:21:05,347 [INFO] Layer (type)                 Output Shape              Param #   
2020-05-09 17:21:05,347 [INFO] =================================================================
2020-05-09 17:21:05,347 [INFO] dense_31 (Dense)             (None, 64)                2112      
2020-05-09 17:21:05,347 [INFO] _________________________________________________________________
2020-05-09 17:21:05,347 [INFO] batch_normalization_24 (Batc (None, 64)                256       
2020-05-09 17:21:05,347 [INFO] _________________________________________________________________
2020-05-09 17:21:05,347 [INFO] dropout_24 (Dropout)         (None, 64)                0         
2020-05-09 17:21:05,347 [INFO] _________________________________________________________________
2020-05-09 17:21:05,347 [INFO] dense_32 (Dense)             (None, 15)                975       
2020-05-09 17:21:05,347 [INFO] =================================================================
2020-05-09 17:21:05,347 [INFO] Total params: 3,343
2020-05-09 17:21:05,347 [INFO] Trainable params: 3,215
2020-05-09 17:21:05,348 [INFO] Non-trainable params: 128
2020-05-09 17:21:05,348 [INFO] _________________________________________________________________
2020-05-09 17:21:05,348 [INFO] Training model
…
