…
2019-12-28 08:42:16,785 [INFO] Reading complete. time_to_read=0.07 seconds
2019-12-28 08:42:16,785 [INFO] Reading HDF dataset ../Datasets/full_datasets/ids2017/y_test.h5
2019-12-28 08:42:16,853 [INFO] Reading complete. time_to_read=0.07 seconds
2019-12-28 08:42:19,987 [INFO] Initializing model
2019-12-28 08:42:20,931 [INFO] _________________________________________________________________
2019-12-28 08:42:20,931 [INFO] Layer (type)                 Output Shape              Param #   
2019-12-28 08:42:20,931 [INFO] =================================================================
2019-12-28 08:42:20,932 [INFO] dense_110 (Dense)            (None, 700)               55300     
2019-12-28 08:42:20,932 [INFO] _________________________________________________________________
2019-12-28 08:42:20,932 [INFO] batch_normalization_92 (Batc (None, 700)               2800      
2019-12-28 08:42:20,932 [INFO] _________________________________________________________________
2019-12-28 08:42:20,932 [INFO] dropout_92 (Dropout)         (None, 700)               0         
2019-12-28 08:42:20,932 [INFO] _________________________________________________________________
2019-12-28 08:42:20,932 [INFO] dense_111 (Dense)            (None, 600)               420600    
2019-12-28 08:42:20,932 [INFO] _________________________________________________________________
2019-12-28 08:42:20,932 [INFO] batch_normalization_93 (Batc (None, 600)               2400      
2019-12-28 08:42:20,932 [INFO] _________________________________________________________________
2019-12-28 08:42:20,932 [INFO] dropout_93 (Dropout)         (None, 600)               0         
2019-12-28 08:42:20,932 [INFO] _________________________________________________________________
2019-12-28 08:42:20,932 [INFO] dense_112 (Dense)            (None, 500)               300500    
2019-12-28 08:42:20,932 [INFO] _________________________________________________________________
2019-12-28 08:42:20,932 [INFO] batch_normalization_94 (Batc (None, 500)               2000      
2019-12-28 08:42:20,932 [INFO] _________________________________________________________________
2019-12-28 08:42:20,933 [INFO] dropout_94 (Dropout)         (None, 500)               0         
2019-12-28 08:42:20,933 [INFO] _________________________________________________________________
2019-12-28 08:42:20,933 [INFO] dense_113 (Dense)            (None, 400)               200400    
2019-12-28 08:42:20,933 [INFO] _________________________________________________________________
2019-12-28 08:42:20,933 [INFO] batch_normalization_95 (Batc (None, 400)               1600      
2019-12-28 08:42:20,933 [INFO] _________________________________________________________________
2019-12-28 08:42:20,933 [INFO] dropout_95 (Dropout)         (None, 400)               0         
2019-12-28 08:42:20,933 [INFO] _________________________________________________________________
2019-12-28 08:42:20,933 [INFO] dense_114 (Dense)            (None, 256)               102656    
2019-12-28 08:42:20,933 [INFO] _________________________________________________________________
2019-12-28 08:42:20,933 [INFO] batch_normalization_96 (Batc (None, 256)               1024      
2019-12-28 08:42:20,933 [INFO] _________________________________________________________________
2019-12-28 08:42:20,933 [INFO] dropout_96 (Dropout)         (None, 256)               0         
2019-12-28 08:42:20,933 [INFO] _________________________________________________________________
2019-12-28 08:42:20,933 [INFO] dense_115 (Dense)            (None, 128)               32896     
2019-12-28 08:42:20,933 [INFO] _________________________________________________________________
2019-12-28 08:42:20,933 [INFO] batch_normalization_97 (Batc (None, 128)               512       
2019-12-28 08:42:20,933 [INFO] _________________________________________________________________
2019-12-28 08:42:20,934 [INFO] dropout_97 (Dropout)         (None, 128)               0         
2019-12-28 08:42:20,934 [INFO] _________________________________________________________________
2019-12-28 08:42:20,934 [INFO] dense_116 (Dense)            (None, 64)                8256      
2019-12-28 08:42:20,934 [INFO] _________________________________________________________________
2019-12-28 08:42:20,934 [INFO] batch_normalization_98 (Batc (None, 64)                256       
2019-12-28 08:42:20,934 [INFO] _________________________________________________________________
2019-12-28 08:42:20,934 [INFO] dropout_98 (Dropout)         (None, 64)                0         
2019-12-28 08:42:20,934 [INFO] _________________________________________________________________
2019-12-28 08:42:20,934 [INFO] dense_117 (Dense)            (None, 32)                2080      
2019-12-28 08:42:20,934 [INFO] _________________________________________________________________
2019-12-28 08:42:20,934 [INFO] batch_normalization_99 (Batc (None, 32)                128       
2019-12-28 08:42:20,934 [INFO] _________________________________________________________________
2019-12-28 08:42:20,934 [INFO] dropout_99 (Dropout)         (None, 32)                0         
2019-12-28 08:42:20,934 [INFO] _________________________________________________________________
2019-12-28 08:42:20,934 [INFO] dense_118 (Dense)            (None, 16)                528       
2019-12-28 08:42:20,934 [INFO] _________________________________________________________________
2019-12-28 08:42:20,934 [INFO] batch_normalization_100 (Bat (None, 16)                64        
2019-12-28 08:42:20,934 [INFO] _________________________________________________________________
2019-12-28 08:42:20,935 [INFO] dropout_100 (Dropout)        (None, 16)                0         
2019-12-28 08:42:20,935 [INFO] _________________________________________________________________
2019-12-28 08:42:20,935 [INFO] dense_119 (Dense)            (None, 12)                204       
2019-12-28 08:42:20,935 [INFO] =================================================================
2019-12-28 08:42:20,935 [INFO] Total params: 1,134,204
2019-12-28 08:42:20,935 [INFO] Trainable params: 1,128,812
2019-12-28 08:42:20,935 [INFO] Non-trainable params: 5,392
2019-12-28 08:42:20,935 [INFO] _________________________________________________________________
2019-12-28 08:42:20,935 [INFO] Training model
…
