…
2020-01-08 20:50:05,166 [INFO] Reading complete. time_to_read=0.08 seconds
2020-01-08 20:50:05,166 [INFO] Reading HDF dataset ../Datasets/full_datasets/ids2017/y_test.h5
2020-01-08 20:50:05,243 [INFO] Reading complete. time_to_read=0.08 seconds
2020-01-08 20:50:08,099 [INFO] Initializing model
2020-01-08 20:50:08,529 [INFO] _________________________________________________________________
2020-01-08 20:50:08,529 [INFO] Layer (type)                 Output Shape              Param #   
2020-01-08 20:50:08,529 [INFO] =================================================================
2020-01-08 20:50:08,529 [INFO] dense_15 (Dense)             (None, 64)                5056      
2020-01-08 20:50:08,529 [INFO] _________________________________________________________________
2020-01-08 20:50:08,529 [INFO] batch_normalization_11 (Batc (None, 64)                256       
2020-01-08 20:50:08,529 [INFO] _________________________________________________________________
2020-01-08 20:50:08,529 [INFO] dropout_11 (Dropout)         (None, 64)                0         
2020-01-08 20:50:08,529 [INFO] _________________________________________________________________
2020-01-08 20:50:08,529 [INFO] dense_16 (Dense)             (None, 64)                4160      
2020-01-08 20:50:08,529 [INFO] _________________________________________________________________
2020-01-08 20:50:08,529 [INFO] batch_normalization_12 (Batc (None, 64)                256       
2020-01-08 20:50:08,529 [INFO] _________________________________________________________________
2020-01-08 20:50:08,530 [INFO] dropout_12 (Dropout)         (None, 64)                0         
2020-01-08 20:50:08,530 [INFO] _________________________________________________________________
2020-01-08 20:50:08,530 [INFO] dense_17 (Dense)             (None, 64)                4160      
2020-01-08 20:50:08,530 [INFO] _________________________________________________________________
2020-01-08 20:50:08,530 [INFO] batch_normalization_13 (Batc (None, 64)                256       
2020-01-08 20:50:08,530 [INFO] _________________________________________________________________
2020-01-08 20:50:08,530 [INFO] dropout_13 (Dropout)         (None, 64)                0         
2020-01-08 20:50:08,530 [INFO] _________________________________________________________________
2020-01-08 20:50:08,530 [INFO] dense_18 (Dense)             (None, 64)                4160      
2020-01-08 20:50:08,530 [INFO] _________________________________________________________________
2020-01-08 20:50:08,530 [INFO] batch_normalization_14 (Batc (None, 64)                256       
2020-01-08 20:50:08,530 [INFO] _________________________________________________________________
2020-01-08 20:50:08,530 [INFO] dropout_14 (Dropout)         (None, 64)                0         
2020-01-08 20:50:08,530 [INFO] _________________________________________________________________
2020-01-08 20:50:08,530 [INFO] dense_19 (Dense)             (None, 64)                4160      
2020-01-08 20:50:08,530 [INFO] _________________________________________________________________
2020-01-08 20:50:08,531 [INFO] batch_normalization_15 (Batc (None, 64)                256       
2020-01-08 20:50:08,531 [INFO] _________________________________________________________________
2020-01-08 20:50:08,531 [INFO] dropout_15 (Dropout)         (None, 64)                0         
2020-01-08 20:50:08,531 [INFO] _________________________________________________________________
2020-01-08 20:50:08,531 [INFO] dense_20 (Dense)             (None, 12)                780       
2020-01-08 20:50:08,531 [INFO] =================================================================
2020-01-08 20:50:08,531 [INFO] Total params: 23,756
2020-01-08 20:50:08,531 [INFO] Trainable params: 23,116
2020-01-08 20:50:08,531 [INFO] Non-trainable params: 640
2020-01-08 20:50:08,531 [INFO] _________________________________________________________________
2020-01-08 20:50:08,531 [INFO] Training model
…
