…
2020-01-14 16:38:43,365 [INFO] Pretraining Deep Belief Network
2020-01-14 16:47:05,549 [INFO] Pretraining Complete
2020-01-14 16:47:05,549 [INFO] Getting pretrained weights
2020-01-14 16:47:05,549 [INFO] Creating and initializing feed forward neural network
2020-01-14 16:47:05,859 [INFO] _________________________________________________________________
2020-01-14 16:47:05,859 [INFO] Layer (type)                 Output Shape              Param #   
2020-01-14 16:47:05,859 [INFO] =================================================================
2020-01-14 16:47:05,859 [INFO] dense_29 (Dense)             (None, 128)               9984      
2020-01-14 16:47:05,859 [INFO] _________________________________________________________________
2020-01-14 16:47:05,860 [INFO] batch_normalization_22 (Batc (None, 128)               512       
2020-01-14 16:47:05,860 [INFO] _________________________________________________________________
2020-01-14 16:47:05,860 [INFO] dropout_22 (Dropout)         (None, 128)               0         
2020-01-14 16:47:05,860 [INFO] _________________________________________________________________
2020-01-14 16:47:05,860 [INFO] dense_30 (Dense)             (None, 64)                8256      
2020-01-14 16:47:05,860 [INFO] _________________________________________________________________
2020-01-14 16:47:05,860 [INFO] batch_normalization_23 (Batc (None, 64)                256       
2020-01-14 16:47:05,860 [INFO] _________________________________________________________________
2020-01-14 16:47:05,860 [INFO] dropout_23 (Dropout)         (None, 64)                0         
2020-01-14 16:47:05,860 [INFO] _________________________________________________________________
2020-01-14 16:47:05,860 [INFO] dense_31 (Dense)             (None, 33)                2145      
2020-01-14 16:47:05,860 [INFO] _________________________________________________________________
2020-01-14 16:47:05,861 [INFO] batch_normalization_24 (Batc (None, 33)                132       
2020-01-14 16:47:05,861 [INFO] _________________________________________________________________
2020-01-14 16:47:05,861 [INFO] dropout_24 (Dropout)         (None, 33)                0         
2020-01-14 16:47:05,861 [INFO] _________________________________________________________________
2020-01-14 16:47:05,861 [INFO] dense_32 (Dense)             (None, 15)                510       
2020-01-14 16:47:05,861 [INFO] =================================================================
2020-01-14 16:47:05,861 [INFO] Total params: 21,795
2020-01-14 16:47:05,861 [INFO] Trainable params: 21,345
2020-01-14 16:47:05,861 [INFO] Non-trainable params: 450
2020-01-14 16:47:05,861 [INFO] _________________________________________________________________
2020-01-14 16:47:08,214 [INFO] Fine-tuning final neural network
…
