…
2019-12-21 17:07:16,633 [INFO] Reading complete. time_to_read=0.12 seconds
2019-12-21 17:07:16,633 [INFO] Reading HDF dataset ../Datasets/full_datasets/kdd99_five_classes/y_test.h5
2019-12-21 17:07:16,679 [INFO] Reading complete. time_to_read=0.05 seconds
2019-12-21 17:08:07,688 [INFO] Initializing model
2019-12-21 17:08:10,210 [INFO] _________________________________________________________________
2019-12-21 17:08:10,213 [INFO] Layer (type)                 Output Shape              Param #   
2019-12-21 17:08:10,214 [INFO] =================================================================
2019-12-21 17:08:10,216 [INFO] dense_38 (Dense)             (None, 64)                7936      
2019-12-21 17:08:10,218 [INFO] _________________________________________________________________
2019-12-21 17:08:10,219 [INFO] batch_normalization_30 (Batc (None, 64)                256       
2019-12-21 17:08:10,219 [INFO] _________________________________________________________________
2019-12-21 17:08:10,219 [INFO] dropout_30 (Dropout)         (None, 64)                0         
2019-12-21 17:08:10,219 [INFO] _________________________________________________________________
2019-12-21 17:08:10,219 [INFO] dense_39 (Dense)             (None, 32)                2080      
2019-12-21 17:08:10,219 [INFO] _________________________________________________________________
2019-12-21 17:08:10,220 [INFO] batch_normalization_31 (Batc (None, 32)                128       
2019-12-21 17:08:10,220 [INFO] _________________________________________________________________
2019-12-21 17:08:10,220 [INFO] dropout_31 (Dropout)         (None, 32)                0         
2019-12-21 17:08:10,220 [INFO] _________________________________________________________________
2019-12-21 17:08:10,220 [INFO] dense_40 (Dense)             (None, 67)                2211      
2019-12-21 17:08:10,220 [INFO] _________________________________________________________________
2019-12-21 17:08:10,220 [INFO] batch_normalization_32 (Batc (None, 67)                268       
2019-12-21 17:08:10,220 [INFO] _________________________________________________________________
2019-12-21 17:08:10,220 [INFO] dropout_32 (Dropout)         (None, 67)                0         
2019-12-21 17:08:10,221 [INFO] _________________________________________________________________
2019-12-21 17:08:10,221 [INFO] dense_41 (Dense)             (None, 5)                 340       
2019-12-21 17:08:10,221 [INFO] =================================================================
2019-12-21 17:08:10,221 [INFO] Total params: 13,219
2019-12-21 17:08:10,222 [INFO] Trainable params: 12,893
2019-12-21 17:08:10,222 [INFO] Non-trainable params: 326
2019-12-21 17:08:10,222 [INFO] _________________________________________________________________
2019-12-21 17:08:10,222 [INFO] Training model
…
