…
2019-12-26 13:42:25,880 [INFO] Reading complete. time_to_read=0.10 seconds
2019-12-26 13:42:25,880 [INFO] Reading HDF dataset ../Datasets/small_datasets/ids2018/y_test.h5
2019-12-26 13:42:25,977 [INFO] Reading complete. time_to_read=0.10 seconds
2019-12-26 13:42:29,289 [INFO] Initializing model
2019-12-26 13:42:29,957 [INFO] _________________________________________________________________
2019-12-26 13:42:29,957 [INFO] Layer (type)                 Output Shape              Param #   
2019-12-26 13:42:29,957 [INFO] =================================================================
2019-12-26 13:42:29,957 [INFO] dense_141 (Dense)            (None, 128)               9984      
2019-12-26 13:42:29,957 [INFO] _________________________________________________________________
2019-12-26 13:42:29,958 [INFO] batch_normalization_101 (Bat (None, 128)               512       
2019-12-26 13:42:29,958 [INFO] _________________________________________________________________
2019-12-26 13:42:29,958 [INFO] dropout_101 (Dropout)        (None, 128)               0         
2019-12-26 13:42:29,958 [INFO] _________________________________________________________________
2019-12-26 13:42:29,958 [INFO] dense_142 (Dense)            (None, 64)                8256      
2019-12-26 13:42:29,958 [INFO] _________________________________________________________________
2019-12-26 13:42:29,958 [INFO] batch_normalization_102 (Bat (None, 64)                256       
2019-12-26 13:42:29,958 [INFO] _________________________________________________________________
2019-12-26 13:42:29,958 [INFO] dropout_102 (Dropout)        (None, 64)                0         
2019-12-26 13:42:29,958 [INFO] _________________________________________________________________
2019-12-26 13:42:29,958 [INFO] dense_143 (Dense)            (None, 32)                2080      
2019-12-26 13:42:29,959 [INFO] _________________________________________________________________
2019-12-26 13:42:29,959 [INFO] batch_normalization_103 (Bat (None, 32)                128       
2019-12-26 13:42:29,959 [INFO] _________________________________________________________________
2019-12-26 13:42:29,959 [INFO] dropout_103 (Dropout)        (None, 32)                0         
2019-12-26 13:42:29,959 [INFO] _________________________________________________________________
2019-12-26 13:42:29,959 [INFO] dense_144 (Dense)            (None, 64)                2112      
2019-12-26 13:42:29,959 [INFO] _________________________________________________________________
2019-12-26 13:42:29,959 [INFO] batch_normalization_104 (Bat (None, 64)                256       
2019-12-26 13:42:29,959 [INFO] _________________________________________________________________
2019-12-26 13:42:29,959 [INFO] dropout_104 (Dropout)        (None, 64)                0         
2019-12-26 13:42:29,959 [INFO] _________________________________________________________________
2019-12-26 13:42:29,959 [INFO] dense_145 (Dense)            (None, 128)               8320      
2019-12-26 13:42:29,959 [INFO] _________________________________________________________________
2019-12-26 13:42:29,960 [INFO] batch_normalization_105 (Bat (None, 128)               512       
2019-12-26 13:42:29,960 [INFO] _________________________________________________________________
2019-12-26 13:42:29,960 [INFO] dropout_105 (Dropout)        (None, 128)               0         
2019-12-26 13:42:29,960 [INFO] _________________________________________________________________
2019-12-26 13:42:29,960 [INFO] dense_146 (Dense)            (None, 77)                9933      
2019-12-26 13:42:29,960 [INFO] =================================================================
2019-12-26 13:42:29,960 [INFO] Total params: 42,349
2019-12-26 13:42:29,960 [INFO] Trainable params: 41,517
2019-12-26 13:42:29,961 [INFO] Non-trainable params: 832
2019-12-26 13:42:29,961 [INFO] _________________________________________________________________
2019-12-26 13:42:30,120 [INFO] _________________________________________________________________
2019-12-26 13:42:30,121 [INFO] Layer (type)                 Output Shape              Param #   
2019-12-26 13:42:30,121 [INFO] =================================================================
2019-12-26 13:42:30,121 [INFO] dense_147 (Dense)            (None, 64)                2112      
2019-12-26 13:42:30,121 [INFO] _________________________________________________________________
2019-12-26 13:42:30,121 [INFO] batch_normalization_106 (Bat (None, 64)                256       
2019-12-26 13:42:30,121 [INFO] _________________________________________________________________
2019-12-26 13:42:30,121 [INFO] dropout_106 (Dropout)        (None, 64)                0         
2019-12-26 13:42:30,121 [INFO] _________________________________________________________________
2019-12-26 13:42:30,121 [INFO] dense_148 (Dense)            (None, 15)                975       
2019-12-26 13:42:30,121 [INFO] =================================================================
2019-12-26 13:42:30,122 [INFO] Total params: 3,343
2019-12-26 13:42:30,122 [INFO] Trainable params: 3,215
2019-12-26 13:42:30,122 [INFO] Non-trainable params: 128
2019-12-26 13:42:30,122 [INFO] _________________________________________________________________
2019-12-26 13:42:30,122 [INFO] Training model
…
