…
2019-12-24 14:21:40,166 [INFO] Pretraining Deep Belief Network
2019-12-24 14:52:06,296 [INFO] Pretraining Complete
2019-12-24 14:52:06,313 [INFO] Getting pretrained weights
2019-12-24 14:52:06,313 [INFO] Creating and initializing feed forward neural network
2019-12-24 14:52:06,584 [INFO] _________________________________________________________________
2019-12-24 14:52:06,584 [INFO] Layer (type)                 Output Shape              Param #   
2019-12-24 14:52:06,584 [INFO] =================================================================
2019-12-24 14:52:06,585 [INFO] dense_25 (Dense)             (None, 128)               10112     
2019-12-24 14:52:06,585 [INFO] _________________________________________________________________
2019-12-24 14:52:06,585 [INFO] batch_normalization_19 (Batc (None, 128)               512       
2019-12-24 14:52:06,585 [INFO] _________________________________________________________________
2019-12-24 14:52:06,585 [INFO] dropout_19 (Dropout)         (None, 128)               0         
2019-12-24 14:52:06,585 [INFO] _________________________________________________________________
2019-12-24 14:52:06,585 [INFO] dense_26 (Dense)             (None, 64)                8256      
2019-12-24 14:52:06,585 [INFO] _________________________________________________________________
2019-12-24 14:52:06,585 [INFO] batch_normalization_20 (Batc (None, 64)                256       
2019-12-24 14:52:06,585 [INFO] _________________________________________________________________
2019-12-24 14:52:06,585 [INFO] dropout_20 (Dropout)         (None, 64)                0         
2019-12-24 14:52:06,585 [INFO] _________________________________________________________________
2019-12-24 14:52:06,585 [INFO] dense_27 (Dense)             (None, 33)                2145      
2019-12-24 14:52:06,585 [INFO] _________________________________________________________________
2019-12-24 14:52:06,585 [INFO] batch_normalization_21 (Batc (None, 33)                132       
2019-12-24 14:52:06,585 [INFO] _________________________________________________________________
2019-12-24 14:52:06,585 [INFO] dropout_21 (Dropout)         (None, 33)                0         
2019-12-24 14:52:06,586 [INFO] _________________________________________________________________
2019-12-24 14:52:06,586 [INFO] dense_28 (Dense)             (None, 12)                408       
2019-12-24 14:52:06,586 [INFO] =================================================================
2019-12-24 14:52:06,586 [INFO] Total params: 21,821
2019-12-24 14:52:06,586 [INFO] Trainable params: 21,371
2019-12-24 14:52:06,586 [INFO] Non-trainable params: 450
2019-12-24 14:52:06,586 [INFO] _________________________________________________________________
2019-12-24 14:52:08,585 [INFO] Fine-tuning final neural network
…
