…
2020-01-08 15:41:31,862 [INFO] Reading complete. time_to_read=0.08 seconds
2020-01-08 15:41:31,863 [INFO] Reading HDF dataset ../Datasets/full_datasets/ids2017/y_test.h5
2020-01-08 15:41:31,940 [INFO] Reading complete. time_to_read=0.08 seconds
2020-01-08 15:41:34,752 [INFO] Initializing model
2020-01-08 15:41:34,936 [INFO] _________________________________________________________________
2020-01-08 15:41:34,936 [INFO] Layer (type)                 Output Shape              Param #   
2020-01-08 15:41:34,936 [INFO] =================================================================
2020-01-08 15:41:34,937 [INFO] dense_3 (Dense)              (None, 64)                5056      
2020-01-08 15:41:34,937 [INFO] _________________________________________________________________
2020-01-08 15:41:34,937 [INFO] batch_normalization_2 (Batch (None, 64)                256       
2020-01-08 15:41:34,937 [INFO] _________________________________________________________________
2020-01-08 15:41:34,937 [INFO] dropout_2 (Dropout)          (None, 64)                0         
2020-01-08 15:41:34,937 [INFO] _________________________________________________________________
2020-01-08 15:41:34,937 [INFO] dense_4 (Dense)              (None, 64)                4160      
2020-01-08 15:41:34,937 [INFO] _________________________________________________________________
2020-01-08 15:41:34,937 [INFO] batch_normalization_3 (Batch (None, 64)                256       
2020-01-08 15:41:34,937 [INFO] _________________________________________________________________
2020-01-08 15:41:34,937 [INFO] dropout_3 (Dropout)          (None, 64)                0         
2020-01-08 15:41:34,937 [INFO] _________________________________________________________________
2020-01-08 15:41:34,937 [INFO] dense_5 (Dense)              (None, 12)                780       
2020-01-08 15:41:34,937 [INFO] =================================================================
2020-01-08 15:41:34,938 [INFO] Total params: 10,508
2020-01-08 15:41:34,938 [INFO] Trainable params: 10,252
2020-01-08 15:41:34,938 [INFO] Non-trainable params: 256
2020-01-08 15:41:34,938 [INFO] _________________________________________________________________
2020-01-08 15:41:34,938 [INFO] Training model
…
2020-01-08 17:10:27,606 [INFO] Reading complete. time_to_read=0.08 seconds
2020-01-08 17:10:27,606 [INFO] Reading HDF dataset ../Datasets/full_datasets/ids2017/y_test.h5
2020-01-08 17:10:27,683 [INFO] Reading complete. time_to_read=0.08 seconds
2020-01-08 17:10:30,463 [INFO] Initializing model
2020-01-08 17:10:30,724 [INFO] _________________________________________________________________
2020-01-08 17:10:30,724 [INFO] Layer (type)                 Output Shape              Param #   
2020-01-08 17:10:30,724 [INFO] =================================================================
2020-01-08 17:10:30,724 [INFO] dense_6 (Dense)              (None, 64)                5056      
2020-01-08 17:10:30,724 [INFO] _________________________________________________________________
2020-01-08 17:10:30,724 [INFO] batch_normalization_4 (Batch (None, 64)                256       
2020-01-08 17:10:30,724 [INFO] _________________________________________________________________
2020-01-08 17:10:30,724 [INFO] dropout_4 (Dropout)          (None, 64)                0         
2020-01-08 17:10:30,724 [INFO] _________________________________________________________________
2020-01-08 17:10:30,725 [INFO] dense_7 (Dense)              (None, 64)                4160      
2020-01-08 17:10:30,725 [INFO] _________________________________________________________________
2020-01-08 17:10:30,725 [INFO] batch_normalization_5 (Batch (None, 64)                256       
2020-01-08 17:10:30,725 [INFO] _________________________________________________________________
2020-01-08 17:10:30,725 [INFO] dropout_5 (Dropout)          (None, 64)                0         
2020-01-08 17:10:30,725 [INFO] _________________________________________________________________
2020-01-08 17:10:30,725 [INFO] dense_8 (Dense)              (None, 64)                4160      
2020-01-08 17:10:30,725 [INFO] _________________________________________________________________
2020-01-08 17:10:30,725 [INFO] batch_normalization_6 (Batch (None, 64)                256       
2020-01-08 17:10:30,725 [INFO] _________________________________________________________________
2020-01-08 17:10:30,725 [INFO] dropout_6 (Dropout)          (None, 64)                0         
2020-01-08 17:10:30,725 [INFO] _________________________________________________________________
2020-01-08 17:10:30,725 [INFO] dense_9 (Dense)              (None, 12)                780       
2020-01-08 17:10:30,725 [INFO] =================================================================
2020-01-08 17:10:30,725 [INFO] Total params: 14,924
2020-01-08 17:10:30,726 [INFO] Trainable params: 14,540
2020-01-08 17:10:30,726 [INFO] Non-trainable params: 384
2020-01-08 17:10:30,726 [INFO] _________________________________________________________________
2020-01-08 17:10:30,726 [INFO] Training model
…
2020-01-08 19:08:01,709 [INFO] Reading complete. time_to_read=0.08 seconds
2020-01-08 19:08:01,709 [INFO] Reading HDF dataset ../Datasets/full_datasets/ids2017/y_test.h5
2020-01-08 19:08:01,786 [INFO] Reading complete. time_to_read=0.08 seconds
2020-01-08 19:08:04,600 [INFO] Initializing model
2020-01-08 19:08:04,942 [INFO] _________________________________________________________________
2020-01-08 19:08:04,942 [INFO] Layer (type)                 Output Shape              Param #   
2020-01-08 19:08:04,943 [INFO] =================================================================
2020-01-08 19:08:04,943 [INFO] dense_10 (Dense)             (None, 64)                5056      
2020-01-08 19:08:04,943 [INFO] _________________________________________________________________
2020-01-08 19:08:04,943 [INFO] batch_normalization_7 (Batch (None, 64)                256       
2020-01-08 19:08:04,943 [INFO] _________________________________________________________________
2020-01-08 19:08:04,943 [INFO] dropout_7 (Dropout)          (None, 64)                0         
2020-01-08 19:08:04,943 [INFO] _________________________________________________________________
2020-01-08 19:08:04,943 [INFO] dense_11 (Dense)             (None, 64)                4160      
2020-01-08 19:08:04,943 [INFO] _________________________________________________________________
2020-01-08 19:08:04,943 [INFO] batch_normalization_8 (Batch (None, 64)                256       
2020-01-08 19:08:04,943 [INFO] _________________________________________________________________
2020-01-08 19:08:04,943 [INFO] dropout_8 (Dropout)          (None, 64)                0         
2020-01-08 19:08:04,943 [INFO] _________________________________________________________________
2020-01-08 19:08:04,943 [INFO] dense_12 (Dense)             (None, 64)                4160      
2020-01-08 19:08:04,943 [INFO] _________________________________________________________________
2020-01-08 19:08:04,944 [INFO] batch_normalization_9 (Batch (None, 64)                256       
2020-01-08 19:08:04,944 [INFO] _________________________________________________________________
2020-01-08 19:08:04,944 [INFO] dropout_9 (Dropout)          (None, 64)                0         
2020-01-08 19:08:04,944 [INFO] _________________________________________________________________
2020-01-08 19:08:04,944 [INFO] dense_13 (Dense)             (None, 64)                4160      
2020-01-08 19:08:04,944 [INFO] _________________________________________________________________
2020-01-08 19:08:04,944 [INFO] batch_normalization_10 (Batc (None, 64)                256       
2020-01-08 19:08:04,944 [INFO] _________________________________________________________________
2020-01-08 19:08:04,944 [INFO] dropout_10 (Dropout)         (None, 64)                0         
2020-01-08 19:08:04,944 [INFO] _________________________________________________________________
2020-01-08 19:08:04,944 [INFO] dense_14 (Dense)             (None, 12)                780       
2020-01-08 19:08:04,944 [INFO] =================================================================
2020-01-08 19:08:04,944 [INFO] Total params: 19,340
2020-01-08 19:08:04,944 [INFO] Trainable params: 18,828
2020-01-08 19:08:04,944 [INFO] Non-trainable params: 512
2020-01-08 19:08:04,944 [INFO] _________________________________________________________________
2020-01-08 19:08:04,945 [INFO] Training model
…
2020-01-08 20:50:05,166 [INFO] Reading complete. time_to_read=0.08 seconds
2020-01-08 20:50:05,166 [INFO] Reading HDF dataset ../Datasets/full_datasets/ids2017/y_test.h5
2020-01-08 20:50:05,243 [INFO] Reading complete. time_to_read=0.08 seconds
2020-01-08 20:50:08,099 [INFO] Initializing model
2020-01-08 20:50:08,529 [INFO] _________________________________________________________________
2020-01-08 20:50:08,529 [INFO] Layer (type)                 Output Shape              Param #   
2020-01-08 20:50:08,529 [INFO] =================================================================
2020-01-08 20:50:08,529 [INFO] dense_15 (Dense)             (None, 64)                5056      
2020-01-08 20:50:08,529 [INFO] _________________________________________________________________
2020-01-08 20:50:08,529 [INFO] batch_normalization_11 (Batc (None, 64)                256       
2020-01-08 20:50:08,529 [INFO] _________________________________________________________________
2020-01-08 20:50:08,529 [INFO] dropout_11 (Dropout)         (None, 64)                0         
2020-01-08 20:50:08,529 [INFO] _________________________________________________________________
2020-01-08 20:50:08,529 [INFO] dense_16 (Dense)             (None, 64)                4160      
2020-01-08 20:50:08,529 [INFO] _________________________________________________________________
2020-01-08 20:50:08,529 [INFO] batch_normalization_12 (Batc (None, 64)                256       
2020-01-08 20:50:08,529 [INFO] _________________________________________________________________
2020-01-08 20:50:08,530 [INFO] dropout_12 (Dropout)         (None, 64)                0         
2020-01-08 20:50:08,530 [INFO] _________________________________________________________________
2020-01-08 20:50:08,530 [INFO] dense_17 (Dense)             (None, 64)                4160      
2020-01-08 20:50:08,530 [INFO] _________________________________________________________________
2020-01-08 20:50:08,530 [INFO] batch_normalization_13 (Batc (None, 64)                256       
2020-01-08 20:50:08,530 [INFO] _________________________________________________________________
2020-01-08 20:50:08,530 [INFO] dropout_13 (Dropout)         (None, 64)                0         
2020-01-08 20:50:08,530 [INFO] _________________________________________________________________
2020-01-08 20:50:08,530 [INFO] dense_18 (Dense)             (None, 64)                4160      
2020-01-08 20:50:08,530 [INFO] _________________________________________________________________
2020-01-08 20:50:08,530 [INFO] batch_normalization_14 (Batc (None, 64)                256       
2020-01-08 20:50:08,530 [INFO] _________________________________________________________________
2020-01-08 20:50:08,530 [INFO] dropout_14 (Dropout)         (None, 64)                0         
2020-01-08 20:50:08,530 [INFO] _________________________________________________________________
2020-01-08 20:50:08,530 [INFO] dense_19 (Dense)             (None, 64)                4160      
2020-01-08 20:50:08,530 [INFO] _________________________________________________________________
2020-01-08 20:50:08,531 [INFO] batch_normalization_15 (Batc (None, 64)                256       
2020-01-08 20:50:08,531 [INFO] _________________________________________________________________
2020-01-08 20:50:08,531 [INFO] dropout_15 (Dropout)         (None, 64)                0         
2020-01-08 20:50:08,531 [INFO] _________________________________________________________________
2020-01-08 20:50:08,531 [INFO] dense_20 (Dense)             (None, 12)                780       
2020-01-08 20:50:08,531 [INFO] =================================================================
2020-01-08 20:50:08,531 [INFO] Total params: 23,756
2020-01-08 20:50:08,531 [INFO] Trainable params: 23,116
2020-01-08 20:50:08,531 [INFO] Non-trainable params: 640
2020-01-08 20:50:08,531 [INFO] _________________________________________________________________
2020-01-08 20:50:08,531 [INFO] Training model
…
2020-01-08 16:16:54,328 [WARNING] From /home/sunanda/test/ml_env/lib/python3.6/site-packages/keras/backend/tensorflow_backend.py:3445: calling dropout (from tensorflow.python.ops.nn_ops) with keep_prob is deprecated and will be removed in a future version.
Instructions for updating:
Please use `rate` instead of `keep_prob`. Rate should be set to `rate = 1 - keep_prob`.
2020-01-08 16:16:54,726 [INFO] _________________________________________________________________
2020-01-08 16:16:54,726 [INFO] Layer (type)                 Output Shape              Param #   
2020-01-08 16:16:54,726 [INFO] =================================================================
2020-01-08 16:16:54,726 [INFO] dense_1 (Dense)              (None, 64)                5056      
2020-01-08 16:16:54,726 [INFO] _________________________________________________________________
2020-01-08 16:16:54,726 [INFO] batch_normalization_1 (Batch (None, 64)                256       
2020-01-08 16:16:54,726 [INFO] _________________________________________________________________
2020-01-08 16:16:54,726 [INFO] dropout_1 (Dropout)          (None, 64)                0         
2020-01-08 16:16:54,726 [INFO] _________________________________________________________________
2020-01-08 16:16:54,726 [INFO] dense_2 (Dense)              (None, 64)                4160      
2020-01-08 16:16:54,727 [INFO] _________________________________________________________________
2020-01-08 16:16:54,727 [INFO] batch_normalization_2 (Batch (None, 64)                256       
2020-01-08 16:16:54,727 [INFO] _________________________________________________________________
2020-01-08 16:16:54,727 [INFO] dropout_2 (Dropout)          (None, 64)                0         
2020-01-08 16:16:54,727 [INFO] _________________________________________________________________
2020-01-08 16:16:54,727 [INFO] dense_3 (Dense)              (None, 64)                4160      
2020-01-08 16:16:54,727 [INFO] _________________________________________________________________
2020-01-08 16:16:54,727 [INFO] batch_normalization_3 (Batch (None, 64)                256       
2020-01-08 16:16:54,727 [INFO] _________________________________________________________________
2020-01-08 16:16:54,727 [INFO] dropout_3 (Dropout)          (None, 64)                0         
2020-01-08 16:16:54,727 [INFO] _________________________________________________________________
2020-01-08 16:16:54,727 [INFO] dense_4 (Dense)              (None, 64)                4160      
2020-01-08 16:16:54,727 [INFO] _________________________________________________________________
2020-01-08 16:16:54,727 [INFO] batch_normalization_4 (Batch (None, 64)                256       
2020-01-08 16:16:54,727 [INFO] _________________________________________________________________
2020-01-08 16:16:54,727 [INFO] dropout_4 (Dropout)          (None, 64)                0         
2020-01-08 16:16:54,727 [INFO] _________________________________________________________________
2020-01-08 16:16:54,728 [INFO] dense_5 (Dense)              (None, 64)                4160      
2020-01-08 16:16:54,728 [INFO] _________________________________________________________________
2020-01-08 16:16:54,728 [INFO] batch_normalization_5 (Batch (None, 64)                256       
2020-01-08 16:16:54,728 [INFO] _________________________________________________________________
2020-01-08 16:16:54,728 [INFO] dropout_5 (Dropout)          (None, 64)                0         
2020-01-08 16:16:54,728 [INFO] _________________________________________________________________
2020-01-08 16:16:54,728 [INFO] dense_6 (Dense)              (None, 64)                4160      
2020-01-08 16:16:54,728 [INFO] _________________________________________________________________
2020-01-08 16:16:54,728 [INFO] batch_normalization_6 (Batch (None, 64)                256       
2020-01-08 16:16:54,728 [INFO] _________________________________________________________________
2020-01-08 16:16:54,728 [INFO] dropout_6 (Dropout)          (None, 64)                0         
2020-01-08 16:16:54,728 [INFO] _________________________________________________________________
2020-01-08 16:16:54,728 [INFO] dense_7 (Dense)              (None, 12)                780       
2020-01-08 16:16:54,728 [INFO] =================================================================
2020-01-08 16:16:54,729 [INFO] Total params: 28,172
2020-01-08 16:16:54,729 [INFO] Trainable params: 27,404
2020-01-08 16:16:54,729 [INFO] Non-trainable params: 768
2020-01-08 16:16:54,729 [INFO] _________________________________________________________________
2020-01-08 16:16:54,729 [INFO] Training model
…
2020-01-08 18:58:20,343 [INFO] Reading complete. time_to_read=0.07 seconds
2020-01-08 18:58:20,343 [INFO] Reading HDF dataset ../Datasets/full_datasets/ids2017/y_test.h5
2020-01-08 18:58:20,409 [INFO] Reading complete. time_to_read=0.07 seconds
2020-01-08 18:58:23,594 [INFO] Initializing model
2020-01-08 18:58:24,141 [INFO] _________________________________________________________________
2020-01-08 18:58:24,141 [INFO] Layer (type)                 Output Shape              Param #   
2020-01-08 18:58:24,141 [INFO] =================================================================
2020-01-08 18:58:24,142 [INFO] dense_8 (Dense)              (None, 64)                5056      
2020-01-08 18:58:24,142 [INFO] _________________________________________________________________
2020-01-08 18:58:24,142 [INFO] batch_normalization_7 (Batch (None, 64)                256       
2020-01-08 18:58:24,142 [INFO] _________________________________________________________________
2020-01-08 18:58:24,142 [INFO] dropout_7 (Dropout)          (None, 64)                0         
2020-01-08 18:58:24,142 [INFO] _________________________________________________________________
2020-01-08 18:58:24,142 [INFO] dense_9 (Dense)              (None, 64)                4160      
2020-01-08 18:58:24,142 [INFO] _________________________________________________________________
2020-01-08 18:58:24,142 [INFO] batch_normalization_8 (Batch (None, 64)                256       
2020-01-08 18:58:24,142 [INFO] _________________________________________________________________
2020-01-08 18:58:24,142 [INFO] dropout_8 (Dropout)          (None, 64)                0         
2020-01-08 18:58:24,142 [INFO] _________________________________________________________________
2020-01-08 18:58:24,142 [INFO] dense_10 (Dense)             (None, 64)                4160      
2020-01-08 18:58:24,142 [INFO] _________________________________________________________________
2020-01-08 18:58:24,142 [INFO] batch_normalization_9 (Batch (None, 64)                256       
2020-01-08 18:58:24,142 [INFO] _________________________________________________________________
2020-01-08 18:58:24,142 [INFO] dropout_9 (Dropout)          (None, 64)                0         
2020-01-08 18:58:24,143 [INFO] _________________________________________________________________
2020-01-08 18:58:24,143 [INFO] dense_11 (Dense)             (None, 64)                4160      
2020-01-08 18:58:24,143 [INFO] _________________________________________________________________
2020-01-08 18:58:24,143 [INFO] batch_normalization_10 (Batc (None, 64)                256       
2020-01-08 18:58:24,143 [INFO] _________________________________________________________________
2020-01-08 18:58:24,143 [INFO] dropout_10 (Dropout)         (None, 64)                0         
2020-01-08 18:58:24,143 [INFO] _________________________________________________________________
2020-01-08 18:58:24,143 [INFO] dense_12 (Dense)             (None, 64)                4160      
2020-01-08 18:58:24,143 [INFO] _________________________________________________________________
2020-01-08 18:58:24,143 [INFO] batch_normalization_11 (Batc (None, 64)                256       
2020-01-08 18:58:24,143 [INFO] _________________________________________________________________
2020-01-08 18:58:24,143 [INFO] dropout_11 (Dropout)         (None, 64)                0         
2020-01-08 18:58:24,143 [INFO] _________________________________________________________________
2020-01-08 18:58:24,143 [INFO] dense_13 (Dense)             (None, 64)                4160      
2020-01-08 18:58:24,143 [INFO] _________________________________________________________________
2020-01-08 18:58:24,143 [INFO] batch_normalization_12 (Batc (None, 64)                256       
2020-01-08 18:58:24,143 [INFO] _________________________________________________________________
2020-01-08 18:58:24,144 [INFO] dropout_12 (Dropout)         (None, 64)                0         
2020-01-08 18:58:24,144 [INFO] _________________________________________________________________
2020-01-08 18:58:24,144 [INFO] dense_14 (Dense)             (None, 64)                4160      
2020-01-08 18:58:24,144 [INFO] _________________________________________________________________
2020-01-08 18:58:24,144 [INFO] batch_normalization_13 (Batc (None, 64)                256       
2020-01-08 18:58:24,144 [INFO] _________________________________________________________________
2020-01-08 18:58:24,144 [INFO] dropout_13 (Dropout)         (None, 64)                0         
2020-01-08 18:58:24,144 [INFO] _________________________________________________________________
2020-01-08 18:58:24,144 [INFO] dense_15 (Dense)             (None, 12)                780       
2020-01-08 18:58:24,144 [INFO] =================================================================
2020-01-08 18:58:24,144 [INFO] Total params: 32,588
2020-01-08 18:58:24,144 [INFO] Trainable params: 31,692
2020-01-08 18:58:24,144 [INFO] Non-trainable params: 896
2020-01-08 18:58:24,144 [INFO] _________________________________________________________________
2020-01-08 18:58:24,145 [INFO] Training model
…
2020-01-08 22:04:40,509 [INFO] Reading complete. time_to_read=0.07 seconds
2020-01-08 22:04:40,509 [INFO] Reading HDF dataset ../Datasets/full_datasets/ids2017/y_test.h5
2020-01-08 22:04:40,575 [INFO] Reading complete. time_to_read=0.07 seconds
2020-01-08 22:04:43,779 [INFO] Initializing model
2020-01-08 22:04:44,417 [INFO] _________________________________________________________________
2020-01-08 22:04:44,417 [INFO] Layer (type)                 Output Shape              Param #   
2020-01-08 22:04:44,417 [INFO] =================================================================
2020-01-08 22:04:44,417 [INFO] dense_16 (Dense)             (None, 64)                5056      
2020-01-08 22:04:44,417 [INFO] _________________________________________________________________
2020-01-08 22:04:44,418 [INFO] batch_normalization_14 (Batc (None, 64)                256       
2020-01-08 22:04:44,418 [INFO] _________________________________________________________________
2020-01-08 22:04:44,418 [INFO] dropout_14 (Dropout)         (None, 64)                0         
2020-01-08 22:04:44,418 [INFO] _________________________________________________________________
2020-01-08 22:04:44,418 [INFO] dense_17 (Dense)             (None, 64)                4160      
2020-01-08 22:04:44,418 [INFO] _________________________________________________________________
2020-01-08 22:04:44,418 [INFO] batch_normalization_15 (Batc (None, 64)                256       
2020-01-08 22:04:44,418 [INFO] _________________________________________________________________
2020-01-08 22:04:44,418 [INFO] dropout_15 (Dropout)         (None, 64)                0         
2020-01-08 22:04:44,418 [INFO] _________________________________________________________________
2020-01-08 22:04:44,418 [INFO] dense_18 (Dense)             (None, 64)                4160      
2020-01-08 22:04:44,418 [INFO] _________________________________________________________________
2020-01-08 22:04:44,418 [INFO] batch_normalization_16 (Batc (None, 64)                256       
2020-01-08 22:04:44,418 [INFO] _________________________________________________________________
2020-01-08 22:04:44,418 [INFO] dropout_16 (Dropout)         (None, 64)                0         
2020-01-08 22:04:44,418 [INFO] _________________________________________________________________
2020-01-08 22:04:44,419 [INFO] dense_19 (Dense)             (None, 64)                4160      
2020-01-08 22:04:44,419 [INFO] _________________________________________________________________
2020-01-08 22:04:44,419 [INFO] batch_normalization_17 (Batc (None, 64)                256       
2020-01-08 22:04:44,419 [INFO] _________________________________________________________________
2020-01-08 22:04:44,419 [INFO] dropout_17 (Dropout)         (None, 64)                0         
2020-01-08 22:04:44,419 [INFO] _________________________________________________________________
2020-01-08 22:04:44,419 [INFO] dense_20 (Dense)             (None, 64)                4160      
2020-01-08 22:04:44,419 [INFO] _________________________________________________________________
2020-01-08 22:04:44,419 [INFO] batch_normalization_18 (Batc (None, 64)                256       
2020-01-08 22:04:44,419 [INFO] _________________________________________________________________
2020-01-08 22:04:44,419 [INFO] dropout_18 (Dropout)         (None, 64)                0         
2020-01-08 22:04:44,419 [INFO] _________________________________________________________________
2020-01-08 22:04:44,419 [INFO] dense_21 (Dense)             (None, 64)                4160      
2020-01-08 22:04:44,419 [INFO] _________________________________________________________________
2020-01-08 22:04:44,419 [INFO] batch_normalization_19 (Batc (None, 64)                256       
2020-01-08 22:04:44,419 [INFO] _________________________________________________________________
2020-01-08 22:04:44,419 [INFO] dropout_19 (Dropout)         (None, 64)                0         
2020-01-08 22:04:44,419 [INFO] _________________________________________________________________
2020-01-08 22:04:44,420 [INFO] dense_22 (Dense)             (None, 64)                4160      
2020-01-08 22:04:44,420 [INFO] _________________________________________________________________
2020-01-08 22:04:44,420 [INFO] batch_normalization_20 (Batc (None, 64)                256       
2020-01-08 22:04:44,420 [INFO] _________________________________________________________________
2020-01-08 22:04:44,420 [INFO] dropout_20 (Dropout)         (None, 64)                0         
2020-01-08 22:04:44,420 [INFO] _________________________________________________________________
2020-01-08 22:04:44,420 [INFO] dense_23 (Dense)             (None, 64)                4160      
2020-01-08 22:04:44,420 [INFO] _________________________________________________________________
2020-01-08 22:04:44,420 [INFO] batch_normalization_21 (Batc (None, 64)                256       
2020-01-08 22:04:44,420 [INFO] _________________________________________________________________
2020-01-08 22:04:44,420 [INFO] dropout_21 (Dropout)         (None, 64)                0         
2020-01-08 22:04:44,420 [INFO] _________________________________________________________________
2020-01-08 22:04:44,420 [INFO] dense_24 (Dense)             (None, 12)                780       
2020-01-08 22:04:44,420 [INFO] =================================================================
2020-01-08 22:04:44,421 [INFO] Total params: 37,004
2020-01-08 22:04:44,421 [INFO] Trainable params: 35,980
2020-01-08 22:04:44,421 [INFO] Non-trainable params: 1,024
2020-01-08 22:04:44,421 [INFO] _________________________________________________________________
2020-01-08 22:04:44,421 [INFO] Training model
…
2020-01-09 01:38:42,340 [INFO] Reading complete. time_to_read=0.07 seconds
2020-01-09 01:38:42,340 [INFO] Reading HDF dataset ../Datasets/full_datasets/ids2017/y_test.h5
2020-01-09 01:38:42,406 [INFO] Reading complete. time_to_read=0.07 seconds
2020-01-09 01:38:45,616 [INFO] Initializing model
2020-01-09 01:38:46,494 [INFO] _________________________________________________________________
2020-01-09 01:38:46,494 [INFO] Layer (type)                 Output Shape              Param #   
2020-01-09 01:38:46,494 [INFO] =================================================================
2020-01-09 01:38:46,494 [INFO] dense_25 (Dense)             (None, 64)                5056      
2020-01-09 01:38:46,494 [INFO] _________________________________________________________________
2020-01-09 01:38:46,494 [INFO] batch_normalization_22 (Batc (None, 64)                256       
2020-01-09 01:38:46,494 [INFO] _________________________________________________________________
2020-01-09 01:38:46,494 [INFO] dropout_22 (Dropout)         (None, 64)                0         
2020-01-09 01:38:46,494 [INFO] _________________________________________________________________
2020-01-09 01:38:46,494 [INFO] dense_26 (Dense)             (None, 64)                4160      
2020-01-09 01:38:46,495 [INFO] _________________________________________________________________
2020-01-09 01:38:46,495 [INFO] batch_normalization_23 (Batc (None, 64)                256       
2020-01-09 01:38:46,495 [INFO] _________________________________________________________________
2020-01-09 01:38:46,495 [INFO] dropout_23 (Dropout)         (None, 64)                0         
2020-01-09 01:38:46,495 [INFO] _________________________________________________________________
2020-01-09 01:38:46,495 [INFO] dense_27 (Dense)             (None, 64)                4160      
2020-01-09 01:38:46,495 [INFO] _________________________________________________________________
2020-01-09 01:38:46,495 [INFO] batch_normalization_24 (Batc (None, 64)                256       
2020-01-09 01:38:46,495 [INFO] _________________________________________________________________
2020-01-09 01:38:46,495 [INFO] dropout_24 (Dropout)         (None, 64)                0         
2020-01-09 01:38:46,495 [INFO] _________________________________________________________________
2020-01-09 01:38:46,495 [INFO] dense_28 (Dense)             (None, 64)                4160      
2020-01-09 01:38:46,495 [INFO] _________________________________________________________________
2020-01-09 01:38:46,495 [INFO] batch_normalization_25 (Batc (None, 64)                256       
2020-01-09 01:38:46,495 [INFO] _________________________________________________________________
2020-01-09 01:38:46,495 [INFO] dropout_25 (Dropout)         (None, 64)                0         
2020-01-09 01:38:46,495 [INFO] _________________________________________________________________
2020-01-09 01:38:46,496 [INFO] dense_29 (Dense)             (None, 64)                4160      
2020-01-09 01:38:46,496 [INFO] _________________________________________________________________
2020-01-09 01:38:46,496 [INFO] batch_normalization_26 (Batc (None, 64)                256       
2020-01-09 01:38:46,496 [INFO] _________________________________________________________________
2020-01-09 01:38:46,496 [INFO] dropout_26 (Dropout)         (None, 64)                0         
2020-01-09 01:38:46,496 [INFO] _________________________________________________________________
2020-01-09 01:38:46,496 [INFO] dense_30 (Dense)             (None, 64)                4160      
2020-01-09 01:38:46,496 [INFO] _________________________________________________________________
2020-01-09 01:38:46,496 [INFO] batch_normalization_27 (Batc (None, 64)                256       
2020-01-09 01:38:46,496 [INFO] _________________________________________________________________
2020-01-09 01:38:46,496 [INFO] dropout_27 (Dropout)         (None, 64)                0         
2020-01-09 01:38:46,496 [INFO] _________________________________________________________________
2020-01-09 01:38:46,496 [INFO] dense_31 (Dense)             (None, 64)                4160      
2020-01-09 01:38:46,496 [INFO] _________________________________________________________________
2020-01-09 01:38:46,496 [INFO] batch_normalization_28 (Batc (None, 64)                256       
2020-01-09 01:38:46,496 [INFO] _________________________________________________________________
2020-01-09 01:38:46,496 [INFO] dropout_28 (Dropout)         (None, 64)                0         
2020-01-09 01:38:46,497 [INFO] _________________________________________________________________
2020-01-09 01:38:46,497 [INFO] dense_32 (Dense)             (None, 64)                4160      
2020-01-09 01:38:46,497 [INFO] _________________________________________________________________
2020-01-09 01:38:46,497 [INFO] batch_normalization_29 (Batc (None, 64)                256       
2020-01-09 01:38:46,497 [INFO] _________________________________________________________________
2020-01-09 01:38:46,497 [INFO] dropout_29 (Dropout)         (None, 64)                0         
2020-01-09 01:38:46,497 [INFO] _________________________________________________________________
2020-01-09 01:38:46,497 [INFO] dense_33 (Dense)             (None, 64)                4160      
2020-01-09 01:38:46,497 [INFO] _________________________________________________________________
2020-01-09 01:38:46,497 [INFO] batch_normalization_30 (Batc (None, 64)                256       
2020-01-09 01:38:46,497 [INFO] _________________________________________________________________
2020-01-09 01:38:46,497 [INFO] dropout_30 (Dropout)         (None, 64)                0         
2020-01-09 01:38:46,497 [INFO] _________________________________________________________________
2020-01-09 01:38:46,497 [INFO] dense_34 (Dense)             (None, 12)                780       
2020-01-09 01:38:46,497 [INFO] =================================================================
2020-01-09 01:38:46,498 [INFO] Total params: 41,420
2020-01-09 01:38:46,498 [INFO] Trainable params: 40,268
2020-01-09 01:38:46,498 [INFO] Non-trainable params: 1,152
2020-01-09 01:38:46,498 [INFO] _________________________________________________________________
2020-01-09 01:38:46,498 [INFO] Training model
…
2020-01-09 05:38:56,191 [INFO] Reading complete. time_to_read=0.07 seconds
2020-01-09 05:38:56,191 [INFO] Reading HDF dataset ../Datasets/full_datasets/ids2017/y_test.h5
2020-01-09 05:38:56,258 [INFO] Reading complete. time_to_read=0.07 seconds
2020-01-09 05:38:59,455 [INFO] Initializing model
2020-01-09 05:39:00,292 [INFO] _________________________________________________________________
2020-01-09 05:39:00,292 [INFO] Layer (type)                 Output Shape              Param #   
2020-01-09 05:39:00,292 [INFO] =================================================================
2020-01-09 05:39:00,292 [INFO] dense_35 (Dense)             (None, 64)                5056      
2020-01-09 05:39:00,292 [INFO] _________________________________________________________________
2020-01-09 05:39:00,292 [INFO] batch_normalization_31 (Batc (None, 64)                256       
2020-01-09 05:39:00,292 [INFO] _________________________________________________________________
2020-01-09 05:39:00,292 [INFO] dropout_31 (Dropout)         (None, 64)                0         
2020-01-09 05:39:00,292 [INFO] _________________________________________________________________
2020-01-09 05:39:00,292 [INFO] dense_36 (Dense)             (None, 64)                4160      
2020-01-09 05:39:00,292 [INFO] _________________________________________________________________
2020-01-09 05:39:00,292 [INFO] batch_normalization_32 (Batc (None, 64)                256       
2020-01-09 05:39:00,292 [INFO] _________________________________________________________________
2020-01-09 05:39:00,292 [INFO] dropout_32 (Dropout)         (None, 64)                0         
2020-01-09 05:39:00,292 [INFO] _________________________________________________________________
2020-01-09 05:39:00,293 [INFO] dense_37 (Dense)             (None, 64)                4160      
2020-01-09 05:39:00,293 [INFO] _________________________________________________________________
2020-01-09 05:39:00,293 [INFO] batch_normalization_33 (Batc (None, 64)                256       
2020-01-09 05:39:00,293 [INFO] _________________________________________________________________
2020-01-09 05:39:00,293 [INFO] dropout_33 (Dropout)         (None, 64)                0         
2020-01-09 05:39:00,293 [INFO] _________________________________________________________________
2020-01-09 05:39:00,293 [INFO] dense_38 (Dense)             (None, 64)                4160      
2020-01-09 05:39:00,293 [INFO] _________________________________________________________________
2020-01-09 05:39:00,293 [INFO] batch_normalization_34 (Batc (None, 64)                256       
2020-01-09 05:39:00,293 [INFO] _________________________________________________________________
2020-01-09 05:39:00,293 [INFO] dropout_34 (Dropout)         (None, 64)                0         
2020-01-09 05:39:00,293 [INFO] _________________________________________________________________
2020-01-09 05:39:00,293 [INFO] dense_39 (Dense)             (None, 64)                4160      
2020-01-09 05:39:00,293 [INFO] _________________________________________________________________
2020-01-09 05:39:00,293 [INFO] batch_normalization_35 (Batc (None, 64)                256       
2020-01-09 05:39:00,293 [INFO] _________________________________________________________________
2020-01-09 05:39:00,294 [INFO] dropout_35 (Dropout)         (None, 64)                0         
2020-01-09 05:39:00,294 [INFO] _________________________________________________________________
2020-01-09 05:39:00,294 [INFO] dense_40 (Dense)             (None, 64)                4160      
2020-01-09 05:39:00,294 [INFO] _________________________________________________________________
2020-01-09 05:39:00,294 [INFO] batch_normalization_36 (Batc (None, 64)                256       
2020-01-09 05:39:00,294 [INFO] _________________________________________________________________
2020-01-09 05:39:00,294 [INFO] dropout_36 (Dropout)         (None, 64)                0         
2020-01-09 05:39:00,294 [INFO] _________________________________________________________________
2020-01-09 05:39:00,294 [INFO] dense_41 (Dense)             (None, 64)                4160      
2020-01-09 05:39:00,294 [INFO] _________________________________________________________________
2020-01-09 05:39:00,294 [INFO] batch_normalization_37 (Batc (None, 64)                256       
2020-01-09 05:39:00,294 [INFO] _________________________________________________________________
2020-01-09 05:39:00,294 [INFO] dropout_37 (Dropout)         (None, 64)                0         
2020-01-09 05:39:00,294 [INFO] _________________________________________________________________
2020-01-09 05:39:00,294 [INFO] dense_42 (Dense)             (None, 64)                4160      
2020-01-09 05:39:00,294 [INFO] _________________________________________________________________
2020-01-09 05:39:00,294 [INFO] batch_normalization_38 (Batc (None, 64)                256       
2020-01-09 05:39:00,295 [INFO] _________________________________________________________________
2020-01-09 05:39:00,295 [INFO] dropout_38 (Dropout)         (None, 64)                0         
2020-01-09 05:39:00,295 [INFO] _________________________________________________________________
2020-01-09 05:39:00,295 [INFO] dense_43 (Dense)             (None, 64)                4160      
2020-01-09 05:39:00,295 [INFO] _________________________________________________________________
2020-01-09 05:39:00,295 [INFO] batch_normalization_39 (Batc (None, 64)                256       
2020-01-09 05:39:00,295 [INFO] _________________________________________________________________
2020-01-09 05:39:00,295 [INFO] dropout_39 (Dropout)         (None, 64)                0         
2020-01-09 05:39:00,295 [INFO] _________________________________________________________________
2020-01-09 05:39:00,295 [INFO] dense_44 (Dense)             (None, 64)                4160      
2020-01-09 05:39:00,295 [INFO] _________________________________________________________________
2020-01-09 05:39:00,295 [INFO] batch_normalization_40 (Batc (None, 64)                256       
2020-01-09 05:39:00,295 [INFO] _________________________________________________________________
2020-01-09 05:39:00,295 [INFO] dropout_40 (Dropout)         (None, 64)                0         
2020-01-09 05:39:00,295 [INFO] _________________________________________________________________
2020-01-09 05:39:00,295 [INFO] dense_45 (Dense)             (None, 12)                780       
2020-01-09 05:39:00,295 [INFO] =================================================================
2020-01-09 05:39:00,296 [INFO] Total params: 45,836
2020-01-09 05:39:00,296 [INFO] Trainable params: 44,556
2020-01-09 05:39:00,296 [INFO] Non-trainable params: 1,280
2020-01-09 05:39:00,296 [INFO] _________________________________________________________________
2020-01-09 05:39:00,296 [INFO] Training model
…
