…
2020-01-13 20:28:13,669 [WARNING] From /home/sunanda/anaconda3/envs/ml_env_cpu/lib/python3.7/site-packages/keras/backend/tensorflow_backend.py:3445: calling dropout (from tensorflow.python.ops.nn_ops) with keep_prob is deprecated and will be removed in a future version.
Instructions for updating:
Please use `rate` instead of `keep_prob`. Rate should be set to `rate = 1 - keep_prob`.
2020-01-13 20:28:13,879 [INFO] _________________________________________________________________
2020-01-13 20:28:13,879 [INFO] Layer (type)                 Output Shape              Param #   
2020-01-13 20:28:13,879 [INFO] =================================================================
2020-01-13 20:28:13,879 [INFO] dense_1 (Dense)              (None, 64)                7872      
2020-01-13 20:28:13,879 [INFO] _________________________________________________________________
2020-01-13 20:28:13,879 [INFO] batch_normalization_1 (Batch (None, 64)                256       
2020-01-13 20:28:13,879 [INFO] _________________________________________________________________
2020-01-13 20:28:13,879 [INFO] dropout_1 (Dropout)          (None, 64)                0         
2020-01-13 20:28:13,879 [INFO] _________________________________________________________________
2020-01-13 20:28:13,879 [INFO] dense_2 (Dense)              (None, 32)                2080      
2020-01-13 20:28:13,879 [INFO] _________________________________________________________________
2020-01-13 20:28:13,880 [INFO] batch_normalization_2 (Batch (None, 32)                128       
2020-01-13 20:28:13,880 [INFO] _________________________________________________________________
2020-01-13 20:28:13,880 [INFO] dropout_2 (Dropout)          (None, 32)                0         
2020-01-13 20:28:13,880 [INFO] _________________________________________________________________
2020-01-13 20:28:13,880 [INFO] dense_3 (Dense)              (None, 64)                2112      
2020-01-13 20:28:13,880 [INFO] _________________________________________________________________
2020-01-13 20:28:13,880 [INFO] batch_normalization_3 (Batch (None, 64)                256       
2020-01-13 20:28:13,880 [INFO] _________________________________________________________________
2020-01-13 20:28:13,880 [INFO] dropout_3 (Dropout)          (None, 64)                0         
2020-01-13 20:28:13,880 [INFO] _________________________________________________________________
2020-01-13 20:28:13,880 [INFO] dense_4 (Dense)              (None, 5)                 325       
2020-01-13 20:28:13,880 [INFO] =================================================================
2020-01-13 20:28:13,881 [INFO] Total params: 13,029
2020-01-13 20:28:13,881 [INFO] Trainable params: 12,709
2020-01-13 20:28:13,881 [INFO] Non-trainable params: 320
2020-01-13 20:28:13,881 [INFO] _________________________________________________________________
2020-01-13 20:28:13,881 [INFO] Training model
…
2020-01-13 20:28:43,968 [INFO] Reading complete. time_to_read=0.00 seconds
2020-01-13 20:28:43,968 [INFO] Reading HDF dataset ../Datasets/small_datasets/nsl_kdd_five_classes/y_test.h5
2020-01-13 20:28:43,972 [INFO] Reading complete. time_to_read=0.00 seconds
2020-01-13 20:28:44,088 [INFO] Initializing model
2020-01-13 20:28:44,379 [INFO] _________________________________________________________________
2020-01-13 20:28:44,379 [INFO] Layer (type)                 Output Shape              Param #   
2020-01-13 20:28:44,379 [INFO] =================================================================
2020-01-13 20:28:44,379 [INFO] dense_5 (Dense)              (None, 64)                7872      
2020-01-13 20:28:44,379 [INFO] _________________________________________________________________
2020-01-13 20:28:44,379 [INFO] batch_normalization_4 (Batch (None, 64)                256       
2020-01-13 20:28:44,379 [INFO] _________________________________________________________________
2020-01-13 20:28:44,380 [INFO] dropout_4 (Dropout)          (None, 64)                0         
2020-01-13 20:28:44,380 [INFO] _________________________________________________________________
2020-01-13 20:28:44,380 [INFO] dense_6 (Dense)              (None, 32)                2080      
2020-01-13 20:28:44,380 [INFO] _________________________________________________________________
2020-01-13 20:28:44,380 [INFO] batch_normalization_5 (Batch (None, 32)                128       
2020-01-13 20:28:44,380 [INFO] _________________________________________________________________
2020-01-13 20:28:44,380 [INFO] dropout_5 (Dropout)          (None, 32)                0         
2020-01-13 20:28:44,380 [INFO] _________________________________________________________________
2020-01-13 20:28:44,380 [INFO] dense_7 (Dense)              (None, 65)                2145      
2020-01-13 20:28:44,380 [INFO] _________________________________________________________________
2020-01-13 20:28:44,381 [INFO] batch_normalization_6 (Batch (None, 65)                260       
2020-01-13 20:28:44,381 [INFO] _________________________________________________________________
2020-01-13 20:28:44,381 [INFO] dropout_6 (Dropout)          (None, 65)                0         
2020-01-13 20:28:44,381 [INFO] _________________________________________________________________
2020-01-13 20:28:44,381 [INFO] dense_8 (Dense)              (None, 5)                 330       
2020-01-13 20:28:44,381 [INFO] =================================================================
2020-01-13 20:28:44,381 [INFO] Total params: 13,071
2020-01-13 20:28:44,381 [INFO] Trainable params: 12,749
2020-01-13 20:28:44,381 [INFO] Non-trainable params: 322
2020-01-13 20:28:44,381 [INFO] _________________________________________________________________
2020-01-13 20:28:44,381 [INFO] Training model
…
2020-01-13 20:29:15,038 [INFO] Reading complete. time_to_read=0.00 seconds
2020-01-13 20:29:15,038 [INFO] Reading HDF dataset ../Datasets/small_datasets/nsl_kdd_five_classes/y_test.h5
2020-01-13 20:29:15,042 [INFO] Reading complete. time_to_read=0.00 seconds
2020-01-13 20:29:15,166 [INFO] Initializing model
2020-01-13 20:29:15,459 [INFO] _________________________________________________________________
2020-01-13 20:29:15,460 [INFO] Layer (type)                 Output Shape              Param #   
2020-01-13 20:29:15,460 [INFO] =================================================================
2020-01-13 20:29:15,460 [INFO] dense_9 (Dense)              (None, 64)                7872      
2020-01-13 20:29:15,460 [INFO] _________________________________________________________________
2020-01-13 20:29:15,460 [INFO] batch_normalization_7 (Batch (None, 64)                256       
2020-01-13 20:29:15,460 [INFO] _________________________________________________________________
2020-01-13 20:29:15,460 [INFO] dropout_7 (Dropout)          (None, 64)                0         
2020-01-13 20:29:15,460 [INFO] _________________________________________________________________
2020-01-13 20:29:15,460 [INFO] dense_10 (Dense)             (None, 32)                2080      
2020-01-13 20:29:15,460 [INFO] _________________________________________________________________
2020-01-13 20:29:15,461 [INFO] batch_normalization_8 (Batch (None, 32)                128       
2020-01-13 20:29:15,461 [INFO] _________________________________________________________________
2020-01-13 20:29:15,461 [INFO] dropout_8 (Dropout)          (None, 32)                0         
2020-01-13 20:29:15,461 [INFO] _________________________________________________________________
2020-01-13 20:29:15,461 [INFO] dense_11 (Dense)             (None, 66)                2178      
2020-01-13 20:29:15,461 [INFO] _________________________________________________________________
2020-01-13 20:29:15,461 [INFO] batch_normalization_9 (Batch (None, 66)                264       
2020-01-13 20:29:15,461 [INFO] _________________________________________________________________
2020-01-13 20:29:15,461 [INFO] dropout_9 (Dropout)          (None, 66)                0         
2020-01-13 20:29:15,461 [INFO] _________________________________________________________________
2020-01-13 20:29:15,461 [INFO] dense_12 (Dense)             (None, 5)                 335       
2020-01-13 20:29:15,461 [INFO] =================================================================
2020-01-13 20:29:15,462 [INFO] Total params: 13,113
2020-01-13 20:29:15,462 [INFO] Trainable params: 12,789
2020-01-13 20:29:15,462 [INFO] Non-trainable params: 324
2020-01-13 20:29:15,462 [INFO] _________________________________________________________________
2020-01-13 20:29:15,462 [INFO] Training model
…
OMP: Info #250: KMP_AFFINITY: pid 28146 tid 28458 thread 17 bound to OS proc set 1
OMP: Info #250: KMP_AFFINITY: pid 28146 tid 28459 thread 18 bound to OS proc set 2
OMP: Info #250: KMP_AFFINITY: pid 28146 tid 28460 thread 19 bound to OS proc set 3
2020-01-13 20:29:56,570 [INFO] Initializing model
2020-01-13 20:29:56,956 [INFO] _________________________________________________________________
2020-01-13 20:29:56,956 [INFO] Layer (type)                 Output Shape              Param #   
2020-01-13 20:29:56,956 [INFO] =================================================================
2020-01-13 20:29:56,956 [INFO] dense_13 (Dense)             (None, 256)               20224     
2020-01-13 20:29:56,956 [INFO] _________________________________________________________________
2020-01-13 20:29:56,956 [INFO] batch_normalization_10 (Batc (None, 256)               1024      
2020-01-13 20:29:56,956 [INFO] _________________________________________________________________
2020-01-13 20:29:56,956 [INFO] dropout_10 (Dropout)         (None, 256)               0         
2020-01-13 20:29:56,956 [INFO] _________________________________________________________________
2020-01-13 20:29:56,957 [INFO] dense_14 (Dense)             (None, 128)               32896     
2020-01-13 20:29:56,957 [INFO] _________________________________________________________________
2020-01-13 20:29:56,957 [INFO] batch_normalization_11 (Batc (None, 128)               512       
2020-01-13 20:29:56,957 [INFO] _________________________________________________________________
2020-01-13 20:29:56,957 [INFO] dropout_11 (Dropout)         (None, 128)               0         
2020-01-13 20:29:56,957 [INFO] _________________________________________________________________
2020-01-13 20:29:56,957 [INFO] dense_15 (Dense)             (None, 64)                8256      
2020-01-13 20:29:56,957 [INFO] _________________________________________________________________
2020-01-13 20:29:56,957 [INFO] batch_normalization_12 (Batc (None, 64)                256       
2020-01-13 20:29:56,957 [INFO] _________________________________________________________________
2020-01-13 20:29:56,957 [INFO] dropout_12 (Dropout)         (None, 64)                0         
2020-01-13 20:29:56,957 [INFO] _________________________________________________________________
2020-01-13 20:29:56,958 [INFO] dense_16 (Dense)             (None, 32)                2080      
2020-01-13 20:29:56,958 [INFO] _________________________________________________________________
2020-01-13 20:29:56,958 [INFO] batch_normalization_13 (Batc (None, 32)                128       
2020-01-13 20:29:56,958 [INFO] _________________________________________________________________
2020-01-13 20:29:56,958 [INFO] dropout_13 (Dropout)         (None, 32)                0         
2020-01-13 20:29:56,958 [INFO] _________________________________________________________________
2020-01-13 20:29:56,958 [INFO] dense_17 (Dense)             (None, 12)                396       
2020-01-13 20:29:56,958 [INFO] =================================================================
2020-01-13 20:29:56,958 [INFO] Total params: 65,772
2020-01-13 20:29:56,959 [INFO] Trainable params: 64,812
2020-01-13 20:29:56,959 [INFO] Non-trainable params: 960
2020-01-13 20:29:56,959 [INFO] _________________________________________________________________
2020-01-13 20:29:56,959 [INFO] Training model
…
2020-01-13 23:11:01,007 [INFO] Reading complete. time_to_read=0.06 seconds
2020-01-13 23:11:01,007 [INFO] Reading HDF dataset ../Datasets/full_datasets/kdd99_five_classes/y_test.h5
2020-01-13 23:11:01,026 [INFO] Reading complete. time_to_read=0.02 seconds
2020-01-13 23:11:08,358 [INFO] Initializing model
2020-01-13 23:11:08,837 [INFO] _________________________________________________________________
2020-01-13 23:11:08,837 [INFO] Layer (type)                 Output Shape              Param #   
2020-01-13 23:11:08,837 [INFO] =================================================================
2020-01-13 23:11:08,837 [INFO] dense_28 (Dense)             (None, 64)                7936      
2020-01-13 23:11:08,837 [INFO] _________________________________________________________________
2020-01-13 23:11:08,838 [INFO] batch_normalization_22 (Batc (None, 64)                256       
2020-01-13 23:11:08,838 [INFO] _________________________________________________________________
2020-01-13 23:11:08,838 [INFO] dropout_22 (Dropout)         (None, 64)                0         
2020-01-13 23:11:08,838 [INFO] _________________________________________________________________
2020-01-13 23:11:08,838 [INFO] dense_29 (Dense)             (None, 32)                2080      
2020-01-13 23:11:08,838 [INFO] _________________________________________________________________
2020-01-13 23:11:08,838 [INFO] batch_normalization_23 (Batc (None, 32)                128       
2020-01-13 23:11:08,838 [INFO] _________________________________________________________________
2020-01-13 23:11:08,838 [INFO] dropout_23 (Dropout)         (None, 32)                0         
2020-01-13 23:11:08,838 [INFO] _________________________________________________________________
2020-01-13 23:11:08,838 [INFO] dense_30 (Dense)             (None, 64)                2112      
2020-01-13 23:11:08,838 [INFO] _________________________________________________________________
2020-01-13 23:11:08,839 [INFO] batch_normalization_24 (Batc (None, 64)                256       
2020-01-13 23:11:08,839 [INFO] _________________________________________________________________
2020-01-13 23:11:08,839 [INFO] dropout_24 (Dropout)         (None, 64)                0         
2020-01-13 23:11:08,839 [INFO] _________________________________________________________________
2020-01-13 23:11:08,839 [INFO] dense_31 (Dense)             (None, 5)                 325       
2020-01-13 23:11:08,839 [INFO] =================================================================
2020-01-13 23:11:08,839 [INFO] Total params: 13,093
2020-01-13 23:11:08,839 [INFO] Trainable params: 12,773
2020-01-13 23:11:08,839 [INFO] Non-trainable params: 320
2020-01-13 23:11:08,839 [INFO] _________________________________________________________________
2020-01-13 23:11:08,839 [INFO] Training model
…
2020-01-13 23:30:43,353 [INFO] Reading complete. time_to_read=0.05 seconds
2020-01-13 23:30:43,353 [INFO] Reading HDF dataset ../Datasets/full_datasets/kdd99_five_classes/y_test.h5
2020-01-13 23:30:43,372 [INFO] Reading complete. time_to_read=0.02 seconds
2020-01-13 23:30:50,669 [INFO] Initializing model
2020-01-13 23:30:50,980 [INFO] _________________________________________________________________
2020-01-13 23:30:50,980 [INFO] Layer (type)                 Output Shape              Param #   
2020-01-13 23:30:50,980 [INFO] =================================================================
2020-01-13 23:30:50,980 [INFO] dense_32 (Dense)             (None, 64)                7936      
2020-01-13 23:30:50,980 [INFO] _________________________________________________________________
2020-01-13 23:30:50,980 [INFO] batch_normalization_25 (Batc (None, 64)                256       
2020-01-13 23:30:50,981 [INFO] _________________________________________________________________
2020-01-13 23:30:50,981 [INFO] dropout_25 (Dropout)         (None, 64)                0         
2020-01-13 23:30:50,981 [INFO] _________________________________________________________________
2020-01-13 23:30:50,981 [INFO] dense_33 (Dense)             (None, 32)                2080      
2020-01-13 23:30:50,981 [INFO] _________________________________________________________________
2020-01-13 23:30:50,981 [INFO] batch_normalization_26 (Batc (None, 32)                128       
2020-01-13 23:30:50,981 [INFO] _________________________________________________________________
2020-01-13 23:30:50,981 [INFO] dropout_26 (Dropout)         (None, 32)                0         
2020-01-13 23:30:50,981 [INFO] _________________________________________________________________
2020-01-13 23:30:50,981 [INFO] dense_34 (Dense)             (None, 65)                2145      
2020-01-13 23:30:50,981 [INFO] _________________________________________________________________
2020-01-13 23:30:50,981 [INFO] batch_normalization_27 (Batc (None, 65)                260       
2020-01-13 23:30:50,982 [INFO] _________________________________________________________________
2020-01-13 23:30:50,982 [INFO] dropout_27 (Dropout)         (None, 65)                0         
2020-01-13 23:30:50,982 [INFO] _________________________________________________________________
2020-01-13 23:30:50,982 [INFO] dense_35 (Dense)             (None, 5)                 330       
2020-01-13 23:30:50,982 [INFO] =================================================================
2020-01-13 23:30:50,982 [INFO] Total params: 13,135
2020-01-13 23:30:50,982 [INFO] Trainable params: 12,813
2020-01-13 23:30:50,982 [INFO] Non-trainable params: 322
2020-01-13 23:30:50,982 [INFO] _________________________________________________________________
2020-01-13 23:30:50,982 [INFO] Training model
…
2020-01-13 23:48:19,921 [INFO] Reading complete. time_to_read=0.06 seconds
2020-01-13 23:48:19,922 [INFO] Reading HDF dataset ../Datasets/full_datasets/kdd99_five_classes/y_test.h5
2020-01-13 23:48:19,942 [INFO] Reading complete. time_to_read=0.02 seconds
2020-01-13 23:48:27,230 [INFO] Initializing model
2020-01-13 23:48:27,545 [INFO] _________________________________________________________________
2020-01-13 23:48:27,545 [INFO] Layer (type)                 Output Shape              Param #   
2020-01-13 23:48:27,545 [INFO] =================================================================
2020-01-13 23:48:27,545 [INFO] dense_36 (Dense)             (None, 64)                7936      
2020-01-13 23:48:27,545 [INFO] _________________________________________________________________
2020-01-13 23:48:27,545 [INFO] batch_normalization_28 (Batc (None, 64)                256       
2020-01-13 23:48:27,545 [INFO] _________________________________________________________________
2020-01-13 23:48:27,545 [INFO] dropout_28 (Dropout)         (None, 64)                0         
2020-01-13 23:48:27,545 [INFO] _________________________________________________________________
2020-01-13 23:48:27,546 [INFO] dense_37 (Dense)             (None, 32)                2080      
2020-01-13 23:48:27,546 [INFO] _________________________________________________________________
2020-01-13 23:48:27,546 [INFO] batch_normalization_29 (Batc (None, 32)                128       
2020-01-13 23:48:27,546 [INFO] _________________________________________________________________
2020-01-13 23:48:27,546 [INFO] dropout_29 (Dropout)         (None, 32)                0         
2020-01-13 23:48:27,546 [INFO] _________________________________________________________________
2020-01-13 23:48:27,546 [INFO] dense_38 (Dense)             (None, 66)                2178      
2020-01-13 23:48:27,546 [INFO] _________________________________________________________________
2020-01-13 23:48:27,546 [INFO] batch_normalization_30 (Batc (None, 66)                264       
2020-01-13 23:48:27,546 [INFO] _________________________________________________________________
2020-01-13 23:48:27,546 [INFO] dropout_30 (Dropout)         (None, 66)                0         
2020-01-13 23:48:27,546 [INFO] _________________________________________________________________
2020-01-13 23:48:27,547 [INFO] dense_39 (Dense)             (None, 5)                 335       
2020-01-13 23:48:27,547 [INFO] =================================================================
2020-01-13 23:48:27,547 [INFO] Total params: 13,177
2020-01-13 23:48:27,547 [INFO] Trainable params: 12,853
2020-01-13 23:48:27,547 [INFO] Non-trainable params: 324
2020-01-13 23:48:27,547 [INFO] _________________________________________________________________
2020-01-13 23:48:27,547 [INFO] Training model
…
2020-01-14 00:09:32,823 [INFO] Reading complete. time_to_read=0.10 seconds
2020-01-14 00:09:32,823 [INFO] Reading HDF dataset ../Datasets/small_datasets/ids2018/y_test.h5
2020-01-14 00:09:32,921 [INFO] Reading complete. time_to_read=0.10 seconds
2020-01-14 00:09:36,336 [INFO] Initializing model
2020-01-14 00:09:36,755 [INFO] _________________________________________________________________
2020-01-14 00:09:36,755 [INFO] Layer (type)                 Output Shape              Param #   
2020-01-14 00:09:36,755 [INFO] =================================================================
2020-01-14 00:09:36,755 [INFO] dense_40 (Dense)             (None, 128)               9984      
2020-01-14 00:09:36,755 [INFO] _________________________________________________________________
2020-01-14 00:09:36,755 [INFO] batch_normalization_31 (Batc (None, 128)               512       
2020-01-14 00:09:36,755 [INFO] _________________________________________________________________
2020-01-14 00:09:36,755 [INFO] dropout_31 (Dropout)         (None, 128)               0         
2020-01-14 00:09:36,755 [INFO] _________________________________________________________________
2020-01-14 00:09:36,756 [INFO] dense_41 (Dense)             (None, 64)                8256      
2020-01-14 00:09:36,756 [INFO] _________________________________________________________________
2020-01-14 00:09:36,756 [INFO] batch_normalization_32 (Batc (None, 64)                256       
2020-01-14 00:09:36,756 [INFO] _________________________________________________________________
2020-01-14 00:09:36,756 [INFO] dropout_32 (Dropout)         (None, 64)                0         
2020-01-14 00:09:36,756 [INFO] _________________________________________________________________
2020-01-14 00:09:36,756 [INFO] dense_42 (Dense)             (None, 32)                2080      
2020-01-14 00:09:36,756 [INFO] _________________________________________________________________
2020-01-14 00:09:36,756 [INFO] batch_normalization_33 (Batc (None, 32)                128       
2020-01-14 00:09:36,756 [INFO] _________________________________________________________________
2020-01-14 00:09:36,756 [INFO] dropout_33 (Dropout)         (None, 32)                0         
2020-01-14 00:09:36,756 [INFO] _________________________________________________________________
2020-01-14 00:09:36,757 [INFO] dense_43 (Dense)             (None, 16)                528       
2020-01-14 00:09:36,757 [INFO] _________________________________________________________________
2020-01-14 00:09:36,757 [INFO] batch_normalization_34 (Batc (None, 16)                64        
2020-01-14 00:09:36,757 [INFO] _________________________________________________________________
2020-01-14 00:09:36,757 [INFO] dropout_34 (Dropout)         (None, 16)                0         
2020-01-14 00:09:36,757 [INFO] _________________________________________________________________
2020-01-14 00:09:36,757 [INFO] dense_44 (Dense)             (None, 15)                255       
2020-01-14 00:09:36,757 [INFO] =================================================================
2020-01-14 00:09:36,757 [INFO] Total params: 22,063
2020-01-14 00:09:36,758 [INFO] Trainable params: 21,583
2020-01-14 00:09:36,758 [INFO] Non-trainable params: 480
2020-01-14 00:09:36,758 [INFO] _________________________________________________________________
2020-01-14 00:09:36,758 [INFO] Training model
…
