…
2019-12-22 07:06:28,712 [INFO] Reading complete. time_to_read=0.19 seconds
2019-12-22 07:06:28,712 [INFO] Reading HDF dataset ../Datasets/small_datasets/ids2018/y_test.h5
2019-12-22 07:06:28,890 [INFO] Reading complete. time_to_read=0.18 seconds
2019-12-22 07:06:32,776 [INFO] Initializing model
2019-12-22 07:06:33,151 [INFO] _________________________________________________________________
2019-12-22 07:06:33,151 [INFO] Layer (type)                 Output Shape              Param #   
2019-12-22 07:06:33,151 [INFO] =================================================================
2019-12-22 07:06:33,151 [INFO] dense_46 (Dense)             (None, 128)               9984      
2019-12-22 07:06:33,151 [INFO] _________________________________________________________________
2019-12-22 07:06:33,151 [INFO] batch_normalization_36 (Batc (None, 128)               512       
2019-12-22 07:06:33,151 [INFO] _________________________________________________________________
2019-12-22 07:06:33,151 [INFO] dropout_36 (Dropout)         (None, 128)               0         
2019-12-22 07:06:33,151 [INFO] _________________________________________________________________
2019-12-22 07:06:33,152 [INFO] dense_47 (Dense)             (None, 64)                8256      
2019-12-22 07:06:33,152 [INFO] _________________________________________________________________
2019-12-22 07:06:33,152 [INFO] batch_normalization_37 (Batc (None, 64)                256       
2019-12-22 07:06:33,152 [INFO] _________________________________________________________________
2019-12-22 07:06:33,152 [INFO] dropout_37 (Dropout)         (None, 64)                0         
2019-12-22 07:06:33,152 [INFO] _________________________________________________________________
2019-12-22 07:06:33,152 [INFO] dense_48 (Dense)             (None, 32)                2080      
2019-12-22 07:06:33,152 [INFO] _________________________________________________________________
2019-12-22 07:06:33,152 [INFO] batch_normalization_38 (Batc (None, 32)                128       
2019-12-22 07:06:33,152 [INFO] _________________________________________________________________
2019-12-22 07:06:33,152 [INFO] dropout_38 (Dropout)         (None, 32)                0         
2019-12-22 07:06:33,152 [INFO] _________________________________________________________________
2019-12-22 07:06:33,152 [INFO] dense_49 (Dense)             (None, 16)                528       
2019-12-22 07:06:33,152 [INFO] _________________________________________________________________
2019-12-22 07:06:33,152 [INFO] batch_normalization_39 (Batc (None, 16)                64        
2019-12-22 07:06:33,152 [INFO] _________________________________________________________________
2019-12-22 07:06:33,152 [INFO] dropout_39 (Dropout)         (None, 16)                0         
2019-12-22 07:06:33,152 [INFO] _________________________________________________________________
2019-12-22 07:06:33,153 [INFO] dense_50 (Dense)             (None, 15)                255       
2019-12-22 07:06:33,153 [INFO] =================================================================
2019-12-22 07:06:33,153 [INFO] Total params: 22,063
2019-12-22 07:06:33,153 [INFO] Trainable params: 21,583
2019-12-22 07:06:33,153 [INFO] Non-trainable params: 480
2019-12-22 07:06:33,153 [INFO] _________________________________________________________________
2019-12-22 07:06:33,153 [INFO] Training model
…
