…
2020-01-01 05:23:04,832 [INFO] Reading complete. time_to_read=0.09 seconds
2020-01-01 05:23:04,832 [INFO] Reading HDF dataset ../Datasets/small_datasets/ids2018/y_test.h5
2020-01-01 05:23:04,919 [INFO] Reading complete. time_to_read=0.09 seconds
2020-01-01 05:23:08,795 [INFO] Initializing model
2020-01-01 05:23:09,541 [INFO] _________________________________________________________________
2020-01-01 05:23:09,541 [INFO] Layer (type)                 Output Shape              Param #   
2020-01-01 05:23:09,541 [INFO] =================================================================
2020-01-01 05:23:09,542 [INFO] dense_45 (Dense)             (None, 700)               54600     
2020-01-01 05:23:09,542 [INFO] _________________________________________________________________
2020-01-01 05:23:09,542 [INFO] batch_normalization_37 (Batc (None, 700)               2800      
2020-01-01 05:23:09,542 [INFO] _________________________________________________________________
2020-01-01 05:23:09,542 [INFO] dropout_37 (Dropout)         (None, 700)               0         
2020-01-01 05:23:09,542 [INFO] _________________________________________________________________
2020-01-01 05:23:09,542 [INFO] dense_46 (Dense)             (None, 600)               420600    
2020-01-01 05:23:09,542 [INFO] _________________________________________________________________
2020-01-01 05:23:09,542 [INFO] batch_normalization_38 (Batc (None, 600)               2400      
2020-01-01 05:23:09,542 [INFO] _________________________________________________________________
2020-01-01 05:23:09,542 [INFO] dropout_38 (Dropout)         (None, 600)               0         
2020-01-01 05:23:09,542 [INFO] _________________________________________________________________
2020-01-01 05:23:09,542 [INFO] dense_47 (Dense)             (None, 500)               300500    
2020-01-01 05:23:09,542 [INFO] _________________________________________________________________
2020-01-01 05:23:09,542 [INFO] batch_normalization_39 (Batc (None, 500)               2000      
2020-01-01 05:23:09,542 [INFO] _________________________________________________________________
2020-01-01 05:23:09,543 [INFO] dropout_39 (Dropout)         (None, 500)               0         
2020-01-01 05:23:09,543 [INFO] _________________________________________________________________
2020-01-01 05:23:09,543 [INFO] dense_48 (Dense)             (None, 400)               200400    
2020-01-01 05:23:09,543 [INFO] _________________________________________________________________
2020-01-01 05:23:09,543 [INFO] batch_normalization_40 (Batc (None, 400)               1600      
2020-01-01 05:23:09,543 [INFO] _________________________________________________________________
2020-01-01 05:23:09,543 [INFO] dropout_40 (Dropout)         (None, 400)               0         
2020-01-01 05:23:09,543 [INFO] _________________________________________________________________
2020-01-01 05:23:09,543 [INFO] dense_49 (Dense)             (None, 256)               102656    
2020-01-01 05:23:09,543 [INFO] _________________________________________________________________
2020-01-01 05:23:09,543 [INFO] batch_normalization_41 (Batc (None, 256)               1024      
2020-01-01 05:23:09,543 [INFO] _________________________________________________________________
2020-01-01 05:23:09,543 [INFO] dropout_41 (Dropout)         (None, 256)               0         
2020-01-01 05:23:09,543 [INFO] _________________________________________________________________
2020-01-01 05:23:09,543 [INFO] dense_50 (Dense)             (None, 128)               32896     
2020-01-01 05:23:09,543 [INFO] _________________________________________________________________
2020-01-01 05:23:09,543 [INFO] batch_normalization_42 (Batc (None, 128)               512       
2020-01-01 05:23:09,543 [INFO] _________________________________________________________________
2020-01-01 05:23:09,544 [INFO] dropout_42 (Dropout)         (None, 128)               0         
2020-01-01 05:23:09,544 [INFO] _________________________________________________________________
2020-01-01 05:23:09,544 [INFO] dense_51 (Dense)             (None, 64)                8256      
2020-01-01 05:23:09,544 [INFO] _________________________________________________________________
2020-01-01 05:23:09,544 [INFO] batch_normalization_43 (Batc (None, 64)                256       
2020-01-01 05:23:09,544 [INFO] _________________________________________________________________
2020-01-01 05:23:09,544 [INFO] dropout_43 (Dropout)         (None, 64)                0         
2020-01-01 05:23:09,544 [INFO] _________________________________________________________________
2020-01-01 05:23:09,544 [INFO] dense_52 (Dense)             (None, 32)                2080      
2020-01-01 05:23:09,544 [INFO] _________________________________________________________________
2020-01-01 05:23:09,544 [INFO] batch_normalization_44 (Batc (None, 32)                128       
2020-01-01 05:23:09,544 [INFO] _________________________________________________________________
2020-01-01 05:23:09,544 [INFO] dropout_44 (Dropout)         (None, 32)                0         
2020-01-01 05:23:09,544 [INFO] _________________________________________________________________
2020-01-01 05:23:09,544 [INFO] dense_53 (Dense)             (None, 16)                528       
2020-01-01 05:23:09,544 [INFO] _________________________________________________________________
2020-01-01 05:23:09,544 [INFO] batch_normalization_45 (Batc (None, 16)                64        
2020-01-01 05:23:09,545 [INFO] _________________________________________________________________
2020-01-01 05:23:09,545 [INFO] dropout_45 (Dropout)         (None, 16)                0         
2020-01-01 05:23:09,545 [INFO] _________________________________________________________________
2020-01-01 05:23:09,545 [INFO] dense_54 (Dense)             (None, 15)                255       
2020-01-01 05:23:09,545 [INFO] =================================================================
2020-01-01 05:23:09,545 [INFO] Total params: 1,133,555
2020-01-01 05:23:09,545 [INFO] Trainable params: 1,128,163
2020-01-01 05:23:09,545 [INFO] Non-trainable params: 5,392
2020-01-01 05:23:09,545 [INFO] _________________________________________________________________
2020-01-01 05:23:09,545 [INFO] Training model
…
