…
2019-12-20 17:54:25,724 [INFO] Reading complete. time_to_read=0.00 seconds
2019-12-20 17:54:25,724 [INFO] Reading HDF dataset ../Datasets/small_datasets/nsl_kdd_five_classes/y_test.h5
2019-12-20 17:54:25,728 [INFO] Reading complete. time_to_read=0.00 seconds
2019-12-20 17:54:25,928 [INFO] Initializing model
2019-12-20 17:54:26,287 [INFO] _________________________________________________________________
2019-12-20 17:54:26,287 [INFO] Layer (type)                 Output Shape              Param #   
2019-12-20 17:54:26,288 [INFO] =================================================================
2019-12-20 17:54:26,288 [INFO] dense_17 (Dense)             (None, 64)                7872      
2019-12-20 17:54:26,288 [INFO] _________________________________________________________________
2019-12-20 17:54:26,288 [INFO] batch_normalization_13 (Batc (None, 64)                256       
2019-12-20 17:54:26,288 [INFO] _________________________________________________________________
2019-12-20 17:54:26,288 [INFO] dropout_13 (Dropout)         (None, 64)                0         
2019-12-20 17:54:26,288 [INFO] _________________________________________________________________
2019-12-20 17:54:26,288 [INFO] dense_18 (Dense)             (None, 32)                2080      
2019-12-20 17:54:26,288 [INFO] _________________________________________________________________
2019-12-20 17:54:26,289 [INFO] batch_normalization_14 (Batc (None, 32)                128       
2019-12-20 17:54:26,289 [INFO] _________________________________________________________________
2019-12-20 17:54:26,289 [INFO] dropout_14 (Dropout)         (None, 32)                0         
2019-12-20 17:54:26,289 [INFO] _________________________________________________________________
2019-12-20 17:54:26,289 [INFO] dense_19 (Dense)             (None, 68)                2244      
2019-12-20 17:54:26,289 [INFO] _________________________________________________________________
2019-12-20 17:54:26,289 [INFO] batch_normalization_15 (Batc (None, 68)                272       
2019-12-20 17:54:26,289 [INFO] _________________________________________________________________
2019-12-20 17:54:26,289 [INFO] dropout_15 (Dropout)         (None, 68)                0         
2019-12-20 17:54:26,289 [INFO] _________________________________________________________________
2019-12-20 17:54:26,289 [INFO] dense_20 (Dense)             (None, 5)                 345       
2019-12-20 17:54:26,289 [INFO] =================================================================
2019-12-20 17:54:26,289 [INFO] Total params: 13,197
2019-12-20 17:54:26,290 [INFO] Trainable params: 12,869
2019-12-20 17:54:26,290 [INFO] Non-trainable params: 328
2019-12-20 17:54:26,290 [INFO] _________________________________________________________________
2019-12-20 17:54:26,290 [INFO] Training model
…
