…
2020-01-13 23:11:01,007 [INFO] Reading complete. time_to_read=0.06 seconds
2020-01-13 23:11:01,007 [INFO] Reading HDF dataset ../Datasets/full_datasets/kdd99_five_classes/y_test.h5
2020-01-13 23:11:01,026 [INFO] Reading complete. time_to_read=0.02 seconds
2020-01-13 23:11:08,358 [INFO] Initializing model
2020-01-13 23:11:08,837 [INFO] _________________________________________________________________
2020-01-13 23:11:08,837 [INFO] Layer (type)                 Output Shape              Param #   
2020-01-13 23:11:08,837 [INFO] =================================================================
2020-01-13 23:11:08,837 [INFO] dense_28 (Dense)             (None, 64)                7936      
2020-01-13 23:11:08,837 [INFO] _________________________________________________________________
2020-01-13 23:11:08,838 [INFO] batch_normalization_22 (Batc (None, 64)                256       
2020-01-13 23:11:08,838 [INFO] _________________________________________________________________
2020-01-13 23:11:08,838 [INFO] dropout_22 (Dropout)         (None, 64)                0         
2020-01-13 23:11:08,838 [INFO] _________________________________________________________________
2020-01-13 23:11:08,838 [INFO] dense_29 (Dense)             (None, 32)                2080      
2020-01-13 23:11:08,838 [INFO] _________________________________________________________________
2020-01-13 23:11:08,838 [INFO] batch_normalization_23 (Batc (None, 32)                128       
2020-01-13 23:11:08,838 [INFO] _________________________________________________________________
2020-01-13 23:11:08,838 [INFO] dropout_23 (Dropout)         (None, 32)                0         
2020-01-13 23:11:08,838 [INFO] _________________________________________________________________
2020-01-13 23:11:08,838 [INFO] dense_30 (Dense)             (None, 64)                2112      
2020-01-13 23:11:08,838 [INFO] _________________________________________________________________
2020-01-13 23:11:08,839 [INFO] batch_normalization_24 (Batc (None, 64)                256       
2020-01-13 23:11:08,839 [INFO] _________________________________________________________________
2020-01-13 23:11:08,839 [INFO] dropout_24 (Dropout)         (None, 64)                0         
2020-01-13 23:11:08,839 [INFO] _________________________________________________________________
2020-01-13 23:11:08,839 [INFO] dense_31 (Dense)             (None, 5)                 325       
2020-01-13 23:11:08,839 [INFO] =================================================================
2020-01-13 23:11:08,839 [INFO] Total params: 13,093
2020-01-13 23:11:08,839 [INFO] Trainable params: 12,773
2020-01-13 23:11:08,839 [INFO] Non-trainable params: 320
2020-01-13 23:11:08,839 [INFO] _________________________________________________________________
2020-01-13 23:11:08,839 [INFO] Training model
…
