…
2019-12-27 16:43:47,064 [INFO] Reading complete. time_to_read=0.07 seconds
2019-12-27 16:43:47,064 [INFO] Reading HDF dataset ../Datasets/full_datasets/ids2017/y_test.h5
2019-12-27 16:43:47,131 [INFO] Reading complete. time_to_read=0.07 seconds
2019-12-27 16:43:50,296 [INFO] Initializing model
2019-12-27 16:43:50,891 [INFO] _________________________________________________________________
2019-12-27 16:43:50,893 [INFO] Layer (type)                 Output Shape              Param #   
2019-12-27 16:43:50,893 [INFO] =================================================================
2019-12-27 16:43:50,893 [INFO] dense_86 (Dense)             (None, 400)               31600     
2019-12-27 16:43:50,893 [INFO] _________________________________________________________________
2019-12-27 16:43:50,894 [INFO] batch_normalization_71 (Batc (None, 400)               1600      
2019-12-27 16:43:50,894 [INFO] _________________________________________________________________
2019-12-27 16:43:50,894 [INFO] dropout_71 (Dropout)         (None, 400)               0         
2019-12-27 16:43:50,894 [INFO] _________________________________________________________________
2019-12-27 16:43:50,894 [INFO] dense_87 (Dense)             (None, 256)               102656    
2019-12-27 16:43:50,894 [INFO] _________________________________________________________________
2019-12-27 16:43:50,894 [INFO] batch_normalization_72 (Batc (None, 256)               1024      
2019-12-27 16:43:50,894 [INFO] _________________________________________________________________
2019-12-27 16:43:50,894 [INFO] dropout_72 (Dropout)         (None, 256)               0         
2019-12-27 16:43:50,894 [INFO] _________________________________________________________________
2019-12-27 16:43:50,894 [INFO] dense_88 (Dense)             (None, 128)               32896     
2019-12-27 16:43:50,894 [INFO] _________________________________________________________________
2019-12-27 16:43:50,894 [INFO] batch_normalization_73 (Batc (None, 128)               512       
2019-12-27 16:43:50,894 [INFO] _________________________________________________________________
2019-12-27 16:43:50,894 [INFO] dropout_73 (Dropout)         (None, 128)               0         
2019-12-27 16:43:50,894 [INFO] _________________________________________________________________
2019-12-27 16:43:50,895 [INFO] dense_89 (Dense)             (None, 64)                8256      
2019-12-27 16:43:50,895 [INFO] _________________________________________________________________
2019-12-27 16:43:50,895 [INFO] batch_normalization_74 (Batc (None, 64)                256       
2019-12-27 16:43:50,895 [INFO] _________________________________________________________________
2019-12-27 16:43:50,895 [INFO] dropout_74 (Dropout)         (None, 64)                0         
2019-12-27 16:43:50,895 [INFO] _________________________________________________________________
2019-12-27 16:43:50,895 [INFO] dense_90 (Dense)             (None, 32)                2080      
2019-12-27 16:43:50,895 [INFO] _________________________________________________________________
2019-12-27 16:43:50,895 [INFO] batch_normalization_75 (Batc (None, 32)                128       
2019-12-27 16:43:50,895 [INFO] _________________________________________________________________
2019-12-27 16:43:50,895 [INFO] dropout_75 (Dropout)         (None, 32)                0         
2019-12-27 16:43:50,895 [INFO] _________________________________________________________________
2019-12-27 16:43:50,895 [INFO] dense_91 (Dense)             (None, 16)                528       
2019-12-27 16:43:50,895 [INFO] _________________________________________________________________
2019-12-27 16:43:50,895 [INFO] batch_normalization_76 (Batc (None, 16)                64        
2019-12-27 16:43:50,895 [INFO] _________________________________________________________________
2019-12-27 16:43:50,895 [INFO] dropout_76 (Dropout)         (None, 16)                0         
2019-12-27 16:43:50,895 [INFO] _________________________________________________________________
2019-12-27 16:43:50,896 [INFO] dense_92 (Dense)             (None, 12)                204       
2019-12-27 16:43:50,896 [INFO] =================================================================
2019-12-27 16:43:50,896 [INFO] Total params: 181,804
2019-12-27 16:43:50,896 [INFO] Trainable params: 180,012
2019-12-27 16:43:50,896 [INFO] Non-trainable params: 1,792
2019-12-27 16:43:50,896 [INFO] _________________________________________________________________
2019-12-27 16:43:50,896 [INFO] Training model
…
