…
2019-12-22 12:24:41,735 [INFO] Reading complete. time_to_read=0.09 seconds
2019-12-22 12:24:41,735 [INFO] Reading HDF dataset ../Datasets/small_datasets/ids2018/y_test.h5
2019-12-22 12:24:41,822 [INFO] Reading complete. time_to_read=0.09 seconds
2019-12-22 12:24:45,770 [INFO] Initializing model
2019-12-22 12:24:46,165 [INFO] _________________________________________________________________
2019-12-22 12:24:46,165 [INFO] Layer (type)                 Output Shape              Param #   
2019-12-22 12:24:46,165 [INFO] =================================================================
2019-12-22 12:24:46,165 [INFO] dense_51 (Dense)             (None, 128)               9984      
2019-12-22 12:24:46,165 [INFO] _________________________________________________________________
2019-12-22 12:24:46,165 [INFO] batch_normalization_40 (Batc (None, 128)               512       
2019-12-22 12:24:46,165 [INFO] _________________________________________________________________
2019-12-22 12:24:46,165 [INFO] dropout_40 (Dropout)         (None, 128)               0         
2019-12-22 12:24:46,165 [INFO] _________________________________________________________________
2019-12-22 12:24:46,165 [INFO] dense_52 (Dense)             (None, 64)                8256      
2019-12-22 12:24:46,165 [INFO] _________________________________________________________________
2019-12-22 12:24:46,165 [INFO] batch_normalization_41 (Batc (None, 64)                256       
2019-12-22 12:24:46,165 [INFO] _________________________________________________________________
2019-12-22 12:24:46,165 [INFO] dropout_41 (Dropout)         (None, 64)                0         
2019-12-22 12:24:46,166 [INFO] _________________________________________________________________
2019-12-22 12:24:46,166 [INFO] dense_53 (Dense)             (None, 32)                2080      
2019-12-22 12:24:46,166 [INFO] _________________________________________________________________
2019-12-22 12:24:46,166 [INFO] batch_normalization_42 (Batc (None, 32)                128       
2019-12-22 12:24:46,166 [INFO] _________________________________________________________________
2019-12-22 12:24:46,166 [INFO] dropout_42 (Dropout)         (None, 32)                0         
2019-12-22 12:24:46,166 [INFO] _________________________________________________________________
2019-12-22 12:24:46,166 [INFO] dense_54 (Dense)             (None, 16)                528       
2019-12-22 12:24:46,166 [INFO] _________________________________________________________________
2019-12-22 12:24:46,166 [INFO] batch_normalization_43 (Batc (None, 16)                64        
2019-12-22 12:24:46,166 [INFO] _________________________________________________________________
2019-12-22 12:24:46,166 [INFO] dropout_43 (Dropout)         (None, 16)                0         
2019-12-22 12:24:46,166 [INFO] _________________________________________________________________
2019-12-22 12:24:46,166 [INFO] dense_55 (Dense)             (None, 15)                255       
2019-12-22 12:24:46,166 [INFO] =================================================================
2019-12-22 12:24:46,167 [INFO] Total params: 22,063
2019-12-22 12:24:46,167 [INFO] Trainable params: 21,583
2019-12-22 12:24:46,167 [INFO] Non-trainable params: 480
2019-12-22 12:24:46,167 [INFO] _________________________________________________________________
2019-12-22 12:24:46,167 [INFO] Training model
…
