…
2020-01-13 20:29:53,454 [INFO] Reading complete. time_to_read=0.08 seconds
2020-01-13 20:29:53,454 [INFO] Reading HDF dataset ../Datasets/full_datasets/ids2017/y_test.h5
2020-01-13 20:29:53,542 [INFO] Reading complete. time_to_read=0.09 seconds
2020-01-13 20:29:56,570 [INFO] Initializing model
2020-01-13 20:29:56,956 [INFO] _________________________________________________________________
2020-01-13 20:29:56,956 [INFO] Layer (type)                 Output Shape              Param #   
2020-01-13 20:29:56,956 [INFO] =================================================================
2020-01-13 20:29:56,956 [INFO] dense_13 (Dense)             (None, 256)               20224     
2020-01-13 20:29:56,956 [INFO] _________________________________________________________________
2020-01-13 20:29:56,956 [INFO] batch_normalization_10 (Batc (None, 256)               1024      
2020-01-13 20:29:56,956 [INFO] _________________________________________________________________
2020-01-13 20:29:56,956 [INFO] dropout_10 (Dropout)         (None, 256)               0         
2020-01-13 20:29:56,956 [INFO] _________________________________________________________________
2020-01-13 20:29:56,957 [INFO] dense_14 (Dense)             (None, 128)               32896     
2020-01-13 20:29:56,957 [INFO] _________________________________________________________________
2020-01-13 20:29:56,957 [INFO] batch_normalization_11 (Batc (None, 128)               512       
2020-01-13 20:29:56,957 [INFO] _________________________________________________________________
2020-01-13 20:29:56,957 [INFO] dropout_11 (Dropout)         (None, 128)               0         
2020-01-13 20:29:56,957 [INFO] _________________________________________________________________
2020-01-13 20:29:56,957 [INFO] dense_15 (Dense)             (None, 64)                8256      
2020-01-13 20:29:56,957 [INFO] _________________________________________________________________
2020-01-13 20:29:56,957 [INFO] batch_normalization_12 (Batc (None, 64)                256       
2020-01-13 20:29:56,957 [INFO] _________________________________________________________________
2020-01-13 20:29:56,957 [INFO] dropout_12 (Dropout)         (None, 64)                0         
2020-01-13 20:29:56,957 [INFO] _________________________________________________________________
2020-01-13 20:29:56,958 [INFO] dense_16 (Dense)             (None, 32)                2080      
2020-01-13 20:29:56,958 [INFO] _________________________________________________________________
2020-01-13 20:29:56,958 [INFO] batch_normalization_13 (Batc (None, 32)                128       
2020-01-13 20:29:56,958 [INFO] _________________________________________________________________
2020-01-13 20:29:56,958 [INFO] dropout_13 (Dropout)         (None, 32)                0         
2020-01-13 20:29:56,958 [INFO] _________________________________________________________________
2020-01-13 20:29:56,958 [INFO] dense_17 (Dense)             (None, 12)                396       
2020-01-13 20:29:56,958 [INFO] =================================================================
2020-01-13 20:29:56,958 [INFO] Total params: 65,772
2020-01-13 20:29:56,959 [INFO] Trainable params: 64,812
2020-01-13 20:29:56,959 [INFO] Non-trainable params: 960
2020-01-13 20:29:56,959 [INFO] _________________________________________________________________
2020-01-13 20:29:56,959 [INFO] Training model
…
