…
2019-12-31 04:02:18,775 [INFO] Reading complete. time_to_read=0.09 seconds
2019-12-31 04:02:18,775 [INFO] Reading HDF dataset ../Datasets/small_datasets/ids2018/y_test.h5
2019-12-31 04:02:18,860 [INFO] Reading complete. time_to_read=0.09 seconds
2019-12-31 04:02:22,725 [INFO] Initializing model
2019-12-31 04:02:23,352 [INFO] _________________________________________________________________
2019-12-31 04:02:23,352 [INFO] Layer (type)                 Output Shape              Param #   
2019-12-31 04:02:23,352 [INFO] =================================================================
2019-12-31 04:02:23,352 [INFO] dense_21 (Dense)             (None, 400)               31200     
2019-12-31 04:02:23,352 [INFO] _________________________________________________________________
2019-12-31 04:02:23,352 [INFO] batch_normalization_16 (Batc (None, 400)               1600      
2019-12-31 04:02:23,352 [INFO] _________________________________________________________________
2019-12-31 04:02:23,352 [INFO] dropout_16 (Dropout)         (None, 400)               0         
2019-12-31 04:02:23,352 [INFO] _________________________________________________________________
2019-12-31 04:02:23,352 [INFO] dense_22 (Dense)             (None, 256)               102656    
2019-12-31 04:02:23,352 [INFO] _________________________________________________________________
2019-12-31 04:02:23,353 [INFO] batch_normalization_17 (Batc (None, 256)               1024      
2019-12-31 04:02:23,353 [INFO] _________________________________________________________________
2019-12-31 04:02:23,353 [INFO] dropout_17 (Dropout)         (None, 256)               0         
2019-12-31 04:02:23,353 [INFO] _________________________________________________________________
2019-12-31 04:02:23,353 [INFO] dense_23 (Dense)             (None, 128)               32896     
2019-12-31 04:02:23,353 [INFO] _________________________________________________________________
2019-12-31 04:02:23,353 [INFO] batch_normalization_18 (Batc (None, 128)               512       
2019-12-31 04:02:23,353 [INFO] _________________________________________________________________
2019-12-31 04:02:23,353 [INFO] dropout_18 (Dropout)         (None, 128)               0         
2019-12-31 04:02:23,353 [INFO] _________________________________________________________________
2019-12-31 04:02:23,353 [INFO] dense_24 (Dense)             (None, 64)                8256      
2019-12-31 04:02:23,353 [INFO] _________________________________________________________________
2019-12-31 04:02:23,353 [INFO] batch_normalization_19 (Batc (None, 64)                256       
2019-12-31 04:02:23,353 [INFO] _________________________________________________________________
2019-12-31 04:02:23,353 [INFO] dropout_19 (Dropout)         (None, 64)                0         
2019-12-31 04:02:23,353 [INFO] _________________________________________________________________
2019-12-31 04:02:23,353 [INFO] dense_25 (Dense)             (None, 32)                2080      
2019-12-31 04:02:23,354 [INFO] _________________________________________________________________
2019-12-31 04:02:23,354 [INFO] batch_normalization_20 (Batc (None, 32)                128       
2019-12-31 04:02:23,354 [INFO] _________________________________________________________________
2019-12-31 04:02:23,354 [INFO] dropout_20 (Dropout)         (None, 32)                0         
2019-12-31 04:02:23,354 [INFO] _________________________________________________________________
2019-12-31 04:02:23,354 [INFO] dense_26 (Dense)             (None, 16)                528       
2019-12-31 04:02:23,354 [INFO] _________________________________________________________________
2019-12-31 04:02:23,354 [INFO] batch_normalization_21 (Batc (None, 16)                64        
2019-12-31 04:02:23,354 [INFO] _________________________________________________________________
2019-12-31 04:02:23,354 [INFO] dropout_21 (Dropout)         (None, 16)                0         
2019-12-31 04:02:23,354 [INFO] _________________________________________________________________
2019-12-31 04:02:23,354 [INFO] dense_27 (Dense)             (None, 15)                255       
2019-12-31 04:02:23,354 [INFO] =================================================================
2019-12-31 04:02:23,354 [INFO] Total params: 181,455
2019-12-31 04:02:23,354 [INFO] Trainable params: 179,663
2019-12-31 04:02:23,355 [INFO] Non-trainable params: 1,792
2019-12-31 04:02:23,355 [INFO] _________________________________________________________________
2019-12-31 04:02:23,355 [INFO] Training model
…
