…
2019-12-20 17:28:33,591 [INFO] Reading complete. time_to_read=0.00 seconds
2019-12-20 17:28:33,591 [INFO] Reading HDF dataset ../Datasets/small_datasets/nsl_kdd_five_classes/y_test.h5
2019-12-20 17:28:33,594 [INFO] Reading complete. time_to_read=0.00 seconds
2019-12-20 17:28:33,792 [INFO] Initializing model
2019-12-20 17:28:34,039 [INFO] _________________________________________________________________
2019-12-20 17:28:34,039 [INFO] Layer (type)                 Output Shape              Param #   
2019-12-20 17:28:34,039 [INFO] =================================================================
2019-12-20 17:28:34,040 [INFO] dense_5 (Dense)              (None, 64)                7872      
2019-12-20 17:28:34,040 [INFO] _________________________________________________________________
2019-12-20 17:28:34,040 [INFO] batch_normalization_4 (Batch (None, 64)                256       
2019-12-20 17:28:34,040 [INFO] _________________________________________________________________
2019-12-20 17:28:34,040 [INFO] dropout_4 (Dropout)          (None, 64)                0         
2019-12-20 17:28:34,040 [INFO] _________________________________________________________________
2019-12-20 17:28:34,040 [INFO] dense_6 (Dense)              (None, 32)                2080      
2019-12-20 17:28:34,040 [INFO] _________________________________________________________________
2019-12-20 17:28:34,040 [INFO] batch_normalization_5 (Batch (None, 32)                128       
2019-12-20 17:28:34,040 [INFO] _________________________________________________________________
2019-12-20 17:28:34,040 [INFO] dropout_5 (Dropout)          (None, 32)                0         
2019-12-20 17:28:34,040 [INFO] _________________________________________________________________
2019-12-20 17:28:34,040 [INFO] dense_7 (Dense)              (None, 65)                2145      
2019-12-20 17:28:34,041 [INFO] _________________________________________________________________
2019-12-20 17:28:34,041 [INFO] batch_normalization_6 (Batch (None, 65)                260       
2019-12-20 17:28:34,041 [INFO] _________________________________________________________________
2019-12-20 17:28:34,041 [INFO] dropout_6 (Dropout)          (None, 65)                0         
2019-12-20 17:28:34,041 [INFO] _________________________________________________________________
2019-12-20 17:28:34,041 [INFO] dense_8 (Dense)              (None, 5)                 330       
2019-12-20 17:28:34,041 [INFO] =================================================================
2019-12-20 17:28:34,041 [INFO] Total params: 13,071
2019-12-20 17:28:34,041 [INFO] Trainable params: 12,749
2019-12-20 17:28:34,041 [INFO] Non-trainable params: 322
2019-12-20 17:28:34,041 [INFO] _________________________________________________________________
2019-12-20 17:28:34,041 [INFO] Training model
…
