…
2020-01-09 03:47:26,552 [INFO] Reading complete. time_to_read=0.09 seconds
2020-01-09 03:47:26,552 [INFO] Reading HDF dataset ../Datasets/small_datasets/ids2018/y_test.h5
2020-01-09 03:47:26,638 [INFO] Reading complete. time_to_read=0.09 seconds
2020-01-09 03:47:30,531 [INFO] Initializing model
2020-01-09 03:47:31,247 [INFO] _________________________________________________________________
2020-01-09 03:47:31,247 [INFO] Layer (type)                 Output Shape              Param #   
2020-01-09 03:47:31,247 [INFO] =================================================================
2020-01-09 03:47:31,247 [INFO] dense_25 (Dense)             (None, 64)                4992      
2020-01-09 03:47:31,247 [INFO] _________________________________________________________________
2020-01-09 03:47:31,247 [INFO] batch_normalization_22 (Batc (None, 64)                256       
2020-01-09 03:47:31,247 [INFO] _________________________________________________________________
2020-01-09 03:47:31,247 [INFO] dropout_22 (Dropout)         (None, 64)                0         
2020-01-09 03:47:31,247 [INFO] _________________________________________________________________
2020-01-09 03:47:31,248 [INFO] dense_26 (Dense)             (None, 64)                4160      
2020-01-09 03:47:31,248 [INFO] _________________________________________________________________
2020-01-09 03:47:31,248 [INFO] batch_normalization_23 (Batc (None, 64)                256       
2020-01-09 03:47:31,248 [INFO] _________________________________________________________________
2020-01-09 03:47:31,248 [INFO] dropout_23 (Dropout)         (None, 64)                0         
2020-01-09 03:47:31,248 [INFO] _________________________________________________________________
2020-01-09 03:47:31,248 [INFO] dense_27 (Dense)             (None, 64)                4160      
2020-01-09 03:47:31,248 [INFO] _________________________________________________________________
2020-01-09 03:47:31,248 [INFO] batch_normalization_24 (Batc (None, 64)                256       
2020-01-09 03:47:31,248 [INFO] _________________________________________________________________
2020-01-09 03:47:31,248 [INFO] dropout_24 (Dropout)         (None, 64)                0         
2020-01-09 03:47:31,248 [INFO] _________________________________________________________________
2020-01-09 03:47:31,248 [INFO] dense_28 (Dense)             (None, 64)                4160      
2020-01-09 03:47:31,248 [INFO] _________________________________________________________________
2020-01-09 03:47:31,248 [INFO] batch_normalization_25 (Batc (None, 64)                256       
2020-01-09 03:47:31,248 [INFO] _________________________________________________________________
2020-01-09 03:47:31,248 [INFO] dropout_25 (Dropout)         (None, 64)                0         
2020-01-09 03:47:31,248 [INFO] _________________________________________________________________
2020-01-09 03:47:31,249 [INFO] dense_29 (Dense)             (None, 64)                4160      
2020-01-09 03:47:31,249 [INFO] _________________________________________________________________
2020-01-09 03:47:31,249 [INFO] batch_normalization_26 (Batc (None, 64)                256       
2020-01-09 03:47:31,249 [INFO] _________________________________________________________________
2020-01-09 03:47:31,249 [INFO] dropout_26 (Dropout)         (None, 64)                0         
2020-01-09 03:47:31,249 [INFO] _________________________________________________________________
2020-01-09 03:47:31,249 [INFO] dense_30 (Dense)             (None, 64)                4160      
2020-01-09 03:47:31,249 [INFO] _________________________________________________________________
2020-01-09 03:47:31,249 [INFO] batch_normalization_27 (Batc (None, 64)                256       
2020-01-09 03:47:31,249 [INFO] _________________________________________________________________
2020-01-09 03:47:31,249 [INFO] dropout_27 (Dropout)         (None, 64)                0         
2020-01-09 03:47:31,249 [INFO] _________________________________________________________________
2020-01-09 03:47:31,249 [INFO] dense_31 (Dense)             (None, 64)                4160      
2020-01-09 03:47:31,249 [INFO] _________________________________________________________________
2020-01-09 03:47:31,249 [INFO] batch_normalization_28 (Batc (None, 64)                256       
2020-01-09 03:47:31,249 [INFO] _________________________________________________________________
2020-01-09 03:47:31,249 [INFO] dropout_28 (Dropout)         (None, 64)                0         
2020-01-09 03:47:31,249 [INFO] _________________________________________________________________
2020-01-09 03:47:31,250 [INFO] dense_32 (Dense)             (None, 64)                4160      
2020-01-09 03:47:31,250 [INFO] _________________________________________________________________
2020-01-09 03:47:31,250 [INFO] batch_normalization_29 (Batc (None, 64)                256       
2020-01-09 03:47:31,250 [INFO] _________________________________________________________________
2020-01-09 03:47:31,250 [INFO] dropout_29 (Dropout)         (None, 64)                0         
2020-01-09 03:47:31,250 [INFO] _________________________________________________________________
2020-01-09 03:47:31,250 [INFO] dense_33 (Dense)             (None, 64)                4160      
2020-01-09 03:47:31,250 [INFO] _________________________________________________________________
2020-01-09 03:47:31,250 [INFO] batch_normalization_30 (Batc (None, 64)                256       
2020-01-09 03:47:31,250 [INFO] _________________________________________________________________
2020-01-09 03:47:31,250 [INFO] dropout_30 (Dropout)         (None, 64)                0         
2020-01-09 03:47:31,250 [INFO] _________________________________________________________________
2020-01-09 03:47:31,250 [INFO] dense_34 (Dense)             (None, 15)                975       
2020-01-09 03:47:31,250 [INFO] =================================================================
2020-01-09 03:47:31,251 [INFO] Total params: 41,551
2020-01-09 03:47:31,251 [INFO] Trainable params: 40,399
2020-01-09 03:47:31,251 [INFO] Non-trainable params: 1,152
2020-01-09 03:47:31,251 [INFO] _________________________________________________________________
2020-01-09 03:47:31,251 [INFO] Training model
…
