…
2019-12-21 09:30:23,830 [INFO] Reading complete. time_to_read=0.12 seconds
2019-12-21 09:30:23,830 [INFO] Reading HDF dataset ../Datasets/full_datasets/kdd99_five_classes/y_test.h5
2019-12-21 09:30:23,885 [INFO] Reading complete. time_to_read=0.05 seconds
2019-12-21 09:31:13,019 [INFO] Initializing model
2019-12-21 09:31:15,256 [INFO] _________________________________________________________________
2019-12-21 09:31:15,258 [INFO] Layer (type)                 Output Shape              Param #   
2019-12-21 09:31:15,259 [INFO] =================================================================
2019-12-21 09:31:15,261 [INFO] dense_30 (Dense)             (None, 64)                7936      
2019-12-21 09:31:15,262 [INFO] _________________________________________________________________
2019-12-21 09:31:15,263 [INFO] batch_normalization_24 (Batc (None, 64)                256       
2019-12-21 09:31:15,264 [INFO] _________________________________________________________________
2019-12-21 09:31:15,265 [INFO] dropout_24 (Dropout)         (None, 64)                0         
2019-12-21 09:31:15,266 [INFO] _________________________________________________________________
2019-12-21 09:31:15,267 [INFO] dense_31 (Dense)             (None, 32)                2080      
2019-12-21 09:31:15,268 [INFO] _________________________________________________________________
2019-12-21 09:31:15,269 [INFO] batch_normalization_25 (Batc (None, 32)                128       
2019-12-21 09:31:15,270 [INFO] _________________________________________________________________
2019-12-21 09:31:15,271 [INFO] dropout_25 (Dropout)         (None, 32)                0         
2019-12-21 09:31:15,272 [INFO] _________________________________________________________________
2019-12-21 09:31:15,273 [INFO] dense_32 (Dense)             (None, 65)                2145      
2019-12-21 09:31:15,274 [INFO] _________________________________________________________________
2019-12-21 09:31:15,275 [INFO] batch_normalization_26 (Batc (None, 65)                260       
2019-12-21 09:31:15,276 [INFO] _________________________________________________________________
2019-12-21 09:31:15,277 [INFO] dropout_26 (Dropout)         (None, 65)                0         
2019-12-21 09:31:15,277 [INFO] _________________________________________________________________
2019-12-21 09:31:15,278 [INFO] dense_33 (Dense)             (None, 5)                 330       
2019-12-21 09:31:15,280 [INFO] =================================================================
2019-12-21 09:31:15,281 [INFO] Total params: 13,135
2019-12-21 09:31:15,282 [INFO] Trainable params: 12,813
2019-12-21 09:31:15,283 [INFO] Non-trainable params: 322
2019-12-21 09:31:15,284 [INFO] _________________________________________________________________
2019-12-21 09:31:15,285 [INFO] Training model
…
