…
2020-05-09 16:34:28,490 [INFO] Reading HDF dataset ../Datasets/full_datasets/ids2018/y_test_9.h5
2020-05-09 16:34:28,606 [INFO] Reading complete. time_to_read=0.12 seconds
2020-05-09 16:34:36,457 [INFO] Initializing model
2020-05-09 16:34:36,631 [INFO] Model: "sequential_3"
2020-05-09 16:34:36,631 [INFO] _________________________________________________________________
2020-05-09 16:34:36,631 [INFO] Layer (type)                 Output Shape              Param #   
2020-05-09 16:34:36,631 [INFO] =================================================================
2020-05-09 16:34:36,631 [INFO] dense_9 (Dense)              (None, 128)               9984      
2020-05-09 16:34:36,631 [INFO] _________________________________________________________________
2020-05-09 16:34:36,631 [INFO] batch_normalization_7 (Batch (None, 128)               512       
2020-05-09 16:34:36,631 [INFO] _________________________________________________________________
2020-05-09 16:34:36,631 [INFO] dropout_7 (Dropout)          (None, 128)               0         
2020-05-09 16:34:36,631 [INFO] _________________________________________________________________
2020-05-09 16:34:36,631 [INFO] dense_10 (Dense)             (None, 64)                8256      
2020-05-09 16:34:36,631 [INFO] _________________________________________________________________
2020-05-09 16:34:36,631 [INFO] batch_normalization_8 (Batch (None, 64)                256       
2020-05-09 16:34:36,631 [INFO] _________________________________________________________________
2020-05-09 16:34:36,631 [INFO] dropout_8 (Dropout)          (None, 64)                0         
2020-05-09 16:34:36,631 [INFO] _________________________________________________________________
2020-05-09 16:34:36,631 [INFO] dense_11 (Dense)             (None, 32)                2080      
2020-05-09 16:34:36,631 [INFO] _________________________________________________________________
2020-05-09 16:34:36,631 [INFO] batch_normalization_9 (Batch (None, 32)                128       
2020-05-09 16:34:36,632 [INFO] _________________________________________________________________
2020-05-09 16:34:36,632 [INFO] dropout_9 (Dropout)          (None, 32)                0         
2020-05-09 16:34:36,632 [INFO] _________________________________________________________________
2020-05-09 16:34:36,632 [INFO] dense_12 (Dense)             (None, 64)                2112      
2020-05-09 16:34:36,632 [INFO] _________________________________________________________________
2020-05-09 16:34:36,632 [INFO] batch_normalization_10 (Batc (None, 64)                256       
2020-05-09 16:34:36,632 [INFO] _________________________________________________________________
2020-05-09 16:34:36,632 [INFO] dropout_10 (Dropout)         (None, 64)                0         
2020-05-09 16:34:36,632 [INFO] _________________________________________________________________
2020-05-09 16:34:36,632 [INFO] dense_13 (Dense)             (None, 128)               8320      
2020-05-09 16:34:36,632 [INFO] _________________________________________________________________
2020-05-09 16:34:36,632 [INFO] batch_normalization_11 (Batc (None, 128)               512       
2020-05-09 16:34:36,632 [INFO] _________________________________________________________________
2020-05-09 16:34:36,632 [INFO] dropout_11 (Dropout)         (None, 128)               0         
2020-05-09 16:34:36,632 [INFO] _________________________________________________________________
2020-05-09 16:34:36,632 [INFO] dense_14 (Dense)             (None, 77)                9933      
2020-05-09 16:34:36,632 [INFO] =================================================================
2020-05-09 16:34:36,632 [INFO] Total params: 42,349
2020-05-09 16:34:36,632 [INFO] Trainable params: 41,517
2020-05-09 16:34:36,632 [INFO] Non-trainable params: 832
2020-05-09 16:34:36,632 [INFO] _________________________________________________________________
2020-05-09 16:34:36,669 [INFO] Model: "sequential_4"
2020-05-09 16:34:36,669 [INFO] _________________________________________________________________
2020-05-09 16:34:36,669 [INFO] Layer (type)                 Output Shape              Param #   
2020-05-09 16:34:36,669 [INFO] =================================================================
2020-05-09 16:34:36,669 [INFO] dense_15 (Dense)             (None, 64)                2112      
2020-05-09 16:34:36,669 [INFO] _________________________________________________________________
2020-05-09 16:34:36,669 [INFO] batch_normalization_12 (Batc (None, 64)                256       
2020-05-09 16:34:36,669 [INFO] _________________________________________________________________
2020-05-09 16:34:36,669 [INFO] dropout_12 (Dropout)         (None, 64)                0         
2020-05-09 16:34:36,669 [INFO] _________________________________________________________________
2020-05-09 16:34:36,669 [INFO] dense_16 (Dense)             (None, 15)                975       
2020-05-09 16:34:36,669 [INFO] =================================================================
2020-05-09 16:34:36,669 [INFO] Total params: 3,343
2020-05-09 16:34:36,669 [INFO] Trainable params: 3,215
2020-05-09 16:34:36,669 [INFO] Non-trainable params: 128
2020-05-09 16:34:36,669 [INFO] _________________________________________________________________
2020-05-09 16:34:36,669 [INFO] Training model
…
