…
2020-01-08 23:31:07,486 [INFO] Reading complete. time_to_read=0.09 seconds
2020-01-08 23:31:07,486 [INFO] Reading HDF dataset ../Datasets/small_datasets/ids2018/y_test.h5
2020-01-08 23:31:07,572 [INFO] Reading complete. time_to_read=0.09 seconds
2020-01-08 23:31:11,448 [INFO] Initializing model
2020-01-08 23:31:12,198 [INFO] _________________________________________________________________
2020-01-08 23:31:12,198 [INFO] Layer (type)                 Output Shape              Param #   
2020-01-08 23:31:12,198 [INFO] =================================================================
2020-01-08 23:31:12,198 [INFO] dense_16 (Dense)             (None, 64)                4992      
2020-01-08 23:31:12,198 [INFO] _________________________________________________________________
2020-01-08 23:31:12,198 [INFO] batch_normalization_14 (Batc (None, 64)                256       
2020-01-08 23:31:12,198 [INFO] _________________________________________________________________
2020-01-08 23:31:12,198 [INFO] dropout_14 (Dropout)         (None, 64)                0         
2020-01-08 23:31:12,198 [INFO] _________________________________________________________________
2020-01-08 23:31:12,198 [INFO] dense_17 (Dense)             (None, 64)                4160      
2020-01-08 23:31:12,198 [INFO] _________________________________________________________________
2020-01-08 23:31:12,199 [INFO] batch_normalization_15 (Batc (None, 64)                256       
2020-01-08 23:31:12,199 [INFO] _________________________________________________________________
2020-01-08 23:31:12,199 [INFO] dropout_15 (Dropout)         (None, 64)                0         
2020-01-08 23:31:12,199 [INFO] _________________________________________________________________
2020-01-08 23:31:12,199 [INFO] dense_18 (Dense)             (None, 64)                4160      
2020-01-08 23:31:12,199 [INFO] _________________________________________________________________
2020-01-08 23:31:12,199 [INFO] batch_normalization_16 (Batc (None, 64)                256       
2020-01-08 23:31:12,199 [INFO] _________________________________________________________________
2020-01-08 23:31:12,199 [INFO] dropout_16 (Dropout)         (None, 64)                0         
2020-01-08 23:31:12,199 [INFO] _________________________________________________________________
2020-01-08 23:31:12,199 [INFO] dense_19 (Dense)             (None, 64)                4160      
2020-01-08 23:31:12,199 [INFO] _________________________________________________________________
2020-01-08 23:31:12,199 [INFO] batch_normalization_17 (Batc (None, 64)                256       
2020-01-08 23:31:12,199 [INFO] _________________________________________________________________
2020-01-08 23:31:12,199 [INFO] dropout_17 (Dropout)         (None, 64)                0         
2020-01-08 23:31:12,199 [INFO] _________________________________________________________________
2020-01-08 23:31:12,199 [INFO] dense_20 (Dense)             (None, 64)                4160      
2020-01-08 23:31:12,199 [INFO] _________________________________________________________________
2020-01-08 23:31:12,200 [INFO] batch_normalization_18 (Batc (None, 64)                256       
2020-01-08 23:31:12,200 [INFO] _________________________________________________________________
2020-01-08 23:31:12,200 [INFO] dropout_18 (Dropout)         (None, 64)                0         
2020-01-08 23:31:12,200 [INFO] _________________________________________________________________
2020-01-08 23:31:12,200 [INFO] dense_21 (Dense)             (None, 64)                4160      
2020-01-08 23:31:12,200 [INFO] _________________________________________________________________
2020-01-08 23:31:12,200 [INFO] batch_normalization_19 (Batc (None, 64)                256       
2020-01-08 23:31:12,200 [INFO] _________________________________________________________________
2020-01-08 23:31:12,200 [INFO] dropout_19 (Dropout)         (None, 64)                0         
2020-01-08 23:31:12,200 [INFO] _________________________________________________________________
2020-01-08 23:31:12,200 [INFO] dense_22 (Dense)             (None, 64)                4160      
2020-01-08 23:31:12,200 [INFO] _________________________________________________________________
2020-01-08 23:31:12,200 [INFO] batch_normalization_20 (Batc (None, 64)                256       
2020-01-08 23:31:12,200 [INFO] _________________________________________________________________
2020-01-08 23:31:12,200 [INFO] dropout_20 (Dropout)         (None, 64)                0         
2020-01-08 23:31:12,200 [INFO] _________________________________________________________________
2020-01-08 23:31:12,200 [INFO] dense_23 (Dense)             (None, 64)                4160      
2020-01-08 23:31:12,200 [INFO] _________________________________________________________________
2020-01-08 23:31:12,201 [INFO] batch_normalization_21 (Batc (None, 64)                256       
2020-01-08 23:31:12,201 [INFO] _________________________________________________________________
2020-01-08 23:31:12,201 [INFO] dropout_21 (Dropout)         (None, 64)                0         
2020-01-08 23:31:12,201 [INFO] _________________________________________________________________
2020-01-08 23:31:12,201 [INFO] dense_24 (Dense)             (None, 15)                975       
2020-01-08 23:31:12,201 [INFO] =================================================================
2020-01-08 23:31:12,201 [INFO] Total params: 37,135
2020-01-08 23:31:12,201 [INFO] Trainable params: 36,111
2020-01-08 23:31:12,201 [INFO] Non-trainable params: 1,024
2020-01-08 23:31:12,201 [INFO] _________________________________________________________________
2020-01-08 23:31:12,201 [INFO] Training model
…
