…
2019-12-24 01:30:42,699 [INFO] Reading complete. time_to_read=0.00 seconds
2019-12-24 01:30:42,699 [INFO] Reading HDF dataset ../Datasets/small_datasets/nsl_kdd_five_classes/y_test.h5
2019-12-24 01:30:42,703 [INFO] Reading complete. time_to_read=0.00 seconds
2019-12-24 01:30:42,821 [INFO] Initializing model
2019-12-24 01:30:43,323 [INFO] _________________________________________________________________
2019-12-24 01:30:43,323 [INFO] Layer (type)                 Output Shape              Param #   
2019-12-24 01:30:43,323 [INFO] =================================================================
2019-12-24 01:30:43,323 [INFO] dense_37 (Dense)             (None, 128)               15744     
2019-12-24 01:30:43,323 [INFO] _________________________________________________________________
2019-12-24 01:30:43,323 [INFO] batch_normalization_23 (Batc (None, 128)               512       
2019-12-24 01:30:43,324 [INFO] _________________________________________________________________
2019-12-24 01:30:43,324 [INFO] dropout_23 (Dropout)         (None, 128)               0         
2019-12-24 01:30:43,324 [INFO] _________________________________________________________________
2019-12-24 01:30:43,324 [INFO] dense_38 (Dense)             (None, 64)                8256      
2019-12-24 01:30:43,324 [INFO] _________________________________________________________________
2019-12-24 01:30:43,324 [INFO] batch_normalization_24 (Batc (None, 64)                256       
2019-12-24 01:30:43,324 [INFO] _________________________________________________________________
2019-12-24 01:30:43,324 [INFO] dropout_24 (Dropout)         (None, 64)                0         
2019-12-24 01:30:43,324 [INFO] _________________________________________________________________
2019-12-24 01:30:43,324 [INFO] dense_39 (Dense)             (None, 32)                2080      
2019-12-24 01:30:43,324 [INFO] _________________________________________________________________
2019-12-24 01:30:43,325 [INFO] batch_normalization_25 (Batc (None, 32)                128       
2019-12-24 01:30:43,325 [INFO] _________________________________________________________________
2019-12-24 01:30:43,325 [INFO] dropout_25 (Dropout)         (None, 32)                0         
2019-12-24 01:30:43,325 [INFO] _________________________________________________________________
2019-12-24 01:30:43,325 [INFO] dense_40 (Dense)             (None, 64)                2112      
2019-12-24 01:30:43,325 [INFO] _________________________________________________________________
2019-12-24 01:30:43,325 [INFO] batch_normalization_26 (Batc (None, 64)                256       
2019-12-24 01:30:43,325 [INFO] _________________________________________________________________
2019-12-24 01:30:43,325 [INFO] dropout_26 (Dropout)         (None, 64)                0         
2019-12-24 01:30:43,325 [INFO] _________________________________________________________________
2019-12-24 01:30:43,325 [INFO] dense_41 (Dense)             (None, 128)               8320      
2019-12-24 01:30:43,325 [INFO] _________________________________________________________________
2019-12-24 01:30:43,325 [INFO] batch_normalization_27 (Batc (None, 128)               512       
2019-12-24 01:30:43,326 [INFO] _________________________________________________________________
2019-12-24 01:30:43,326 [INFO] dropout_27 (Dropout)         (None, 128)               0         
2019-12-24 01:30:43,326 [INFO] _________________________________________________________________
2019-12-24 01:30:43,326 [INFO] dense_42 (Dense)             (None, 122)               15738     
2019-12-24 01:30:43,326 [INFO] =================================================================
2019-12-24 01:30:43,326 [INFO] Total params: 53,914
2019-12-24 01:30:43,326 [INFO] Trainable params: 53,082
2019-12-24 01:30:43,326 [INFO] Non-trainable params: 832
2019-12-24 01:30:43,326 [INFO] _________________________________________________________________
2019-12-24 01:30:43,454 [INFO] _________________________________________________________________
2019-12-24 01:30:43,455 [INFO] Layer (type)                 Output Shape              Param #   
2019-12-24 01:30:43,455 [INFO] =================================================================
2019-12-24 01:30:43,455 [INFO] dense_43 (Dense)             (None, 64)                2112      
2019-12-24 01:30:43,455 [INFO] _________________________________________________________________
2019-12-24 01:30:43,455 [INFO] batch_normalization_28 (Batc (None, 64)                256       
2019-12-24 01:30:43,455 [INFO] _________________________________________________________________
2019-12-24 01:30:43,455 [INFO] dropout_28 (Dropout)         (None, 64)                0         
2019-12-24 01:30:43,455 [INFO] _________________________________________________________________
2019-12-24 01:30:43,455 [INFO] dense_44 (Dense)             (None, 5)                 325       
2019-12-24 01:30:43,455 [INFO] =================================================================
2019-12-24 01:30:43,456 [INFO] Total params: 2,693
2019-12-24 01:30:43,456 [INFO] Trainable params: 2,565
2019-12-24 01:30:43,456 [INFO] Non-trainable params: 128
2019-12-24 01:30:43,456 [INFO] _________________________________________________________________
2019-12-24 01:30:43,456 [INFO] Training model
…
