…
2019-12-24 11:12:17,093 [INFO] Pretraining Deep Belief Network
2019-12-24 11:13:16,997 [INFO] Pretraining Complete
2019-12-24 11:13:16,997 [INFO] Getting pretrained weights
2019-12-24 11:13:16,997 [INFO] Creating and initializing feed forward neural network
2019-12-24 11:13:17,372 [INFO] _________________________________________________________________
2019-12-24 11:13:17,372 [INFO] Layer (type)                 Output Shape              Param #   
2019-12-24 11:13:17,372 [INFO] =================================================================
2019-12-24 11:13:17,372 [INFO] dense_17 (Dense)             (None, 128)               15744     
2019-12-24 11:13:17,372 [INFO] _________________________________________________________________
2019-12-24 11:13:17,372 [INFO] batch_normalization_13 (Batc (None, 128)               512       
2019-12-24 11:13:17,373 [INFO] _________________________________________________________________
2019-12-24 11:13:17,373 [INFO] dropout_13 (Dropout)         (None, 128)               0         
2019-12-24 11:13:17,373 [INFO] _________________________________________________________________
2019-12-24 11:13:17,373 [INFO] dense_18 (Dense)             (None, 64)                8256      
2019-12-24 11:13:17,373 [INFO] _________________________________________________________________
2019-12-24 11:13:17,373 [INFO] batch_normalization_14 (Batc (None, 64)                256       
2019-12-24 11:13:17,373 [INFO] _________________________________________________________________
2019-12-24 11:13:17,373 [INFO] dropout_14 (Dropout)         (None, 64)                0         
2019-12-24 11:13:17,373 [INFO] _________________________________________________________________
2019-12-24 11:13:17,373 [INFO] dense_19 (Dense)             (None, 32)                2080      
2019-12-24 11:13:17,373 [INFO] _________________________________________________________________
2019-12-24 11:13:17,374 [INFO] batch_normalization_15 (Batc (None, 32)                128       
2019-12-24 11:13:17,374 [INFO] _________________________________________________________________
2019-12-24 11:13:17,374 [INFO] dropout_15 (Dropout)         (None, 32)                0         
2019-12-24 11:13:17,374 [INFO] _________________________________________________________________
2019-12-24 11:13:17,374 [INFO] dense_20 (Dense)             (None, 5)                 165       
2019-12-24 11:13:17,374 [INFO] =================================================================
2019-12-24 11:13:17,374 [INFO] Total params: 27,141
2019-12-24 11:13:17,374 [INFO] Trainable params: 26,693
2019-12-24 11:13:17,374 [INFO] Non-trainable params: 448
2019-12-24 11:13:17,374 [INFO] _________________________________________________________________
2019-12-24 11:13:18,729 [INFO] Fine-tuning final neural network
…
