…
2019-12-27 00:01:26,136 [INFO] Reading complete. time_to_read=0.00 seconds
2019-12-27 00:01:26,136 [INFO] Reading HDF dataset ../Datasets/small_datasets/nsl_kdd_five_classes/y_test.h5
2019-12-27 00:01:26,139 [INFO] Reading complete. time_to_read=0.00 seconds
2019-12-27 00:01:26,326 [INFO] Initializing model
2019-12-27 00:01:26,647 [INFO] _________________________________________________________________
2019-12-27 00:01:26,647 [INFO] Layer (type)                 Output Shape              Param #   
2019-12-27 00:01:26,647 [INFO] =================================================================
2019-12-27 00:01:26,647 [INFO] dense_6 (Dense)              (None, 64)                7872      
2019-12-27 00:01:26,647 [INFO] _________________________________________________________________
2019-12-27 00:01:26,648 [INFO] batch_normalization_4 (Batch (None, 64)                256       
2019-12-27 00:01:26,648 [INFO] _________________________________________________________________
2019-12-27 00:01:26,648 [INFO] dropout_4 (Dropout)          (None, 64)                0         
2019-12-27 00:01:26,648 [INFO] _________________________________________________________________
2019-12-27 00:01:26,648 [INFO] dense_7 (Dense)              (None, 32)                2080      
2019-12-27 00:01:26,648 [INFO] _________________________________________________________________
2019-12-27 00:01:26,648 [INFO] batch_normalization_5 (Batch (None, 32)                128       
2019-12-27 00:01:26,648 [INFO] _________________________________________________________________
2019-12-27 00:01:26,648 [INFO] dropout_5 (Dropout)          (None, 32)                0         
2019-12-27 00:01:26,648 [INFO] _________________________________________________________________
2019-12-27 00:01:26,648 [INFO] dense_8 (Dense)              (None, 16)                528       
2019-12-27 00:01:26,648 [INFO] _________________________________________________________________
2019-12-27 00:01:26,648 [INFO] batch_normalization_6 (Batch (None, 16)                64        
2019-12-27 00:01:26,648 [INFO] _________________________________________________________________
2019-12-27 00:01:26,649 [INFO] dropout_6 (Dropout)          (None, 16)                0         
2019-12-27 00:01:26,649 [INFO] _________________________________________________________________
2019-12-27 00:01:26,649 [INFO] dense_9 (Dense)              (None, 5)                 85        
2019-12-27 00:01:26,649 [INFO] =================================================================
2019-12-27 00:01:26,649 [INFO] Total params: 11,013
2019-12-27 00:01:26,649 [INFO] Trainable params: 10,789
2019-12-27 00:01:26,649 [INFO] Non-trainable params: 224
2019-12-27 00:01:26,649 [INFO] _________________________________________________________________
2019-12-27 00:01:26,649 [INFO] Training model
…
