…
2019-12-31 14:52:36,719 [INFO] Pretraining Deep Belief Network
2019-12-31 15:38:23,938 [INFO] Pretraining Complete
2019-12-31 15:38:23,938 [INFO] Getting pretrained weights
2019-12-31 15:38:23,938 [INFO] Creating and initializing feed forward neural network
2019-12-31 15:38:24,229 [INFO] _________________________________________________________________
2019-12-31 15:38:24,229 [INFO] Layer (type)                 Output Shape              Param #   
2019-12-31 15:38:24,229 [INFO] =================================================================
2019-12-31 15:38:24,230 [INFO] dense_13 (Dense)             (None, 128)               15872     
2019-12-31 15:38:24,230 [INFO] _________________________________________________________________
2019-12-31 15:38:24,230 [INFO] batch_normalization_10 (Batc (None, 128)               512       
2019-12-31 15:38:24,230 [INFO] _________________________________________________________________
2019-12-31 15:38:24,230 [INFO] dropout_10 (Dropout)         (None, 128)               0         
2019-12-31 15:38:24,230 [INFO] _________________________________________________________________
2019-12-31 15:38:24,230 [INFO] dense_14 (Dense)             (None, 64)                8256      
2019-12-31 15:38:24,230 [INFO] _________________________________________________________________
2019-12-31 15:38:24,230 [INFO] batch_normalization_11 (Batc (None, 64)                256       
2019-12-31 15:38:24,230 [INFO] _________________________________________________________________
2019-12-31 15:38:24,230 [INFO] dropout_11 (Dropout)         (None, 64)                0         
2019-12-31 15:38:24,231 [INFO] _________________________________________________________________
2019-12-31 15:38:24,231 [INFO] dense_15 (Dense)             (None, 35)                2275      
2019-12-31 15:38:24,231 [INFO] _________________________________________________________________
2019-12-31 15:38:24,231 [INFO] batch_normalization_12 (Batc (None, 35)                140       
2019-12-31 15:38:24,231 [INFO] _________________________________________________________________
2019-12-31 15:38:24,231 [INFO] dropout_12 (Dropout)         (None, 35)                0         
2019-12-31 15:38:24,231 [INFO] _________________________________________________________________
2019-12-31 15:38:24,231 [INFO] dense_16 (Dense)             (None, 5)                 180       
2019-12-31 15:38:24,231 [INFO] =================================================================
2019-12-31 15:38:24,232 [INFO] Total params: 27,491
2019-12-31 15:38:24,232 [INFO] Trainable params: 27,037
2019-12-31 15:38:24,232 [INFO] Non-trainable params: 454
2019-12-31 15:38:24,232 [INFO] _________________________________________________________________
2019-12-31 15:38:25,196 [INFO] Fine-tuning final neural network
…
