…
2020-01-09 02:46:11,315 [INFO] Reading complete. time_to_read=0.10 seconds
2020-01-09 02:46:11,316 [INFO] Reading HDF dataset ../Datasets/small_datasets/ids2018/y_test.h5
2020-01-09 02:46:11,419 [INFO] Reading complete. time_to_read=0.10 seconds
2020-01-09 02:46:14,794 [INFO] Initializing model
2020-01-09 02:46:15,269 [INFO] _________________________________________________________________
2020-01-09 02:46:15,270 [INFO] Layer (type)                 Output Shape              Param #   
2020-01-09 02:46:15,270 [INFO] =================================================================
2020-01-09 02:46:15,270 [INFO] dense_15 (Dense)             (None, 64)                4992      
2020-01-09 02:46:15,270 [INFO] _________________________________________________________________
2020-01-09 02:46:15,270 [INFO] batch_normalization_11 (Batc (None, 64)                256       
2020-01-09 02:46:15,270 [INFO] _________________________________________________________________
2020-01-09 02:46:15,270 [INFO] dropout_11 (Dropout)         (None, 64)                0         
2020-01-09 02:46:15,270 [INFO] _________________________________________________________________
2020-01-09 02:46:15,270 [INFO] dense_16 (Dense)             (None, 64)                4160      
2020-01-09 02:46:15,270 [INFO] _________________________________________________________________
2020-01-09 02:46:15,271 [INFO] batch_normalization_12 (Batc (None, 64)                256       
2020-01-09 02:46:15,271 [INFO] _________________________________________________________________
2020-01-09 02:46:15,271 [INFO] dropout_12 (Dropout)         (None, 64)                0         
2020-01-09 02:46:15,271 [INFO] _________________________________________________________________
2020-01-09 02:46:15,271 [INFO] dense_17 (Dense)             (None, 64)                4160      
2020-01-09 02:46:15,271 [INFO] _________________________________________________________________
2020-01-09 02:46:15,271 [INFO] batch_normalization_13 (Batc (None, 64)                256       
2020-01-09 02:46:15,271 [INFO] _________________________________________________________________
2020-01-09 02:46:15,271 [INFO] dropout_13 (Dropout)         (None, 64)                0         
2020-01-09 02:46:15,271 [INFO] _________________________________________________________________
2020-01-09 02:46:15,271 [INFO] dense_18 (Dense)             (None, 64)                4160      
2020-01-09 02:46:15,271 [INFO] _________________________________________________________________
2020-01-09 02:46:15,272 [INFO] batch_normalization_14 (Batc (None, 64)                256       
2020-01-09 02:46:15,272 [INFO] _________________________________________________________________
2020-01-09 02:46:15,272 [INFO] dropout_14 (Dropout)         (None, 64)                0         
2020-01-09 02:46:15,272 [INFO] _________________________________________________________________
2020-01-09 02:46:15,272 [INFO] dense_19 (Dense)             (None, 64)                4160      
2020-01-09 02:46:15,272 [INFO] _________________________________________________________________
2020-01-09 02:46:15,272 [INFO] batch_normalization_15 (Batc (None, 64)                256       
2020-01-09 02:46:15,272 [INFO] _________________________________________________________________
2020-01-09 02:46:15,272 [INFO] dropout_15 (Dropout)         (None, 64)                0         
2020-01-09 02:46:15,272 [INFO] _________________________________________________________________
2020-01-09 02:46:15,272 [INFO] dense_20 (Dense)             (None, 15)                975       
2020-01-09 02:46:15,272 [INFO] =================================================================
2020-01-09 02:46:15,273 [INFO] Total params: 23,887
2020-01-09 02:46:15,273 [INFO] Trainable params: 23,247
2020-01-09 02:46:15,273 [INFO] Non-trainable params: 640
2020-01-09 02:46:15,273 [INFO] _________________________________________________________________
2020-01-09 02:46:15,273 [INFO] Training model
…
