…
2020-01-08 22:04:40,509 [INFO] Reading complete. time_to_read=0.07 seconds
2020-01-08 22:04:40,509 [INFO] Reading HDF dataset ../Datasets/full_datasets/ids2017/y_test.h5
2020-01-08 22:04:40,575 [INFO] Reading complete. time_to_read=0.07 seconds
2020-01-08 22:04:43,779 [INFO] Initializing model
2020-01-08 22:04:44,417 [INFO] _________________________________________________________________
2020-01-08 22:04:44,417 [INFO] Layer (type)                 Output Shape              Param #   
2020-01-08 22:04:44,417 [INFO] =================================================================
2020-01-08 22:04:44,417 [INFO] dense_16 (Dense)             (None, 64)                5056      
2020-01-08 22:04:44,417 [INFO] _________________________________________________________________
2020-01-08 22:04:44,418 [INFO] batch_normalization_14 (Batc (None, 64)                256       
2020-01-08 22:04:44,418 [INFO] _________________________________________________________________
2020-01-08 22:04:44,418 [INFO] dropout_14 (Dropout)         (None, 64)                0         
2020-01-08 22:04:44,418 [INFO] _________________________________________________________________
2020-01-08 22:04:44,418 [INFO] dense_17 (Dense)             (None, 64)                4160      
2020-01-08 22:04:44,418 [INFO] _________________________________________________________________
2020-01-08 22:04:44,418 [INFO] batch_normalization_15 (Batc (None, 64)                256       
2020-01-08 22:04:44,418 [INFO] _________________________________________________________________
2020-01-08 22:04:44,418 [INFO] dropout_15 (Dropout)         (None, 64)                0         
2020-01-08 22:04:44,418 [INFO] _________________________________________________________________
2020-01-08 22:04:44,418 [INFO] dense_18 (Dense)             (None, 64)                4160      
2020-01-08 22:04:44,418 [INFO] _________________________________________________________________
2020-01-08 22:04:44,418 [INFO] batch_normalization_16 (Batc (None, 64)                256       
2020-01-08 22:04:44,418 [INFO] _________________________________________________________________
2020-01-08 22:04:44,418 [INFO] dropout_16 (Dropout)         (None, 64)                0         
2020-01-08 22:04:44,418 [INFO] _________________________________________________________________
2020-01-08 22:04:44,419 [INFO] dense_19 (Dense)             (None, 64)                4160      
2020-01-08 22:04:44,419 [INFO] _________________________________________________________________
2020-01-08 22:04:44,419 [INFO] batch_normalization_17 (Batc (None, 64)                256       
2020-01-08 22:04:44,419 [INFO] _________________________________________________________________
2020-01-08 22:04:44,419 [INFO] dropout_17 (Dropout)         (None, 64)                0         
2020-01-08 22:04:44,419 [INFO] _________________________________________________________________
2020-01-08 22:04:44,419 [INFO] dense_20 (Dense)             (None, 64)                4160      
2020-01-08 22:04:44,419 [INFO] _________________________________________________________________
2020-01-08 22:04:44,419 [INFO] batch_normalization_18 (Batc (None, 64)                256       
2020-01-08 22:04:44,419 [INFO] _________________________________________________________________
2020-01-08 22:04:44,419 [INFO] dropout_18 (Dropout)         (None, 64)                0         
2020-01-08 22:04:44,419 [INFO] _________________________________________________________________
2020-01-08 22:04:44,419 [INFO] dense_21 (Dense)             (None, 64)                4160      
2020-01-08 22:04:44,419 [INFO] _________________________________________________________________
2020-01-08 22:04:44,419 [INFO] batch_normalization_19 (Batc (None, 64)                256       
2020-01-08 22:04:44,419 [INFO] _________________________________________________________________
2020-01-08 22:04:44,419 [INFO] dropout_19 (Dropout)         (None, 64)                0         
2020-01-08 22:04:44,419 [INFO] _________________________________________________________________
2020-01-08 22:04:44,420 [INFO] dense_22 (Dense)             (None, 64)                4160      
2020-01-08 22:04:44,420 [INFO] _________________________________________________________________
2020-01-08 22:04:44,420 [INFO] batch_normalization_20 (Batc (None, 64)                256       
2020-01-08 22:04:44,420 [INFO] _________________________________________________________________
2020-01-08 22:04:44,420 [INFO] dropout_20 (Dropout)         (None, 64)                0         
2020-01-08 22:04:44,420 [INFO] _________________________________________________________________
2020-01-08 22:04:44,420 [INFO] dense_23 (Dense)             (None, 64)                4160      
2020-01-08 22:04:44,420 [INFO] _________________________________________________________________
2020-01-08 22:04:44,420 [INFO] batch_normalization_21 (Batc (None, 64)                256       
2020-01-08 22:04:44,420 [INFO] _________________________________________________________________
2020-01-08 22:04:44,420 [INFO] dropout_21 (Dropout)         (None, 64)                0         
2020-01-08 22:04:44,420 [INFO] _________________________________________________________________
2020-01-08 22:04:44,420 [INFO] dense_24 (Dense)             (None, 12)                780       
2020-01-08 22:04:44,420 [INFO] =================================================================
2020-01-08 22:04:44,421 [INFO] Total params: 37,004
2020-01-08 22:04:44,421 [INFO] Trainable params: 35,980
2020-01-08 22:04:44,421 [INFO] Non-trainable params: 1,024
2020-01-08 22:04:44,421 [INFO] _________________________________________________________________
2020-01-08 22:04:44,421 [INFO] Training model
…
