…
2020-01-08 14:10:37,137 [INFO] Reading complete. time_to_read=0.00 seconds
2020-01-08 14:10:37,137 [INFO] Reading HDF dataset ../Datasets/small_datasets/nsl_kdd_five_classes/y_test.h5
2020-01-08 14:10:37,141 [INFO] Reading complete. time_to_read=0.00 seconds
2020-01-08 14:10:37,331 [INFO] Initializing model
2020-01-08 14:10:37,660 [INFO] _________________________________________________________________
2020-01-08 14:10:37,660 [INFO] Layer (type)                 Output Shape              Param #   
2020-01-08 14:10:37,660 [INFO] =================================================================
2020-01-08 14:10:37,660 [INFO] dense_10 (Dense)             (None, 64)                7872      
2020-01-08 14:10:37,660 [INFO] _________________________________________________________________
2020-01-08 14:10:37,660 [INFO] batch_normalization_7 (Batch (None, 64)                256       
2020-01-08 14:10:37,660 [INFO] _________________________________________________________________
2020-01-08 14:10:37,660 [INFO] dropout_7 (Dropout)          (None, 64)                0         
2020-01-08 14:10:37,660 [INFO] _________________________________________________________________
2020-01-08 14:10:37,660 [INFO] dense_11 (Dense)             (None, 64)                4160      
2020-01-08 14:10:37,660 [INFO] _________________________________________________________________
2020-01-08 14:10:37,661 [INFO] batch_normalization_8 (Batch (None, 64)                256       
2020-01-08 14:10:37,661 [INFO] _________________________________________________________________
2020-01-08 14:10:37,661 [INFO] dropout_8 (Dropout)          (None, 64)                0         
2020-01-08 14:10:37,661 [INFO] _________________________________________________________________
2020-01-08 14:10:37,661 [INFO] dense_12 (Dense)             (None, 64)                4160      
2020-01-08 14:10:37,661 [INFO] _________________________________________________________________
2020-01-08 14:10:37,661 [INFO] batch_normalization_9 (Batch (None, 64)                256       
2020-01-08 14:10:37,661 [INFO] _________________________________________________________________
2020-01-08 14:10:37,661 [INFO] dropout_9 (Dropout)          (None, 64)                0         
2020-01-08 14:10:37,661 [INFO] _________________________________________________________________
2020-01-08 14:10:37,661 [INFO] dense_13 (Dense)             (None, 64)                4160      
2020-01-08 14:10:37,661 [INFO] _________________________________________________________________
2020-01-08 14:10:37,661 [INFO] batch_normalization_10 (Batc (None, 64)                256       
2020-01-08 14:10:37,661 [INFO] _________________________________________________________________
2020-01-08 14:10:37,661 [INFO] dropout_10 (Dropout)         (None, 64)                0         
2020-01-08 14:10:37,661 [INFO] _________________________________________________________________
2020-01-08 14:10:37,661 [INFO] dense_14 (Dense)             (None, 5)                 325       
2020-01-08 14:10:37,661 [INFO] =================================================================
2020-01-08 14:10:37,662 [INFO] Total params: 21,701
2020-01-08 14:10:37,662 [INFO] Trainable params: 21,189
2020-01-08 14:10:37,662 [INFO] Non-trainable params: 512
2020-01-08 14:10:37,662 [INFO] _________________________________________________________________
2020-01-08 14:10:37,662 [INFO] Training model
…
