…
2019-12-27 00:56:30,708 [INFO] Reading complete. time_to_read=0.00 seconds
2019-12-27 00:56:30,708 [INFO] Reading HDF dataset ../Datasets/small_datasets/nsl_kdd_five_classes/y_test.h5
2019-12-27 00:56:30,712 [INFO] Reading complete. time_to_read=0.00 seconds
2019-12-27 00:56:30,899 [INFO] Initializing model
2019-12-27 00:56:31,573 [INFO] _________________________________________________________________
2019-12-27 00:56:31,573 [INFO] Layer (type)                 Output Shape              Param #   
2019-12-27 00:56:31,573 [INFO] =================================================================
2019-12-27 00:56:31,573 [INFO] dense_36 (Dense)             (None, 600)               73800     
2019-12-27 00:56:31,573 [INFO] _________________________________________________________________
2019-12-27 00:56:31,573 [INFO] batch_normalization_29 (Batc (None, 600)               2400      
2019-12-27 00:56:31,573 [INFO] _________________________________________________________________
2019-12-27 00:56:31,574 [INFO] dropout_29 (Dropout)         (None, 600)               0         
2019-12-27 00:56:31,574 [INFO] _________________________________________________________________
2019-12-27 00:56:31,574 [INFO] dense_37 (Dense)             (None, 500)               300500    
2019-12-27 00:56:31,574 [INFO] _________________________________________________________________
2019-12-27 00:56:31,574 [INFO] batch_normalization_30 (Batc (None, 500)               2000      
2019-12-27 00:56:31,574 [INFO] _________________________________________________________________
2019-12-27 00:56:31,574 [INFO] dropout_30 (Dropout)         (None, 500)               0         
2019-12-27 00:56:31,574 [INFO] _________________________________________________________________
2019-12-27 00:56:31,574 [INFO] dense_38 (Dense)             (None, 400)               200400    
2019-12-27 00:56:31,574 [INFO] _________________________________________________________________
2019-12-27 00:56:31,574 [INFO] batch_normalization_31 (Batc (None, 400)               1600      
2019-12-27 00:56:31,574 [INFO] _________________________________________________________________
2019-12-27 00:56:31,574 [INFO] dropout_31 (Dropout)         (None, 400)               0         
2019-12-27 00:56:31,574 [INFO] _________________________________________________________________
2019-12-27 00:56:31,574 [INFO] dense_39 (Dense)             (None, 256)               102656    
2019-12-27 00:56:31,574 [INFO] _________________________________________________________________
2019-12-27 00:56:31,574 [INFO] batch_normalization_32 (Batc (None, 256)               1024      
2019-12-27 00:56:31,574 [INFO] _________________________________________________________________
2019-12-27 00:56:31,575 [INFO] dropout_32 (Dropout)         (None, 256)               0         
2019-12-27 00:56:31,575 [INFO] _________________________________________________________________
2019-12-27 00:56:31,575 [INFO] dense_40 (Dense)             (None, 128)               32896     
2019-12-27 00:56:31,575 [INFO] _________________________________________________________________
2019-12-27 00:56:31,575 [INFO] batch_normalization_33 (Batc (None, 128)               512       
2019-12-27 00:56:31,575 [INFO] _________________________________________________________________
2019-12-27 00:56:31,575 [INFO] dropout_33 (Dropout)         (None, 128)               0         
2019-12-27 00:56:31,575 [INFO] _________________________________________________________________
2019-12-27 00:56:31,575 [INFO] dense_41 (Dense)             (None, 64)                8256      
2019-12-27 00:56:31,575 [INFO] _________________________________________________________________
2019-12-27 00:56:31,575 [INFO] batch_normalization_34 (Batc (None, 64)                256       
2019-12-27 00:56:31,575 [INFO] _________________________________________________________________
2019-12-27 00:56:31,575 [INFO] dropout_34 (Dropout)         (None, 64)                0         
2019-12-27 00:56:31,575 [INFO] _________________________________________________________________
2019-12-27 00:56:31,575 [INFO] dense_42 (Dense)             (None, 32)                2080      
2019-12-27 00:56:31,575 [INFO] _________________________________________________________________
2019-12-27 00:56:31,575 [INFO] batch_normalization_35 (Batc (None, 32)                128       
2019-12-27 00:56:31,576 [INFO] _________________________________________________________________
2019-12-27 00:56:31,576 [INFO] dropout_35 (Dropout)         (None, 32)                0         
2019-12-27 00:56:31,576 [INFO] _________________________________________________________________
2019-12-27 00:56:31,576 [INFO] dense_43 (Dense)             (None, 16)                528       
2019-12-27 00:56:31,576 [INFO] _________________________________________________________________
2019-12-27 00:56:31,576 [INFO] batch_normalization_36 (Batc (None, 16)                64        
2019-12-27 00:56:31,576 [INFO] _________________________________________________________________
2019-12-27 00:56:31,576 [INFO] dropout_36 (Dropout)         (None, 16)                0         
2019-12-27 00:56:31,576 [INFO] _________________________________________________________________
2019-12-27 00:56:31,576 [INFO] dense_44 (Dense)             (None, 5)                 85        
2019-12-27 00:56:31,576 [INFO] =================================================================
2019-12-27 00:56:31,576 [INFO] Total params: 729,185
2019-12-27 00:56:31,576 [INFO] Trainable params: 725,193
2019-12-27 00:56:31,576 [INFO] Non-trainable params: 3,992
2019-12-27 00:56:31,576 [INFO] _________________________________________________________________
2019-12-27 00:56:31,577 [INFO] Training model
…
