…
2019-12-22 17:52:01,445 [INFO] Reading complete. time_to_read=0.13 seconds
2019-12-22 17:52:01,445 [INFO] Reading HDF dataset ../Datasets/small_datasets/ids2018/y_test.h5
2019-12-22 17:52:01,567 [INFO] Reading complete. time_to_read=0.12 seconds
2019-12-22 17:52:05,485 [INFO] Initializing model
2019-12-22 17:52:05,850 [INFO] _________________________________________________________________
2019-12-22 17:52:05,851 [INFO] Layer (type)                 Output Shape              Param #   
2019-12-22 17:52:05,851 [INFO] =================================================================
2019-12-22 17:52:05,851 [INFO] dense_56 (Dense)             (None, 128)               9984      
2019-12-22 17:52:05,851 [INFO] _________________________________________________________________
2019-12-22 17:52:05,851 [INFO] batch_normalization_44 (Batc (None, 128)               512       
2019-12-22 17:52:05,851 [INFO] _________________________________________________________________
2019-12-22 17:52:05,851 [INFO] dropout_44 (Dropout)         (None, 128)               0         
2019-12-22 17:52:05,851 [INFO] _________________________________________________________________
2019-12-22 17:52:05,851 [INFO] dense_57 (Dense)             (None, 64)                8256      
2019-12-22 17:52:05,851 [INFO] _________________________________________________________________
2019-12-22 17:52:05,851 [INFO] batch_normalization_45 (Batc (None, 64)                256       
2019-12-22 17:52:05,851 [INFO] _________________________________________________________________
2019-12-22 17:52:05,851 [INFO] dropout_45 (Dropout)         (None, 64)                0         
2019-12-22 17:52:05,851 [INFO] _________________________________________________________________
2019-12-22 17:52:05,851 [INFO] dense_58 (Dense)             (None, 32)                2080      
2019-12-22 17:52:05,851 [INFO] _________________________________________________________________
2019-12-22 17:52:05,851 [INFO] batch_normalization_46 (Batc (None, 32)                128       
2019-12-22 17:52:05,852 [INFO] _________________________________________________________________
2019-12-22 17:52:05,852 [INFO] dropout_46 (Dropout)         (None, 32)                0         
2019-12-22 17:52:05,852 [INFO] _________________________________________________________________
2019-12-22 17:52:05,852 [INFO] dense_59 (Dense)             (None, 16)                528       
2019-12-22 17:52:05,852 [INFO] _________________________________________________________________
2019-12-22 17:52:05,852 [INFO] batch_normalization_47 (Batc (None, 16)                64        
2019-12-22 17:52:05,852 [INFO] _________________________________________________________________
2019-12-22 17:52:05,852 [INFO] dropout_47 (Dropout)         (None, 16)                0         
2019-12-22 17:52:05,852 [INFO] _________________________________________________________________
2019-12-22 17:52:05,852 [INFO] dense_60 (Dense)             (None, 15)                255       
2019-12-22 17:52:05,852 [INFO] =================================================================
2019-12-22 17:52:05,852 [INFO] Total params: 22,063
2019-12-22 17:52:05,852 [INFO] Trainable params: 21,583
2019-12-22 17:52:05,852 [INFO] Non-trainable params: 480
2019-12-22 17:52:05,852 [INFO] _________________________________________________________________
2019-12-22 17:52:05,853 [INFO] Training model
…
