…
2019-12-26 23:57:38,467 [INFO] Reading complete. time_to_read=0.00 seconds
2019-12-26 23:57:38,467 [INFO] Reading HDF dataset ../Datasets/small_datasets/nsl_kdd_five_classes/y_test.h5
2019-12-26 23:57:38,471 [INFO] Reading complete. time_to_read=0.00 seconds
2019-12-26 23:57:38,656 [INFO] Initializing model
2019-12-26 23:57:38,894 [INFO] _________________________________________________________________
2019-12-26 23:57:38,894 [INFO] Layer (type)                 Output Shape              Param #   
2019-12-26 23:57:38,894 [INFO] =================================================================
2019-12-26 23:57:38,894 [INFO] dense_3 (Dense)              (None, 32)                3936      
2019-12-26 23:57:38,894 [INFO] _________________________________________________________________
2019-12-26 23:57:38,894 [INFO] batch_normalization_2 (Batch (None, 32)                128       
2019-12-26 23:57:38,894 [INFO] _________________________________________________________________
2019-12-26 23:57:38,894 [INFO] dropout_2 (Dropout)          (None, 32)                0         
2019-12-26 23:57:38,895 [INFO] _________________________________________________________________
2019-12-26 23:57:38,895 [INFO] dense_4 (Dense)              (None, 16)                528       
2019-12-26 23:57:38,895 [INFO] _________________________________________________________________
2019-12-26 23:57:38,895 [INFO] batch_normalization_3 (Batch (None, 16)                64        
2019-12-26 23:57:38,895 [INFO] _________________________________________________________________
2019-12-26 23:57:38,895 [INFO] dropout_3 (Dropout)          (None, 16)                0         
2019-12-26 23:57:38,895 [INFO] _________________________________________________________________
2019-12-26 23:57:38,895 [INFO] dense_5 (Dense)              (None, 5)                 85        
2019-12-26 23:57:38,895 [INFO] =================================================================
2019-12-26 23:57:38,895 [INFO] Total params: 4,741
2019-12-26 23:57:38,895 [INFO] Trainable params: 4,645
2019-12-26 23:57:38,895 [INFO] Non-trainable params: 96
2019-12-26 23:57:38,895 [INFO] _________________________________________________________________
2019-12-26 23:57:38,895 [INFO] Training model
…
2019-12-27 00:01:26,136 [INFO] Reading complete. time_to_read=0.00 seconds
2019-12-27 00:01:26,136 [INFO] Reading HDF dataset ../Datasets/small_datasets/nsl_kdd_five_classes/y_test.h5
2019-12-27 00:01:26,139 [INFO] Reading complete. time_to_read=0.00 seconds
2019-12-27 00:01:26,326 [INFO] Initializing model
2019-12-27 00:01:26,647 [INFO] _________________________________________________________________
2019-12-27 00:01:26,647 [INFO] Layer (type)                 Output Shape              Param #   
2019-12-27 00:01:26,647 [INFO] =================================================================
2019-12-27 00:01:26,647 [INFO] dense_6 (Dense)              (None, 64)                7872      
2019-12-27 00:01:26,647 [INFO] _________________________________________________________________
2019-12-27 00:01:26,648 [INFO] batch_normalization_4 (Batch (None, 64)                256       
2019-12-27 00:01:26,648 [INFO] _________________________________________________________________
2019-12-27 00:01:26,648 [INFO] dropout_4 (Dropout)          (None, 64)                0         
2019-12-27 00:01:26,648 [INFO] _________________________________________________________________
2019-12-27 00:01:26,648 [INFO] dense_7 (Dense)              (None, 32)                2080      
2019-12-27 00:01:26,648 [INFO] _________________________________________________________________
2019-12-27 00:01:26,648 [INFO] batch_normalization_5 (Batch (None, 32)                128       
2019-12-27 00:01:26,648 [INFO] _________________________________________________________________
2019-12-27 00:01:26,648 [INFO] dropout_5 (Dropout)          (None, 32)                0         
2019-12-27 00:01:26,648 [INFO] _________________________________________________________________
2019-12-27 00:01:26,648 [INFO] dense_8 (Dense)              (None, 16)                528       
2019-12-27 00:01:26,648 [INFO] _________________________________________________________________
2019-12-27 00:01:26,648 [INFO] batch_normalization_6 (Batch (None, 16)                64        
2019-12-27 00:01:26,648 [INFO] _________________________________________________________________
2019-12-27 00:01:26,649 [INFO] dropout_6 (Dropout)          (None, 16)                0         
2019-12-27 00:01:26,649 [INFO] _________________________________________________________________
2019-12-27 00:01:26,649 [INFO] dense_9 (Dense)              (None, 5)                 85        
2019-12-27 00:01:26,649 [INFO] =================================================================
2019-12-27 00:01:26,649 [INFO] Total params: 11,013
2019-12-27 00:01:26,649 [INFO] Trainable params: 10,789
2019-12-27 00:01:26,649 [INFO] Non-trainable params: 224
2019-12-27 00:01:26,649 [INFO] _________________________________________________________________
2019-12-27 00:01:26,649 [INFO] Training model
…
2019-12-27 00:06:24,520 [INFO] Reading complete. time_to_read=0.00 seconds
2019-12-27 00:06:24,520 [INFO] Reading HDF dataset ../Datasets/small_datasets/nsl_kdd_five_classes/y_test.h5
2019-12-27 00:06:24,523 [INFO] Reading complete. time_to_read=0.00 seconds
2019-12-27 00:06:24,710 [INFO] Initializing model
2019-12-27 00:06:25,036 [INFO] _________________________________________________________________
2019-12-27 00:06:25,037 [INFO] Layer (type)                 Output Shape              Param #   
2019-12-27 00:06:25,037 [INFO] =================================================================
2019-12-27 00:06:25,037 [INFO] dense_10 (Dense)             (None, 128)               15744     
2019-12-27 00:06:25,037 [INFO] _________________________________________________________________
2019-12-27 00:06:25,037 [INFO] batch_normalization_7 (Batch (None, 128)               512       
2019-12-27 00:06:25,037 [INFO] _________________________________________________________________
2019-12-27 00:06:25,037 [INFO] dropout_7 (Dropout)          (None, 128)               0         
2019-12-27 00:06:25,037 [INFO] _________________________________________________________________
2019-12-27 00:06:25,037 [INFO] dense_11 (Dense)             (None, 64)                8256      
2019-12-27 00:06:25,037 [INFO] _________________________________________________________________
2019-12-27 00:06:25,037 [INFO] batch_normalization_8 (Batch (None, 64)                256       
2019-12-27 00:06:25,038 [INFO] _________________________________________________________________
2019-12-27 00:06:25,038 [INFO] dropout_8 (Dropout)          (None, 64)                0         
2019-12-27 00:06:25,038 [INFO] _________________________________________________________________
2019-12-27 00:06:25,038 [INFO] dense_12 (Dense)             (None, 32)                2080      
2019-12-27 00:06:25,038 [INFO] _________________________________________________________________
2019-12-27 00:06:25,038 [INFO] batch_normalization_9 (Batch (None, 32)                128       
2019-12-27 00:06:25,038 [INFO] _________________________________________________________________
2019-12-27 00:06:25,038 [INFO] dropout_9 (Dropout)          (None, 32)                0         
2019-12-27 00:06:25,038 [INFO] _________________________________________________________________
2019-12-27 00:06:25,038 [INFO] dense_13 (Dense)             (None, 16)                528       
2019-12-27 00:06:25,038 [INFO] _________________________________________________________________
2019-12-27 00:06:25,038 [INFO] batch_normalization_10 (Batc (None, 16)                64        
2019-12-27 00:06:25,038 [INFO] _________________________________________________________________
2019-12-27 00:06:25,038 [INFO] dropout_10 (Dropout)         (None, 16)                0         
2019-12-27 00:06:25,038 [INFO] _________________________________________________________________
2019-12-27 00:06:25,038 [INFO] dense_14 (Dense)             (None, 5)                 85        
2019-12-27 00:06:25,039 [INFO] =================================================================
2019-12-27 00:06:25,039 [INFO] Total params: 27,653
2019-12-27 00:06:25,039 [INFO] Trainable params: 27,173
2019-12-27 00:06:25,039 [INFO] Non-trainable params: 480
2019-12-27 00:06:25,039 [INFO] _________________________________________________________________
2019-12-27 00:06:25,039 [INFO] Training model
…
2019-12-27 00:13:30,909 [INFO] Reading complete. time_to_read=0.00 seconds
2019-12-27 00:13:30,909 [INFO] Reading HDF dataset ../Datasets/small_datasets/nsl_kdd_five_classes/y_test.h5
2019-12-27 00:13:30,913 [INFO] Reading complete. time_to_read=0.00 seconds
2019-12-27 00:13:31,096 [INFO] Initializing model
2019-12-27 00:13:31,505 [INFO] _________________________________________________________________
2019-12-27 00:13:31,505 [INFO] Layer (type)                 Output Shape              Param #   
2019-12-27 00:13:31,505 [INFO] =================================================================
2019-12-27 00:13:31,505 [INFO] dense_15 (Dense)             (None, 256)               31488     
2019-12-27 00:13:31,505 [INFO] _________________________________________________________________
2019-12-27 00:13:31,505 [INFO] batch_normalization_11 (Batc (None, 256)               1024      
2019-12-27 00:13:31,506 [INFO] _________________________________________________________________
2019-12-27 00:13:31,506 [INFO] dropout_11 (Dropout)         (None, 256)               0         
2019-12-27 00:13:31,506 [INFO] _________________________________________________________________
2019-12-27 00:13:31,506 [INFO] dense_16 (Dense)             (None, 128)               32896     
2019-12-27 00:13:31,506 [INFO] _________________________________________________________________
2019-12-27 00:13:31,506 [INFO] batch_normalization_12 (Batc (None, 128)               512       
2019-12-27 00:13:31,506 [INFO] _________________________________________________________________
2019-12-27 00:13:31,506 [INFO] dropout_12 (Dropout)         (None, 128)               0         
2019-12-27 00:13:31,506 [INFO] _________________________________________________________________
2019-12-27 00:13:31,506 [INFO] dense_17 (Dense)             (None, 64)                8256      
2019-12-27 00:13:31,506 [INFO] _________________________________________________________________
2019-12-27 00:13:31,506 [INFO] batch_normalization_13 (Batc (None, 64)                256       
2019-12-27 00:13:31,506 [INFO] _________________________________________________________________
2019-12-27 00:13:31,506 [INFO] dropout_13 (Dropout)         (None, 64)                0         
2019-12-27 00:13:31,507 [INFO] _________________________________________________________________
2019-12-27 00:13:31,507 [INFO] dense_18 (Dense)             (None, 32)                2080      
2019-12-27 00:13:31,507 [INFO] _________________________________________________________________
2019-12-27 00:13:31,507 [INFO] batch_normalization_14 (Batc (None, 32)                128       
2019-12-27 00:13:31,507 [INFO] _________________________________________________________________
2019-12-27 00:13:31,507 [INFO] dropout_14 (Dropout)         (None, 32)                0         
2019-12-27 00:13:31,507 [INFO] _________________________________________________________________
2019-12-27 00:13:31,507 [INFO] dense_19 (Dense)             (None, 16)                528       
2019-12-27 00:13:31,507 [INFO] _________________________________________________________________
2019-12-27 00:13:31,507 [INFO] batch_normalization_15 (Batc (None, 16)                64        
2019-12-27 00:13:31,507 [INFO] _________________________________________________________________
2019-12-27 00:13:31,507 [INFO] dropout_15 (Dropout)         (None, 16)                0         
2019-12-27 00:13:31,507 [INFO] _________________________________________________________________
2019-12-27 00:13:31,507 [INFO] dense_20 (Dense)             (None, 5)                 85        
2019-12-27 00:13:31,507 [INFO] =================================================================
2019-12-27 00:13:31,508 [INFO] Total params: 77,317
2019-12-27 00:13:31,508 [INFO] Trainable params: 76,325
2019-12-27 00:13:31,508 [INFO] Non-trainable params: 992
2019-12-27 00:13:31,508 [INFO] _________________________________________________________________
2019-12-27 00:13:31,508 [INFO] Training model
…
2019-12-27 00:24:19,794 [INFO] Reading complete. time_to_read=0.00 seconds
2019-12-27 00:24:19,794 [INFO] Reading HDF dataset ../Datasets/small_datasets/nsl_kdd_five_classes/y_test.h5
2019-12-27 00:24:19,798 [INFO] Reading complete. time_to_read=0.00 seconds
2019-12-27 00:24:19,984 [INFO] Initializing model
2019-12-27 00:24:20,471 [INFO] _________________________________________________________________
2019-12-27 00:24:20,471 [INFO] Layer (type)                 Output Shape              Param #   
2019-12-27 00:24:20,471 [INFO] =================================================================
2019-12-27 00:24:20,471 [INFO] dense_21 (Dense)             (None, 400)               49200     
2019-12-27 00:24:20,471 [INFO] _________________________________________________________________
2019-12-27 00:24:20,471 [INFO] batch_normalization_16 (Batc (None, 400)               1600      
2019-12-27 00:24:20,471 [INFO] _________________________________________________________________
2019-12-27 00:24:20,471 [INFO] dropout_16 (Dropout)         (None, 400)               0         
2019-12-27 00:24:20,471 [INFO] _________________________________________________________________
2019-12-27 00:24:20,472 [INFO] dense_22 (Dense)             (None, 256)               102656    
2019-12-27 00:24:20,472 [INFO] _________________________________________________________________
2019-12-27 00:24:20,472 [INFO] batch_normalization_17 (Batc (None, 256)               1024      
2019-12-27 00:24:20,472 [INFO] _________________________________________________________________
2019-12-27 00:24:20,472 [INFO] dropout_17 (Dropout)         (None, 256)               0         
2019-12-27 00:24:20,472 [INFO] _________________________________________________________________
2019-12-27 00:24:20,472 [INFO] dense_23 (Dense)             (None, 128)               32896     
2019-12-27 00:24:20,472 [INFO] _________________________________________________________________
2019-12-27 00:24:20,472 [INFO] batch_normalization_18 (Batc (None, 128)               512       
2019-12-27 00:24:20,472 [INFO] _________________________________________________________________
2019-12-27 00:24:20,472 [INFO] dropout_18 (Dropout)         (None, 128)               0         
2019-12-27 00:24:20,472 [INFO] _________________________________________________________________
2019-12-27 00:24:20,472 [INFO] dense_24 (Dense)             (None, 64)                8256      
2019-12-27 00:24:20,472 [INFO] _________________________________________________________________
2019-12-27 00:24:20,472 [INFO] batch_normalization_19 (Batc (None, 64)                256       
2019-12-27 00:24:20,472 [INFO] _________________________________________________________________
2019-12-27 00:24:20,473 [INFO] dropout_19 (Dropout)         (None, 64)                0         
2019-12-27 00:24:20,473 [INFO] _________________________________________________________________
2019-12-27 00:24:20,473 [INFO] dense_25 (Dense)             (None, 32)                2080      
2019-12-27 00:24:20,473 [INFO] _________________________________________________________________
2019-12-27 00:24:20,473 [INFO] batch_normalization_20 (Batc (None, 32)                128       
2019-12-27 00:24:20,473 [INFO] _________________________________________________________________
2019-12-27 00:24:20,473 [INFO] dropout_20 (Dropout)         (None, 32)                0         
2019-12-27 00:24:20,473 [INFO] _________________________________________________________________
2019-12-27 00:24:20,473 [INFO] dense_26 (Dense)             (None, 16)                528       
2019-12-27 00:24:20,473 [INFO] _________________________________________________________________
2019-12-27 00:24:20,473 [INFO] batch_normalization_21 (Batc (None, 16)                64        
2019-12-27 00:24:20,473 [INFO] _________________________________________________________________
2019-12-27 00:24:20,473 [INFO] dropout_21 (Dropout)         (None, 16)                0         
2019-12-27 00:24:20,473 [INFO] _________________________________________________________________
2019-12-27 00:24:20,473 [INFO] dense_27 (Dense)             (None, 5)                 85        
2019-12-27 00:24:20,473 [INFO] =================================================================
2019-12-27 00:24:20,474 [INFO] Total params: 199,285
2019-12-27 00:24:20,474 [INFO] Trainable params: 197,493
2019-12-27 00:24:20,474 [INFO] Non-trainable params: 1,792
2019-12-27 00:24:20,474 [INFO] _________________________________________________________________
2019-12-27 00:24:20,474 [INFO] Training model
…
2019-12-27 00:36:46,512 [INFO] Reading complete. time_to_read=0.00 seconds
2019-12-27 00:36:46,512 [INFO] Reading HDF dataset ../Datasets/small_datasets/nsl_kdd_five_classes/y_test.h5
2019-12-27 00:36:46,516 [INFO] Reading complete. time_to_read=0.00 seconds
2019-12-27 00:36:46,704 [INFO] Initializing model
2019-12-27 00:36:47,279 [INFO] _________________________________________________________________
2019-12-27 00:36:47,279 [INFO] Layer (type)                 Output Shape              Param #   
2019-12-27 00:36:47,279 [INFO] =================================================================
2019-12-27 00:36:47,279 [INFO] dense_28 (Dense)             (None, 500)               61500     
2019-12-27 00:36:47,279 [INFO] _________________________________________________________________
2019-12-27 00:36:47,279 [INFO] batch_normalization_22 (Batc (None, 500)               2000      
2019-12-27 00:36:47,279 [INFO] _________________________________________________________________
2019-12-27 00:36:47,279 [INFO] dropout_22 (Dropout)         (None, 500)               0         
2019-12-27 00:36:47,279 [INFO] _________________________________________________________________
2019-12-27 00:36:47,279 [INFO] dense_29 (Dense)             (None, 400)               200400    
2019-12-27 00:36:47,279 [INFO] _________________________________________________________________
2019-12-27 00:36:47,280 [INFO] batch_normalization_23 (Batc (None, 400)               1600      
2019-12-27 00:36:47,280 [INFO] _________________________________________________________________
2019-12-27 00:36:47,280 [INFO] dropout_23 (Dropout)         (None, 400)               0         
2019-12-27 00:36:47,280 [INFO] _________________________________________________________________
2019-12-27 00:36:47,280 [INFO] dense_30 (Dense)             (None, 256)               102656    
2019-12-27 00:36:47,280 [INFO] _________________________________________________________________
2019-12-27 00:36:47,280 [INFO] batch_normalization_24 (Batc (None, 256)               1024      
2019-12-27 00:36:47,280 [INFO] _________________________________________________________________
2019-12-27 00:36:47,280 [INFO] dropout_24 (Dropout)         (None, 256)               0         
2019-12-27 00:36:47,280 [INFO] _________________________________________________________________
2019-12-27 00:36:47,280 [INFO] dense_31 (Dense)             (None, 128)               32896     
2019-12-27 00:36:47,280 [INFO] _________________________________________________________________
2019-12-27 00:36:47,280 [INFO] batch_normalization_25 (Batc (None, 128)               512       
2019-12-27 00:36:47,281 [INFO] _________________________________________________________________
2019-12-27 00:36:47,281 [INFO] dropout_25 (Dropout)         (None, 128)               0         
2019-12-27 00:36:47,281 [INFO] _________________________________________________________________
2019-12-27 00:36:47,281 [INFO] dense_32 (Dense)             (None, 64)                8256      
2019-12-27 00:36:47,281 [INFO] _________________________________________________________________
2019-12-27 00:36:47,281 [INFO] batch_normalization_26 (Batc (None, 64)                256       
2019-12-27 00:36:47,281 [INFO] _________________________________________________________________
2019-12-27 00:36:47,281 [INFO] dropout_26 (Dropout)         (None, 64)                0         
2019-12-27 00:36:47,281 [INFO] _________________________________________________________________
2019-12-27 00:36:47,281 [INFO] dense_33 (Dense)             (None, 32)                2080      
2019-12-27 00:36:47,281 [INFO] _________________________________________________________________
2019-12-27 00:36:47,281 [INFO] batch_normalization_27 (Batc (None, 32)                128       
2019-12-27 00:36:47,281 [INFO] _________________________________________________________________
2019-12-27 00:36:47,281 [INFO] dropout_27 (Dropout)         (None, 32)                0         
2019-12-27 00:36:47,281 [INFO] _________________________________________________________________
2019-12-27 00:36:47,282 [INFO] dense_34 (Dense)             (None, 16)                528       
2019-12-27 00:36:47,282 [INFO] _________________________________________________________________
2019-12-27 00:36:47,282 [INFO] batch_normalization_28 (Batc (None, 16)                64        
2019-12-27 00:36:47,282 [INFO] _________________________________________________________________
2019-12-27 00:36:47,282 [INFO] dropout_28 (Dropout)         (None, 16)                0         
2019-12-27 00:36:47,282 [INFO] _________________________________________________________________
2019-12-27 00:36:47,282 [INFO] dense_35 (Dense)             (None, 5)                 85        
2019-12-27 00:36:47,282 [INFO] =================================================================
2019-12-27 00:36:47,282 [INFO] Total params: 413,985
2019-12-27 00:36:47,282 [INFO] Trainable params: 411,193
2019-12-27 00:36:47,282 [INFO] Non-trainable params: 2,792
2019-12-27 00:36:47,282 [INFO] _________________________________________________________________
2019-12-27 00:36:47,282 [INFO] Training model
…
2019-12-27 00:56:30,708 [INFO] Reading complete. time_to_read=0.00 seconds
2019-12-27 00:56:30,708 [INFO] Reading HDF dataset ../Datasets/small_datasets/nsl_kdd_five_classes/y_test.h5
2019-12-27 00:56:30,712 [INFO] Reading complete. time_to_read=0.00 seconds
2019-12-27 00:56:30,899 [INFO] Initializing model
2019-12-27 00:56:31,573 [INFO] _________________________________________________________________
2019-12-27 00:56:31,573 [INFO] Layer (type)                 Output Shape              Param #   
2019-12-27 00:56:31,573 [INFO] =================================================================
2019-12-27 00:56:31,573 [INFO] dense_36 (Dense)             (None, 600)               73800     
2019-12-27 00:56:31,573 [INFO] _________________________________________________________________
2019-12-27 00:56:31,573 [INFO] batch_normalization_29 (Batc (None, 600)               2400      
2019-12-27 00:56:31,573 [INFO] _________________________________________________________________
2019-12-27 00:56:31,574 [INFO] dropout_29 (Dropout)         (None, 600)               0         
2019-12-27 00:56:31,574 [INFO] _________________________________________________________________
2019-12-27 00:56:31,574 [INFO] dense_37 (Dense)             (None, 500)               300500    
2019-12-27 00:56:31,574 [INFO] _________________________________________________________________
2019-12-27 00:56:31,574 [INFO] batch_normalization_30 (Batc (None, 500)               2000      
2019-12-27 00:56:31,574 [INFO] _________________________________________________________________
2019-12-27 00:56:31,574 [INFO] dropout_30 (Dropout)         (None, 500)               0         
2019-12-27 00:56:31,574 [INFO] _________________________________________________________________
2019-12-27 00:56:31,574 [INFO] dense_38 (Dense)             (None, 400)               200400    
2019-12-27 00:56:31,574 [INFO] _________________________________________________________________
2019-12-27 00:56:31,574 [INFO] batch_normalization_31 (Batc (None, 400)               1600      
2019-12-27 00:56:31,574 [INFO] _________________________________________________________________
2019-12-27 00:56:31,574 [INFO] dropout_31 (Dropout)         (None, 400)               0         
2019-12-27 00:56:31,574 [INFO] _________________________________________________________________
2019-12-27 00:56:31,574 [INFO] dense_39 (Dense)             (None, 256)               102656    
2019-12-27 00:56:31,574 [INFO] _________________________________________________________________
2019-12-27 00:56:31,574 [INFO] batch_normalization_32 (Batc (None, 256)               1024      
2019-12-27 00:56:31,574 [INFO] _________________________________________________________________
2019-12-27 00:56:31,575 [INFO] dropout_32 (Dropout)         (None, 256)               0         
2019-12-27 00:56:31,575 [INFO] _________________________________________________________________
2019-12-27 00:56:31,575 [INFO] dense_40 (Dense)             (None, 128)               32896     
2019-12-27 00:56:31,575 [INFO] _________________________________________________________________
2019-12-27 00:56:31,575 [INFO] batch_normalization_33 (Batc (None, 128)               512       
2019-12-27 00:56:31,575 [INFO] _________________________________________________________________
2019-12-27 00:56:31,575 [INFO] dropout_33 (Dropout)         (None, 128)               0         
2019-12-27 00:56:31,575 [INFO] _________________________________________________________________
2019-12-27 00:56:31,575 [INFO] dense_41 (Dense)             (None, 64)                8256      
2019-12-27 00:56:31,575 [INFO] _________________________________________________________________
2019-12-27 00:56:31,575 [INFO] batch_normalization_34 (Batc (None, 64)                256       
2019-12-27 00:56:31,575 [INFO] _________________________________________________________________
2019-12-27 00:56:31,575 [INFO] dropout_34 (Dropout)         (None, 64)                0         
2019-12-27 00:56:31,575 [INFO] _________________________________________________________________
2019-12-27 00:56:31,575 [INFO] dense_42 (Dense)             (None, 32)                2080      
2019-12-27 00:56:31,575 [INFO] _________________________________________________________________
2019-12-27 00:56:31,575 [INFO] batch_normalization_35 (Batc (None, 32)                128       
2019-12-27 00:56:31,576 [INFO] _________________________________________________________________
2019-12-27 00:56:31,576 [INFO] dropout_35 (Dropout)         (None, 32)                0         
2019-12-27 00:56:31,576 [INFO] _________________________________________________________________
2019-12-27 00:56:31,576 [INFO] dense_43 (Dense)             (None, 16)                528       
2019-12-27 00:56:31,576 [INFO] _________________________________________________________________
2019-12-27 00:56:31,576 [INFO] batch_normalization_36 (Batc (None, 16)                64        
2019-12-27 00:56:31,576 [INFO] _________________________________________________________________
2019-12-27 00:56:31,576 [INFO] dropout_36 (Dropout)         (None, 16)                0         
2019-12-27 00:56:31,576 [INFO] _________________________________________________________________
2019-12-27 00:56:31,576 [INFO] dense_44 (Dense)             (None, 5)                 85        
2019-12-27 00:56:31,576 [INFO] =================================================================
2019-12-27 00:56:31,576 [INFO] Total params: 729,185
2019-12-27 00:56:31,576 [INFO] Trainable params: 725,193
2019-12-27 00:56:31,576 [INFO] Non-trainable params: 3,992
2019-12-27 00:56:31,576 [INFO] _________________________________________________________________
2019-12-27 00:56:31,577 [INFO] Training model
…
2019-12-27 01:32:31,727 [INFO] Reading complete. time_to_read=0.00 seconds
2019-12-27 01:32:31,728 [INFO] Reading HDF dataset ../Datasets/small_datasets/nsl_kdd_five_classes/y_test.h5
2019-12-27 01:32:31,731 [INFO] Reading complete. time_to_read=0.00 seconds
2019-12-27 01:32:31,916 [INFO] Initializing model
2019-12-27 01:32:32,687 [INFO] _________________________________________________________________
2019-12-27 01:32:32,687 [INFO] Layer (type)                 Output Shape              Param #   
2019-12-27 01:32:32,687 [INFO] =================================================================
2019-12-27 01:32:32,687 [INFO] dense_45 (Dense)             (None, 700)               86100     
2019-12-27 01:32:32,687 [INFO] _________________________________________________________________
2019-12-27 01:32:32,687 [INFO] batch_normalization_37 (Batc (None, 700)               2800      
2019-12-27 01:32:32,687 [INFO] _________________________________________________________________
2019-12-27 01:32:32,687 [INFO] dropout_37 (Dropout)         (None, 700)               0         
2019-12-27 01:32:32,687 [INFO] _________________________________________________________________
2019-12-27 01:32:32,687 [INFO] dense_46 (Dense)             (None, 600)               420600    
2019-12-27 01:32:32,688 [INFO] _________________________________________________________________
2019-12-27 01:32:32,688 [INFO] batch_normalization_38 (Batc (None, 600)               2400      
2019-12-27 01:32:32,688 [INFO] _________________________________________________________________
2019-12-27 01:32:32,688 [INFO] dropout_38 (Dropout)         (None, 600)               0         
2019-12-27 01:32:32,688 [INFO] _________________________________________________________________
2019-12-27 01:32:32,688 [INFO] dense_47 (Dense)             (None, 500)               300500    
2019-12-27 01:32:32,688 [INFO] _________________________________________________________________
2019-12-27 01:32:32,688 [INFO] batch_normalization_39 (Batc (None, 500)               2000      
2019-12-27 01:32:32,688 [INFO] _________________________________________________________________
2019-12-27 01:32:32,688 [INFO] dropout_39 (Dropout)         (None, 500)               0         
2019-12-27 01:32:32,688 [INFO] _________________________________________________________________
2019-12-27 01:32:32,688 [INFO] dense_48 (Dense)             (None, 400)               200400    
2019-12-27 01:32:32,688 [INFO] _________________________________________________________________
2019-12-27 01:32:32,688 [INFO] batch_normalization_40 (Batc (None, 400)               1600      
2019-12-27 01:32:32,688 [INFO] _________________________________________________________________
2019-12-27 01:32:32,688 [INFO] dropout_40 (Dropout)         (None, 400)               0         
2019-12-27 01:32:32,688 [INFO] _________________________________________________________________
2019-12-27 01:32:32,689 [INFO] dense_49 (Dense)             (None, 256)               102656    
2019-12-27 01:32:32,689 [INFO] _________________________________________________________________
2019-12-27 01:32:32,689 [INFO] batch_normalization_41 (Batc (None, 256)               1024      
2019-12-27 01:32:32,689 [INFO] _________________________________________________________________
2019-12-27 01:32:32,689 [INFO] dropout_41 (Dropout)         (None, 256)               0         
2019-12-27 01:32:32,689 [INFO] _________________________________________________________________
2019-12-27 01:32:32,689 [INFO] dense_50 (Dense)             (None, 128)               32896     
2019-12-27 01:32:32,689 [INFO] _________________________________________________________________
2019-12-27 01:32:32,689 [INFO] batch_normalization_42 (Batc (None, 128)               512       
2019-12-27 01:32:32,689 [INFO] _________________________________________________________________
2019-12-27 01:32:32,689 [INFO] dropout_42 (Dropout)         (None, 128)               0         
2019-12-27 01:32:32,689 [INFO] _________________________________________________________________
2019-12-27 01:32:32,689 [INFO] dense_51 (Dense)             (None, 64)                8256      
2019-12-27 01:32:32,689 [INFO] _________________________________________________________________
2019-12-27 01:32:32,689 [INFO] batch_normalization_43 (Batc (None, 64)                256       
2019-12-27 01:32:32,689 [INFO] _________________________________________________________________
2019-12-27 01:32:32,689 [INFO] dropout_43 (Dropout)         (None, 64)                0         
2019-12-27 01:32:32,689 [INFO] _________________________________________________________________
2019-12-27 01:32:32,689 [INFO] dense_52 (Dense)             (None, 32)                2080      
2019-12-27 01:32:32,690 [INFO] _________________________________________________________________
2019-12-27 01:32:32,690 [INFO] batch_normalization_44 (Batc (None, 32)                128       
2019-12-27 01:32:32,690 [INFO] _________________________________________________________________
2019-12-27 01:32:32,690 [INFO] dropout_44 (Dropout)         (None, 32)                0         
2019-12-27 01:32:32,690 [INFO] _________________________________________________________________
2019-12-27 01:32:32,690 [INFO] dense_53 (Dense)             (None, 16)                528       
2019-12-27 01:32:32,690 [INFO] _________________________________________________________________
2019-12-27 01:32:32,690 [INFO] batch_normalization_45 (Batc (None, 16)                64        
2019-12-27 01:32:32,690 [INFO] _________________________________________________________________
2019-12-27 01:32:32,690 [INFO] dropout_45 (Dropout)         (None, 16)                0         
2019-12-27 01:32:32,690 [INFO] _________________________________________________________________
2019-12-27 01:32:32,690 [INFO] dense_54 (Dense)             (None, 5)                 85        
2019-12-27 01:32:32,690 [INFO] =================================================================
2019-12-27 01:32:32,691 [INFO] Total params: 1,164,885
2019-12-27 01:32:32,691 [INFO] Trainable params: 1,159,493
2019-12-27 01:32:32,691 [INFO] Non-trainable params: 5,392
2019-12-27 01:32:32,691 [INFO] _________________________________________________________________
2019-12-27 01:32:32,691 [INFO] Training model
…
2019-12-27 02:20:17,750 [INFO] Reading complete. time_to_read=0.00 seconds
2019-12-27 02:20:17,750 [INFO] Reading HDF dataset ../Datasets/small_datasets/nsl_kdd_five_classes/y_test.h5
2019-12-27 02:20:17,754 [INFO] Reading complete. time_to_read=0.00 seconds
2019-12-27 02:20:17,940 [INFO] Initializing model
2019-12-27 02:20:18,828 [INFO] _________________________________________________________________
2019-12-27 02:20:18,828 [INFO] Layer (type)                 Output Shape              Param #   
2019-12-27 02:20:18,828 [INFO] =================================================================
2019-12-27 02:20:18,828 [INFO] dense_55 (Dense)             (None, 800)               98400     
2019-12-27 02:20:18,828 [INFO] _________________________________________________________________
2019-12-27 02:20:18,829 [INFO] batch_normalization_46 (Batc (None, 800)               3200      
2019-12-27 02:20:18,829 [INFO] _________________________________________________________________
2019-12-27 02:20:18,829 [INFO] dropout_46 (Dropout)         (None, 800)               0         
2019-12-27 02:20:18,829 [INFO] _________________________________________________________________
2019-12-27 02:20:18,829 [INFO] dense_56 (Dense)             (None, 700)               560700    
2019-12-27 02:20:18,829 [INFO] _________________________________________________________________
2019-12-27 02:20:18,829 [INFO] batch_normalization_47 (Batc (None, 700)               2800      
2019-12-27 02:20:18,829 [INFO] _________________________________________________________________
2019-12-27 02:20:18,829 [INFO] dropout_47 (Dropout)         (None, 700)               0         
2019-12-27 02:20:18,829 [INFO] _________________________________________________________________
2019-12-27 02:20:18,829 [INFO] dense_57 (Dense)             (None, 600)               420600    
2019-12-27 02:20:18,829 [INFO] _________________________________________________________________
2019-12-27 02:20:18,829 [INFO] batch_normalization_48 (Batc (None, 600)               2400      
2019-12-27 02:20:18,829 [INFO] _________________________________________________________________
2019-12-27 02:20:18,829 [INFO] dropout_48 (Dropout)         (None, 600)               0         
2019-12-27 02:20:18,829 [INFO] _________________________________________________________________
2019-12-27 02:20:18,829 [INFO] dense_58 (Dense)             (None, 500)               300500    
2019-12-27 02:20:18,830 [INFO] _________________________________________________________________
2019-12-27 02:20:18,830 [INFO] batch_normalization_49 (Batc (None, 500)               2000      
2019-12-27 02:20:18,830 [INFO] _________________________________________________________________
2019-12-27 02:20:18,830 [INFO] dropout_49 (Dropout)         (None, 500)               0         
2019-12-27 02:20:18,830 [INFO] _________________________________________________________________
2019-12-27 02:20:18,830 [INFO] dense_59 (Dense)             (None, 400)               200400    
2019-12-27 02:20:18,830 [INFO] _________________________________________________________________
2019-12-27 02:20:18,830 [INFO] batch_normalization_50 (Batc (None, 400)               1600      
2019-12-27 02:20:18,830 [INFO] _________________________________________________________________
2019-12-27 02:20:18,830 [INFO] dropout_50 (Dropout)         (None, 400)               0         
2019-12-27 02:20:18,830 [INFO] _________________________________________________________________
2019-12-27 02:20:18,830 [INFO] dense_60 (Dense)             (None, 256)               102656    
2019-12-27 02:20:18,830 [INFO] _________________________________________________________________
2019-12-27 02:20:18,830 [INFO] batch_normalization_51 (Batc (None, 256)               1024      
2019-12-27 02:20:18,830 [INFO] _________________________________________________________________
2019-12-27 02:20:18,830 [INFO] dropout_51 (Dropout)         (None, 256)               0         
2019-12-27 02:20:18,830 [INFO] _________________________________________________________________
2019-12-27 02:20:18,830 [INFO] dense_61 (Dense)             (None, 128)               32896     
2019-12-27 02:20:18,831 [INFO] _________________________________________________________________
2019-12-27 02:20:18,831 [INFO] batch_normalization_52 (Batc (None, 128)               512       
2019-12-27 02:20:18,831 [INFO] _________________________________________________________________
2019-12-27 02:20:18,831 [INFO] dropout_52 (Dropout)         (None, 128)               0         
2019-12-27 02:20:18,831 [INFO] _________________________________________________________________
2019-12-27 02:20:18,831 [INFO] dense_62 (Dense)             (None, 64)                8256      
2019-12-27 02:20:18,831 [INFO] _________________________________________________________________
2019-12-27 02:20:18,831 [INFO] batch_normalization_53 (Batc (None, 64)                256       
2019-12-27 02:20:18,831 [INFO] _________________________________________________________________
2019-12-27 02:20:18,831 [INFO] dropout_53 (Dropout)         (None, 64)                0         
2019-12-27 02:20:18,831 [INFO] _________________________________________________________________
2019-12-27 02:20:18,831 [INFO] dense_63 (Dense)             (None, 32)                2080      
2019-12-27 02:20:18,831 [INFO] _________________________________________________________________
2019-12-27 02:20:18,831 [INFO] batch_normalization_54 (Batc (None, 32)                128       
2019-12-27 02:20:18,831 [INFO] _________________________________________________________________
2019-12-27 02:20:18,831 [INFO] dropout_54 (Dropout)         (None, 32)                0         
2019-12-27 02:20:18,831 [INFO] _________________________________________________________________
2019-12-27 02:20:18,831 [INFO] dense_64 (Dense)             (None, 16)                528       
2019-12-27 02:20:18,831 [INFO] _________________________________________________________________
2019-12-27 02:20:18,832 [INFO] batch_normalization_55 (Batc (None, 16)                64        
2019-12-27 02:20:18,832 [INFO] _________________________________________________________________
2019-12-27 02:20:18,832 [INFO] dropout_55 (Dropout)         (None, 16)                0         
2019-12-27 02:20:18,832 [INFO] _________________________________________________________________
2019-12-27 02:20:18,832 [INFO] dense_65 (Dense)             (None, 5)                 85        
2019-12-27 02:20:18,832 [INFO] =================================================================
2019-12-27 02:20:18,832 [INFO] Total params: 1,741,085
2019-12-27 02:20:18,832 [INFO] Trainable params: 1,734,093
2019-12-27 02:20:18,832 [INFO] Non-trainable params: 6,992
2019-12-27 02:20:18,832 [INFO] _________________________________________________________________
2019-12-27 02:20:18,832 [INFO] Training model
…
2019-12-27 04:35:56,847 [INFO] Reading complete. time_to_read=0.07 seconds
2019-12-27 04:35:56,847 [INFO] Reading HDF dataset ../Datasets/full_datasets/ids2017/y_test.h5
2019-12-27 04:35:56,915 [INFO] Reading complete. time_to_read=0.07 seconds
2019-12-27 04:36:00,068 [INFO] Initializing model
2019-12-27 04:36:00,277 [INFO] _________________________________________________________________
2019-12-27 04:36:00,277 [INFO] Layer (type)                 Output Shape              Param #   
2019-12-27 04:36:00,279 [INFO] =================================================================
2019-12-27 04:36:00,279 [INFO] dense_68 (Dense)             (None, 32)                2528      
2019-12-27 04:36:00,279 [INFO] _________________________________________________________________
2019-12-27 04:36:00,279 [INFO] batch_normalization_57 (Batc (None, 32)                128       
2019-12-27 04:36:00,279 [INFO] _________________________________________________________________
2019-12-27 04:36:00,279 [INFO] dropout_57 (Dropout)         (None, 32)                0         
2019-12-27 04:36:00,279 [INFO] _________________________________________________________________
2019-12-27 04:36:00,279 [INFO] dense_69 (Dense)             (None, 16)                528       
2019-12-27 04:36:00,279 [INFO] _________________________________________________________________
2019-12-27 04:36:00,279 [INFO] batch_normalization_58 (Batc (None, 16)                64        
2019-12-27 04:36:00,279 [INFO] _________________________________________________________________
2019-12-27 04:36:00,279 [INFO] dropout_58 (Dropout)         (None, 16)                0         
2019-12-27 04:36:00,279 [INFO] _________________________________________________________________
2019-12-27 04:36:00,280 [INFO] dense_70 (Dense)             (None, 12)                204       
2019-12-27 04:36:00,280 [INFO] =================================================================
2019-12-27 04:36:00,280 [INFO] Total params: 3,452
2019-12-27 04:36:00,280 [INFO] Trainable params: 3,356
2019-12-27 04:36:00,280 [INFO] Non-trainable params: 96
2019-12-27 04:36:00,280 [INFO] _________________________________________________________________
2019-12-27 04:36:00,280 [INFO] Training model
…
2019-12-27 06:44:23,854 [INFO] Reading complete. time_to_read=0.07 seconds
2019-12-27 06:44:23,854 [INFO] Reading HDF dataset ../Datasets/full_datasets/ids2017/y_test.h5
2019-12-27 06:44:23,922 [INFO] Reading complete. time_to_read=0.07 seconds
2019-12-27 06:44:27,082 [INFO] Initializing model
2019-12-27 06:44:27,383 [INFO] _________________________________________________________________
2019-12-27 06:44:27,383 [INFO] Layer (type)                 Output Shape              Param #   
2019-12-27 06:44:27,383 [INFO] =================================================================
2019-12-27 06:44:27,383 [INFO] dense_71 (Dense)             (None, 64)                5056      
2019-12-27 06:44:27,383 [INFO] _________________________________________________________________
2019-12-27 06:44:27,383 [INFO] batch_normalization_59 (Batc (None, 64)                256       
2019-12-27 06:44:27,383 [INFO] _________________________________________________________________
2019-12-27 06:44:27,383 [INFO] dropout_59 (Dropout)         (None, 64)                0         
2019-12-27 06:44:27,383 [INFO] _________________________________________________________________
2019-12-27 06:44:27,383 [INFO] dense_72 (Dense)             (None, 32)                2080      
2019-12-27 06:44:27,383 [INFO] _________________________________________________________________
2019-12-27 06:44:27,383 [INFO] batch_normalization_60 (Batc (None, 32)                128       
2019-12-27 06:44:27,383 [INFO] _________________________________________________________________
2019-12-27 06:44:27,383 [INFO] dropout_60 (Dropout)         (None, 32)                0         
2019-12-27 06:44:27,383 [INFO] _________________________________________________________________
2019-12-27 06:44:27,383 [INFO] dense_73 (Dense)             (None, 16)                528       
2019-12-27 06:44:27,384 [INFO] _________________________________________________________________
2019-12-27 06:44:27,384 [INFO] batch_normalization_61 (Batc (None, 16)                64        
2019-12-27 06:44:27,384 [INFO] _________________________________________________________________
2019-12-27 06:44:27,384 [INFO] dropout_61 (Dropout)         (None, 16)                0         
2019-12-27 06:44:27,384 [INFO] _________________________________________________________________
2019-12-27 06:44:27,384 [INFO] dense_74 (Dense)             (None, 12)                204       
2019-12-27 06:44:27,384 [INFO] =================================================================
2019-12-27 06:44:27,384 [INFO] Total params: 8,316
2019-12-27 06:44:27,384 [INFO] Trainable params: 8,092
2019-12-27 06:44:27,384 [INFO] Non-trainable params: 224
2019-12-27 06:44:27,384 [INFO] _________________________________________________________________
2019-12-27 06:44:27,384 [INFO] Training model
…
2019-12-27 09:17:51,908 [INFO] Reading complete. time_to_read=0.07 seconds
2019-12-27 09:17:51,909 [INFO] Reading HDF dataset ../Datasets/full_datasets/ids2017/y_test.h5
2019-12-27 09:17:51,977 [INFO] Reading complete. time_to_read=0.07 seconds
2019-12-27 09:17:55,128 [INFO] Initializing model
2019-12-27 09:17:55,521 [INFO] _________________________________________________________________
2019-12-27 09:17:55,521 [INFO] Layer (type)                 Output Shape              Param #   
2019-12-27 09:17:55,521 [INFO] =================================================================
2019-12-27 09:17:55,522 [INFO] dense_75 (Dense)             (None, 128)               10112     
2019-12-27 09:17:55,522 [INFO] _________________________________________________________________
2019-12-27 09:17:55,522 [INFO] batch_normalization_62 (Batc (None, 128)               512       
2019-12-27 09:17:55,522 [INFO] _________________________________________________________________
2019-12-27 09:17:55,522 [INFO] dropout_62 (Dropout)         (None, 128)               0         
2019-12-27 09:17:55,522 [INFO] _________________________________________________________________
2019-12-27 09:17:55,522 [INFO] dense_76 (Dense)             (None, 64)                8256      
2019-12-27 09:17:55,522 [INFO] _________________________________________________________________
2019-12-27 09:17:55,522 [INFO] batch_normalization_63 (Batc (None, 64)                256       
2019-12-27 09:17:55,522 [INFO] _________________________________________________________________
2019-12-27 09:17:55,522 [INFO] dropout_63 (Dropout)         (None, 64)                0         
2019-12-27 09:17:55,522 [INFO] _________________________________________________________________
2019-12-27 09:17:55,523 [INFO] dense_77 (Dense)             (None, 32)                2080      
2019-12-27 09:17:55,523 [INFO] _________________________________________________________________
2019-12-27 09:17:55,523 [INFO] batch_normalization_64 (Batc (None, 32)                128       
2019-12-27 09:17:55,523 [INFO] _________________________________________________________________
2019-12-27 09:17:55,523 [INFO] dropout_64 (Dropout)         (None, 32)                0         
2019-12-27 09:17:55,523 [INFO] _________________________________________________________________
2019-12-27 09:17:55,523 [INFO] dense_78 (Dense)             (None, 16)                528       
2019-12-27 09:17:55,523 [INFO] _________________________________________________________________
2019-12-27 09:17:55,523 [INFO] batch_normalization_65 (Batc (None, 16)                64        
2019-12-27 09:17:55,523 [INFO] _________________________________________________________________
2019-12-27 09:17:55,523 [INFO] dropout_65 (Dropout)         (None, 16)                0         
2019-12-27 09:17:55,523 [INFO] _________________________________________________________________
2019-12-27 09:17:55,523 [INFO] dense_79 (Dense)             (None, 12)                204       
2019-12-27 09:17:55,523 [INFO] =================================================================
2019-12-27 09:17:55,524 [INFO] Total params: 22,140
2019-12-27 09:17:55,524 [INFO] Trainable params: 21,660
2019-12-27 09:17:55,524 [INFO] Non-trainable params: 480
2019-12-27 09:17:55,524 [INFO] _________________________________________________________________
2019-12-27 09:17:55,524 [INFO] Training model
…
2019-12-27 12:35:56,072 [INFO] Reading complete. time_to_read=0.07 seconds
2019-12-27 12:35:56,072 [INFO] Reading HDF dataset ../Datasets/full_datasets/ids2017/y_test.h5
2019-12-27 12:35:56,139 [INFO] Reading complete. time_to_read=0.07 seconds
2019-12-27 12:35:59,285 [INFO] Initializing model
2019-12-27 12:35:59,776 [INFO] _________________________________________________________________
2019-12-27 12:35:59,778 [INFO] Layer (type)                 Output Shape              Param #   
2019-12-27 12:35:59,778 [INFO] =================================================================
2019-12-27 12:35:59,779 [INFO] dense_80 (Dense)             (None, 256)               20224     
2019-12-27 12:35:59,779 [INFO] _________________________________________________________________
2019-12-27 12:35:59,779 [INFO] batch_normalization_66 (Batc (None, 256)               1024      
2019-12-27 12:35:59,779 [INFO] _________________________________________________________________
2019-12-27 12:35:59,779 [INFO] dropout_66 (Dropout)         (None, 256)               0         
2019-12-27 12:35:59,779 [INFO] _________________________________________________________________
2019-12-27 12:35:59,779 [INFO] dense_81 (Dense)             (None, 128)               32896     
2019-12-27 12:35:59,779 [INFO] _________________________________________________________________
2019-12-27 12:35:59,779 [INFO] batch_normalization_67 (Batc (None, 128)               512       
2019-12-27 12:35:59,779 [INFO] _________________________________________________________________
2019-12-27 12:35:59,779 [INFO] dropout_67 (Dropout)         (None, 128)               0         
2019-12-27 12:35:59,779 [INFO] _________________________________________________________________
2019-12-27 12:35:59,780 [INFO] dense_82 (Dense)             (None, 64)                8256      
2019-12-27 12:35:59,780 [INFO] _________________________________________________________________
2019-12-27 12:35:59,780 [INFO] batch_normalization_68 (Batc (None, 64)                256       
2019-12-27 12:35:59,780 [INFO] _________________________________________________________________
2019-12-27 12:35:59,780 [INFO] dropout_68 (Dropout)         (None, 64)                0         
2019-12-27 12:35:59,780 [INFO] _________________________________________________________________
2019-12-27 12:35:59,780 [INFO] dense_83 (Dense)             (None, 32)                2080      
2019-12-27 12:35:59,780 [INFO] _________________________________________________________________
2019-12-27 12:35:59,780 [INFO] batch_normalization_69 (Batc (None, 32)                128       
2019-12-27 12:35:59,780 [INFO] _________________________________________________________________
2019-12-27 12:35:59,780 [INFO] dropout_69 (Dropout)         (None, 32)                0         
2019-12-27 12:35:59,780 [INFO] _________________________________________________________________
2019-12-27 12:35:59,780 [INFO] dense_84 (Dense)             (None, 16)                528       
2019-12-27 12:35:59,780 [INFO] _________________________________________________________________
2019-12-27 12:35:59,780 [INFO] batch_normalization_70 (Batc (None, 16)                64        
2019-12-27 12:35:59,781 [INFO] _________________________________________________________________
2019-12-27 12:35:59,781 [INFO] dropout_70 (Dropout)         (None, 16)                0         
2019-12-27 12:35:59,781 [INFO] _________________________________________________________________
2019-12-27 12:35:59,781 [INFO] dense_85 (Dense)             (None, 12)                204       
2019-12-27 12:35:59,781 [INFO] =================================================================
2019-12-27 12:35:59,781 [INFO] Total params: 66,172
2019-12-27 12:35:59,781 [INFO] Trainable params: 65,180
2019-12-27 12:35:59,781 [INFO] Non-trainable params: 992
2019-12-27 12:35:59,781 [INFO] _________________________________________________________________
2019-12-27 12:35:59,781 [INFO] Training model
…
2019-12-27 16:43:47,064 [INFO] Reading complete. time_to_read=0.07 seconds
2019-12-27 16:43:47,064 [INFO] Reading HDF dataset ../Datasets/full_datasets/ids2017/y_test.h5
2019-12-27 16:43:47,131 [INFO] Reading complete. time_to_read=0.07 seconds
2019-12-27 16:43:50,296 [INFO] Initializing model
2019-12-27 16:43:50,891 [INFO] _________________________________________________________________
2019-12-27 16:43:50,893 [INFO] Layer (type)                 Output Shape              Param #   
2019-12-27 16:43:50,893 [INFO] =================================================================
2019-12-27 16:43:50,893 [INFO] dense_86 (Dense)             (None, 400)               31600     
2019-12-27 16:43:50,893 [INFO] _________________________________________________________________
2019-12-27 16:43:50,894 [INFO] batch_normalization_71 (Batc (None, 400)               1600      
2019-12-27 16:43:50,894 [INFO] _________________________________________________________________
2019-12-27 16:43:50,894 [INFO] dropout_71 (Dropout)         (None, 400)               0         
2019-12-27 16:43:50,894 [INFO] _________________________________________________________________
2019-12-27 16:43:50,894 [INFO] dense_87 (Dense)             (None, 256)               102656    
2019-12-27 16:43:50,894 [INFO] _________________________________________________________________
2019-12-27 16:43:50,894 [INFO] batch_normalization_72 (Batc (None, 256)               1024      
2019-12-27 16:43:50,894 [INFO] _________________________________________________________________
2019-12-27 16:43:50,894 [INFO] dropout_72 (Dropout)         (None, 256)               0         
2019-12-27 16:43:50,894 [INFO] _________________________________________________________________
2019-12-27 16:43:50,894 [INFO] dense_88 (Dense)             (None, 128)               32896     
2019-12-27 16:43:50,894 [INFO] _________________________________________________________________
2019-12-27 16:43:50,894 [INFO] batch_normalization_73 (Batc (None, 128)               512       
2019-12-27 16:43:50,894 [INFO] _________________________________________________________________
2019-12-27 16:43:50,894 [INFO] dropout_73 (Dropout)         (None, 128)               0         
2019-12-27 16:43:50,894 [INFO] _________________________________________________________________
2019-12-27 16:43:50,895 [INFO] dense_89 (Dense)             (None, 64)                8256      
2019-12-27 16:43:50,895 [INFO] _________________________________________________________________
2019-12-27 16:43:50,895 [INFO] batch_normalization_74 (Batc (None, 64)                256       
2019-12-27 16:43:50,895 [INFO] _________________________________________________________________
2019-12-27 16:43:50,895 [INFO] dropout_74 (Dropout)         (None, 64)                0         
2019-12-27 16:43:50,895 [INFO] _________________________________________________________________
2019-12-27 16:43:50,895 [INFO] dense_90 (Dense)             (None, 32)                2080      
2019-12-27 16:43:50,895 [INFO] _________________________________________________________________
2019-12-27 16:43:50,895 [INFO] batch_normalization_75 (Batc (None, 32)                128       
2019-12-27 16:43:50,895 [INFO] _________________________________________________________________
2019-12-27 16:43:50,895 [INFO] dropout_75 (Dropout)         (None, 32)                0         
2019-12-27 16:43:50,895 [INFO] _________________________________________________________________
2019-12-27 16:43:50,895 [INFO] dense_91 (Dense)             (None, 16)                528       
2019-12-27 16:43:50,895 [INFO] _________________________________________________________________
2019-12-27 16:43:50,895 [INFO] batch_normalization_76 (Batc (None, 16)                64        
2019-12-27 16:43:50,895 [INFO] _________________________________________________________________
2019-12-27 16:43:50,895 [INFO] dropout_76 (Dropout)         (None, 16)                0         
2019-12-27 16:43:50,895 [INFO] _________________________________________________________________
2019-12-27 16:43:50,896 [INFO] dense_92 (Dense)             (None, 12)                204       
2019-12-27 16:43:50,896 [INFO] =================================================================
2019-12-27 16:43:50,896 [INFO] Total params: 181,804
2019-12-27 16:43:50,896 [INFO] Trainable params: 180,012
2019-12-27 16:43:50,896 [INFO] Non-trainable params: 1,792
2019-12-27 16:43:50,896 [INFO] _________________________________________________________________
2019-12-27 16:43:50,896 [INFO] Training model
…
2019-12-27 22:42:47,567 [INFO] Reading complete. time_to_read=0.07 seconds
2019-12-27 22:42:47,567 [INFO] Reading HDF dataset ../Datasets/full_datasets/ids2017/y_test.h5
2019-12-27 22:42:47,636 [INFO] Reading complete. time_to_read=0.07 seconds
2019-12-27 22:42:50,773 [INFO] Initializing model
2019-12-27 22:42:51,477 [INFO] _________________________________________________________________
2019-12-27 22:42:51,478 [INFO] Layer (type)                 Output Shape              Param #   
2019-12-27 22:42:51,478 [INFO] =================================================================
2019-12-27 22:42:51,478 [INFO] dense_93 (Dense)             (None, 500)               39500     
2019-12-27 22:42:51,478 [INFO] _________________________________________________________________
2019-12-27 22:42:51,478 [INFO] batch_normalization_77 (Batc (None, 500)               2000      
2019-12-27 22:42:51,478 [INFO] _________________________________________________________________
2019-12-27 22:42:51,478 [INFO] dropout_77 (Dropout)         (None, 500)               0         
2019-12-27 22:42:51,478 [INFO] _________________________________________________________________
2019-12-27 22:42:51,478 [INFO] dense_94 (Dense)             (None, 400)               200400    
2019-12-27 22:42:51,478 [INFO] _________________________________________________________________
2019-12-27 22:42:51,478 [INFO] batch_normalization_78 (Batc (None, 400)               1600      
2019-12-27 22:42:51,478 [INFO] _________________________________________________________________
2019-12-27 22:42:51,478 [INFO] dropout_78 (Dropout)         (None, 400)               0         
2019-12-27 22:42:51,478 [INFO] _________________________________________________________________
2019-12-27 22:42:51,478 [INFO] dense_95 (Dense)             (None, 256)               102656    
2019-12-27 22:42:51,479 [INFO] _________________________________________________________________
2019-12-27 22:42:51,479 [INFO] batch_normalization_79 (Batc (None, 256)               1024      
2019-12-27 22:42:51,479 [INFO] _________________________________________________________________
2019-12-27 22:42:51,479 [INFO] dropout_79 (Dropout)         (None, 256)               0         
2019-12-27 22:42:51,479 [INFO] _________________________________________________________________
2019-12-27 22:42:51,479 [INFO] dense_96 (Dense)             (None, 128)               32896     
2019-12-27 22:42:51,479 [INFO] _________________________________________________________________
2019-12-27 22:42:51,479 [INFO] batch_normalization_80 (Batc (None, 128)               512       
2019-12-27 22:42:51,479 [INFO] _________________________________________________________________
2019-12-27 22:42:51,479 [INFO] dropout_80 (Dropout)         (None, 128)               0         
2019-12-27 22:42:51,479 [INFO] _________________________________________________________________
2019-12-27 22:42:51,479 [INFO] dense_97 (Dense)             (None, 64)                8256      
2019-12-27 22:42:51,479 [INFO] _________________________________________________________________
2019-12-27 22:42:51,479 [INFO] batch_normalization_81 (Batc (None, 64)                256       
2019-12-27 22:42:51,479 [INFO] _________________________________________________________________
2019-12-27 22:42:51,479 [INFO] dropout_81 (Dropout)         (None, 64)                0         
2019-12-27 22:42:51,479 [INFO] _________________________________________________________________
2019-12-27 22:42:51,479 [INFO] dense_98 (Dense)             (None, 32)                2080      
2019-12-27 22:42:51,480 [INFO] _________________________________________________________________
2019-12-27 22:42:51,480 [INFO] batch_normalization_82 (Batc (None, 32)                128       
2019-12-27 22:42:51,480 [INFO] _________________________________________________________________
2019-12-27 22:42:51,480 [INFO] dropout_82 (Dropout)         (None, 32)                0         
2019-12-27 22:42:51,480 [INFO] _________________________________________________________________
2019-12-27 22:42:51,480 [INFO] dense_99 (Dense)             (None, 16)                528       
2019-12-27 22:42:51,480 [INFO] _________________________________________________________________
2019-12-27 22:42:51,480 [INFO] batch_normalization_83 (Batc (None, 16)                64        
2019-12-27 22:42:51,480 [INFO] _________________________________________________________________
2019-12-27 22:42:51,480 [INFO] dropout_83 (Dropout)         (None, 16)                0         
2019-12-27 22:42:51,480 [INFO] _________________________________________________________________
2019-12-27 22:42:51,480 [INFO] dense_100 (Dense)            (None, 12)                204       
2019-12-27 22:42:51,480 [INFO] =================================================================
2019-12-27 22:42:51,480 [INFO] Total params: 392,104
2019-12-27 22:42:51,481 [INFO] Trainable params: 389,312
2019-12-27 22:42:51,481 [INFO] Non-trainable params: 2,792
2019-12-27 22:42:51,481 [INFO] _________________________________________________________________
2019-12-27 22:42:51,481 [INFO] Training model
…
2019-12-28 03:06:25,059 [INFO] Reading complete. time_to_read=0.07 seconds
2019-12-28 03:06:25,059 [INFO] Reading HDF dataset ../Datasets/full_datasets/ids2017/y_test.h5
2019-12-28 03:06:25,127 [INFO] Reading complete. time_to_read=0.07 seconds
2019-12-28 03:06:28,289 [INFO] Initializing model
2019-12-28 03:06:29,116 [INFO] _________________________________________________________________
2019-12-28 03:06:29,116 [INFO] Layer (type)                 Output Shape              Param #   
2019-12-28 03:06:29,116 [INFO] =================================================================
2019-12-28 03:06:29,116 [INFO] dense_101 (Dense)            (None, 600)               47400     
2019-12-28 03:06:29,116 [INFO] _________________________________________________________________
2019-12-28 03:06:29,116 [INFO] batch_normalization_84 (Batc (None, 600)               2400      
2019-12-28 03:06:29,116 [INFO] _________________________________________________________________
2019-12-28 03:06:29,116 [INFO] dropout_84 (Dropout)         (None, 600)               0         
2019-12-28 03:06:29,116 [INFO] _________________________________________________________________
2019-12-28 03:06:29,116 [INFO] dense_102 (Dense)            (None, 500)               300500    
2019-12-28 03:06:29,116 [INFO] _________________________________________________________________
2019-12-28 03:06:29,116 [INFO] batch_normalization_85 (Batc (None, 500)               2000      
2019-12-28 03:06:29,116 [INFO] _________________________________________________________________
2019-12-28 03:06:29,116 [INFO] dropout_85 (Dropout)         (None, 500)               0         
2019-12-28 03:06:29,116 [INFO] _________________________________________________________________
2019-12-28 03:06:29,117 [INFO] dense_103 (Dense)            (None, 400)               200400    
2019-12-28 03:06:29,117 [INFO] _________________________________________________________________
2019-12-28 03:06:29,117 [INFO] batch_normalization_86 (Batc (None, 400)               1600      
2019-12-28 03:06:29,117 [INFO] _________________________________________________________________
2019-12-28 03:06:29,117 [INFO] dropout_86 (Dropout)         (None, 400)               0         
2019-12-28 03:06:29,117 [INFO] _________________________________________________________________
2019-12-28 03:06:29,117 [INFO] dense_104 (Dense)            (None, 256)               102656    
2019-12-28 03:06:29,117 [INFO] _________________________________________________________________
2019-12-28 03:06:29,117 [INFO] batch_normalization_87 (Batc (None, 256)               1024      
2019-12-28 03:06:29,117 [INFO] _________________________________________________________________
2019-12-28 03:06:29,117 [INFO] dropout_87 (Dropout)         (None, 256)               0         
2019-12-28 03:06:29,117 [INFO] _________________________________________________________________
2019-12-28 03:06:29,117 [INFO] dense_105 (Dense)            (None, 128)               32896     
2019-12-28 03:06:29,117 [INFO] _________________________________________________________________
2019-12-28 03:06:29,117 [INFO] batch_normalization_88 (Batc (None, 128)               512       
2019-12-28 03:06:29,117 [INFO] _________________________________________________________________
2019-12-28 03:06:29,117 [INFO] dropout_88 (Dropout)         (None, 128)               0         
2019-12-28 03:06:29,117 [INFO] _________________________________________________________________
2019-12-28 03:06:29,118 [INFO] dense_106 (Dense)            (None, 64)                8256      
2019-12-28 03:06:29,118 [INFO] _________________________________________________________________
2019-12-28 03:06:29,118 [INFO] batch_normalization_89 (Batc (None, 64)                256       
2019-12-28 03:06:29,118 [INFO] _________________________________________________________________
2019-12-28 03:06:29,118 [INFO] dropout_89 (Dropout)         (None, 64)                0         
2019-12-28 03:06:29,118 [INFO] _________________________________________________________________
2019-12-28 03:06:29,118 [INFO] dense_107 (Dense)            (None, 32)                2080      
2019-12-28 03:06:29,118 [INFO] _________________________________________________________________
2019-12-28 03:06:29,118 [INFO] batch_normalization_90 (Batc (None, 32)                128       
2019-12-28 03:06:29,118 [INFO] _________________________________________________________________
2019-12-28 03:06:29,118 [INFO] dropout_90 (Dropout)         (None, 32)                0         
2019-12-28 03:06:29,118 [INFO] _________________________________________________________________
2019-12-28 03:06:29,118 [INFO] dense_108 (Dense)            (None, 16)                528       
2019-12-28 03:06:29,118 [INFO] _________________________________________________________________
2019-12-28 03:06:29,118 [INFO] batch_normalization_91 (Batc (None, 16)                64        
2019-12-28 03:06:29,118 [INFO] _________________________________________________________________
2019-12-28 03:06:29,118 [INFO] dropout_91 (Dropout)         (None, 16)                0         
2019-12-28 03:06:29,118 [INFO] _________________________________________________________________
2019-12-28 03:06:29,119 [INFO] dense_109 (Dense)            (None, 12)                204       
2019-12-28 03:06:29,119 [INFO] =================================================================
2019-12-28 03:06:29,119 [INFO] Total params: 702,904
2019-12-28 03:06:29,119 [INFO] Trainable params: 698,912
2019-12-28 03:06:29,119 [INFO] Non-trainable params: 3,992
2019-12-28 03:06:29,119 [INFO] _________________________________________________________________
2019-12-28 03:06:29,119 [INFO] Training model
…
2019-12-28 08:42:16,785 [INFO] Reading complete. time_to_read=0.07 seconds
2019-12-28 08:42:16,785 [INFO] Reading HDF dataset ../Datasets/full_datasets/ids2017/y_test.h5
2019-12-28 08:42:16,853 [INFO] Reading complete. time_to_read=0.07 seconds
2019-12-28 08:42:19,987 [INFO] Initializing model
2019-12-28 08:42:20,931 [INFO] _________________________________________________________________
2019-12-28 08:42:20,931 [INFO] Layer (type)                 Output Shape              Param #   
2019-12-28 08:42:20,931 [INFO] =================================================================
2019-12-28 08:42:20,932 [INFO] dense_110 (Dense)            (None, 700)               55300     
2019-12-28 08:42:20,932 [INFO] _________________________________________________________________
2019-12-28 08:42:20,932 [INFO] batch_normalization_92 (Batc (None, 700)               2800      
2019-12-28 08:42:20,932 [INFO] _________________________________________________________________
2019-12-28 08:42:20,932 [INFO] dropout_92 (Dropout)         (None, 700)               0         
2019-12-28 08:42:20,932 [INFO] _________________________________________________________________
2019-12-28 08:42:20,932 [INFO] dense_111 (Dense)            (None, 600)               420600    
2019-12-28 08:42:20,932 [INFO] _________________________________________________________________
2019-12-28 08:42:20,932 [INFO] batch_normalization_93 (Batc (None, 600)               2400      
2019-12-28 08:42:20,932 [INFO] _________________________________________________________________
2019-12-28 08:42:20,932 [INFO] dropout_93 (Dropout)         (None, 600)               0         
2019-12-28 08:42:20,932 [INFO] _________________________________________________________________
2019-12-28 08:42:20,932 [INFO] dense_112 (Dense)            (None, 500)               300500    
2019-12-28 08:42:20,932 [INFO] _________________________________________________________________
2019-12-28 08:42:20,932 [INFO] batch_normalization_94 (Batc (None, 500)               2000      
2019-12-28 08:42:20,932 [INFO] _________________________________________________________________
2019-12-28 08:42:20,933 [INFO] dropout_94 (Dropout)         (None, 500)               0         
2019-12-28 08:42:20,933 [INFO] _________________________________________________________________
2019-12-28 08:42:20,933 [INFO] dense_113 (Dense)            (None, 400)               200400    
2019-12-28 08:42:20,933 [INFO] _________________________________________________________________
2019-12-28 08:42:20,933 [INFO] batch_normalization_95 (Batc (None, 400)               1600      
2019-12-28 08:42:20,933 [INFO] _________________________________________________________________
2019-12-28 08:42:20,933 [INFO] dropout_95 (Dropout)         (None, 400)               0         
2019-12-28 08:42:20,933 [INFO] _________________________________________________________________
2019-12-28 08:42:20,933 [INFO] dense_114 (Dense)            (None, 256)               102656    
2019-12-28 08:42:20,933 [INFO] _________________________________________________________________
2019-12-28 08:42:20,933 [INFO] batch_normalization_96 (Batc (None, 256)               1024      
2019-12-28 08:42:20,933 [INFO] _________________________________________________________________
2019-12-28 08:42:20,933 [INFO] dropout_96 (Dropout)         (None, 256)               0         
2019-12-28 08:42:20,933 [INFO] _________________________________________________________________
2019-12-28 08:42:20,933 [INFO] dense_115 (Dense)            (None, 128)               32896     
2019-12-28 08:42:20,933 [INFO] _________________________________________________________________
2019-12-28 08:42:20,933 [INFO] batch_normalization_97 (Batc (None, 128)               512       
2019-12-28 08:42:20,933 [INFO] _________________________________________________________________
2019-12-28 08:42:20,934 [INFO] dropout_97 (Dropout)         (None, 128)               0         
2019-12-28 08:42:20,934 [INFO] _________________________________________________________________
2019-12-28 08:42:20,934 [INFO] dense_116 (Dense)            (None, 64)                8256      
2019-12-28 08:42:20,934 [INFO] _________________________________________________________________
2019-12-28 08:42:20,934 [INFO] batch_normalization_98 (Batc (None, 64)                256       
2019-12-28 08:42:20,934 [INFO] _________________________________________________________________
2019-12-28 08:42:20,934 [INFO] dropout_98 (Dropout)         (None, 64)                0         
2019-12-28 08:42:20,934 [INFO] _________________________________________________________________
2019-12-28 08:42:20,934 [INFO] dense_117 (Dense)            (None, 32)                2080      
2019-12-28 08:42:20,934 [INFO] _________________________________________________________________
2019-12-28 08:42:20,934 [INFO] batch_normalization_99 (Batc (None, 32)                128       
2019-12-28 08:42:20,934 [INFO] _________________________________________________________________
2019-12-28 08:42:20,934 [INFO] dropout_99 (Dropout)         (None, 32)                0         
2019-12-28 08:42:20,934 [INFO] _________________________________________________________________
2019-12-28 08:42:20,934 [INFO] dense_118 (Dense)            (None, 16)                528       
2019-12-28 08:42:20,934 [INFO] _________________________________________________________________
2019-12-28 08:42:20,934 [INFO] batch_normalization_100 (Bat (None, 16)                64        
2019-12-28 08:42:20,934 [INFO] _________________________________________________________________
2019-12-28 08:42:20,935 [INFO] dropout_100 (Dropout)        (None, 16)                0         
2019-12-28 08:42:20,935 [INFO] _________________________________________________________________
2019-12-28 08:42:20,935 [INFO] dense_119 (Dense)            (None, 12)                204       
2019-12-28 08:42:20,935 [INFO] =================================================================
2019-12-28 08:42:20,935 [INFO] Total params: 1,134,204
2019-12-28 08:42:20,935 [INFO] Trainable params: 1,128,812
2019-12-28 08:42:20,935 [INFO] Non-trainable params: 5,392
2019-12-28 08:42:20,935 [INFO] _________________________________________________________________
2019-12-28 08:42:20,935 [INFO] Training model
…
2019-12-28 18:34:12,862 [INFO] Reading complete. time_to_read=0.07 seconds
2019-12-28 18:34:12,862 [INFO] Reading HDF dataset ../Datasets/full_datasets/ids2017/y_test.h5
2019-12-28 18:34:12,931 [INFO] Reading complete. time_to_read=0.07 seconds
2019-12-28 18:34:16,083 [INFO] Initializing model
2019-12-28 18:34:17,176 [INFO] _________________________________________________________________
2019-12-28 18:34:17,176 [INFO] Layer (type)                 Output Shape              Param #   
2019-12-28 18:34:17,176 [INFO] =================================================================
2019-12-28 18:34:17,176 [INFO] dense_120 (Dense)            (None, 800)               63200     
2019-12-28 18:34:17,176 [INFO] _________________________________________________________________
2019-12-28 18:34:17,176 [INFO] batch_normalization_101 (Bat (None, 800)               3200      
2019-12-28 18:34:17,176 [INFO] _________________________________________________________________
2019-12-28 18:34:17,177 [INFO] dropout_101 (Dropout)        (None, 800)               0         
2019-12-28 18:34:17,177 [INFO] _________________________________________________________________
2019-12-28 18:34:17,177 [INFO] dense_121 (Dense)            (None, 700)               560700    
2019-12-28 18:34:17,177 [INFO] _________________________________________________________________
2019-12-28 18:34:17,177 [INFO] batch_normalization_102 (Bat (None, 700)               2800      
2019-12-28 18:34:17,177 [INFO] _________________________________________________________________
2019-12-28 18:34:17,177 [INFO] dropout_102 (Dropout)        (None, 700)               0         
2019-12-28 18:34:17,177 [INFO] _________________________________________________________________
2019-12-28 18:34:17,177 [INFO] dense_122 (Dense)            (None, 600)               420600    
2019-12-28 18:34:17,177 [INFO] _________________________________________________________________
2019-12-28 18:34:17,177 [INFO] batch_normalization_103 (Bat (None, 600)               2400      
2019-12-28 18:34:17,177 [INFO] _________________________________________________________________
2019-12-28 18:34:17,177 [INFO] dropout_103 (Dropout)        (None, 600)               0         
2019-12-28 18:34:17,177 [INFO] _________________________________________________________________
2019-12-28 18:34:17,178 [INFO] dense_123 (Dense)            (None, 500)               300500    
2019-12-28 18:34:17,178 [INFO] _________________________________________________________________
2019-12-28 18:34:17,178 [INFO] batch_normalization_104 (Bat (None, 500)               2000      
2019-12-28 18:34:17,178 [INFO] _________________________________________________________________
2019-12-28 18:34:17,178 [INFO] dropout_104 (Dropout)        (None, 500)               0         
2019-12-28 18:34:17,178 [INFO] _________________________________________________________________
2019-12-28 18:34:17,178 [INFO] dense_124 (Dense)            (None, 400)               200400    
2019-12-28 18:34:17,178 [INFO] _________________________________________________________________
2019-12-28 18:34:17,178 [INFO] batch_normalization_105 (Bat (None, 400)               1600      
2019-12-28 18:34:17,178 [INFO] _________________________________________________________________
2019-12-28 18:34:17,178 [INFO] dropout_105 (Dropout)        (None, 400)               0         
2019-12-28 18:34:17,178 [INFO] _________________________________________________________________
2019-12-28 18:34:17,178 [INFO] dense_125 (Dense)            (None, 256)               102656    
2019-12-28 18:34:17,178 [INFO] _________________________________________________________________
2019-12-28 18:34:17,178 [INFO] batch_normalization_106 (Bat (None, 256)               1024      
2019-12-28 18:34:17,178 [INFO] _________________________________________________________________
2019-12-28 18:34:17,179 [INFO] dropout_106 (Dropout)        (None, 256)               0         
2019-12-28 18:34:17,179 [INFO] _________________________________________________________________
2019-12-28 18:34:17,179 [INFO] dense_126 (Dense)            (None, 128)               32896     
2019-12-28 18:34:17,179 [INFO] _________________________________________________________________
2019-12-28 18:34:17,179 [INFO] batch_normalization_107 (Bat (None, 128)               512       
2019-12-28 18:34:17,179 [INFO] _________________________________________________________________
2019-12-28 18:34:17,179 [INFO] dropout_107 (Dropout)        (None, 128)               0         
2019-12-28 18:34:17,179 [INFO] _________________________________________________________________
2019-12-28 18:34:17,179 [INFO] dense_127 (Dense)            (None, 64)                8256      
2019-12-28 18:34:17,179 [INFO] _________________________________________________________________
2019-12-28 18:34:17,179 [INFO] batch_normalization_108 (Bat (None, 64)                256       
2019-12-28 18:34:17,179 [INFO] _________________________________________________________________
2019-12-28 18:34:17,179 [INFO] dropout_108 (Dropout)        (None, 64)                0         
2019-12-28 18:34:17,179 [INFO] _________________________________________________________________
2019-12-28 18:34:17,179 [INFO] dense_128 (Dense)            (None, 32)                2080      
2019-12-28 18:34:17,179 [INFO] _________________________________________________________________
2019-12-28 18:34:17,180 [INFO] batch_normalization_109 (Bat (None, 32)                128       
2019-12-28 18:34:17,180 [INFO] _________________________________________________________________
2019-12-28 18:34:17,180 [INFO] dropout_109 (Dropout)        (None, 32)                0         
2019-12-28 18:34:17,180 [INFO] _________________________________________________________________
2019-12-28 18:34:17,180 [INFO] dense_129 (Dense)            (None, 16)                528       
2019-12-28 18:34:17,180 [INFO] _________________________________________________________________
2019-12-28 18:34:17,180 [INFO] batch_normalization_110 (Bat (None, 16)                64        
2019-12-28 18:34:17,180 [INFO] _________________________________________________________________
2019-12-28 18:34:17,180 [INFO] dropout_110 (Dropout)        (None, 16)                0         
2019-12-28 18:34:17,180 [INFO] _________________________________________________________________
2019-12-28 18:34:17,180 [INFO] dense_130 (Dense)            (None, 12)                204       
2019-12-28 18:34:17,180 [INFO] =================================================================
2019-12-28 18:34:17,181 [INFO] Total params: 1,706,004
2019-12-28 18:34:17,181 [INFO] Trainable params: 1,699,012
2019-12-28 18:34:17,181 [INFO] Non-trainable params: 6,992
2019-12-28 18:34:17,181 [INFO] _________________________________________________________________
2019-12-28 18:34:17,181 [INFO] Training model
…
2019-12-30 18:06:13,702 [INFO] Reading complete. time_to_read=0.08 seconds
2019-12-30 18:06:13,702 [INFO] Reading HDF dataset ../Datasets/small_datasets/ids2018/y_test.h5
2019-12-30 18:06:13,786 [INFO] Reading complete. time_to_read=0.08 seconds
2019-12-30 18:06:17,687 [INFO] Initializing model
2019-12-30 18:06:17,959 [INFO] _________________________________________________________________
2019-12-30 18:06:17,959 [INFO] Layer (type)                 Output Shape              Param #   
2019-12-30 18:06:17,959 [INFO] =================================================================
2019-12-30 18:06:17,960 [INFO] dense_3 (Dense)              (None, 32)                2496      
2019-12-30 18:06:17,960 [INFO] _________________________________________________________________
2019-12-30 18:06:17,960 [INFO] batch_normalization_2 (Batch (None, 32)                128       
2019-12-30 18:06:17,960 [INFO] _________________________________________________________________
2019-12-30 18:06:17,960 [INFO] dropout_2 (Dropout)          (None, 32)                0         
2019-12-30 18:06:17,960 [INFO] _________________________________________________________________
2019-12-30 18:06:17,960 [INFO] dense_4 (Dense)              (None, 16)                528       
2019-12-30 18:06:17,960 [INFO] _________________________________________________________________
2019-12-30 18:06:17,960 [INFO] batch_normalization_3 (Batch (None, 16)                64        
2019-12-30 18:06:17,960 [INFO] _________________________________________________________________
2019-12-30 18:06:17,960 [INFO] dropout_3 (Dropout)          (None, 16)                0         
2019-12-30 18:06:17,960 [INFO] _________________________________________________________________
2019-12-30 18:06:17,960 [INFO] dense_5 (Dense)              (None, 15)                255       
2019-12-30 18:06:17,960 [INFO] =================================================================
2019-12-30 18:06:17,960 [INFO] Total params: 3,471
2019-12-30 18:06:17,960 [INFO] Trainable params: 3,375
2019-12-30 18:06:17,961 [INFO] Non-trainable params: 96
2019-12-30 18:06:17,961 [INFO] _________________________________________________________________
2019-12-30 18:06:17,961 [INFO] Training model
…
2019-12-30 18:56:33,148 [INFO] Reading complete. time_to_read=0.08 seconds
2019-12-30 18:56:33,148 [INFO] Reading HDF dataset ../Datasets/small_datasets/ids2018/y_test.h5
2019-12-30 18:56:33,233 [INFO] Reading complete. time_to_read=0.08 seconds
2019-12-30 18:56:37,104 [INFO] Initializing model
2019-12-30 18:56:37,460 [INFO] _________________________________________________________________
2019-12-30 18:56:37,460 [INFO] Layer (type)                 Output Shape              Param #   
2019-12-30 18:56:37,460 [INFO] =================================================================
2019-12-30 18:56:37,460 [INFO] dense_6 (Dense)              (None, 64)                4992      
2019-12-30 18:56:37,460 [INFO] _________________________________________________________________
2019-12-30 18:56:37,461 [INFO] batch_normalization_4 (Batch (None, 64)                256       
2019-12-30 18:56:37,461 [INFO] _________________________________________________________________
2019-12-30 18:56:37,461 [INFO] dropout_4 (Dropout)          (None, 64)                0         
2019-12-30 18:56:37,461 [INFO] _________________________________________________________________
2019-12-30 18:56:37,461 [INFO] dense_7 (Dense)              (None, 32)                2080      
2019-12-30 18:56:37,461 [INFO] _________________________________________________________________
2019-12-30 18:56:37,461 [INFO] batch_normalization_5 (Batch (None, 32)                128       
2019-12-30 18:56:37,461 [INFO] _________________________________________________________________
2019-12-30 18:56:37,461 [INFO] dropout_5 (Dropout)          (None, 32)                0         
2019-12-30 18:56:37,461 [INFO] _________________________________________________________________
2019-12-30 18:56:37,461 [INFO] dense_8 (Dense)              (None, 16)                528       
2019-12-30 18:56:37,461 [INFO] _________________________________________________________________
2019-12-30 18:56:37,461 [INFO] batch_normalization_6 (Batch (None, 16)                64        
2019-12-30 18:56:37,461 [INFO] _________________________________________________________________
2019-12-30 18:56:37,461 [INFO] dropout_6 (Dropout)          (None, 16)                0         
2019-12-30 18:56:37,461 [INFO] _________________________________________________________________
2019-12-30 18:56:37,461 [INFO] dense_9 (Dense)              (None, 15)                255       
2019-12-30 18:56:37,462 [INFO] =================================================================
2019-12-30 18:56:37,462 [INFO] Total params: 8,303
2019-12-30 18:56:37,462 [INFO] Trainable params: 8,079
2019-12-30 18:56:37,462 [INFO] Non-trainable params: 224
2019-12-30 18:56:37,462 [INFO] _________________________________________________________________
2019-12-30 18:56:37,462 [INFO] Training model
…
2019-12-30 21:09:08,353 [INFO] Reading complete. time_to_read=0.08 seconds
2019-12-30 21:09:08,353 [INFO] Reading HDF dataset ../Datasets/small_datasets/ids2018/y_test.h5
2019-12-30 21:09:08,437 [INFO] Reading complete. time_to_read=0.08 seconds
2019-12-30 21:09:12,334 [INFO] Initializing model
2019-12-30 21:09:12,779 [INFO] _________________________________________________________________
2019-12-30 21:09:12,780 [INFO] Layer (type)                 Output Shape              Param #   
2019-12-30 21:09:12,780 [INFO] =================================================================
2019-12-30 21:09:12,780 [INFO] dense_10 (Dense)             (None, 128)               9984      
2019-12-30 21:09:12,780 [INFO] _________________________________________________________________
2019-12-30 21:09:12,780 [INFO] batch_normalization_7 (Batch (None, 128)               512       
2019-12-30 21:09:12,780 [INFO] _________________________________________________________________
2019-12-30 21:09:12,780 [INFO] dropout_7 (Dropout)          (None, 128)               0         
2019-12-30 21:09:12,780 [INFO] _________________________________________________________________
2019-12-30 21:09:12,780 [INFO] dense_11 (Dense)             (None, 64)                8256      
2019-12-30 21:09:12,780 [INFO] _________________________________________________________________
2019-12-30 21:09:12,780 [INFO] batch_normalization_8 (Batch (None, 64)                256       
2019-12-30 21:09:12,780 [INFO] _________________________________________________________________
2019-12-30 21:09:12,780 [INFO] dropout_8 (Dropout)          (None, 64)                0         
2019-12-30 21:09:12,780 [INFO] _________________________________________________________________
2019-12-30 21:09:12,780 [INFO] dense_12 (Dense)             (None, 32)                2080      
2019-12-30 21:09:12,780 [INFO] _________________________________________________________________
2019-12-30 21:09:12,781 [INFO] batch_normalization_9 (Batch (None, 32)                128       
2019-12-30 21:09:12,781 [INFO] _________________________________________________________________
2019-12-30 21:09:12,781 [INFO] dropout_9 (Dropout)          (None, 32)                0         
2019-12-30 21:09:12,781 [INFO] _________________________________________________________________
2019-12-30 21:09:12,781 [INFO] dense_13 (Dense)             (None, 16)                528       
2019-12-30 21:09:12,781 [INFO] _________________________________________________________________
2019-12-30 21:09:12,781 [INFO] batch_normalization_10 (Batc (None, 16)                64        
2019-12-30 21:09:12,781 [INFO] _________________________________________________________________
2019-12-30 21:09:12,781 [INFO] dropout_10 (Dropout)         (None, 16)                0         
2019-12-30 21:09:12,781 [INFO] _________________________________________________________________
2019-12-30 21:09:12,781 [INFO] dense_14 (Dense)             (None, 15)                255       
2019-12-30 21:09:12,781 [INFO] =================================================================
2019-12-30 21:09:12,781 [INFO] Total params: 22,063
2019-12-30 21:09:12,781 [INFO] Trainable params: 21,583
2019-12-30 21:09:12,781 [INFO] Non-trainable params: 480
2019-12-30 21:09:12,782 [INFO] _________________________________________________________________
2019-12-30 21:09:12,782 [INFO] Training model
…
2019-12-31 00:02:23,437 [INFO] Reading complete. time_to_read=0.08 seconds
2019-12-31 00:02:23,437 [INFO] Reading HDF dataset ../Datasets/small_datasets/ids2018/y_test.h5
2019-12-31 00:02:23,523 [INFO] Reading complete. time_to_read=0.09 seconds
2019-12-31 00:02:27,411 [INFO] Initializing model
2019-12-31 00:02:27,938 [INFO] _________________________________________________________________
2019-12-31 00:02:27,938 [INFO] Layer (type)                 Output Shape              Param #   
2019-12-31 00:02:27,938 [INFO] =================================================================
2019-12-31 00:02:27,938 [INFO] dense_15 (Dense)             (None, 256)               19968     
2019-12-31 00:02:27,938 [INFO] _________________________________________________________________
2019-12-31 00:02:27,938 [INFO] batch_normalization_11 (Batc (None, 256)               1024      
2019-12-31 00:02:27,938 [INFO] _________________________________________________________________
2019-12-31 00:02:27,938 [INFO] dropout_11 (Dropout)         (None, 256)               0         
2019-12-31 00:02:27,938 [INFO] _________________________________________________________________
2019-12-31 00:02:27,939 [INFO] dense_16 (Dense)             (None, 128)               32896     
2019-12-31 00:02:27,939 [INFO] _________________________________________________________________
2019-12-31 00:02:27,939 [INFO] batch_normalization_12 (Batc (None, 128)               512       
2019-12-31 00:02:27,939 [INFO] _________________________________________________________________
2019-12-31 00:02:27,939 [INFO] dropout_12 (Dropout)         (None, 128)               0         
2019-12-31 00:02:27,939 [INFO] _________________________________________________________________
2019-12-31 00:02:27,939 [INFO] dense_17 (Dense)             (None, 64)                8256      
2019-12-31 00:02:27,939 [INFO] _________________________________________________________________
2019-12-31 00:02:27,939 [INFO] batch_normalization_13 (Batc (None, 64)                256       
2019-12-31 00:02:27,939 [INFO] _________________________________________________________________
2019-12-31 00:02:27,939 [INFO] dropout_13 (Dropout)         (None, 64)                0         
2019-12-31 00:02:27,939 [INFO] _________________________________________________________________
2019-12-31 00:02:27,939 [INFO] dense_18 (Dense)             (None, 32)                2080      
2019-12-31 00:02:27,939 [INFO] _________________________________________________________________
2019-12-31 00:02:27,939 [INFO] batch_normalization_14 (Batc (None, 32)                128       
2019-12-31 00:02:27,939 [INFO] _________________________________________________________________
2019-12-31 00:02:27,939 [INFO] dropout_14 (Dropout)         (None, 32)                0         
2019-12-31 00:02:27,940 [INFO] _________________________________________________________________
2019-12-31 00:02:27,940 [INFO] dense_19 (Dense)             (None, 16)                528       
2019-12-31 00:02:27,940 [INFO] _________________________________________________________________
2019-12-31 00:02:27,940 [INFO] batch_normalization_15 (Batc (None, 16)                64        
2019-12-31 00:02:27,940 [INFO] _________________________________________________________________
2019-12-31 00:02:27,940 [INFO] dropout_15 (Dropout)         (None, 16)                0         
2019-12-31 00:02:27,940 [INFO] _________________________________________________________________
2019-12-31 00:02:27,940 [INFO] dense_20 (Dense)             (None, 15)                255       
2019-12-31 00:02:27,940 [INFO] =================================================================
2019-12-31 00:02:27,940 [INFO] Total params: 65,967
2019-12-31 00:02:27,940 [INFO] Trainable params: 64,975
2019-12-31 00:02:27,940 [INFO] Non-trainable params: 992
2019-12-31 00:02:27,940 [INFO] _________________________________________________________________
2019-12-31 00:02:27,940 [INFO] Training model
…
2019-12-31 04:02:18,775 [INFO] Reading complete. time_to_read=0.09 seconds
2019-12-31 04:02:18,775 [INFO] Reading HDF dataset ../Datasets/small_datasets/ids2018/y_test.h5
2019-12-31 04:02:18,860 [INFO] Reading complete. time_to_read=0.09 seconds
2019-12-31 04:02:22,725 [INFO] Initializing model
2019-12-31 04:02:23,352 [INFO] _________________________________________________________________
2019-12-31 04:02:23,352 [INFO] Layer (type)                 Output Shape              Param #   
2019-12-31 04:02:23,352 [INFO] =================================================================
2019-12-31 04:02:23,352 [INFO] dense_21 (Dense)             (None, 400)               31200     
2019-12-31 04:02:23,352 [INFO] _________________________________________________________________
2019-12-31 04:02:23,352 [INFO] batch_normalization_16 (Batc (None, 400)               1600      
2019-12-31 04:02:23,352 [INFO] _________________________________________________________________
2019-12-31 04:02:23,352 [INFO] dropout_16 (Dropout)         (None, 400)               0         
2019-12-31 04:02:23,352 [INFO] _________________________________________________________________
2019-12-31 04:02:23,352 [INFO] dense_22 (Dense)             (None, 256)               102656    
2019-12-31 04:02:23,352 [INFO] _________________________________________________________________
2019-12-31 04:02:23,353 [INFO] batch_normalization_17 (Batc (None, 256)               1024      
2019-12-31 04:02:23,353 [INFO] _________________________________________________________________
2019-12-31 04:02:23,353 [INFO] dropout_17 (Dropout)         (None, 256)               0         
2019-12-31 04:02:23,353 [INFO] _________________________________________________________________
2019-12-31 04:02:23,353 [INFO] dense_23 (Dense)             (None, 128)               32896     
2019-12-31 04:02:23,353 [INFO] _________________________________________________________________
2019-12-31 04:02:23,353 [INFO] batch_normalization_18 (Batc (None, 128)               512       
2019-12-31 04:02:23,353 [INFO] _________________________________________________________________
2019-12-31 04:02:23,353 [INFO] dropout_18 (Dropout)         (None, 128)               0         
2019-12-31 04:02:23,353 [INFO] _________________________________________________________________
2019-12-31 04:02:23,353 [INFO] dense_24 (Dense)             (None, 64)                8256      
2019-12-31 04:02:23,353 [INFO] _________________________________________________________________
2019-12-31 04:02:23,353 [INFO] batch_normalization_19 (Batc (None, 64)                256       
2019-12-31 04:02:23,353 [INFO] _________________________________________________________________
2019-12-31 04:02:23,353 [INFO] dropout_19 (Dropout)         (None, 64)                0         
2019-12-31 04:02:23,353 [INFO] _________________________________________________________________
2019-12-31 04:02:23,353 [INFO] dense_25 (Dense)             (None, 32)                2080      
2019-12-31 04:02:23,354 [INFO] _________________________________________________________________
2019-12-31 04:02:23,354 [INFO] batch_normalization_20 (Batc (None, 32)                128       
2019-12-31 04:02:23,354 [INFO] _________________________________________________________________
2019-12-31 04:02:23,354 [INFO] dropout_20 (Dropout)         (None, 32)                0         
2019-12-31 04:02:23,354 [INFO] _________________________________________________________________
2019-12-31 04:02:23,354 [INFO] dense_26 (Dense)             (None, 16)                528       
2019-12-31 04:02:23,354 [INFO] _________________________________________________________________
2019-12-31 04:02:23,354 [INFO] batch_normalization_21 (Batc (None, 16)                64        
2019-12-31 04:02:23,354 [INFO] _________________________________________________________________
2019-12-31 04:02:23,354 [INFO] dropout_21 (Dropout)         (None, 16)                0         
2019-12-31 04:02:23,354 [INFO] _________________________________________________________________
2019-12-31 04:02:23,354 [INFO] dense_27 (Dense)             (None, 15)                255       
2019-12-31 04:02:23,354 [INFO] =================================================================
2019-12-31 04:02:23,354 [INFO] Total params: 181,455
2019-12-31 04:02:23,354 [INFO] Trainable params: 179,663
2019-12-31 04:02:23,355 [INFO] Non-trainable params: 1,792
2019-12-31 04:02:23,355 [INFO] _________________________________________________________________
2019-12-31 04:02:23,355 [INFO] Training model
…
2019-12-31 09:31:30,827 [INFO] Reading complete. time_to_read=0.09 seconds
2019-12-31 09:31:30,827 [INFO] Reading HDF dataset ../Datasets/small_datasets/ids2018/y_test.h5
2019-12-31 09:31:30,913 [INFO] Reading complete. time_to_read=0.09 seconds
2019-12-31 09:31:34,896 [INFO] Initializing model
2019-12-31 09:31:35,469 [INFO] _________________________________________________________________
2019-12-31 09:31:35,470 [INFO] Layer (type)                 Output Shape              Param #   
2019-12-31 09:31:35,470 [INFO] =================================================================
2019-12-31 09:31:35,470 [INFO] dense_28 (Dense)             (None, 500)               39000     
2019-12-31 09:31:35,470 [INFO] _________________________________________________________________
2019-12-31 09:31:35,470 [INFO] batch_normalization_22 (Batc (None, 500)               2000      
2019-12-31 09:31:35,470 [INFO] _________________________________________________________________
2019-12-31 09:31:35,470 [INFO] dropout_22 (Dropout)         (None, 500)               0         
2019-12-31 09:31:35,470 [INFO] _________________________________________________________________
2019-12-31 09:31:35,470 [INFO] dense_29 (Dense)             (None, 400)               200400    
2019-12-31 09:31:35,470 [INFO] _________________________________________________________________
2019-12-31 09:31:35,470 [INFO] batch_normalization_23 (Batc (None, 400)               1600      
2019-12-31 09:31:35,470 [INFO] _________________________________________________________________
2019-12-31 09:31:35,470 [INFO] dropout_23 (Dropout)         (None, 400)               0         
2019-12-31 09:31:35,470 [INFO] _________________________________________________________________
2019-12-31 09:31:35,470 [INFO] dense_30 (Dense)             (None, 256)               102656    
2019-12-31 09:31:35,470 [INFO] _________________________________________________________________
2019-12-31 09:31:35,471 [INFO] batch_normalization_24 (Batc (None, 256)               1024      
2019-12-31 09:31:35,471 [INFO] _________________________________________________________________
2019-12-31 09:31:35,471 [INFO] dropout_24 (Dropout)         (None, 256)               0         
2019-12-31 09:31:35,471 [INFO] _________________________________________________________________
2019-12-31 09:31:35,471 [INFO] dense_31 (Dense)             (None, 128)               32896     
2019-12-31 09:31:35,471 [INFO] _________________________________________________________________
2019-12-31 09:31:35,471 [INFO] batch_normalization_25 (Batc (None, 128)               512       
2019-12-31 09:31:35,471 [INFO] _________________________________________________________________
2019-12-31 09:31:35,471 [INFO] dropout_25 (Dropout)         (None, 128)               0         
2019-12-31 09:31:35,471 [INFO] _________________________________________________________________
2019-12-31 09:31:35,471 [INFO] dense_32 (Dense)             (None, 64)                8256      
2019-12-31 09:31:35,471 [INFO] _________________________________________________________________
2019-12-31 09:31:35,471 [INFO] batch_normalization_26 (Batc (None, 64)                256       
2019-12-31 09:31:35,471 [INFO] _________________________________________________________________
2019-12-31 09:31:35,471 [INFO] dropout_26 (Dropout)         (None, 64)                0         
2019-12-31 09:31:35,471 [INFO] _________________________________________________________________
2019-12-31 09:31:35,471 [INFO] dense_33 (Dense)             (None, 32)                2080      
2019-12-31 09:31:35,472 [INFO] _________________________________________________________________
2019-12-31 09:31:35,472 [INFO] batch_normalization_27 (Batc (None, 32)                128       
2019-12-31 09:31:35,472 [INFO] _________________________________________________________________
2019-12-31 09:31:35,472 [INFO] dropout_27 (Dropout)         (None, 32)                0         
2019-12-31 09:31:35,472 [INFO] _________________________________________________________________
2019-12-31 09:31:35,472 [INFO] dense_34 (Dense)             (None, 16)                528       
2019-12-31 09:31:35,472 [INFO] _________________________________________________________________
2019-12-31 09:31:35,472 [INFO] batch_normalization_28 (Batc (None, 16)                64        
2019-12-31 09:31:35,472 [INFO] _________________________________________________________________
2019-12-31 09:31:35,472 [INFO] dropout_28 (Dropout)         (None, 16)                0         
2019-12-31 09:31:35,472 [INFO] _________________________________________________________________
2019-12-31 09:31:35,472 [INFO] dense_35 (Dense)             (None, 15)                255       
2019-12-31 09:31:35,472 [INFO] =================================================================
2019-12-31 09:31:35,473 [INFO] Total params: 391,655
2019-12-31 09:31:35,473 [INFO] Trainable params: 388,863
2019-12-31 09:31:35,473 [INFO] Non-trainable params: 2,792
2019-12-31 09:31:35,473 [INFO] _________________________________________________________________
2019-12-31 09:31:35,473 [INFO] Training model
…
2019-12-31 17:36:55,711 [INFO] Reading complete. time_to_read=0.09 seconds
2019-12-31 17:36:55,712 [INFO] Reading HDF dataset ../Datasets/small_datasets/ids2018/y_test.h5
2019-12-31 17:36:55,798 [INFO] Reading complete. time_to_read=0.09 seconds
2019-12-31 17:36:59,698 [INFO] Initializing model
2019-12-31 17:37:00,353 [INFO] _________________________________________________________________
2019-12-31 17:37:00,353 [INFO] Layer (type)                 Output Shape              Param #   
2019-12-31 17:37:00,353 [INFO] =================================================================
2019-12-31 17:37:00,353 [INFO] dense_36 (Dense)             (None, 600)               46800     
2019-12-31 17:37:00,354 [INFO] _________________________________________________________________
2019-12-31 17:37:00,354 [INFO] batch_normalization_29 (Batc (None, 600)               2400      
2019-12-31 17:37:00,354 [INFO] _________________________________________________________________
2019-12-31 17:37:00,354 [INFO] dropout_29 (Dropout)         (None, 600)               0         
2019-12-31 17:37:00,354 [INFO] _________________________________________________________________
2019-12-31 17:37:00,354 [INFO] dense_37 (Dense)             (None, 500)               300500    
2019-12-31 17:37:00,354 [INFO] _________________________________________________________________
2019-12-31 17:37:00,354 [INFO] batch_normalization_30 (Batc (None, 500)               2000      
2019-12-31 17:37:00,354 [INFO] _________________________________________________________________
2019-12-31 17:37:00,354 [INFO] dropout_30 (Dropout)         (None, 500)               0         
2019-12-31 17:37:00,354 [INFO] _________________________________________________________________
2019-12-31 17:37:00,354 [INFO] dense_38 (Dense)             (None, 400)               200400    
2019-12-31 17:37:00,354 [INFO] _________________________________________________________________
2019-12-31 17:37:00,354 [INFO] batch_normalization_31 (Batc (None, 400)               1600      
2019-12-31 17:37:00,354 [INFO] _________________________________________________________________
2019-12-31 17:37:00,354 [INFO] dropout_31 (Dropout)         (None, 400)               0         
2019-12-31 17:37:00,354 [INFO] _________________________________________________________________
2019-12-31 17:37:00,355 [INFO] dense_39 (Dense)             (None, 256)               102656    
2019-12-31 17:37:00,355 [INFO] _________________________________________________________________
2019-12-31 17:37:00,355 [INFO] batch_normalization_32 (Batc (None, 256)               1024      
2019-12-31 17:37:00,355 [INFO] _________________________________________________________________
2019-12-31 17:37:00,355 [INFO] dropout_32 (Dropout)         (None, 256)               0         
2019-12-31 17:37:00,355 [INFO] _________________________________________________________________
2019-12-31 17:37:00,355 [INFO] dense_40 (Dense)             (None, 128)               32896     
2019-12-31 17:37:00,355 [INFO] _________________________________________________________________
2019-12-31 17:37:00,355 [INFO] batch_normalization_33 (Batc (None, 128)               512       
2019-12-31 17:37:00,355 [INFO] _________________________________________________________________
2019-12-31 17:37:00,355 [INFO] dropout_33 (Dropout)         (None, 128)               0         
2019-12-31 17:37:00,355 [INFO] _________________________________________________________________
2019-12-31 17:37:00,355 [INFO] dense_41 (Dense)             (None, 64)                8256      
2019-12-31 17:37:00,355 [INFO] _________________________________________________________________
2019-12-31 17:37:00,355 [INFO] batch_normalization_34 (Batc (None, 64)                256       
2019-12-31 17:37:00,355 [INFO] _________________________________________________________________
2019-12-31 17:37:00,355 [INFO] dropout_34 (Dropout)         (None, 64)                0         
2019-12-31 17:37:00,356 [INFO] _________________________________________________________________
2019-12-31 17:37:00,356 [INFO] dense_42 (Dense)             (None, 32)                2080      
2019-12-31 17:37:00,356 [INFO] _________________________________________________________________
2019-12-31 17:37:00,356 [INFO] batch_normalization_35 (Batc (None, 32)                128       
2019-12-31 17:37:00,356 [INFO] _________________________________________________________________
2019-12-31 17:37:00,356 [INFO] dropout_35 (Dropout)         (None, 32)                0         
2019-12-31 17:37:00,356 [INFO] _________________________________________________________________
2019-12-31 17:37:00,356 [INFO] dense_43 (Dense)             (None, 16)                528       
2019-12-31 17:37:00,356 [INFO] _________________________________________________________________
2019-12-31 17:37:00,356 [INFO] batch_normalization_36 (Batc (None, 16)                64        
2019-12-31 17:37:00,356 [INFO] _________________________________________________________________
2019-12-31 17:37:00,356 [INFO] dropout_36 (Dropout)         (None, 16)                0         
2019-12-31 17:37:00,356 [INFO] _________________________________________________________________
2019-12-31 17:37:00,356 [INFO] dense_44 (Dense)             (None, 15)                255       
2019-12-31 17:37:00,356 [INFO] =================================================================
2019-12-31 17:37:00,357 [INFO] Total params: 702,355
2019-12-31 17:37:00,357 [INFO] Trainable params: 698,363
2019-12-31 17:37:00,357 [INFO] Non-trainable params: 3,992
2019-12-31 17:37:00,357 [INFO] _________________________________________________________________
2019-12-31 17:37:00,357 [INFO] Training model
…
2020-01-01 05:23:04,832 [INFO] Reading complete. time_to_read=0.09 seconds
2020-01-01 05:23:04,832 [INFO] Reading HDF dataset ../Datasets/small_datasets/ids2018/y_test.h5
2020-01-01 05:23:04,919 [INFO] Reading complete. time_to_read=0.09 seconds
2020-01-01 05:23:08,795 [INFO] Initializing model
2020-01-01 05:23:09,541 [INFO] _________________________________________________________________
2020-01-01 05:23:09,541 [INFO] Layer (type)                 Output Shape              Param #   
2020-01-01 05:23:09,541 [INFO] =================================================================
2020-01-01 05:23:09,542 [INFO] dense_45 (Dense)             (None, 700)               54600     
2020-01-01 05:23:09,542 [INFO] _________________________________________________________________
2020-01-01 05:23:09,542 [INFO] batch_normalization_37 (Batc (None, 700)               2800      
2020-01-01 05:23:09,542 [INFO] _________________________________________________________________
2020-01-01 05:23:09,542 [INFO] dropout_37 (Dropout)         (None, 700)               0         
2020-01-01 05:23:09,542 [INFO] _________________________________________________________________
2020-01-01 05:23:09,542 [INFO] dense_46 (Dense)             (None, 600)               420600    
2020-01-01 05:23:09,542 [INFO] _________________________________________________________________
2020-01-01 05:23:09,542 [INFO] batch_normalization_38 (Batc (None, 600)               2400      
2020-01-01 05:23:09,542 [INFO] _________________________________________________________________
2020-01-01 05:23:09,542 [INFO] dropout_38 (Dropout)         (None, 600)               0         
2020-01-01 05:23:09,542 [INFO] _________________________________________________________________
2020-01-01 05:23:09,542 [INFO] dense_47 (Dense)             (None, 500)               300500    
2020-01-01 05:23:09,542 [INFO] _________________________________________________________________
2020-01-01 05:23:09,542 [INFO] batch_normalization_39 (Batc (None, 500)               2000      
2020-01-01 05:23:09,542 [INFO] _________________________________________________________________
2020-01-01 05:23:09,543 [INFO] dropout_39 (Dropout)         (None, 500)               0         
2020-01-01 05:23:09,543 [INFO] _________________________________________________________________
2020-01-01 05:23:09,543 [INFO] dense_48 (Dense)             (None, 400)               200400    
2020-01-01 05:23:09,543 [INFO] _________________________________________________________________
2020-01-01 05:23:09,543 [INFO] batch_normalization_40 (Batc (None, 400)               1600      
2020-01-01 05:23:09,543 [INFO] _________________________________________________________________
2020-01-01 05:23:09,543 [INFO] dropout_40 (Dropout)         (None, 400)               0         
2020-01-01 05:23:09,543 [INFO] _________________________________________________________________
2020-01-01 05:23:09,543 [INFO] dense_49 (Dense)             (None, 256)               102656    
2020-01-01 05:23:09,543 [INFO] _________________________________________________________________
2020-01-01 05:23:09,543 [INFO] batch_normalization_41 (Batc (None, 256)               1024      
2020-01-01 05:23:09,543 [INFO] _________________________________________________________________
2020-01-01 05:23:09,543 [INFO] dropout_41 (Dropout)         (None, 256)               0         
2020-01-01 05:23:09,543 [INFO] _________________________________________________________________
2020-01-01 05:23:09,543 [INFO] dense_50 (Dense)             (None, 128)               32896     
2020-01-01 05:23:09,543 [INFO] _________________________________________________________________
2020-01-01 05:23:09,543 [INFO] batch_normalization_42 (Batc (None, 128)               512       
2020-01-01 05:23:09,543 [INFO] _________________________________________________________________
2020-01-01 05:23:09,544 [INFO] dropout_42 (Dropout)         (None, 128)               0         
2020-01-01 05:23:09,544 [INFO] _________________________________________________________________
2020-01-01 05:23:09,544 [INFO] dense_51 (Dense)             (None, 64)                8256      
2020-01-01 05:23:09,544 [INFO] _________________________________________________________________
2020-01-01 05:23:09,544 [INFO] batch_normalization_43 (Batc (None, 64)                256       
2020-01-01 05:23:09,544 [INFO] _________________________________________________________________
2020-01-01 05:23:09,544 [INFO] dropout_43 (Dropout)         (None, 64)                0         
2020-01-01 05:23:09,544 [INFO] _________________________________________________________________
2020-01-01 05:23:09,544 [INFO] dense_52 (Dense)             (None, 32)                2080      
2020-01-01 05:23:09,544 [INFO] _________________________________________________________________
2020-01-01 05:23:09,544 [INFO] batch_normalization_44 (Batc (None, 32)                128       
2020-01-01 05:23:09,544 [INFO] _________________________________________________________________
2020-01-01 05:23:09,544 [INFO] dropout_44 (Dropout)         (None, 32)                0         
2020-01-01 05:23:09,544 [INFO] _________________________________________________________________
2020-01-01 05:23:09,544 [INFO] dense_53 (Dense)             (None, 16)                528       
2020-01-01 05:23:09,544 [INFO] _________________________________________________________________
2020-01-01 05:23:09,544 [INFO] batch_normalization_45 (Batc (None, 16)                64        
2020-01-01 05:23:09,545 [INFO] _________________________________________________________________
2020-01-01 05:23:09,545 [INFO] dropout_45 (Dropout)         (None, 16)                0         
2020-01-01 05:23:09,545 [INFO] _________________________________________________________________
2020-01-01 05:23:09,545 [INFO] dense_54 (Dense)             (None, 15)                255       
2020-01-01 05:23:09,545 [INFO] =================================================================
2020-01-01 05:23:09,545 [INFO] Total params: 1,133,555
2020-01-01 05:23:09,545 [INFO] Trainable params: 1,128,163
2020-01-01 05:23:09,545 [INFO] Non-trainable params: 5,392
2020-01-01 05:23:09,545 [INFO] _________________________________________________________________
2020-01-01 05:23:09,545 [INFO] Training model
…
2020-01-01 21:33:10,582 [INFO] Reading complete. time_to_read=0.09 seconds
2020-01-01 21:33:10,582 [INFO] Reading HDF dataset ../Datasets/small_datasets/ids2018/y_test.h5
2020-01-01 21:33:10,669 [INFO] Reading complete. time_to_read=0.09 seconds
2020-01-01 21:33:14,648 [INFO] Initializing model
2020-01-01 21:33:15,478 [INFO] _________________________________________________________________
2020-01-01 21:33:15,478 [INFO] Layer (type)                 Output Shape              Param #   
2020-01-01 21:33:15,478 [INFO] =================================================================
2020-01-01 21:33:15,478 [INFO] dense_55 (Dense)             (None, 800)               62400     
2020-01-01 21:33:15,478 [INFO] _________________________________________________________________
2020-01-01 21:33:15,478 [INFO] batch_normalization_46 (Batc (None, 800)               3200      
2020-01-01 21:33:15,478 [INFO] _________________________________________________________________
2020-01-01 21:33:15,478 [INFO] dropout_46 (Dropout)         (None, 800)               0         
2020-01-01 21:33:15,478 [INFO] _________________________________________________________________
2020-01-01 21:33:15,478 [INFO] dense_56 (Dense)             (None, 700)               560700    
2020-01-01 21:33:15,478 [INFO] _________________________________________________________________
2020-01-01 21:33:15,478 [INFO] batch_normalization_47 (Batc (None, 700)               2800      
2020-01-01 21:33:15,478 [INFO] _________________________________________________________________
2020-01-01 21:33:15,478 [INFO] dropout_47 (Dropout)         (None, 700)               0         
2020-01-01 21:33:15,479 [INFO] _________________________________________________________________
2020-01-01 21:33:15,479 [INFO] dense_57 (Dense)             (None, 600)               420600    
2020-01-01 21:33:15,479 [INFO] _________________________________________________________________
2020-01-01 21:33:15,479 [INFO] batch_normalization_48 (Batc (None, 600)               2400      
2020-01-01 21:33:15,479 [INFO] _________________________________________________________________
2020-01-01 21:33:15,479 [INFO] dropout_48 (Dropout)         (None, 600)               0         
2020-01-01 21:33:15,479 [INFO] _________________________________________________________________
2020-01-01 21:33:15,479 [INFO] dense_58 (Dense)             (None, 500)               300500    
2020-01-01 21:33:15,479 [INFO] _________________________________________________________________
2020-01-01 21:33:15,479 [INFO] batch_normalization_49 (Batc (None, 500)               2000      
2020-01-01 21:33:15,479 [INFO] _________________________________________________________________
2020-01-01 21:33:15,479 [INFO] dropout_49 (Dropout)         (None, 500)               0         
2020-01-01 21:33:15,479 [INFO] _________________________________________________________________
2020-01-01 21:33:15,479 [INFO] dense_59 (Dense)             (None, 400)               200400    
2020-01-01 21:33:15,479 [INFO] _________________________________________________________________
2020-01-01 21:33:15,479 [INFO] batch_normalization_50 (Batc (None, 400)               1600      
2020-01-01 21:33:15,479 [INFO] _________________________________________________________________
2020-01-01 21:33:15,480 [INFO] dropout_50 (Dropout)         (None, 400)               0         
2020-01-01 21:33:15,480 [INFO] _________________________________________________________________
2020-01-01 21:33:15,480 [INFO] dense_60 (Dense)             (None, 256)               102656    
2020-01-01 21:33:15,480 [INFO] _________________________________________________________________
2020-01-01 21:33:15,480 [INFO] batch_normalization_51 (Batc (None, 256)               1024      
2020-01-01 21:33:15,480 [INFO] _________________________________________________________________
2020-01-01 21:33:15,480 [INFO] dropout_51 (Dropout)         (None, 256)               0         
2020-01-01 21:33:15,480 [INFO] _________________________________________________________________
2020-01-01 21:33:15,480 [INFO] dense_61 (Dense)             (None, 128)               32896     
2020-01-01 21:33:15,480 [INFO] _________________________________________________________________
2020-01-01 21:33:15,480 [INFO] batch_normalization_52 (Batc (None, 128)               512       
2020-01-01 21:33:15,480 [INFO] _________________________________________________________________
2020-01-01 21:33:15,480 [INFO] dropout_52 (Dropout)         (None, 128)               0         
2020-01-01 21:33:15,480 [INFO] _________________________________________________________________
2020-01-01 21:33:15,480 [INFO] dense_62 (Dense)             (None, 64)                8256      
2020-01-01 21:33:15,480 [INFO] _________________________________________________________________
2020-01-01 21:33:15,480 [INFO] batch_normalization_53 (Batc (None, 64)                256       
2020-01-01 21:33:15,481 [INFO] _________________________________________________________________
2020-01-01 21:33:15,481 [INFO] dropout_53 (Dropout)         (None, 64)                0         
2020-01-01 21:33:15,481 [INFO] _________________________________________________________________
2020-01-01 21:33:15,481 [INFO] dense_63 (Dense)             (None, 32)                2080      
2020-01-01 21:33:15,481 [INFO] _________________________________________________________________
2020-01-01 21:33:15,481 [INFO] batch_normalization_54 (Batc (None, 32)                128       
2020-01-01 21:33:15,481 [INFO] _________________________________________________________________
2020-01-01 21:33:15,481 [INFO] dropout_54 (Dropout)         (None, 32)                0         
2020-01-01 21:33:15,481 [INFO] _________________________________________________________________
2020-01-01 21:33:15,481 [INFO] dense_64 (Dense)             (None, 16)                528       
2020-01-01 21:33:15,481 [INFO] _________________________________________________________________
2020-01-01 21:33:15,481 [INFO] batch_normalization_55 (Batc (None, 16)                64        
2020-01-01 21:33:15,481 [INFO] _________________________________________________________________
2020-01-01 21:33:15,481 [INFO] dropout_55 (Dropout)         (None, 16)                0         
2020-01-01 21:33:15,481 [INFO] _________________________________________________________________
2020-01-01 21:33:15,481 [INFO] dense_65 (Dense)             (None, 15)                255       
2020-01-01 21:33:15,481 [INFO] =================================================================
2020-01-01 21:33:15,482 [INFO] Total params: 1,705,255
2020-01-01 21:33:15,482 [INFO] Trainable params: 1,698,263
2020-01-01 21:33:15,482 [INFO] Non-trainable params: 6,992
2020-01-01 21:33:15,482 [INFO] _________________________________________________________________
2020-01-01 21:33:15,482 [INFO] Training model
…
2020-01-02 19:30:17,446 [INFO] Reading complete. time_to_read=0.09 seconds
2020-01-02 19:30:17,446 [INFO] Reading HDF dataset ../Datasets/small_datasets/ids2018/y_test.h5
2020-01-02 19:30:17,532 [INFO] Reading complete. time_to_read=0.09 seconds
2020-01-02 19:30:21,435 [INFO] Initializing model
2020-01-02 19:30:22,611 [INFO] _________________________________________________________________
2020-01-02 19:30:22,611 [INFO] Layer (type)                 Output Shape              Param #   
2020-01-02 19:30:22,611 [INFO] =================================================================
2020-01-02 19:30:22,611 [INFO] dense_66 (Dense)             (None, 900)               70200     
2020-01-02 19:30:22,611 [INFO] _________________________________________________________________
2020-01-02 19:30:22,611 [INFO] batch_normalization_56 (Batc (None, 900)               3600      
2020-01-02 19:30:22,612 [INFO] _________________________________________________________________
2020-01-02 19:30:22,612 [INFO] dropout_56 (Dropout)         (None, 900)               0         
2020-01-02 19:30:22,612 [INFO] _________________________________________________________________
2020-01-02 19:30:22,612 [INFO] dense_67 (Dense)             (None, 800)               720800    
2020-01-02 19:30:22,612 [INFO] _________________________________________________________________
2020-01-02 19:30:22,612 [INFO] batch_normalization_57 (Batc (None, 800)               3200      
2020-01-02 19:30:22,612 [INFO] _________________________________________________________________
2020-01-02 19:30:22,612 [INFO] dropout_57 (Dropout)         (None, 800)               0         
2020-01-02 19:30:22,612 [INFO] _________________________________________________________________
2020-01-02 19:30:22,612 [INFO] dense_68 (Dense)             (None, 700)               560700    
2020-01-02 19:30:22,612 [INFO] _________________________________________________________________
2020-01-02 19:30:22,612 [INFO] batch_normalization_58 (Batc (None, 700)               2800      
2020-01-02 19:30:22,612 [INFO] _________________________________________________________________
2020-01-02 19:30:22,612 [INFO] dropout_58 (Dropout)         (None, 700)               0         
2020-01-02 19:30:22,612 [INFO] _________________________________________________________________
2020-01-02 19:30:22,612 [INFO] dense_69 (Dense)             (None, 600)               420600    
2020-01-02 19:30:22,612 [INFO] _________________________________________________________________
2020-01-02 19:30:22,613 [INFO] batch_normalization_59 (Batc (None, 600)               2400      
2020-01-02 19:30:22,613 [INFO] _________________________________________________________________
2020-01-02 19:30:22,613 [INFO] dropout_59 (Dropout)         (None, 600)               0         
2020-01-02 19:30:22,613 [INFO] _________________________________________________________________
2020-01-02 19:30:22,613 [INFO] dense_70 (Dense)             (None, 500)               300500    
2020-01-02 19:30:22,613 [INFO] _________________________________________________________________
2020-01-02 19:30:22,613 [INFO] batch_normalization_60 (Batc (None, 500)               2000      
2020-01-02 19:30:22,613 [INFO] _________________________________________________________________
2020-01-02 19:30:22,613 [INFO] dropout_60 (Dropout)         (None, 500)               0         
2020-01-02 19:30:22,613 [INFO] _________________________________________________________________
2020-01-02 19:30:22,613 [INFO] dense_71 (Dense)             (None, 400)               200400    
2020-01-02 19:30:22,613 [INFO] _________________________________________________________________
2020-01-02 19:30:22,613 [INFO] batch_normalization_61 (Batc (None, 400)               1600      
2020-01-02 19:30:22,613 [INFO] _________________________________________________________________
2020-01-02 19:30:22,613 [INFO] dropout_61 (Dropout)         (None, 400)               0         
2020-01-02 19:30:22,613 [INFO] _________________________________________________________________
2020-01-02 19:30:22,613 [INFO] dense_72 (Dense)             (None, 256)               102656    
2020-01-02 19:30:22,613 [INFO] _________________________________________________________________
2020-01-02 19:30:22,614 [INFO] batch_normalization_62 (Batc (None, 256)               1024      
2020-01-02 19:30:22,614 [INFO] _________________________________________________________________
2020-01-02 19:30:22,614 [INFO] dropout_62 (Dropout)         (None, 256)               0         
2020-01-02 19:30:22,614 [INFO] _________________________________________________________________
2020-01-02 19:30:22,614 [INFO] dense_73 (Dense)             (None, 128)               32896     
2020-01-02 19:30:22,614 [INFO] _________________________________________________________________
2020-01-02 19:30:22,614 [INFO] batch_normalization_63 (Batc (None, 128)               512       
2020-01-02 19:30:22,614 [INFO] _________________________________________________________________
2020-01-02 19:30:22,614 [INFO] dropout_63 (Dropout)         (None, 128)               0         
2020-01-02 19:30:22,614 [INFO] _________________________________________________________________
2020-01-02 19:30:22,614 [INFO] dense_74 (Dense)             (None, 64)                8256      
2020-01-02 19:30:22,614 [INFO] _________________________________________________________________
2020-01-02 19:30:22,614 [INFO] batch_normalization_64 (Batc (None, 64)                256       
2020-01-02 19:30:22,614 [INFO] _________________________________________________________________
2020-01-02 19:30:22,614 [INFO] dropout_64 (Dropout)         (None, 64)                0         
2020-01-02 19:30:22,614 [INFO] _________________________________________________________________
2020-01-02 19:30:22,614 [INFO] dense_75 (Dense)             (None, 32)                2080      
2020-01-02 19:30:22,614 [INFO] _________________________________________________________________
2020-01-02 19:30:22,615 [INFO] batch_normalization_65 (Batc (None, 32)                128       
2020-01-02 19:30:22,615 [INFO] _________________________________________________________________
2020-01-02 19:30:22,615 [INFO] dropout_65 (Dropout)         (None, 32)                0         
2020-01-02 19:30:22,615 [INFO] _________________________________________________________________
2020-01-02 19:30:22,615 [INFO] dense_76 (Dense)             (None, 16)                528       
2020-01-02 19:30:22,615 [INFO] _________________________________________________________________
2020-01-02 19:30:22,615 [INFO] batch_normalization_66 (Batc (None, 16)                64        
2020-01-02 19:30:22,615 [INFO] _________________________________________________________________
2020-01-02 19:30:22,615 [INFO] dropout_66 (Dropout)         (None, 16)                0         
2020-01-02 19:30:22,615 [INFO] _________________________________________________________________
2020-01-02 19:30:22,615 [INFO] dense_77 (Dense)             (None, 15)                255       
2020-01-02 19:30:22,615 [INFO] =================================================================
2020-01-02 19:30:22,616 [INFO] Total params: 2,437,455
2020-01-02 19:30:22,616 [INFO] Trainable params: 2,428,663
2020-01-02 19:30:22,616 [INFO] Non-trainable params: 8,792
2020-01-02 19:30:22,616 [INFO] _________________________________________________________________
2020-01-02 19:30:22,616 [INFO] Training model
…
