…
2020-01-08 14:04:40,538 [INFO] Reading complete. time_to_read=0.00 seconds
2020-01-08 14:04:40,538 [INFO] Reading HDF dataset ../Datasets/small_datasets/nsl_kdd_five_classes/y_test.h5
2020-01-08 14:04:40,542 [INFO] Reading complete. time_to_read=0.00 seconds
2020-01-08 14:04:40,732 [INFO] Initializing model
2020-01-08 14:04:41,059 [INFO] _________________________________________________________________
2020-01-08 14:04:41,061 [INFO] Layer (type)                 Output Shape              Param #   
2020-01-08 14:04:41,061 [INFO] =================================================================
2020-01-08 14:04:41,061 [INFO] dense_6 (Dense)              (None, 64)                7872      
2020-01-08 14:04:41,062 [INFO] _________________________________________________________________
2020-01-08 14:04:41,062 [INFO] batch_normalization_4 (Batch (None, 64)                256       
2020-01-08 14:04:41,062 [INFO] _________________________________________________________________
2020-01-08 14:04:41,062 [INFO] dropout_4 (Dropout)          (None, 64)                0         
2020-01-08 14:04:41,062 [INFO] _________________________________________________________________
2020-01-08 14:04:41,062 [INFO] dense_7 (Dense)              (None, 64)                4160      
2020-01-08 14:04:41,062 [INFO] _________________________________________________________________
2020-01-08 14:04:41,062 [INFO] batch_normalization_5 (Batch (None, 64)                256       
2020-01-08 14:04:41,062 [INFO] _________________________________________________________________
2020-01-08 14:04:41,062 [INFO] dropout_5 (Dropout)          (None, 64)                0         
2020-01-08 14:04:41,062 [INFO] _________________________________________________________________
2020-01-08 14:04:41,062 [INFO] dense_8 (Dense)              (None, 64)                4160      
2020-01-08 14:04:41,062 [INFO] _________________________________________________________________
2020-01-08 14:04:41,062 [INFO] batch_normalization_6 (Batch (None, 64)                256       
2020-01-08 14:04:41,062 [INFO] _________________________________________________________________
2020-01-08 14:04:41,062 [INFO] dropout_6 (Dropout)          (None, 64)                0         
2020-01-08 14:04:41,062 [INFO] _________________________________________________________________
2020-01-08 14:04:41,063 [INFO] dense_9 (Dense)              (None, 5)                 325       
2020-01-08 14:04:41,063 [INFO] =================================================================
2020-01-08 14:04:41,063 [INFO] Total params: 17,285
2020-01-08 14:04:41,063 [INFO] Trainable params: 16,901
2020-01-08 14:04:41,063 [INFO] Non-trainable params: 384
2020-01-08 14:04:41,063 [INFO] _________________________________________________________________
2020-01-08 14:04:41,063 [INFO] Training model
…
