…
2020-01-13 23:30:43,353 [INFO] Reading complete. time_to_read=0.05 seconds
2020-01-13 23:30:43,353 [INFO] Reading HDF dataset ../Datasets/full_datasets/kdd99_five_classes/y_test.h5
2020-01-13 23:30:43,372 [INFO] Reading complete. time_to_read=0.02 seconds
2020-01-13 23:30:50,669 [INFO] Initializing model
2020-01-13 23:30:50,980 [INFO] _________________________________________________________________
2020-01-13 23:30:50,980 [INFO] Layer (type)                 Output Shape              Param #   
2020-01-13 23:30:50,980 [INFO] =================================================================
2020-01-13 23:30:50,980 [INFO] dense_32 (Dense)             (None, 64)                7936      
2020-01-13 23:30:50,980 [INFO] _________________________________________________________________
2020-01-13 23:30:50,980 [INFO] batch_normalization_25 (Batc (None, 64)                256       
2020-01-13 23:30:50,981 [INFO] _________________________________________________________________
2020-01-13 23:30:50,981 [INFO] dropout_25 (Dropout)         (None, 64)                0         
2020-01-13 23:30:50,981 [INFO] _________________________________________________________________
2020-01-13 23:30:50,981 [INFO] dense_33 (Dense)             (None, 32)                2080      
2020-01-13 23:30:50,981 [INFO] _________________________________________________________________
2020-01-13 23:30:50,981 [INFO] batch_normalization_26 (Batc (None, 32)                128       
2020-01-13 23:30:50,981 [INFO] _________________________________________________________________
2020-01-13 23:30:50,981 [INFO] dropout_26 (Dropout)         (None, 32)                0         
2020-01-13 23:30:50,981 [INFO] _________________________________________________________________
2020-01-13 23:30:50,981 [INFO] dense_34 (Dense)             (None, 65)                2145      
2020-01-13 23:30:50,981 [INFO] _________________________________________________________________
2020-01-13 23:30:50,981 [INFO] batch_normalization_27 (Batc (None, 65)                260       
2020-01-13 23:30:50,982 [INFO] _________________________________________________________________
2020-01-13 23:30:50,982 [INFO] dropout_27 (Dropout)         (None, 65)                0         
2020-01-13 23:30:50,982 [INFO] _________________________________________________________________
2020-01-13 23:30:50,982 [INFO] dense_35 (Dense)             (None, 5)                 330       
2020-01-13 23:30:50,982 [INFO] =================================================================
2020-01-13 23:30:50,982 [INFO] Total params: 13,135
2020-01-13 23:30:50,982 [INFO] Trainable params: 12,813
2020-01-13 23:30:50,982 [INFO] Non-trainable params: 322
2020-01-13 23:30:50,982 [INFO] _________________________________________________________________
2020-01-13 23:30:50,982 [INFO] Training model
…
