…
2019-12-25 15:36:48,318 [INFO] Pretraining Deep Belief Network
2019-12-25 16:11:32,914 [INFO] Pretraining Complete
2019-12-25 16:11:32,914 [INFO] Getting pretrained weights
2019-12-25 16:11:32,914 [INFO] Creating and initializing feed forward neural network
2019-12-25 16:11:33,751 [INFO] _________________________________________________________________
2019-12-25 16:11:33,751 [INFO] Layer (type)                 Output Shape              Param #   
2019-12-25 16:11:33,751 [INFO] =================================================================
2019-12-25 16:11:33,751 [INFO] dense_53 (Dense)             (None, 128)               9984      
2019-12-25 16:11:33,751 [INFO] _________________________________________________________________
2019-12-25 16:11:33,751 [INFO] batch_normalization_40 (Batc (None, 128)               512       
2019-12-25 16:11:33,751 [INFO] _________________________________________________________________
2019-12-25 16:11:33,752 [INFO] dropout_40 (Dropout)         (None, 128)               0         
2019-12-25 16:11:33,752 [INFO] _________________________________________________________________
2019-12-25 16:11:33,752 [INFO] dense_54 (Dense)             (None, 64)                8256      
2019-12-25 16:11:33,752 [INFO] _________________________________________________________________
2019-12-25 16:11:33,752 [INFO] batch_normalization_41 (Batc (None, 64)                256       
2019-12-25 16:11:33,752 [INFO] _________________________________________________________________
2019-12-25 16:11:33,752 [INFO] dropout_41 (Dropout)         (None, 64)                0         
2019-12-25 16:11:33,752 [INFO] _________________________________________________________________
2019-12-25 16:11:33,752 [INFO] dense_55 (Dense)             (None, 35)                2275      
2019-12-25 16:11:33,752 [INFO] _________________________________________________________________
2019-12-25 16:11:33,752 [INFO] batch_normalization_42 (Batc (None, 35)                140       
2019-12-25 16:11:33,752 [INFO] _________________________________________________________________
2019-12-25 16:11:33,752 [INFO] dropout_42 (Dropout)         (None, 35)                0         
2019-12-25 16:11:33,752 [INFO] _________________________________________________________________
2019-12-25 16:11:33,752 [INFO] dense_56 (Dense)             (None, 15)                540       
2019-12-25 16:11:33,752 [INFO] =================================================================
2019-12-25 16:11:33,753 [INFO] Total params: 21,963
2019-12-25 16:11:33,753 [INFO] Trainable params: 21,509
2019-12-25 16:11:33,753 [INFO] Non-trainable params: 454
2019-12-25 16:11:33,753 [INFO] _________________________________________________________________
2019-12-25 16:11:38,600 [INFO] Fine-tuning final neural network
…
