…
2019-12-21 06:22:15,928 [INFO] Reading complete. time_to_read=0.12 seconds
2019-12-21 06:22:15,928 [INFO] Reading HDF dataset ../Datasets/full_datasets/kdd99_five_classes/y_test.h5
2019-12-21 06:22:15,974 [INFO] Reading complete. time_to_read=0.05 seconds
2019-12-21 06:23:10,567 [INFO] Initializing model
2019-12-21 06:23:14,479 [INFO] _________________________________________________________________
2019-12-21 06:23:14,482 [INFO] Layer (type)                 Output Shape              Param #   
2019-12-21 06:23:14,483 [INFO] =================================================================
2019-12-21 06:23:14,484 [INFO] dense_26 (Dense)             (None, 64)                7936      
2019-12-21 06:23:14,485 [INFO] _________________________________________________________________
2019-12-21 06:23:14,485 [INFO] batch_normalization_21 (Batc (None, 64)                256       
2019-12-21 06:23:14,486 [INFO] _________________________________________________________________
2019-12-21 06:23:14,486 [INFO] dropout_21 (Dropout)         (None, 64)                0         
2019-12-21 06:23:14,487 [INFO] _________________________________________________________________
2019-12-21 06:23:14,487 [INFO] dense_27 (Dense)             (None, 32)                2080      
2019-12-21 06:23:14,488 [INFO] _________________________________________________________________
2019-12-21 06:23:14,489 [INFO] batch_normalization_22 (Batc (None, 32)                128       
2019-12-21 06:23:14,490 [INFO] _________________________________________________________________
2019-12-21 06:23:14,490 [INFO] dropout_22 (Dropout)         (None, 32)                0         
2019-12-21 06:23:14,491 [INFO] _________________________________________________________________
2019-12-21 06:23:14,492 [INFO] dense_28 (Dense)             (None, 64)                2112      
2019-12-21 06:23:14,492 [INFO] _________________________________________________________________
2019-12-21 06:23:14,493 [INFO] batch_normalization_23 (Batc (None, 64)                256       
2019-12-21 06:23:14,493 [INFO] _________________________________________________________________
2019-12-21 06:23:14,494 [INFO] dropout_23 (Dropout)         (None, 64)                0         
2019-12-21 06:23:14,495 [INFO] _________________________________________________________________
2019-12-21 06:23:14,495 [INFO] dense_29 (Dense)             (None, 5)                 325       
2019-12-21 06:23:14,496 [INFO] =================================================================
2019-12-21 06:23:14,514 [INFO] Total params: 13,093
2019-12-21 06:23:14,514 [INFO] Trainable params: 12,773
2019-12-21 06:23:14,515 [INFO] Non-trainable params: 320
2019-12-21 06:23:14,515 [INFO] _________________________________________________________________
2019-12-21 06:23:14,516 [INFO] Training model
…
