…
2019-12-25 18:55:33,881 [INFO] Reading complete. time_to_read=0.05 seconds
2019-12-25 18:55:33,881 [INFO] Reading HDF dataset ../Datasets/full_datasets/kdd99_five_classes/y_test.h5
2019-12-25 18:55:33,902 [INFO] Reading complete. time_to_read=0.02 seconds
2019-12-25 18:55:41,089 [INFO] Initializing model
2019-12-25 18:55:41,716 [INFO] _________________________________________________________________
2019-12-25 18:55:41,717 [INFO] Layer (type)                 Output Shape              Param #   
2019-12-25 18:55:41,717 [INFO] =================================================================
2019-12-25 18:55:41,717 [INFO] dense_125 (Dense)            (None, 128)               15872     
2019-12-25 18:55:41,717 [INFO] _________________________________________________________________
2019-12-25 18:55:41,717 [INFO] batch_normalization_89 (Batc (None, 128)               512       
2019-12-25 18:55:41,717 [INFO] _________________________________________________________________
2019-12-25 18:55:41,717 [INFO] dropout_89 (Dropout)         (None, 128)               0         
2019-12-25 18:55:41,717 [INFO] _________________________________________________________________
2019-12-25 18:55:41,717 [INFO] dense_126 (Dense)            (None, 64)                8256      
2019-12-25 18:55:41,717 [INFO] _________________________________________________________________
2019-12-25 18:55:41,717 [INFO] batch_normalization_90 (Batc (None, 64)                256       
2019-12-25 18:55:41,718 [INFO] _________________________________________________________________
2019-12-25 18:55:41,718 [INFO] dropout_90 (Dropout)         (None, 64)                0         
2019-12-25 18:55:41,718 [INFO] _________________________________________________________________
2019-12-25 18:55:41,718 [INFO] dense_127 (Dense)            (None, 32)                2080      
2019-12-25 18:55:41,718 [INFO] _________________________________________________________________
2019-12-25 18:55:41,718 [INFO] batch_normalization_91 (Batc (None, 32)                128       
2019-12-25 18:55:41,718 [INFO] _________________________________________________________________
2019-12-25 18:55:41,718 [INFO] dropout_91 (Dropout)         (None, 32)                0         
2019-12-25 18:55:41,718 [INFO] _________________________________________________________________
2019-12-25 18:55:41,718 [INFO] dense_128 (Dense)            (None, 64)                2112      
2019-12-25 18:55:41,718 [INFO] _________________________________________________________________
2019-12-25 18:55:41,718 [INFO] batch_normalization_92 (Batc (None, 64)                256       
2019-12-25 18:55:41,719 [INFO] _________________________________________________________________
2019-12-25 18:55:41,719 [INFO] dropout_92 (Dropout)         (None, 64)                0         
2019-12-25 18:55:41,719 [INFO] _________________________________________________________________
2019-12-25 18:55:41,719 [INFO] dense_129 (Dense)            (None, 128)               8320      
2019-12-25 18:55:41,719 [INFO] _________________________________________________________________
2019-12-25 18:55:41,719 [INFO] batch_normalization_93 (Batc (None, 128)               512       
2019-12-25 18:55:41,719 [INFO] _________________________________________________________________
2019-12-25 18:55:41,719 [INFO] dropout_93 (Dropout)         (None, 128)               0         
2019-12-25 18:55:41,719 [INFO] _________________________________________________________________
2019-12-25 18:55:41,719 [INFO] dense_130 (Dense)            (None, 123)               15867     
2019-12-25 18:55:41,719 [INFO] =================================================================
2019-12-25 18:55:41,720 [INFO] Total params: 54,171
2019-12-25 18:55:41,720 [INFO] Trainable params: 53,339
2019-12-25 18:55:41,720 [INFO] Non-trainable params: 832
2019-12-25 18:55:41,720 [INFO] _________________________________________________________________
2019-12-25 18:55:41,887 [INFO] _________________________________________________________________
2019-12-25 18:55:41,887 [INFO] Layer (type)                 Output Shape              Param #   
2019-12-25 18:55:41,887 [INFO] =================================================================
2019-12-25 18:55:41,887 [INFO] dense_131 (Dense)            (None, 64)                2112      
2019-12-25 18:55:41,887 [INFO] _________________________________________________________________
2019-12-25 18:55:41,887 [INFO] batch_normalization_94 (Batc (None, 64)                256       
2019-12-25 18:55:41,888 [INFO] _________________________________________________________________
2019-12-25 18:55:41,888 [INFO] dropout_94 (Dropout)         (None, 64)                0         
2019-12-25 18:55:41,888 [INFO] _________________________________________________________________
2019-12-25 18:55:41,888 [INFO] dense_132 (Dense)            (None, 5)                 325       
2019-12-25 18:55:41,888 [INFO] =================================================================
2019-12-25 18:55:41,888 [INFO] Total params: 2,693
2019-12-25 18:55:41,888 [INFO] Trainable params: 2,565
2019-12-25 18:55:41,888 [INFO] Non-trainable params: 128
2019-12-25 18:55:41,888 [INFO] _________________________________________________________________
2019-12-25 18:55:41,888 [INFO] Training model
…
