…
2019-12-24 01:21:10,634 [INFO] Reading complete. time_to_read=0.00 seconds
2019-12-24 01:21:10,634 [INFO] Reading HDF dataset ../Datasets/small_datasets/nsl_kdd_five_classes/y_test.h5
2019-12-24 01:21:10,638 [INFO] Reading complete. time_to_read=0.00 seconds
2019-12-24 01:21:10,749 [INFO] Initializing model
2019-12-24 01:21:11,241 [INFO] _________________________________________________________________
2019-12-24 01:21:11,242 [INFO] Layer (type)                 Output Shape              Param #   
2019-12-24 01:21:11,242 [INFO] =================================================================
2019-12-24 01:21:11,242 [INFO] dense_29 (Dense)             (None, 128)               15744     
2019-12-24 01:21:11,242 [INFO] _________________________________________________________________
2019-12-24 01:21:11,242 [INFO] batch_normalization_17 (Batc (None, 128)               512       
2019-12-24 01:21:11,242 [INFO] _________________________________________________________________
2019-12-24 01:21:11,242 [INFO] dropout_17 (Dropout)         (None, 128)               0         
2019-12-24 01:21:11,242 [INFO] _________________________________________________________________
2019-12-24 01:21:11,242 [INFO] dense_30 (Dense)             (None, 64)                8256      
2019-12-24 01:21:11,242 [INFO] _________________________________________________________________
2019-12-24 01:21:11,242 [INFO] batch_normalization_18 (Batc (None, 64)                256       
2019-12-24 01:21:11,243 [INFO] _________________________________________________________________
2019-12-24 01:21:11,243 [INFO] dropout_18 (Dropout)         (None, 64)                0         
2019-12-24 01:21:11,243 [INFO] _________________________________________________________________
2019-12-24 01:21:11,243 [INFO] dense_31 (Dense)             (None, 32)                2080      
2019-12-24 01:21:11,243 [INFO] _________________________________________________________________
2019-12-24 01:21:11,243 [INFO] batch_normalization_19 (Batc (None, 32)                128       
2019-12-24 01:21:11,243 [INFO] _________________________________________________________________
2019-12-24 01:21:11,243 [INFO] dropout_19 (Dropout)         (None, 32)                0         
2019-12-24 01:21:11,243 [INFO] _________________________________________________________________
2019-12-24 01:21:11,243 [INFO] dense_32 (Dense)             (None, 64)                2112      
2019-12-24 01:21:11,243 [INFO] _________________________________________________________________
2019-12-24 01:21:11,243 [INFO] batch_normalization_20 (Batc (None, 64)                256       
2019-12-24 01:21:11,244 [INFO] _________________________________________________________________
2019-12-24 01:21:11,244 [INFO] dropout_20 (Dropout)         (None, 64)                0         
2019-12-24 01:21:11,244 [INFO] _________________________________________________________________
2019-12-24 01:21:11,244 [INFO] dense_33 (Dense)             (None, 128)               8320      
2019-12-24 01:21:11,244 [INFO] _________________________________________________________________
2019-12-24 01:21:11,244 [INFO] batch_normalization_21 (Batc (None, 128)               512       
2019-12-24 01:21:11,244 [INFO] _________________________________________________________________
2019-12-24 01:21:11,244 [INFO] dropout_21 (Dropout)         (None, 128)               0         
2019-12-24 01:21:11,244 [INFO] _________________________________________________________________
2019-12-24 01:21:11,244 [INFO] dense_34 (Dense)             (None, 122)               15738     
2019-12-24 01:21:11,244 [INFO] =================================================================
2019-12-24 01:21:11,245 [INFO] Total params: 53,914
2019-12-24 01:21:11,245 [INFO] Trainable params: 53,082
2019-12-24 01:21:11,245 [INFO] Non-trainable params: 832
2019-12-24 01:21:11,245 [INFO] _________________________________________________________________
2019-12-24 01:21:11,371 [INFO] _________________________________________________________________
2019-12-24 01:21:11,371 [INFO] Layer (type)                 Output Shape              Param #   
2019-12-24 01:21:11,371 [INFO] =================================================================
2019-12-24 01:21:11,371 [INFO] dense_35 (Dense)             (None, 64)                2112      
2019-12-24 01:21:11,371 [INFO] _________________________________________________________________
2019-12-24 01:21:11,371 [INFO] batch_normalization_22 (Batc (None, 64)                256       
2019-12-24 01:21:11,371 [INFO] _________________________________________________________________
2019-12-24 01:21:11,371 [INFO] dropout_22 (Dropout)         (None, 64)                0         
2019-12-24 01:21:11,371 [INFO] _________________________________________________________________
2019-12-24 01:21:11,372 [INFO] dense_36 (Dense)             (None, 5)                 325       
2019-12-24 01:21:11,372 [INFO] =================================================================
2019-12-24 01:21:11,372 [INFO] Total params: 2,693
2019-12-24 01:21:11,372 [INFO] Trainable params: 2,565
2019-12-24 01:21:11,372 [INFO] Non-trainable params: 128
2019-12-24 01:21:11,372 [INFO] _________________________________________________________________
2019-12-24 01:21:11,372 [INFO] Training model
…
