…
2019-12-30 21:09:08,353 [INFO] Reading complete. time_to_read=0.08 seconds
2019-12-30 21:09:08,353 [INFO] Reading HDF dataset ../Datasets/small_datasets/ids2018/y_test.h5
2019-12-30 21:09:08,437 [INFO] Reading complete. time_to_read=0.08 seconds
2019-12-30 21:09:12,334 [INFO] Initializing model
2019-12-30 21:09:12,779 [INFO] _________________________________________________________________
2019-12-30 21:09:12,780 [INFO] Layer (type)                 Output Shape              Param #   
2019-12-30 21:09:12,780 [INFO] =================================================================
2019-12-30 21:09:12,780 [INFO] dense_10 (Dense)             (None, 128)               9984      
2019-12-30 21:09:12,780 [INFO] _________________________________________________________________
2019-12-30 21:09:12,780 [INFO] batch_normalization_7 (Batch (None, 128)               512       
2019-12-30 21:09:12,780 [INFO] _________________________________________________________________
2019-12-30 21:09:12,780 [INFO] dropout_7 (Dropout)          (None, 128)               0         
2019-12-30 21:09:12,780 [INFO] _________________________________________________________________
2019-12-30 21:09:12,780 [INFO] dense_11 (Dense)             (None, 64)                8256      
2019-12-30 21:09:12,780 [INFO] _________________________________________________________________
2019-12-30 21:09:12,780 [INFO] batch_normalization_8 (Batch (None, 64)                256       
2019-12-30 21:09:12,780 [INFO] _________________________________________________________________
2019-12-30 21:09:12,780 [INFO] dropout_8 (Dropout)          (None, 64)                0         
2019-12-30 21:09:12,780 [INFO] _________________________________________________________________
2019-12-30 21:09:12,780 [INFO] dense_12 (Dense)             (None, 32)                2080      
2019-12-30 21:09:12,780 [INFO] _________________________________________________________________
2019-12-30 21:09:12,781 [INFO] batch_normalization_9 (Batch (None, 32)                128       
2019-12-30 21:09:12,781 [INFO] _________________________________________________________________
2019-12-30 21:09:12,781 [INFO] dropout_9 (Dropout)          (None, 32)                0         
2019-12-30 21:09:12,781 [INFO] _________________________________________________________________
2019-12-30 21:09:12,781 [INFO] dense_13 (Dense)             (None, 16)                528       
2019-12-30 21:09:12,781 [INFO] _________________________________________________________________
2019-12-30 21:09:12,781 [INFO] batch_normalization_10 (Batc (None, 16)                64        
2019-12-30 21:09:12,781 [INFO] _________________________________________________________________
2019-12-30 21:09:12,781 [INFO] dropout_10 (Dropout)         (None, 16)                0         
2019-12-30 21:09:12,781 [INFO] _________________________________________________________________
2019-12-30 21:09:12,781 [INFO] dense_14 (Dense)             (None, 15)                255       
2019-12-30 21:09:12,781 [INFO] =================================================================
2019-12-30 21:09:12,781 [INFO] Total params: 22,063
2019-12-30 21:09:12,781 [INFO] Trainable params: 21,583
2019-12-30 21:09:12,781 [INFO] Non-trainable params: 480
2019-12-30 21:09:12,782 [INFO] _________________________________________________________________
2019-12-30 21:09:12,782 [INFO] Training model
…
