…
2019-12-30 22:48:06,298 [INFO] Pretraining Deep Belief Network
2019-12-30 23:33:28,800 [INFO] Pretraining Complete
2019-12-30 23:33:28,801 [INFO] Getting pretrained weights
2019-12-30 23:33:28,801 [INFO] Creating and initializing feed forward neural network
2019-12-30 23:33:29,180 [INFO] _________________________________________________________________
2019-12-30 23:33:29,180 [INFO] Layer (type)                 Output Shape              Param #   
2019-12-30 23:33:29,180 [INFO] =================================================================
2019-12-30 23:33:29,180 [INFO] dense_5 (Dense)              (None, 128)               15872     
2019-12-30 23:33:29,180 [INFO] _________________________________________________________________
2019-12-30 23:33:29,181 [INFO] batch_normalization_4 (Batch (None, 128)               512       
2019-12-30 23:33:29,181 [INFO] _________________________________________________________________
2019-12-30 23:33:29,181 [INFO] dropout_4 (Dropout)          (None, 128)               0         
2019-12-30 23:33:29,181 [INFO] _________________________________________________________________
2019-12-30 23:33:29,181 [INFO] dense_6 (Dense)              (None, 64)                8256      
2019-12-30 23:33:29,181 [INFO] _________________________________________________________________
2019-12-30 23:33:29,181 [INFO] batch_normalization_5 (Batch (None, 64)                256       
2019-12-30 23:33:29,181 [INFO] _________________________________________________________________
2019-12-30 23:33:29,181 [INFO] dropout_5 (Dropout)          (None, 64)                0         
2019-12-30 23:33:29,181 [INFO] _________________________________________________________________
2019-12-30 23:33:29,181 [INFO] dense_7 (Dense)              (None, 33)                2145      
2019-12-30 23:33:29,181 [INFO] _________________________________________________________________
2019-12-30 23:33:29,182 [INFO] batch_normalization_6 (Batch (None, 33)                132       
2019-12-30 23:33:29,182 [INFO] _________________________________________________________________
2019-12-30 23:33:29,182 [INFO] dropout_6 (Dropout)          (None, 33)                0         
2019-12-30 23:33:29,182 [INFO] _________________________________________________________________
2019-12-30 23:33:29,182 [INFO] dense_8 (Dense)              (None, 5)                 170       
2019-12-30 23:33:29,182 [INFO] =================================================================
2019-12-30 23:33:29,182 [INFO] Total params: 27,343
2019-12-30 23:33:29,182 [INFO] Trainable params: 26,893
2019-12-30 23:33:29,182 [INFO] Non-trainable params: 450
2019-12-30 23:33:29,182 [INFO] _________________________________________________________________
2019-12-30 23:33:29,599 [INFO] Fine-tuning final neural network
…
