…
2020-01-14 13:50:35,506 [INFO] Pretraining Deep Belief Network
2020-01-14 13:57:55,594 [INFO] Pretraining Complete
2020-01-14 13:57:55,594 [INFO] Getting pretrained weights
2020-01-14 13:57:55,595 [INFO] Creating and initializing feed forward neural network
2020-01-14 13:57:55,894 [INFO] _________________________________________________________________
2020-01-14 13:57:55,894 [INFO] Layer (type)                 Output Shape              Param #   
2020-01-14 13:57:55,894 [INFO] =================================================================
2020-01-14 13:57:55,894 [INFO] dense_17 (Dense)             (None, 128)               10112     
2020-01-14 13:57:55,894 [INFO] _________________________________________________________________
2020-01-14 13:57:55,894 [INFO] batch_normalization_13 (Batc (None, 128)               512       
2020-01-14 13:57:55,894 [INFO] _________________________________________________________________
2020-01-14 13:57:55,895 [INFO] dropout_13 (Dropout)         (None, 128)               0         
2020-01-14 13:57:55,895 [INFO] _________________________________________________________________
2020-01-14 13:57:55,895 [INFO] dense_18 (Dense)             (None, 64)                8256      
2020-01-14 13:57:55,895 [INFO] _________________________________________________________________
2020-01-14 13:57:55,895 [INFO] batch_normalization_14 (Batc (None, 64)                256       
2020-01-14 13:57:55,895 [INFO] _________________________________________________________________
2020-01-14 13:57:55,895 [INFO] dropout_14 (Dropout)         (None, 64)                0         
2020-01-14 13:57:55,895 [INFO] _________________________________________________________________
2020-01-14 13:57:55,895 [INFO] dense_19 (Dense)             (None, 33)                2145      
2020-01-14 13:57:55,895 [INFO] _________________________________________________________________
2020-01-14 13:57:55,895 [INFO] batch_normalization_15 (Batc (None, 33)                132       
2020-01-14 13:57:55,895 [INFO] _________________________________________________________________
2020-01-14 13:57:55,896 [INFO] dropout_15 (Dropout)         (None, 33)                0         
2020-01-14 13:57:55,896 [INFO] _________________________________________________________________
2020-01-14 13:57:55,896 [INFO] dense_20 (Dense)             (None, 12)                408       
2020-01-14 13:57:55,896 [INFO] =================================================================
2020-01-14 13:57:55,896 [INFO] Total params: 21,821
2020-01-14 13:57:55,896 [INFO] Trainable params: 21,371
2020-01-14 13:57:55,896 [INFO] Non-trainable params: 450
2020-01-14 13:57:55,896 [INFO] _________________________________________________________________
2020-01-14 13:57:57,169 [INFO] Fine-tuning final neural network
…
