…
2019-12-26 19:10:55,731 [INFO] Reading complete. time_to_read=0.10 seconds
2019-12-26 19:10:55,731 [INFO] Reading HDF dataset ../Datasets/small_datasets/ids2018/y_test.h5
2019-12-26 19:10:55,829 [INFO] Reading complete. time_to_read=0.10 seconds
2019-12-26 19:10:59,179 [INFO] Initializing model
2019-12-26 19:10:59,852 [INFO] _________________________________________________________________
2019-12-26 19:10:59,852 [INFO] Layer (type)                 Output Shape              Param #   
2019-12-26 19:10:59,852 [INFO] =================================================================
2019-12-26 19:10:59,852 [INFO] dense_149 (Dense)            (None, 128)               9984      
2019-12-26 19:10:59,852 [INFO] _________________________________________________________________
2019-12-26 19:10:59,852 [INFO] batch_normalization_107 (Bat (None, 128)               512       
2019-12-26 19:10:59,852 [INFO] _________________________________________________________________
2019-12-26 19:10:59,853 [INFO] dropout_107 (Dropout)        (None, 128)               0         
2019-12-26 19:10:59,853 [INFO] _________________________________________________________________
2019-12-26 19:10:59,853 [INFO] dense_150 (Dense)            (None, 64)                8256      
2019-12-26 19:10:59,853 [INFO] _________________________________________________________________
2019-12-26 19:10:59,853 [INFO] batch_normalization_108 (Bat (None, 64)                256       
2019-12-26 19:10:59,853 [INFO] _________________________________________________________________
2019-12-26 19:10:59,853 [INFO] dropout_108 (Dropout)        (None, 64)                0         
2019-12-26 19:10:59,853 [INFO] _________________________________________________________________
2019-12-26 19:10:59,853 [INFO] dense_151 (Dense)            (None, 32)                2080      
2019-12-26 19:10:59,853 [INFO] _________________________________________________________________
2019-12-26 19:10:59,853 [INFO] batch_normalization_109 (Bat (None, 32)                128       
2019-12-26 19:10:59,853 [INFO] _________________________________________________________________
2019-12-26 19:10:59,854 [INFO] dropout_109 (Dropout)        (None, 32)                0         
2019-12-26 19:10:59,854 [INFO] _________________________________________________________________
2019-12-26 19:10:59,854 [INFO] dense_152 (Dense)            (None, 64)                2112      
2019-12-26 19:10:59,854 [INFO] _________________________________________________________________
2019-12-26 19:10:59,854 [INFO] batch_normalization_110 (Bat (None, 64)                256       
2019-12-26 19:10:59,854 [INFO] _________________________________________________________________
2019-12-26 19:10:59,854 [INFO] dropout_110 (Dropout)        (None, 64)                0         
2019-12-26 19:10:59,854 [INFO] _________________________________________________________________
2019-12-26 19:10:59,854 [INFO] dense_153 (Dense)            (None, 128)               8320      
2019-12-26 19:10:59,854 [INFO] _________________________________________________________________
2019-12-26 19:10:59,854 [INFO] batch_normalization_111 (Bat (None, 128)               512       
2019-12-26 19:10:59,854 [INFO] _________________________________________________________________
2019-12-26 19:10:59,854 [INFO] dropout_111 (Dropout)        (None, 128)               0         
2019-12-26 19:10:59,855 [INFO] _________________________________________________________________
2019-12-26 19:10:59,855 [INFO] dense_154 (Dense)            (None, 77)                9933      
2019-12-26 19:10:59,855 [INFO] =================================================================
2019-12-26 19:10:59,855 [INFO] Total params: 42,349
2019-12-26 19:10:59,855 [INFO] Trainable params: 41,517
2019-12-26 19:10:59,855 [INFO] Non-trainable params: 832
2019-12-26 19:10:59,855 [INFO] _________________________________________________________________
2019-12-26 19:11:00,018 [INFO] _________________________________________________________________
2019-12-26 19:11:00,019 [INFO] Layer (type)                 Output Shape              Param #   
2019-12-26 19:11:00,019 [INFO] =================================================================
2019-12-26 19:11:00,019 [INFO] dense_155 (Dense)            (None, 64)                2112      
2019-12-26 19:11:00,019 [INFO] _________________________________________________________________
2019-12-26 19:11:00,019 [INFO] batch_normalization_112 (Bat (None, 64)                256       
2019-12-26 19:11:00,019 [INFO] _________________________________________________________________
2019-12-26 19:11:00,019 [INFO] dropout_112 (Dropout)        (None, 64)                0         
2019-12-26 19:11:00,019 [INFO] _________________________________________________________________
2019-12-26 19:11:00,019 [INFO] dense_156 (Dense)            (None, 15)                975       
2019-12-26 19:11:00,019 [INFO] =================================================================
2019-12-26 19:11:00,020 [INFO] Total params: 3,343
2019-12-26 19:11:00,020 [INFO] Trainable params: 3,215
2019-12-26 19:11:00,020 [INFO] Non-trainable params: 128
2019-12-26 19:11:00,020 [INFO] _________________________________________________________________
2019-12-26 19:11:00,020 [INFO] Training model
…
