…
2019-12-25 09:44:27,096 [INFO] Reading complete. time_to_read=0.05 seconds
2019-12-25 09:44:27,097 [INFO] Reading HDF dataset ../Datasets/full_datasets/kdd99_five_classes/y_test.h5
2019-12-25 09:44:27,117 [INFO] Reading complete. time_to_read=0.02 seconds
2019-12-25 09:44:34,213 [INFO] Initializing model
2019-12-25 09:44:34,828 [INFO] _________________________________________________________________
2019-12-25 09:44:34,828 [INFO] Layer (type)                 Output Shape              Param #   
2019-12-25 09:44:34,828 [INFO] =================================================================
2019-12-25 09:44:34,829 [INFO] dense_117 (Dense)            (None, 128)               15872     
2019-12-25 09:44:34,829 [INFO] _________________________________________________________________
2019-12-25 09:44:34,829 [INFO] batch_normalization_83 (Batc (None, 128)               512       
2019-12-25 09:44:34,829 [INFO] _________________________________________________________________
2019-12-25 09:44:34,829 [INFO] dropout_83 (Dropout)         (None, 128)               0         
2019-12-25 09:44:34,829 [INFO] _________________________________________________________________
2019-12-25 09:44:34,829 [INFO] dense_118 (Dense)            (None, 64)                8256      
2019-12-25 09:44:34,829 [INFO] _________________________________________________________________
2019-12-25 09:44:34,829 [INFO] batch_normalization_84 (Batc (None, 64)                256       
2019-12-25 09:44:34,829 [INFO] _________________________________________________________________
2019-12-25 09:44:34,829 [INFO] dropout_84 (Dropout)         (None, 64)                0         
2019-12-25 09:44:34,829 [INFO] _________________________________________________________________
2019-12-25 09:44:34,830 [INFO] dense_119 (Dense)            (None, 32)                2080      
2019-12-25 09:44:34,830 [INFO] _________________________________________________________________
2019-12-25 09:44:34,830 [INFO] batch_normalization_85 (Batc (None, 32)                128       
2019-12-25 09:44:34,830 [INFO] _________________________________________________________________
2019-12-25 09:44:34,830 [INFO] dropout_85 (Dropout)         (None, 32)                0         
2019-12-25 09:44:34,830 [INFO] _________________________________________________________________
2019-12-25 09:44:34,830 [INFO] dense_120 (Dense)            (None, 64)                2112      
2019-12-25 09:44:34,830 [INFO] _________________________________________________________________
2019-12-25 09:44:34,830 [INFO] batch_normalization_86 (Batc (None, 64)                256       
2019-12-25 09:44:34,830 [INFO] _________________________________________________________________
2019-12-25 09:44:34,830 [INFO] dropout_86 (Dropout)         (None, 64)                0         
2019-12-25 09:44:34,830 [INFO] _________________________________________________________________
2019-12-25 09:44:34,831 [INFO] dense_121 (Dense)            (None, 128)               8320      
2019-12-25 09:44:34,831 [INFO] _________________________________________________________________
2019-12-25 09:44:34,831 [INFO] batch_normalization_87 (Batc (None, 128)               512       
2019-12-25 09:44:34,831 [INFO] _________________________________________________________________
2019-12-25 09:44:34,831 [INFO] dropout_87 (Dropout)         (None, 128)               0         
2019-12-25 09:44:34,831 [INFO] _________________________________________________________________
2019-12-25 09:44:34,831 [INFO] dense_122 (Dense)            (None, 123)               15867     
2019-12-25 09:44:34,831 [INFO] =================================================================
2019-12-25 09:44:34,832 [INFO] Total params: 54,171
2019-12-25 09:44:34,832 [INFO] Trainable params: 53,339
2019-12-25 09:44:34,832 [INFO] Non-trainable params: 832
2019-12-25 09:44:34,832 [INFO] _________________________________________________________________
2019-12-25 09:44:34,984 [INFO] _________________________________________________________________
2019-12-25 09:44:34,984 [INFO] Layer (type)                 Output Shape              Param #   
2019-12-25 09:44:34,984 [INFO] =================================================================
2019-12-25 09:44:34,984 [INFO] dense_123 (Dense)            (None, 64)                2112      
2019-12-25 09:44:34,984 [INFO] _________________________________________________________________
2019-12-25 09:44:34,984 [INFO] batch_normalization_88 (Batc (None, 64)                256       
2019-12-25 09:44:34,984 [INFO] _________________________________________________________________
2019-12-25 09:44:34,984 [INFO] dropout_88 (Dropout)         (None, 64)                0         
2019-12-25 09:44:34,984 [INFO] _________________________________________________________________
2019-12-25 09:44:34,985 [INFO] dense_124 (Dense)            (None, 5)                 325       
2019-12-25 09:44:34,985 [INFO] =================================================================
2019-12-25 09:44:34,985 [INFO] Total params: 2,693
2019-12-25 09:44:34,985 [INFO] Trainable params: 2,565
2019-12-25 09:44:34,985 [INFO] Non-trainable params: 128
2019-12-25 09:44:34,985 [INFO] _________________________________________________________________
2019-12-25 09:44:34,985 [INFO] Training model
…
