…
2019-12-20 17:37:54,678 [INFO] Reading complete. time_to_read=0.00 seconds
2019-12-20 17:37:54,678 [INFO] Reading HDF dataset ../Datasets/small_datasets/nsl_kdd_five_classes/y_test.h5
2019-12-20 17:37:54,682 [INFO] Reading complete. time_to_read=0.00 seconds
2019-12-20 17:37:54,880 [INFO] Initializing model
2019-12-20 17:37:55,128 [INFO] _________________________________________________________________
2019-12-20 17:37:55,128 [INFO] Layer (type)                 Output Shape              Param #   
2019-12-20 17:37:55,128 [INFO] =================================================================
2019-12-20 17:37:55,128 [INFO] dense_9 (Dense)              (None, 64)                7872      
2019-12-20 17:37:55,128 [INFO] _________________________________________________________________
2019-12-20 17:37:55,128 [INFO] batch_normalization_7 (Batch (None, 64)                256       
2019-12-20 17:37:55,129 [INFO] _________________________________________________________________
2019-12-20 17:37:55,129 [INFO] dropout_7 (Dropout)          (None, 64)                0         
2019-12-20 17:37:55,129 [INFO] _________________________________________________________________
2019-12-20 17:37:55,129 [INFO] dense_10 (Dense)             (None, 32)                2080      
2019-12-20 17:37:55,129 [INFO] _________________________________________________________________
2019-12-20 17:37:55,129 [INFO] batch_normalization_8 (Batch (None, 32)                128       
2019-12-20 17:37:55,129 [INFO] _________________________________________________________________
2019-12-20 17:37:55,129 [INFO] dropout_8 (Dropout)          (None, 32)                0         
2019-12-20 17:37:55,129 [INFO] _________________________________________________________________
2019-12-20 17:37:55,129 [INFO] dense_11 (Dense)             (None, 66)                2178      
2019-12-20 17:37:55,129 [INFO] _________________________________________________________________
2019-12-20 17:37:55,129 [INFO] batch_normalization_9 (Batch (None, 66)                264       
2019-12-20 17:37:55,129 [INFO] _________________________________________________________________
2019-12-20 17:37:55,130 [INFO] dropout_9 (Dropout)          (None, 66)                0         
2019-12-20 17:37:55,130 [INFO] _________________________________________________________________
2019-12-20 17:37:55,130 [INFO] dense_12 (Dense)             (None, 5)                 335       
2019-12-20 17:37:55,130 [INFO] =================================================================
2019-12-20 17:37:55,130 [INFO] Total params: 13,113
2019-12-20 17:37:55,130 [INFO] Trainable params: 12,789
2019-12-20 17:37:55,130 [INFO] Non-trainable params: 324
2019-12-20 17:37:55,130 [INFO] _________________________________________________________________
2019-12-20 17:37:55,130 [INFO] Training model
…
